lstm_ts.pth (torch, 150463 bytes, 10 tensors)

encoder.lstm.weight_ih_l0 f4 [256, 5]
-0.05829528 0.03619986 0.0006106493 0.007745619 -0.012368061 -0.09178336 -0.054584518 0.046304468
0.017817749 0.0013496218 0.08139599 -0.11959578 0.009006955 -0.094924435 -0.08903155 0.105428144
-0.05788295 -0.057429377 -0.072733 0.06319096 0.037928615 0.028850583 0.0020112363 0.03324848
0.067842014 -0.02191714 0.0042947046 -0.089441165 -0.082222484 -0.028242713 0.01846896 -0.024857754
-0.029147118 0.053284388 -0.0703156 -0.13078202 0.029281786 0.089376874 0.06871209 -0.10865725
0.087877125 0.13320209 0.089116715 0.06097156 -0.084645316 0.0011024545 0.03333175 -0.00036063616
-0.008351125 0.064340435 -0.061245758 -0.07101162 0.026948882 0.12422693 0.003952072 0.12415884
0.004865864 0.11329685 0.03590049 -0.06553007 0.014944418 0.071856365 -0.058985464 0.13684753
0.092200994 -0.014327201 0.089624524 0.05657682 0.028050587 -0.062786765 0.10211837 -0.052507058
0.07163678 -0.08573035 0.06311718 -0.06194365 0.008284415 0.036045875 0.0796141 -0.07613167
-0.11506243 -0.039290633 0.10368126 -0.009447433 -0.06847582 0.015542429 0.021653833 0.07925248
0.043100055 0.10211247 -0.0016978869 0.048245702 0.071689054 0.024250703 0.07845492 0.14227419
0.14433287 -0.02363167 -0.008016973 -0.08515322 0.14765961 -0.010483442 0.11760441 -0.04216938
0.014808951 -0.024808053 -0.021178769 0.05470811 0.056660775 -0.08833203 -0.045787368 -0.007125142
0.0803772 -0.088358864 0.0035879076 -0.038473774 -0.052359503 0.05687131 0.10053317 0.106291324
-0.06804261 -0.07687438 0.02744327 0.113994375 0.043489203 0.11131441 0.15166028 0.061968043
-0.01163437 -0.06357934 -0.0611064 0.10452814 0.08673141 -0.089641094 0.06827944 -0.08986992
-0.0750162 -0.064108364 -0.06843089 0.021284442 -0.07772921 0.023341373 0.09379863 0.042960845
0.036453612 0.04055226 0.12797484 -0.05445831 0.07109053 0.12183756 -0.05811226 -0.0031435648
-0.12775092 0.008246683 0.031511035 0.10577237 0.11051831 -0.03821636 0.10451822 0.073413625
-0.017969076 0.009581538 0.06460346 0.064209685 0.06803059 0.14017919 -0.045619108 0.1118493
-0.091417894 -0.036133714 0.050086617 0.08894669 -0.011076927 0.006950599 -0.08784712 -0.04878037
0.02952964 -0.0840428 0.12634134 -0.090337716 -0.07807059 -0.09705153 0.08407592 0.005272083
-0.03290953 0.13898732 -0.026818614 0.059631445 0.05656925 0.10916483 -0.04844494 -0.04794497
-0.06985347 0.023085322 -0.09069933 -0.0050041345 0.12141596 -0.09138759 0.013701071 0.113686465
0.03958549 0.02598359 0.00630897 -0.10195002 -0.096649915 0.08016118 0.06535973 -0.053818803
0.0404727 0.06848785 -0.018342774 0.09032775 -0.00798763 0.0922507 0.031311918 0.092232294
0.03504082 0.0407832 -0.054847952 0.023406766 -0.12846908 -0.07237024 -0.06593862 -0.06444655
0.06451922 0.01271955 0.09924855 0.10014255 -0.088832505 0.09274049 0.011013969 -0.015724551
-0.014514709 -0.072289266 -0.021359676 0.07863246 -0.025292644 0.017652206 0.04725483 -0.09359806
0.015071659 0.10284051 0.06433362 0.0652925 -0.09208968 0.005283584 -0.047405954 0.08433422
-0.002622387 0.08782207 0.056386974 -0.019913591 0.1533433 0.09657541 0.11000169 -0.064941615
00000000: 08c7 6ebd 4e46 143d fb13 203a f6ce fd3b
00000010: 68a3 4abc eaf8 bbbd 0494 5fbd c1a9 3d3d
00000020: 87f6 913c cbe5 b03a f1b2 a63d a2ee f4bd
00000030: e891 133c be67 c2bd 2c56 b6bd b6ea d73d
00000040: ac16 6dbd 113b 6bbd 0af5 94bd 436a 813d
00000050: 095b 1b3d 0f58 ec3c f2ce 033b 8f2f 083d
00000060: c1f0 8a3d 938b b3bc 98ba 8c3b ee2c b7bd
00000070: 4364 a8bd 435d e7bc 374c 973c 7da2 cbbc
00000080: f0c5 eebc bb40 5a3d a001 90bd b9eb 05be
00000090: 5be0 ef3c 390b b73d edb8 8c3d b187 debd
000000a0: ecf8 b33d 2166 083e d382 b63d 51bd 793d
000000b0: 865a adbd 3c80 903a e086 083d c413 bdb9
000000c0: 28d3 08bc ebc4 833d d5dc 7abd 8a6e 91bd
000000d0: e7c3 dc3c b06a fe3d 6280 813b fd46 fe3d
000000e0: d371 9f3b 2e08 e83d 640c 133d a134 86bd
000000f0: 6fd9 743c 6e29 933d be9a 71bd c221 0c3e
00000100: e0d3 bc3d a3bc 6abc 108d b73d 18bd 673d
00000110: 58ca e53c 5996 80bd 7023 d13d a411 57bd
00000120: 4eb6 923d 6593 afbd 9443 813d a0b8 7dbd
00000130: 5bbb 073c d7a4 133d b80c a33d ecea 9bbd
00000140: daa5 ebbd 37ef 20bd d756 d43d 68c9 1abc
00000150: 0d3d 8cbd aca5 7e3c 6163 b13c 204f a23d
00000160: af89 303d 5820 d13d a18b deba 499d 453d
00000170: b6d1 923d 69a9 c63c f9ac a03d 53b0 113e
00000180: ffcb 133e 3497 c1bc 9f59 03bc d064 aebd
00000190: 1534 173e bec2 2bbc 95da f03d cdb9 2cbd
000001a0: 3ea1 723c 423a cbbc 197f adbc 9c15 603d
000001b0: 2115 683d 6ce7 b4bd 898b 3bbd 067a e9bb
000001c0: cd9c a43d 7ef5 b4bd 1a23 6b3b ad96 1dbd
000001d0: eb76 56bd e4f1 683d 56e4 cd3d 44af d93d
000001e0: ed59 8bbd 5170 9dbd b5d0 e03c e275 e93d
000001f0: bc21 323d cff8 e33d d54c 1b3e 34d2 7d3d
00000200: 169e 3ebc e335 82bd b44a 7abd d912 d63d
00000210: 3da0 b13d c095 b7bd 17d6 8b3d b80d b8bd
00000220: 18a2 99bd 3f4b 83bd 7f25 8cbd b65c ae3c
00000230: 7e30 9fbd 6836 bf3c 7f19 c03d b6f7 2f3d
00000240: 6250 153d 201a 263d d60b 033e ad0f 5fbd
00000250: e997 913d f885 f93d 1f07 6ebd 4404 4ebb
00000260: 23d1 02be 181d 073c b711 013d 2f9f d83d
00000270: 6c57 e23d c288 1cbd a60d d63d e259 963d
00000280: e233 93bc e2fb 1c3c d24e 843d 5e80 833d
00000290: 9f53 8b3d 228b 0f3e 1adb 3abd 3f11 e53d
000002a0: 4e39 bbbd f200 14bd a027 4d3d af29 b63d
000002b0: 007c 35bc dac1 e33b 31e9 b3bd edcd 47bd
000002c0: 25e8 f13c a21e acbd a05f 013e fb02 b9bd
000002d0: 79e3 9fbd f4c2 c6bd ff2f ac3d 70c1 ac3b
000002e0: 25cc 06bd b152 0e3e b6b2 dbbc 1a40 743d
000002f0: 28b5 673d cf91 df3d 346e 46bd f261 44bd
00000300: 560f 8fbd 6e1d bd3c 92c0 b9bd b9f9 a3bb
00000310: eea8 f83d 6b29 bbbd 757a 603c 73d4 e83d
00000320: 6524 223d 8adb d43c 7abb ce3b 2ccb d0bd
00000330: 64f0 c5bd 8b2b a43d 52db 853d 1b71 5cbd
00000340: b4c6 253d 5c43 8c3d 9643 96bc c1fd b83d
00000350: 8cde 02bc efed bc3d ed40 003d 49e4 bc3d
00000360: f686 0f3d 490c 273d 3fa8 60bd 8cbf bf3c
00000370: 668d 03be d936 94bd d40a 87bd 8efc 83bd
00000380: a722 843d a965 503c d342 cb3d 8a17 cd3d
00000390: d1ed b5bd baee bd3d ef73 343c c6d0 80bc
000003a0: 1acf 6dbc 650c 94bd 7dfa aebc 0e0a a13d
000003b0: 8532 cfbc 5c9b 903c 488e 413d 57b0 bfbd
000003c0: 1fef 763c 0c9e d23d 58c1 833d 13b8 853d
000003d0: 8499 bcbd ea21 ad3b bf2c 42bd 6bb7 ac3d
000003e0: 5adc 2bbb 0fdc b33d 07f6 663d d421 a3bc
000003f0: 0706 1d3e 54c9 c53d 9148 e13d 1c00 85bd

encoder.lstm.weight_hh_l0 f4 [256, 64]
0.016207095 -0.023433112 0.121825084 -0.07417854 -0.05650149 -0.010197415 0.045371577 0.09763338
0.09647656 0.13893119 -0.13493891 -0.07645091 0.059641708 -0.042253386 0.043106616 0.02476703
0.013342702 0.00234843 0.08824994 -0.054821942 0.14159846 0.09738719 -0.12133522 0.002695389
0.1160993 0.09359543 0.041557755 -0.04134193 0.014633521 -0.12512392 0.04585525 -0.036009297
0.071004815 -0.029024106 -0.08752954 0.028474806 0.110637344 0.13067986 -0.084491454 0.048552573
0.067240365 0.04789917 0.05967389 0.005261285 0.012581906 -0.12213142 -0.06866579 0.017005038
-0.074555926 -0.029021915 0.02920882 -0.018985583 0.024482295 -0.027179109 0.013695677 0.04239075
0.09249614 -0.038476743 -0.05544221 0.002641693 0.02148959 0.08395243 0.1485701 0.0519713
-0.06969862 -0.07551117 -0.096554264 -0.054164212 -0.07920203 0.11442031 0.06282364 -0.15379992
0.15536892 0.12015664 0.013019408 0.05492997 -0.07913343 -0.011318344 0.012967242 0.039946754
0.05595197 0.015956124 0.118435234 0.14024559 0.07697266 -0.12825805 0.012825979 -0.027620021
-0.07941265 -0.06396295 0.05183049 -0.12667322 0.09920867 0.07095456 0.06322573 -0.015967343
-0.0469807 0.04953421 0.09975924 0.11099758 0.14953986 0.11102056 0.14119866 -0.00615641
0.045782898 -0.13752645 -0.06057698 -0.036913723 0.030736348 0.09050825 0.018992163 -0.017951252
-0.05104252 -0.08639118 0.034880657 0.024952188 0.08700504 0.04055538 0.025632853 0.012704372
0.053792525 -0.020491267 0.10956922 -0.07838577 -0.016180644 0.07557533 0.0037895327 -0.02117488
-0.070549116 0.052596815 0.030004006 -0.015519125 0.0037804104 -0.11028383 -0.11702276 -0.0671616
-0.09170175 0.08165337 -0.08837731 -0.03423132 0.042835988 -0.044542667 0.062036753 0.025654312
0.019035203 -0.08758437 0.13243824 -0.015662372 -0.08801285 -0.05548451 -0.07849355 -0.033956684
-0.07379624 -0.04402968 -0.014040518 -0.11747611 0.04605796 0.0038148544 0.12115268 -0.08124416
0.042195566 0.08616131 -0.06071889 0.09480566 0.04317434 -0.055194635 -0.08294186 -0.13847555
0.06242634 0.09204038 -0.09093469 0.028030138 0.03893676 0.020878734 0.08662082 -0.017110495
-0.13963573 -0.052324854 0.040520795 -0.00010701845 -0.12591128 -0.0890376 -0.021287847 -0.010670071
0.12967484 0.012318557 0.06918991 -0.071868084 -0.026694901 -0.10965754 0.07644548 0.100812875
-0.051048048 0.05185206 -0.11239065 -0.09381829 -0.031650368 0.021281714 -0.14407296 -0.091030635
0.1353553 0.08362989 -0.02288693 -0.06305591 0.03956513 -0.138196 -0.043453574 -0.14971735
-0.055854797 0.091927744 -0.046452224 0.10070075 -0.059436455 0.11165333 -0.02102583 -0.1084521
-0.078322135 -0.048459426 -0.050383475 -0.104044534 -0.09988717 -0.10175797 -0.00055537204 0.09257091
-0.03948232 -0.146102 -0.013622635 0.04855776 0.0889792 -0.021014698 0.047598917 0.033253707
-0.05803231 -0.02588069 0.05206998 -0.058624167 -0.002221662 -0.069232166 0.11761888 -0.09305375
0.04651962 0.14086728 0.057790678 0.097002834 -0.032667574 -0.08428883 0.0068596243 0.122722276
0.03777739 0.113326974 0.06534886 -0.034822237 0.066144854 -0.031566136 -0.04211752 0.017509261
00000000: bec4 843c ccf6 bfbc 6e7f f93d ebea 97bd
00000010: 1b6e 67bd 0f13 27bc 8cd7 393d 02f4 c73d
00000020: 8195 c53d fa43 0e3e 6d2d 0abe 4b92 9cbd
00000030: dd4a 743d e311 2dbd 9090 303d 3ae4 ca3c
00000040: 599b 5a3c 1ee8 193b 62bc b43d f98c 60bd
00000050: 30ff 103e ef72 c73d 9a7e f8bd 20a5 303b
00000060: 78c5 ed3d f6ae bf3d 7738 2a3d 2856 29bd
00000070: 70c1 6f3c 7c20 00be b7d2 3b3d 7c7e 13bd
00000080: f96a 913d f6c3 edbc b042 b3bd ff43 e93c
00000090: d595 e23d f1d0 053e db09 adbd 10df 463d
000000a0: 51b5 893d ec31 443d 9c6c 743d dc66 ac3b
000000b0: 5724 4e3c 0a20 fabd a6a0 8cbd 264e 8b3c
000000c0: c7b0 98bd 5ebf edbc 5647 ef3c a787 9bbc
000000d0: 188f c83c b9a6 debc d563 603c eca1 2d3d
000000e0: 9e6e bd3d ca99 1dbd 5f17 63bd 4120 2d3b
000000f0: f00a b03c 40ef ab3d c322 183e dcdf 543d
00000100: 26be 8ebd 9aa5 9abd 3ebe c5bd 4bdb 5dbd
00000110: ad34 a2bd 3255 ea3d aea9 803d ba7d 1dbe
00000120: 0819 1f3e af14 f63d 5b4f 553c 40fe 603d
00000130: b510 a2bd 9370 39bc 8e74 543c 359f 233d
00000140: e52d 653d 6bb6 823c 2c8e f23d 8a9c 0f3e
00000150: d8a3 9d3d 1456 03be 0e24 523c 6243 e2bc
00000160: 19a3 a2bd 02ff 82bd 354c 543d a0b6 01be
00000170: ea2d cb3d a050 913d 7e7c 813d f2cd 82bc
00000180: d66e 40bd 62e4 4a3d 934e cc3d b352 e33d
00000190: fa20 193e bf5e e33d 6296 103e b6bb c9bb
000001a0: d986 3b3d bcd3 0cbe 911f 78bd d832 17bd
000001b0: cbca fb3c 645c b93d 7495 9b3c 810e 93bc
000001c0: f611 51bd dced b0bd 05df 0e3d 8868 cc3c
000001d0: b32f b23d 661d 263d fdfb d13c 0026 503c
000001e0: 8d55 5c3d 4ddd a7bc d465 e03d b888 a0bd
000001f0: 458d 84bc 3dc7 9a3d cf59 783b f176 adbc
00000200: 0e7c 90bd c26f 573d f6ca f53c ee43 7ebc
00000210: c3c0 773b 7ddc e1bd a1a9 efbd 058c 89bd
00000220: 21ce bbbd e239 a73d 2aff b4bd 2436 0cbd
00000230: ca74 2f3d 5f72 36bd 401a 7e3d fe28 d23c
00000240: b7ef 9b3c 6f5f b3bd e49d 073e 604e 80bc
00000250: 1540 b4bd ba43 63bd 3ac1 a0bd 2a16 0bbd
00000260: 7c22 97bd 7758 34bd 330a 66bc 5197 f0bd
00000270: 45a7 3c3d a302 7a3b e51e f83d 5763 a6bd
00000280: 42d5 2c3d 5775 b03d 5fb4 78bd 7829 c23d
00000290: 94d7 303d c513 62bd 6cdd a9bd 89cc 0dbe
000002a0: c3b2 7f3d ab7f bc3d f73b babd 769f e53c
000002b0: 277c 1f3d e109 ab3c 4266 b13d 4f2b 8cbc
000002c0: abfc 0ebe 9652 56bd 22f9 253d 186f e0b8
000002d0: e3ee 00be 5859 b6bd da63 aebc 85d1 2ebc
000002e0: 7bc9 043e c6d3 493c 71b3 8d3d 932f 93bd
000002f0: 44af dabc 2294 e0bd 738f 9c3d fb76 ce3d
00000300: c217 51bd d362 543d 122d e6bd ce23 c0bd
00000310: d1a3 01bd fd56 ae3c dd87 13be 456e babd
00000320: 949a 0a3e 2646 ab3d 5f7d bbbc 7523 81bd
00000330: 0c0f 223d 4183 0dbe 60fc 31bd 814f 19be
00000340: 00c8 64bd 9d44 bc3d b044 3ebd 323c ce3d
00000350: a473 73bd 80aa e43d 5d3e acbc 221c debd
00000360: 5b67 a0bd 647d 46bd e75e 4ebd 4d15 d5bd
00000370: a591 ccbd 7c66 d0bd 6396 11ba d195 bd3d
00000380: 37b8 21bd c39b 15be 7931 5fbc 80e4 463d
00000390: ba3a b63d 0427 acbc 15f7 423d 0a35 083d
000003a0: 4ab3 6dbd be03 d4bc 5547 553d e51f 70bd
000003b0: 4e99 11bb 98c9 8dbd 2be2 f03d f792 bebd
000003c0: 5b8b 3e3d 833f 103e ebb5 6c3d 6ca9 c63d
000003d0: 6fce 05bd 9f9f acbd b3c6 e03b d155 fb3d
000003e0: 77bc 1a3d f917 e83d a0d5 853d c3a1 0ebd
000003f0: f476 873d 7e4b 01bd 6c83 2cbd 956f 8f3c

encoder.lstm.bias_ih_l0 f4 [256]
-0.05610255 0.109860934 0.025246965 0.11525386 -0.044953726 0.13891834 -0.093418024 0.078834765
-0.058294196 0.13780136 -0.082722455 -0.088726975 -0.039859276 0.00815435 -0.043287214 -0.014492772
0.117162086 0.11849532 0.08311276 -0.07991275 0.02750967 0.08003159 0.013224592 0.07148571
0.022371037 0.12825659 -0.035801712 -0.032246567 -0.0062058815 0.11357209 0.13597555 0.066349156
0.11151846 0.08298069 0.053767033 -0.06331619 0.1105297 -0.09496748 -0.025211329 -0.017533924
-0.11793354 0.08637426 0.076214895 -0.035908848 -0.03675628 -0.090722285 -0.086034626 -0.08574556
0.003335943 0.10793267 0.032994565 0.030509358 -0.04467276 0.06642014 -0.031384595 -0.07391496
0.07934941 0.060847547 -0.07312757 0.02518288 0.16622356 0.13530736 -0.10046631 0.022701731
0.04810903 0.06576979 0.100035146 -0.03730824 0.07902486 -0.024750376 0.0117013035 0.038585827
-0.04864406 -0.06804286 0.11407043 0.03787937 0.12747878 0.060358334 -0.03276111 0.05815498
-0.030478533 0.049611557 0.061668396 -0.026320497 0.14196934 -0.052890174 -0.06661255 -0.074201845
-0.13886958 0.06765277 0.14611302 -0.021268174 -0.08116007 -0.061963476 0.1388166 -0.101147436
-0.0023665123 -0.030995097 -0.09587716 -0.04644109 0.09017437 -0.08913687 0.12068231 0.07750694
-0.05047921 -0.062900126 -0.026322521 0.086011074 0.05288925 0.083360575 0.025962006 0.08405009
0.015149168 0.02098667 0.019129245 -0.049960293 0.049416102 0.12520511 -0.0013064992 0.06505971
0.011291689 0.05723092 0.032727566 0.12607586 0.09349651 0.085796654 -0.08472185 -0.034622755
-0.044898007 -0.11070877 -0.14331533 -0.023137134 0.08658984 -0.09788411 -0.0021185814 0.032089196
0.07122395 0.050006963 -0.086996816 0.14671296 0.05562597 -0.15039358 0.067984074 -0.08182813
-0.10183193 0.09857813 0.03099014 -0.1177579 0.09179966 0.07320332 -0.04925055 0.02435322
-0.088345535 0.05063036 0.13201098 0.020294828 0.13951851 -0.105655886 0.059768606 0.0996905
-0.056087013 -0.06713365 0.07557278 -0.059231836 0.14268804 0.0015953168 0.059230376 -0.03665258
0.117836416 0.00019603765 -0.09145494 0.056560375 -0.039398942 0.09377094 -0.020816466 -0.09556622
-0.14428012 -0.038856484 0.024105018 0.100506224 0.033172157 0.09624341 0.091322556 0.13364087
0.042144477 0.12957032 0.10371252 -0.06065965 0.014918115 0.0033410012 -0.08687824 0.09270206
-0.08768349 -0.053706557 -0.080788225 0.12906262 0.07727092 -0.0890847 0.14123073 0.13855286
0.12063247 0.08909616 0.048216127 0.06756611 0.09595085 0.0029334382 -0.070701145 0.11671768
0.057942837 -0.049396954 0.01707169 0.060089897 0.059138402 0.03916392 0.01672778 0.008325971
-0.09494995 0.09855966 0.12922318 0.00015985398 0.070238605 -0.064871855 -0.063599534 0.1447081
-0.03084318 0.13284197 -0.041696135 0.066256106 -0.030474115 0.0491097 0.07167865 0.07627979
-0.076157205 -0.057840995 0.09590414 0.12317818 0.016581615 0.06676184 0.1287533 0.15068384
-0.06368382 -0.049216636 0.03452685 -0.10971369 0.010355395 0.1004402 -0.056576945 0.015414517
0.14016253 -0.076218635 0.07958536 0.040985886 0.095359415 0.061321206 -0.001012415 0.015387198
00000000: cacb 65bd c5fe e03d b9d2 ce3c 370a ec3d
00000010: 6621 38bd 9c40 0e3e f351 bfbd 1f74 a13d
00000020: e5c5 6ebd cd1b 0d3e 646a a9bd 7db6 b5bd
00000030: 7b43 23bd d399 053c ef4d 31bd 1773 6dbc
00000040: adf2 ef3d adad f23d 0637 aa3d 4ca9 a3bd
00000050: f65b e13c 9ae7 a33d f6ab 583c 1a67 923d
00000060: 7743 b73c b255 033e d1a4 12bd fa14 04bd
00000070: b55a cbbb 7c98 e83d 2d3d 0b3e 11e2 873d
00000080: ca63 e43d c8f1 a93d d23a 5c3d ebab 81bd
00000090: 655d e23d 4f7e c2bd fd87 cebc 4ea3 8fbc
000000a0: 2487 f1bd fde4 b03d 8e16 9c3d 2815 13bd
000000b0: c18d 16bd 9bcc b9bd ec32 b0bd 5e9b afbd
000000c0: d69f 5a3b ce0b dd3d 4f25 073d c3ee f93c
000000d0: c9fa 36bd 4807 883d 228d 00bd ba60 97bd
000000e0: f281 a23d 473b 793d e8c3 95bd 544c ce3c
000000f0: 8236 2a3e 038e 0a3e 48c1 cdbd fbf8 b93c
00000100: f90d 453d 50b2 863d 3adf cc3d 86d0 18bd
00000110: c9d7 a13d 4dc1 cabc d3b6 3f3c 2c0c 1e3d
00000120: fe3e 47bd 0e5a 8bbd c29d e93d 6627 1b3d
00000130: cc89 023e 4d3a 773d 8430 06bd eb33 6e3d
00000140: 1eae f9bc 7d35 4b3d 0098 7c3d 159e d7bc
00000150: 6960 113e 5ea3 58bd 296c 88bd 23f7 97bd
00000160: d433 0ebe 898d 8a3d a79e 153e 983a aebc
00000170: 4037 a6bd 6acd 7dbd f025 0e3e 6326 cfbd
00000180: 7d17 1bbb 6ee9 fdbc 3f5b c4bd 0339 3ebd
00000190: 57ad b83d 648d b6bd 4928 f73d f5bb 9e3d
000001a0: 4ac3 4ebd c8d1 80bd 54a2 d7bc 9326 b03d
000001b0: 66a2 583d f3b8 aa3d 46ae d43c 7422 ac3d
000001c0: 3734 783c 3dec ab3c efb4 9c3c 2aa3 4cbd
000001d0: 8a68 4a3d c535 003e d73e abba 063e 853d
000001e0: c700 393c f86a 6a3d 570d 063d 081a 013e
000001f0: 197b bf3d 28b6 af3d a682 adbd 97d0 0dbd
00000200: f9e6 37bd 48bb e2bd 41c1 12be 168a bdbc
00000210: 0456 b13d 7777 c8bd e6d7 0abb f66f 033d
00000220: dddd 913d 1ad4 4c3d 632b b2bd ec3b 163e
00000230: 0fd8 633d c600 1abe 3c3b 8b3d 8295 a7bd
00000240: 428d d0bd 55e3 c93d 09df fd3c 0e2b f1bd
00000250: 7601 bc3d 9feb 953d f2ba 49bd 6780 c73c
00000260: 81ee b4bd c861 4f3d e32d 073e 5741 a63c
00000270: f1dd 0e3e 1d62 d8bd edcf 743d 882a cc3d
00000280: 7fbb 65bd 5e7d 89bd e7c5 9a3d 159d 72bd
00000290: d01c 123e f319 d13a 8d9b 723d 0421 16bd
000002a0: 3854 f13d 758f 4d39 ba4c bbbd daab 673d
000002b0: c960 21bd fb0a c03d 4b87 aabc 39b8 c3bd
000002c0: 2bbe 13be fa27 1fbd e377 c53c 35d6 cd3d
000002d0: 87df 073d 441b c53d 5207 bb3d 27d9 083e
000002e0: b09f 2c3d 15ae 043e 3b67 d43d 4176 78bd
000002f0: 1c6b 743c b3f4 5a3b 38ed b1bd 94da bd3d
00000300: 6793 b3bd 68fb 5bbd 4c74 a5bd fe28 043e
00000310: 3740 9e3d 0a72 b6bd ca9e 103e cde0 0d3e
00000320: 280e f73d 0c78 b63d 467e 453d 1a60 8a3d
00000330: e181 c43d ed3e 403b c3cb 90bd ae09 ef3d
00000340: 7855 6d3d 7654 4abd eed9 8b3c d320 763d
00000350: 1c3b 723d 596a 203d b308 893c a769 083c
00000360: 1f75 c2bd a6d9 c93d 1553 043e 7a9e 2739
00000370: 42d9 8f3d 89db 84bd 7940 82bd 5c2e 143e
00000380: d6aa fcbc ba07 083e 91c9 2abd 48b1 873d
00000390: daa4 f9bc 4127 493d 42cc 923d 9438 9c3d
000003a0: 4ff8 9bbd aeea 6cbd 6469 c43d d744 fc3d
000003b0: 2bd6 873c 6eba 883d e8d7 033e dd4c 1a3e
000003c0: aa6c 82bd 6297 49bd 076c 0d3d 92b1 e0bd
000003d0: ada9 293c 97b3 cd3d 3abd 67bd 2c8d 7c3c
000003e0: c486 0f3e 8418 9cbd a6fd a23d d1e0 273d
000003f0: cc4b c33d f22b 7b3d 03b3 84ba 961a 7c3c

encoder.lstm.bias_hh_l0 f4 [256]
0.11747872 0.028814156 0.12340125 0.09676126 0.073157385 0.106045686 0.07170403 0.091608286
-0.022640288 0.092325374 -0.042672478 0.05914534 0.10464212 0.10876571 -0.012878743 -0.04372084
-0.08226108 -0.0720291 0.08248359 -0.0027181935 0.020786997 0.08874241 0.028118435 -0.05644325
0.08593817 -0.058604993 0.1336758 -0.08090522 0.0743226 0.047197375 0.13927104 0.109777346
0.12556705 0.08350433 0.02347983 0.1105682 -0.065636225 0.02380503 0.009536344 0.10095059
-0.050676215 -0.018760564 0.055924237 0.011237453 0.013504912 0.038812112 -0.0044226698 0.11741151
0.14552054 0.04502288 -0.090689525 0.007383459 0.045466926 0.03398714 0.059694603 0.14120327
0.063231856 -0.05520499 -0.033764 0.10601865 -0.005396237 0.14200403 -0.009321663 0.14231476
0.11219531 0.07507043 0.0011833129 0.087982304 -0.112365484 0.040008526 -0.030607494 -0.04171821
0.1261374 0.14960623 0.030801212 -0.07789132 -0.032859135 0.054660343 -0.037903078 0.002147197
-0.11272512 -0.091910094 0.121264674 0.14419284 0.025468003 0.09155982 -0.042945825 0.14137407
0.07686081 0.037200745 -0.08756022 -0.079375155 -0.09964937 0.12743394 0.053877294 -0.05231258
0.10930765 -0.0067158784 0.11868697 0.04419137 0.0014422567 0.117922306 0.06830855 0.025496775
0.0839758 -0.07804696 0.14505379 -0.011647778 -0.048150048 0.08399408 -0.021195576 0.055112675
0.012197834 -0.004030874 0.015292106 0.02384502 0.12627356 -0.10111407 0.039543826 -0.05001874
0.021351384 -0.060069293 0.004127067 0.06095961 -0.018543663 -0.092110515 -0.05758927 -0.06178985
0.055202376 0.071766615 0.03819452 -0.14839514 -0.1379022 -0.112747066 -0.09258729 -0.09846353
-0.08807454 0.12100494 -0.061978567 -0.03744084 -0.02334011 -0.09534495 0.011969925 0.041933026
0.001045901 0.02576052 0.091929056 0.09097663 -0.0930393 0.039560508 -0.08547996 0.0514437
-0.00858011 -0.124674745 0.10464783 -0.03968194 -0.023672929 -0.09192211 -0.054049186 0.074166685
0.00038743048 -0.10949101 0.079646535 0.13396312 0.023425221 0.020154731 0.10206386 -0.0018477663
-0.04843875 -0.074234575 -0.118858375 0.08405961 -0.07893646 0.1265832 0.09971984 -0.07311112
-0.11060396 0.11138562 -0.09136704 0.0076755797 -0.1032649 0.098238915 0.10532628 0.14459655
0.07981881 0.14776154 -0.0406065 0.13430804 -0.14777255 -0.07068217 -0.0034478987 -0.0562473
-0.06884842 -0.0015250072 -0.03874652 0.019965323 -0.012479761 0.15262964 -0.042162213 0.13092746
-0.089511424 0.002858211 -0.012623749 -0.08168569 0.10031172 0.07038959 0.108802594 -0.04118496
-0.043851964 -0.060401425 0.12939748 0.08489933 0.15662 -0.122960106 -0.03154214 0.08431
-0.059341848 -0.021334823 -0.06659685 -0.05222453 0.013103961 0.123798676 -0.068658 -0.021153437
0.084316626 0.060865104 -0.05301462 -0.011659241 -0.028006982 -0.04091959 0.08540138 -0.08336868
0.056467637 0.07650738 0.08684354 0.028154615 0.047787268 0.107348844 0.08028953 -0.009879473
0.08291112 -0.044698127 -0.005043584 -0.09440606 0.054775283 -0.042203836 -0.053024456 -0.036908753
0.098416805 0.05014067 0.06535657 0.07685767 0.03181613 0.10937 0.014183947 -0.0455871
00000000: af98 f03d aa0b ec3c cbb9 fc3d c42a c63d
00000010: 8ad3 953d 7b2e d93d 90d9 923d 209d bb3d
00000020: 2078 b9bc 1615 bd3d 56c9 2ebd 6242 723d
00000030: 9c4e d63d 8ec0 de3d 5d01 53bc a014 33bd
00000040: 7f78 a8bd fe83 93bd 28ed a83d b823 32bb
00000050: 7e49 aa3c 95be b53d a258 e63c 0a31 67bd
00000060: 5a00 b03d ca0b 70bd 4fe2 083e a3b1 a5bd
00000070: 7336 983d 0952 413d 119d 0e3e f2d2 e03d
00000080: a694 003e 5104 ab3d c658 c03c 9571 e23d
00000090: 496c 86bd c402 c33c 533e 1c3c 2fbf ce3d
000000a0: dd91 4fbd c1af 99bc d010 653d 4b1d 383c
000000b0: b543 5d3c 73f9 1e3d 0bec 90bb 7275 f03d
000000c0: 5603 153e e969 383d 6ebb b9bd f1f0 f13b
000000d0: 873b 3a3d 1936 0b3d 5482 743d 9797 103e
000000e0: b47f 813d a11e 62bd 1f4c 0abd 4e20 d93d
000000f0: ebd2 b0bb 8169 113e e3b9 18bc f6ba 113e
00000100: a8c6 e53d 87be 993d 6419 9b3a 1130 b43d
00000110: e01f e6bd fbdf 233d 91bc fabc b7e0 2abd
00000120: 2a2a 013e 6032 193e d352 fc3c 7c85 9fbd
00000130: 4d97 06bd 86e3 5f3d 4240 1bbd fdb7 0c3b
00000140: 6ddc e6bd 5c3b bcbd 9d59 f83d 4aa7 133e
00000150: 46a2 d03c b783 bb3d f6e7 2fbd 5dc4 103e
00000160: 3369 9d3d cf5f 183d c652 b3bd 718f a2bd
00000170: f814 ccbd 0b7e 023e 70ae 5c3d b745 56bd
00000180: b0dc df3d df10 dcbb 2712 f33d 0302 353d
00000190: 1b0a bd3a 4081 f13d 5ae5 8b3d 9dde d03c
000001a0: 81fb ab3d 16d7 9fbd fb88 143e 52d6 3ebc
000001b0: fc38 45bd 1705 ac3d 58a2 adbc d4bd 613d
000001c0: 6dd9 473c 6c15 84bb be8b 7a3c a256 c33c
000001d0: db4d 013e e514 cfbd b5f8 213d 73e0 4cbd
000001e0: 19e9 ae3c 380b 76bd 593c 873b c9b0 793d
000001f0: e1e8 97bc 70a4 bcbd bae2 6bbd 5b17 7dbd
00000200: e31b 623d 60fa 923d db71 1c3d e5f4 17be
00000210: 3c36 0dbe efe7 e6bd 689e bdbd 3fa7 c9bd
00000220: 6d60 b4bd 70d1 f73d 3ddd 7dbd 915b 19bd
00000230: c233 bfbc 3744 c3bd 811d 443c f7c1 2b3d
00000240: 9d16 893a ba07 d33c 4d45 bc3d f551 ba3d
00000250: 638b bebd 330a 223d 1e10 afbd a1b6 523d
00000260: 9793 0cbc 7955 ffbd 9a51 d63d 8889 22bd
00000270: bbed c1bc a941 bcbd ae62 5dbd b4e4 973d
00000280: 0a20 cb39 d33c e0bd b91d a33d a12d 093e
00000290: 40e6 bf3c 891b a53c db06 d13d c030 f2ba
000002a0: b667 46bd 4c08 98bd 056c f3bd 7227 ac3d
000002b0: 70a9 a1bd 079f 013e ea39 cc3d 48bb 95bd
000002c0: 5484 e2bd 251e e43d a51e bbbd 6e83 fb3b
000002d0: 8c7c d3bd 7c31 c93d 4eb5 d73d 1e11 143e
000002e0: 0b78 a33d cd4e 173e 0053 26bd 0c88 093e
000002f0: b051 17be d0c1 90bd 24f6 61bb 9263 66bd
00000300: 6700 8dbd c0e2 c7ba acb4 1ebd 518e a33c
00000310: e977 4cbc f24a 1c3e 49b2 2cbd d911 063e
00000320: c451 b7bd d350 3b3b d7d3 4ebc d44a a7bd
00000330: 3b70 cd3d 6b28 903d e5d3 de3d 90b1 28bd
00000340: 1e9e 33bd 7c67 77bd c680 043e b3df ad3d
00000350: fe60 203e 82d2 fbbd 5532 01bd b9aa ac3d
00000360: 7010 73bd 5ec6 aebc ee63 88bd 64e9 55bd
00000370: ffb1 563c 298a fd3d 919c 8cbd f949 adbc
00000380: 32ae ac3d b04d 793d dc25 59bd 6706 3fbc
00000390: e66e e5bc 4d9b 27bd ebe6 ae3d 33bd aabd
000003a0: 9c4a 673d e7af 9c3d 07db b13d 82a4 e63c
000003b0: 95bc 433d b6d9 db3d d66e a43d 83dd 21bc
000003c0: 4ecd a93d 6215 37bd a644 a5bb f757 c1bd
000003d0: 0c5c 603d eedd 2cbd 2c30 59bd a22d 17bd
000003e0: c08e c93d 4e60 4d3d aad9 853d 8e67 9d3d
000003f0: a151 023d 61fd df3d c963 683c 8ab9 3abd

decoder.lstm.weight_ih_l0 f4 [256, 5]
0.057541355 -0.0424437 -0.08640827 0.12061846 -0.039259925 0.1298207 0.06961806 -0.016334604
-0.04829089 0.023070997 -0.036420416 0.0013348539 -0.075152546 0.048306752 0.10164849 -0.018220255
0.0035794685 0.092719495 0.06826768 0.079351604 0.060089488 -0.064393625 -0.10509275 -0.110281564
-0.14151902 -0.07276511 -0.15662345 -0.14390191 -0.026485845 -0.07202794 -0.09381473 0.055278882
-0.083476044 -0.0062472094 0.003069351 -0.011070288 -0.0041489103 0.114427626 -0.07249687 -0.0966541
-0.11722339 0.07095526 0.06828915 -0.040705197 -0.10029375 -0.047420077 -0.041642897 -0.13605751
-0.05487813 -0.015908558 -0.01445919 0.08910096 0.059163246 -0.10799707 -0.03988568 -0.13914093
-0.1037426 0.075222686 0.09248247 -0.07904566 -0.06894538 0.0119032115 0.036605358 -0.048721865
-0.07375158 0.09896019 0.094130725 0.008919239 0.12296969 0.11346017 -0.09677479 0.0023983265
-0.0020713399 -0.11370211 -0.046990592 0.14720447 -0.0084137395 0.10578849 0.086171575 0.10061259
-0.09510848 -0.1394217 -0.13234334 -0.16347991 -0.15174901 -0.016813241 -0.09109719 0.007690406
0.003322906 -0.04136815 0.101888455 0.024559023 -0.096824504 0.01996359 0.11309959 0.14035012
0.07539196 -0.006478292 -0.0447866 -0.017576965 0.024064109 -0.07277048 -0.04104031 0.037712127
-0.08766193 -0.0009039823 -0.13661143 0.075315535 -0.07986734 -0.11864817 0.09957368 0.028263424
-0.09994176 0.020626679 -0.097355604 -0.12522168 0.0015042472 -0.099115275 -0.09534037 -0.10795392
-0.08850134 -0.049269564 0.090248406 -0.025836887 0.047079235 0.001992599 -0.07727176 -0.018749867
-0.01586253 -0.10474948 0.045833927 -0.082329 0.053864818 0.025130942 0.14379416 -0.14996462
0.041334566 -0.12646912 0.021647029 0.028368674 0.021658214 -0.012538669 0.0598602 -0.092381485
0.12957142 0.020588972 0.0041490193 -0.0751313 -0.026354712 0.026144145 -0.0032396624 -0.04927353
-0.014143208 -0.005058587 -0.13284595 -0.105890766 0.07795452 -0.087173015 -0.05506795 0.02696569
-0.0035056577 0.13187392 0.028732182 0.12924069 0.070940405 -0.092176475 0.11687305 -0.021432651
-0.03150601 -0.08670788 0.061815985 -0.09742475 0.12916121 -0.080825776 0.024339708 -0.09210298
0.098465726 -0.08374941 0.021590905 -0.024665453 0.06949843 0.049394898 0.1073001 -0.06968309
-0.13260263 -0.006830821 -0.09910307 -0.006506809 0.1413995 0.114243194 -0.078342974 0.0377176
-0.03566415 -0.044815257 0.02953914 -0.011191688 -0.05379751 0.0017425353 0.08827255 -0.026645595
-0.0610438 0.0627536 -0.035674263 0.1279597 0.10348985 0.03205582 -0.0041864417 0.0466998
0.1443781 0.10596958 0.03371986 -0.10265143 0.10639505 -0.033297315 0.1281382 -0.011781581
-0.025445182 0.03395592 -0.06900276 -0.07008788 -0.09196056 -0.024336496 -0.1561516 -0.015248509
-0.10322478 -0.1039598 -0.09623268 0.069538064 0.07628316 0.0080679925 0.037541334 0.102051325
0.06760052 0.12122682 0.15013732 0.07269237 -0.06677305 0.012772963 -0.05248703 -0.034147173
-0.07488595 0.074257165 0.011709854 0.053363055 0.00730522 0.1097196 -0.013581129 0.1448774
-0.021158466 0.098359704 -0.049421918 0.071092255 0.08989446 -0.10218996 0.014084584 -0.033262406
00000000: 7cb0 6b3d 72d9 2dbd d2f6 b0bd d006 f73d
00000010: 04cf 20bd b8ef 043e ea93 8e3d 26d0 85bc
00000020: abcc 45bd 63ff bc3c 932d 15bd 44f6 ae3a
00000030: 94e9 99bd 4ddd 453d 152d d03d a542 95bc
00000040: 8495 6a3b b8e3 bd3d edcf 8b3d 1883 a23d
00000050: 6520 763d cee0 83bd de3a d7bd 4ddb e1bd
00000060: 5dea 10be e005 95bd e661 20be 065b 13be
00000070: d8f8 d8bc 6283 93bd f021 c0bd 1c6c 623d
00000080: 7df5 aabd 64b5 ccbb 2a27 493b 2760 35bc
00000090: 95f3 87bb 0859 ea3d 3d79 94bd 96f2 c5bd
000000a0: d112 f0bd fe50 913d 2fdb 8b3d 7eba 26bd
000000b0: cf66 cdbd 8e3b 42bd be91 2abd a952 0bbe
000000c0: e4c7 60bd aa52 82bc 3de6 6cbc 907a b63d
000000d0: 2955 723d 912d ddbd 2b5f 23bd f67a 0ebe
000000e0: 0077 d4bd 5a0e 9a3d 7367 bd3d b1e2 a1bd
000000f0: 3c33 8dbd b005 433c 80ef 153d 9490 47bd
00000100: 120b 97bd a4ab ca3d 9cc7 c03d 0022 123c
00000110: 88d7 fb3d ce5d e83d dc31 c6bd 3e2d 1d3b
00000120: 51bf 07bb a7dc e8bd 3579 40bd c5bc 163e
00000130: c8d9 09bc a3a7 d83d b97a b03d f90d ce3d
00000140: 3cc8 c2bd 90c4 0ebe 0385 07be 4767 27be
00000150: 1864 1bbe ecbb 89bc 2a91 babd cdff fb3b
00000160: 1dc5 593b a671 29bd e5aa d03d 0130 c93c
00000170: ed4b c6bd af8a a33c c2a0 e73d f1b7 0f3e
00000180: 1a67 9a3d da47 d4bb 2772 37bd 91fd 8fbc
00000190: 1822 c53c b008 95bd e219 28bd 0878 1a3d
000001a0: 1988 b3bd 3af9 6cba dee3 0bbe 083f 9a3d
000001b0: 7d91 a3bd d0fd f2bd 49ed cb3d b288 e73c
000001c0: 44ae ccbd 48f9 a83c 6062 c7bd 1d3a 00be
000001d0: 292a c53a f3fc cabd d041 c3bd f216 ddbd
000001e0: 3140 b5bd e2ce 49bd 28d4 b83d e1a7 d3bc
000001f0: 28d6 403d 4496 023b a840 9ebd 5299 99bc
00000200: 23f2 81bc e586 d6bd 5bbc 3b3d 1b9c a8bd
00000210: 5ba1 5c3d 68df cd3c c73e 133e 5390 19be
00000220: 6f4e 293d 1f81 01be 1c55 b13c 6c65 e83c
00000230: 916c b13c fd6e 4dbc f82f 753d 8132 bdbd
00000240: 5fae 043e 34aa a83c 7ff4 873b 70de 99bd
00000250: d6e5 d7bc 3f2c d63c 8450 54bb 0ad3 49bd
00000260: eab8 67bc 81c2 a5bb c508 08be 42dd d8bd
00000270: 9fa6 9f3d c487 b2bd ee8e 61bd 27e7 dc3c
00000280: 2dbf 65bb f509 073e c15f eb3c ac57 043e
00000290: 3449 913d 05c7 bcbd 235b ef3d 8793 afbc
000002a0: 720c 01bd e793 b1bd c232 7d3d a186 c7bd
000002b0: d642 043e fc87 a5bd 1164 c73c 7da0 bcbd
000002c0: 66a8 c93d d084 abbd 69df b03c 340f cabc
000002d0: 3155 8e3d 4e52 4a3d 28c0 db3d 02b6 8ebd
000002e0: fcc8 07be 14d5 dfbb 8df6 cabd 1237 d5bb
000002f0: 08cb 103e 56f8 e93d 4872 a0bd c57d 1a3d
00000300: 9214 12bd 3490 37bd 11fc f13c 575d 37bc
00000310: c75a 5cbd c865 e43a 3dc8 b43d dd47 dabc
00000320: 1009 7abd f684 803d 2d1f 12bd de07 033e
00000330: 7df2 d33d f74c 033d 6b2e 89bb 4a48 3f3d
00000340: dad7 133e 9406 d93d d61d 0a3d ea3a d2bd
00000350: a6e5 d93d c462 08bd a936 033e 8807 41bc
00000360: 6a72 d0bc 5d15 0b3d 5251 8dbd 3c8a 8fbd
00000370: d155 bcbd 555d c7bc 34e6 1fbe e2d4 79bc
00000380: 8367 d3bd e0e8 d4bd a415 c5bd f969 8e3d
00000390: 583a 9c3d 9d2f 043c f1c4 193d 4900 d13d
000003a0: 2472 8a3d c445 f83d 99bd 193e bddf 943d
000003b0: 4fc0 88bd b145 513c a4fc 56bd e8dd 0bbd
000003c0: ce5d 99bd 2414 983d b0da 3f3c 3893 5a3d
000003d0: a060 ef3b abb4 e03d 6283 5ebc be5a 143e
000003e0: 8554 adbc d070 c93d a36e 4abd d198 913d
000003f0: 961a b83d f848 d1bd 07c3 663c 293e 08bd

decoder.lstm.weight_hh_l0 f4 [256, 64]
-0.047945507 0.115439355 0.041976072 0.026520701 -0.10416241 -0.09592886 -0.011599742 -0.07428316
0.11238962 -0.07402459 0.04586718 -0.07893405 -0.116906576 -0.11829272 -0.041151304 -0.009985639
-0.08065592 0.15262683 -0.05432801 -0.046204753 -0.07509076 0.088608496 0.07961604 -0.033213437
-0.075253524 -0.06138668 -0.032256242 -0.11982274 0.028669924 0.011546879 0.13070866 0.14726266
-0.15065204 0.017000722 0.15203434 -0.0060806824 0.011008029 0.033131238 0.13095349 0.00418906
-0.0086568855 -0.120508604 0.059598226 -0.037455194 0.004385772 -0.06782035 0.15116091 -0.0085422285
-0.05736596 -0.09328216 -0.12728263 0.11761352 0.06278263 -0.029963795 -0.053445064 -0.015437393
0.098882765 0.14723048 0.030917265 0.0073662065 -0.1306083 0.07632161 0.14958715 -0.03188121
0.13879731 -0.050741397 0.14143841 0.07001605 -0.016067684 0.006360027 0.002340974 0.065075055
0.09164979 -0.064617276 0.00020596321 -0.092512004 -0.04555752 0.052965775 -0.03888377 -0.021909479
-0.057097826 0.099779524 0.11266122 0.13043527 -0.031803615 -0.03043576 -0.009678222 -0.080748305
0.03196316 0.008061408 0.071407884 -0.015946083 0.118814506 0.08127173 0.114095084 -0.033548452
0.07728706 -0.10534477 0.09310683 0.10727995 -0.033757094 0.034630623 -0.060196865 0.064450145
0.012551965 -0.08794918 0.08683176 -0.07118498 0.016880494 -0.052474197 -0.005395829 0.03251353
-0.06703866 0.074295714 -0.08454475 -0.0009452285 0.009073147 0.14354333 0.03997502 0.07197309
-0.07101632 0.002201632 -0.08832092 -0.004592732 -0.1037108 0.099167116 -0.05985309 -0.042469293
0.13271703 -0.045646105 -0.10536719 -0.04727286 0.09705664 0.032048944 -0.10177522 -0.09405783
-0.06356615 -0.07627388 -0.12313464 -0.09512485 0.015942937 0.08125473 -0.03792874 0.038358077
0.010758143 -0.10510518 -0.08802368 0.117068574 -0.06805798 -0.11455069 0.09441947 -0.11129693
-0.0087841805 -0.008800756 -0.089643754 -0.04563356 0.07109491 -0.032882027 0.045863733 0.026473207
0.06657727 -0.13135204 0.08517105 0.0018468462 -0.08302735 -0.031721033 0.044570595 0.09768404
0.09741567 -0.0051121637 -0.1271621 -0.03200965 -0.05777739 -0.1182848 0.08301651 -0.13372487
-0.08333319 0.07650518 0.09871537 -0.089163885 -0.11330921 0.056331567 0.09337244 0.046478096
0.04979179 0.09737052 0.070456214 0.015997643 -0.08927139 -0.066209994 0.066048555 -0.05149628
0.029840102 0.08199482 -0.107927956 0.10064506 0.0844154 0.096730664 -0.104632534 -0.08685399
0.04357162 -0.042838853 -0.036056347 0.01412154 -0.05646237 -0.06917799 0.093761995 0.07081525
-0.03647447 0.008092696 -0.09000688 -0.11983757 0.08812292 -0.08636899 0.03428042 0.0620541
0.081992 0.047302596 -0.12151861 -0.016182605 0.11478252 0.09649363 -0.08140473 0.042389855
0.04162071 0.08927391 0.07135264 -0.07403824 0.079016805 -0.0026103873 -0.028445803 0.07537177
0.09173523 -0.07511181 -0.039580457 -0.13640255 -0.0971 -0.05634233 0.11869321 0.120972276
-0.11047932 -0.099123016 -0.10410531 -0.07867757 0.01410282 0.06568084 -0.10983668 0.07939725
0.034076277 0.029517908 -0.06684351 -0.02754454 -0.009466881 0.010985982 -0.1286405 -0.07802997
00000000: 8262 44bd 786b ec3d 1aef 2b3d f141 d93c
00000010: 1a53 d5bd 5a76 c4bd d80c 3ebc c521 98bd
00000020: 872c e63d 349a 97bd 39df 3b3d 2da8 a1bd
00000030: b76c efbd 7443 f2bd 458e 28bd ce9a 23bc
00000040: ee2e a5bd 354a 1c3e 0c87 5ebd 3241 3dbd
00000050: 2fc9 99bd 5f78 b53d bc0d a33d d00a 08bd
00000060: 851e 9abd 9970 7bbd 1f1f 04bd a065 f5bd
00000070: 30dd ea3c 1f2f 3d3c 7ed8 053e 06cc 163e
00000080: 8744 1abe 1945 8b3c e4ae 1b3e 7640 c7bb
00000090: 055b 343c 9fb4 073d ac18 063e 6244 893b
000000a0: 9cd5 0dbc 37cd f6bd 451d 743d 9e6a 19bd
000000b0: 86b6 8f3b 65e5 8abd edc9 1a3e b4f4 0bbc
000000c0: 92f8 6abd b80a bfbd 6156 02be 5bdf f03d
000000d0: 2e94 803d a276 f5bc 36e9 5abd 1fed 7cbc
000000e0: 0c83 ca3d 96c3 163e 3446 fd3c 3860 f13b
000000f0: 2fbe 05be 814e 9c3d 602d 193e df95 02bd
00000100: e220 0e3e 36d6 4fbd 3bd5 103e 9364 8f3d
00000110: 60a0 83bc c667 d03b 076b 193b 1246 853d
00000120: e3b2 bb3d 1056 84bd d4f7 5739 ef76 bdbd
00000130: 869a 3abd a4f2 583d 9744 1fbd 827b b3bc
00000140: 69df 69bd 3559 cc3d edba e63d d390 053e
00000150: 8244 02bd 6a54 f9bc 6891 1ebc 5e5f a5bd
00000160: cdeb 023d ff13 043c 4c3e 923d 5ca1 82bc
00000170: 0555 f33d cb71 a63d afaa e93d 1a6a 09bd
00000180: ae48 9e3d 00bf d7bd cbae be3d 97b5 db3d
00000190: e144 0abd d7d8 0d3d fd90 76bd 70fe 833d
000001a0: c2a6 4d3c b31e b4bd dad4 b13d 6ec9 91bd
000001b0: f648 8a3c 2fef 56bd 7fcf b0bb e82c 053d
000001c0: 914b 89bd 5a28 983d cc25 adbd 36c9 77ba
000001d0: 89a7 143c 06fd 123e d9bc 233d a166 933d
000001e0: 0171 91bd 4149 103b 99e1 b4bd a17e 96bb
000001f0: 5466 d4bd 2118 cb3d 8428 75bd 48f4 2dbd
00000200: f9e6 073e 69f7 3abd c1ca d7bd 30a1 41bd
00000210: a2c5 c63d c145 033d 876f d0bd 64a1 c0bd
00000220: f82e 82bd 7b35 9cbd 042e fcbd d1d0 c2bd
00000230: c39a 823c e168 a63d 2b5b 1bbd 5c1d 1d3d
00000240: ec42 303c 6241 d7bd c245 b4bd a6c1 ef3d
00000250: fb61 8bbd 8d99 eabd ff5e c13d a5ef e3bd
00000260: 86eb 0fbc 0c31 10bc 2597 b7bd 41ea 3abd
00000270: 359a 913d 4eaf 06bd 9cdb 3b3d 57de d83c
00000280: aa59 883d 2681 06be 296e ae3d e011 f23a
00000290: 3e0a aabd eaed 01bd a88f 363d 920e c83d
000002a0: de81 c73d f083 a7bb c836 02be 8d1c 03bd
000002b0: fca7 6cbd 4d3f f2bd 8f04 aa3d 2cef 08be
000002c0: 97aa aabd bfae 9c3d 492b ca3d 8e9b b6bd
000002d0: a90e e8bd eebb 663d 0d3a bf3d d15f 3e3d
000002e0: 7af2 4b3d 326a c73d 594b 903d 7d0d 833c
000002f0: ebd3 b6bd 1b99 87bd 7744 873d c3ed 52bd
00000300: 3b73 f43c e6ec a73d 5509 ddbd ff1e ce3d
00000310: fbe1 ac3d ba1a c63d 9549 d6bd 81e0 b1bd
00000320: 2878 323d cb77 2fbd d2af 13bd 085e 673c
00000330: 1645 67bd 31ad 8dbd 4a06 c03d 9607 913d
00000340: 4166 15bd 3a97 043c 8755 b8bd 666d f5bd
00000350: ca79 b43d 3ae2 b0bd a069 0c3d 712c 7e3d
00000360: 6ceb a73d 5ec0 413d c0de f8bd 6291 84bc
00000370: 1913 eb3d 749e c53d 86b7 a6bd fca0 2d3d
00000380: 7a7a 2a3d 3dd5 b63d 5521 923d 5ca1 97bd
00000390: 90d3 a13d 0813 2bbb 2c07 e9bc 845c 9a3d
000003a0: aedf bb3d 38d4 99bd 1e1f 22bd 1cad 0bbe
000003b0: 5ddc c6bd 37c7 66bd 6d15 f33d 50c0 f73d
000003c0: fb42 e2bd 0201 cbbd 2a35 d5bd b521 a1bd
000003d0: 840f 673c ad83 863d 0ef2 e0bd 079b a23d
000003e0: 9193 0b3d 8acf f13c 40e5 88bd 16a5 e1bc
000003f0: fa1a 1bbc 8cfe 333c 56ba 03be 2dce 9fbd

decoder.lstm.bias_ih_l0 f4 [256]
-0.0615289 -0.037242208 -0.0046450165 -0.01968612 0.14918528 0.13723482 -0.014174913 -0.073071584
0.03737978 -0.0780733 0.10772558 0.11197139 -0.045154694 -0.06836565 -0.020608345 0.0028575948
-0.116200484 -0.027514398 0.073105946 -0.09989815 -0.040750477 -0.06647061 0.13596493 -0.06705135
0.038123213 -0.06658569 -0.065687396 -0.07141986 -0.092643194 0.08893717 0.062232926 -0.05846011
0.10587072 0.019491829 0.08982731 -0.013485664 0.1198051 -0.13364738 0.024227893 0.11422122
0.012317433 0.023976099 -0.06839161 -0.03194014 -0.04942853 0.081090115 0.027052324 0.037362486
0.106163576 0.13676614 0.109027684 -0.01601546 0.052071255 0.11518564 0.08988969 0.14235723
-0.044730775 -0.06782609 -0.013316897 0.03510783 -0.007847234 0.0791915 0.13703705 -0.0852389
0.015513421 0.06554342 0.04597342 -0.082542054 -0.027900543 -0.10134563 -0.08529842 0.006568871
-0.13185729 0.14193526 -0.13069053 -0.05426767 -0.055431794 0.047316477 -0.016677968 -0.066300645
0.07120578 4.9792143e-05 -0.042327426 0.041627016 -0.052195575 0.037415408 -0.04429206 0.103135556
-0.030045554 0.08757837 0.01698793 -0.0648943 0.12749438 -0.09515784 -0.077544115 0.024067383
0.08032207 0.091822825 0.011341979 0.14196827 -0.09079908 -0.054550216 0.12698227 -0.08043231
-0.070388936 0.0912495 0.04208001 -0.08347805 0.09021156 0.04595391 0.06579089 0.025567478
-0.0003490746 -0.05269136 -0.060898907 -0.10355304 -0.10421484 -0.099362254 0.054745525 0.012464902
0.12909396 0.098305896 -0.10115541 -0.14022018 -0.0050024623 0.043158747 -0.045442626 -0.07837297
-0.06645474 0.104089186 -0.112803206 0.106550545 -0.0063968534 0.07696616 -0.06451733 0.075265355
-0.13264525 -0.059988495 0.051388513 -0.09539132 0.097060405 0.055648655 0.08958633 -0.008524634
0.11270849 -0.090493746 0.045723252 -0.017251948 -0.009385884 0.030871537 -0.09217857 0.092736274
-0.046570208 0.11574727 -0.08501711 0.03459266 -0.07044794 0.06558239 -0.062314037 0.08004351
0.08072758 -0.0031878902 -0.02177904 0.03919139 -0.06320322 0.09267607 -0.07804738 0.006810885
-0.0052273474 0.076766685 -0.10830717 -0.080324076 0.10522387 -0.08208701 0.06831892 0.041781154
-0.06918971 0.033460375 -0.039538022 0.0001537352 -0.06740973 0.0075625107 0.08401609 -0.13187166
-0.09679214 -0.0115851 0.0043233857 0.11329356 0.0224151 0.0947348 0.093754426 -0.093109496
-0.069139734 0.06763568 -0.030976769 -0.028264161 -0.016236242 0.056760747 0.07897389 0.024901766
-0.08883989 -0.05167863 0.122094356 -0.09237336 -0.046232365 -0.018630803 -0.030969229 0.088994734
-0.094235286 0.03598911 0.09681682 0.112318546 0.003841968 0.06774053 0.053489637 0.03265573
-0.06568512 0.1573644 0.0010776967 0.116332404 -0.05902423 -0.08757083 -0.062236123 0.10416306
0.038120978 0.07651581 0.05319762 0.10050649 -0.039291084 -0.019828895 -0.030798709 0.074474275
-0.0073020505 0.030661585 -0.0408535 0.03316861 0.049009394 -0.0103440285 -0.08960511 0.017081244
0.03670752 0.13801105 -0.07518649 0.089491546 -0.04665532 0.14263023 0.14004743 -0.09817827
0.14848162 0.05581075 0.09082089 0.12097849 0.0812388 -0.0816436 0.020212539 0.012016822
00000000: ba05 7cbd 498b 18bd 3935 98bb c944 a1bc
00000010: 07c4 183e 4987 0c3e e53d 68bc 8ea6 95bd
00000020: 8a1b 193d e5e4 9fbd 3b9f dc3d 4251 e53d
00000030: 21f4 38bd 4a03 8cbd d5d2 a8bc 7c46 3b3b
00000040: 85fa edbd e065 e1bc 92b8 953d 6797 ccbd
00000050: f9e9 26bd be21 88bd 643a 0b3e 3852 89bd
00000060: 1627 1c3d 145e 88bd 1d87 86bd 9344 92bd
00000070: b7bb bdbd b124 b63d f4e7 7e3d de73 6fbd
00000080: c0d2 d83d 54ad 9f3c 61f7 b73d f9f2 5cbc
00000090: 605c f53d dcda 08be 9379 c63c d1ec e93d
000000a0: 0fcf 493c 8669 c43c e710 8cbd aad3 02bd
000000b0: 9275 4abd 9312 a63d d69c dd3c 6809 193d
000000c0: 4a6c d93d 6c0c 0c3e e849 df3d db32 83bc
000000d0: ab48 553d 73e6 eb3d 1618 b83d 18c6 113e
000000e0: 9e37 37bd 68e8 8abd 1d2f 5abc 3acd 0f3d
000000f0: af91 00bc 272f a23d 7153 0c3e bb91 aebd
00000100: 012c 7e3c a13b 863d a04e 3c3d cf0b a9bd
00000110: ae8f e4bc 4c8e cfbd f0b0 aebd af3f d73b
00000120: 9905 07be 7a57 113e bdd3 05be c747 5ebd
00000130: 730c 63bd ecce 413d 3ca0 88bc a2c8 87bd
00000140: 56d4 913d e8d7 5038 865f 2dbd 1781 2a3d
00000150: 07cb 55bd e640 193d 976b 35bd bc38 d33d
00000160: 1822 f6bc 4a5c b33d 452a 8b3c 4ee7 84bd
00000170: e38d 023e 1de2 c2bd 73cf 9ebd f628 c53c
00000180: e67f a43d 9b0d bc3d b5d3 393c 2160 113e
00000190: def4 b9bd 0c70 5fbd a407 023e b2b9 a4bd
000001a0: 1328 90bd 05e1 ba3d 175c 2c3d 8af6 aabd
000001b0: d7c0 b83d 2b3a 3c3d 60bd 863d e372 d13c
000001c0: 0004 b7b9 e5d2 57bd 2271 79bd 9e13 d4bd
000001d0: 976e d5bd 707e cbbd d83c 603d 9739 4c3c
000001e0: 3531 043e 9a54 c93d 912a cfbd e195 0fbe
000001f0: b2eb a3bb 3ac7 303d 0c22 3abd 0282 a0bd
00000200: 6c19 88bd b62c d53d 5e05 e7bd 2c37 da3d
00000210: b29c d1bb 6fa0 9d3d a921 84bd b924 9a3d
00000220: 28d4 07be 7fb6 75bd c37c 523d 865c c3bd
00000230: 9bc7 c63d d8ef 633d 0a79 b73d e8aa 0bbc
00000240: b5d3 e63d c954 b9bd 4e48 3b3d f553 8dbc
00000250: 40c7 19bc 4ee6 fc3c 1ec8 bcbd 84ec bd3d
00000260: 67c0 3ebd e80c ed3d 731d aebd 08b1 0d3d
00000270: 0247 90bd 0f50 863d 013d 7fbd daed a33d
00000280: 8054 a53d eceb 50bb f569 b2bc 2787 203d
00000290: b170 81bd f4cc bd3d 4ed7 9fbd d82d df3b
000002a0: 2b4a abbb da37 9d3d 26d0 ddbd f380 a4bd
000002b0: 9d7f d73d 3c1d a8bd caea 8b3d b722 2b3d
000002c0: 56b3 8dbd bf0d 093d 9ff2 21bd fa33 2139
000002d0: 1d0e 8abd f0ce f73b a110 ac3d 5d09 07be
000002e0: f53a c6bd 6ecf 3dbc 30ab 8d3b 7406 e83d
000002f0: df9f b73c 5204 c23d 5202 c03d 31b0 bebd
00000300: 2299 8dbd 9384 8a3d fec2 fdbc 3e8a e7bc
00000310: de01 85bc f57d 683d 10bd a13d cafe cb3c
00000320: b0f1 b5bd f9ac 53bd 9b0c fa3d 3f2e bdbd
00000330: 265e 3dbd a09f 98bc 2eb3 fdbc df42 b63d
00000340: 6efe c0bd 5169 133d e647 c63d 4407 e63d
00000350: 87c9 7b3b 8cbb 8a3d f317 5b3d 04c2 053d
00000360: ec85 86bd 2224 213e 8041 8d3a af3f ee3d
00000370: 64c3 71bd 5658 b3bd 4eeb 7ebd 7153 d53d
00000380: be24 1c3d 52b4 9c3d bfe5 593d 59d6 cd3d
00000390: b0ef 20bd 3570 a2bc 934d fcbc f885 983d
000003a0: 0a46 efbb 012e fb3c 0056 27bd cfdb 073d
000003b0: 13be 483d 007a 29bc e282 b7bd f7ed 8b3c
000003c0: a05a 163d c552 0d3e 60fb 99bd 5847 b73d
000003d0: a619 3fbd a90d 123e 9868 0f3e b011 c9bd
000003e0: 910b 183e d099 643d 4e00 ba3d 92c3 f73d
000003f0: 8760 a63d c234 a7bd c494 a53c 34e2 443c
