lstm_ts.pth (torch, 210623 bytes, 10 tensors)

lstm.weight_ih_l0 f4 [256, 5]
000000 99 99 b1 bd 30 ec 82 3d fb 85 de bb 37 7c 21 bd
       -0.086718746 0.063927054 -0.006790874 -0.0394251
000010 f6 cb 20 bd 75 cc 07 3d 52 5f 5d bd 6d 9f c0 bd
       -0.039257012 0.03315397 -0.054045983 -0.09405408
000020 c0 61 c6 bd 35 97 d8 3d f8 27 39 3d a4 7f 09 3d
       -0.09686613 0.105757155 0.045204133 0.033568993
000030 03 3b 09 bd d0 79 91 3d fb 05 77 3d 78 6e ea 3c
       -0.033503544 0.07103312 0.060308438 0.028617129
000040 ad d2 ae 3d 7a 06 96 3d 27 53 d5 3d 72 b4 8d 3d
       0.08536277 0.07325454 0.10416251 0.06919183
000050 00 de 64 bd d2 c0 da 3d 86 b6 e4 3d 23 ea 8e bc
       -0.05587578 0.10681309 0.11167626 -0.01744563
000060 45 67 a7 3d 77 ce 84 3d 29 5f 48 3d ef 1b 4e 3b
       0.08173994 0.064846925 0.048918877 0.0031449755
000070 cf 9e 54 bd 4a 5c 63 bd 5f 42 30 bd 24 0f 90 bc
       -0.051909264 -0.055507936 -0.043032046 -0.017585345
000080 e7 b6 98 3c 6f 32 34 bb 03 bd 29 bb b7 b9 c6 bd
       0.018641902 -0.002749588 -0.0025900013 -0.09703391
000090 65 94 d7 3d e5 2c b3 3c 66 ae af bd 97 47 a8 bc
       0.10526351 0.021871993 -0.08578186 -0.02054195
0000a0 af 45 11 3d 0f c4 7e 3d 68 fc 82 3c 0b 52 04 3d
       0.035466846 0.062198695 0.015989497 0.032304805
0000b0 31 80 bb 3b 3f a1 c7 bd 30 d3 7a bd 2c 3a bb 3d
       0.0057220687 -0.09747552 -0.06123656 0.09141955
0000c0 91 af c8 bc 6b bd f0 bd 3a 85 b7 3c d2 04 8e bc
       -0.02449778 -0.117548786 0.022402395 -0.017336283
0000d0 85 fc 02 3d ff 68 2c bd 01 1b 14 bd 04 43 da bc
       0.031979103 -0.04209232 -0.036158565 -0.026643284
0000e0 48 45 2e bd 0d 30 24 bd ea fa e5 3d a2 2d 9b bb
       -0.04254654 -0.040084887 0.11229499 -0.0047356645
0000f0 48 58 29 bd 07 7e 4f 3c a0 10 aa bc f1 3c 5d 3d
       -0.041343957 0.012664325 -0.02075988 0.054013196
000100 14 36 e4 3d 8a 1d fb bd d5 75 f2 3c 64 10 1c 3c
       0.11143127 -0.122614935 0.029597202 0.009525392
000110 44 cf a6 bd b8 55 98 3b 00 2f 97 bc f7 be cf 3d
       -0.081450015 0.0046488903 -0.018455029 0.101438455
000120 8f 73 50 3d 44 b1 1e bc cb d2 bc bd ba 9b f0 3c
       0.050891455 -0.009685818 -0.09219893 0.029371131
000130 ad 03 f6 bd 10 fc 24 bd 49 cb 92 3d 16 78 7b 3d
       -0.1201242 -0.040279448 0.0716768 0.06139382
000140 68 e7 d3 3c 76 b6 c7 bd 6d 4e cf bd b1 59 04 bd
       0.025867179 -0.097515985 -0.101223804 -0.0323121
000150 aa ff a1 3d 9d 16 20 3d 0d 6c f1 bd 11 86 d7 3c
       0.07910092 0.039084066 -0.11788187 0.026309045
000160 30 2c c3 bd 96 6d 13 3d 2d ef 63 3b a5 02 5d bd
       -0.095299125 0.03599318 0.003478001 -0.0539576
000170 06 9b da 3c c5 60 fe 3d 2a d5 9c 3d d0 f8 aa 3d
       0.026685249 0.12420801 0.07657845 0.083482385
000180 ea a2 a8 bc 5a 44 92 3d e2 f3 ab 3d ea 82 ad 3d
       -0.020585496 0.07141943 0.08396126 0.084722355
000190 1c 04 db 3d b4 7a f6 3d c5 85 8c 3d 53 3f d3 bb
       0.10694143 0.120351225 0.06861452 -0.006446758
0001a0 8b e3 9d 3d 98 47 e8 3d 53 16 c4 bd ed 26 1c 3d
       0.07709416 0.113417804 -0.095745705 0.03812306
0001b0 21 c8 ed 3d 57 f1 51 3c 14 73 8f bd 78 36 11 3d
       0.11610437 0.012813888 -0.07004371 0.035452336
0001c0 6d f8 44 3d d5 8d e7 bd 8c b4 d6 3d 4e 84 ad 3d
       0.04808848 -0.11306349 0.10483655 0.08472501
0001d0 ea 2d 78 bd 0d 3a b5 3d dc 90 86 bd 0a 04 2a 3d
       -0.060590662 0.08848963 -0.065705985 0.04150776
0001e0 9b 97 d3 3d 73 d0 cf bd 67 e0 e0 bc 42 1d fe 3d
       0.10331651 -0.101471804 -0.027450753 0.12407924
0001f0 94 e7 c9 3d a7 16 e2 bd 57 a4 fb 3d 45 d3 c8 bd
       0.09858623 -0.11039477 0.12287205 -0.098059215
000200 11 b7 b2 bc 8b 5a ee 3d b1 f7 e2 bd 99 b4 93 3d
       -0.021815808 0.116383635 -0.110824 0.07212181
000210 1a da 56 3d 54 8d 51 bd d8 29 e4 bc 39 09 ef bd
       0.05245409 -0.05116017 -0.027851984 -0.11671681
000220 2e b0 c3 bd 7c f6 e3 3d b5 0b 80 bd 63 34 3c bc
       -0.09555088 0.111309975 -0.06252233 -0.011487099
000230 39 e3 cd bd e5 22 bf bd 95 c4 f3 bd b8 77 d8 bd
       -0.10053105 -0.093328275 -0.119027294 -0.105697095
000240 c7 07 07 3d d8 9c 06 bd 5e 43 a7 3d 45 14 ea 3d
       0.0329664 -0.03286442 0.08167146 0.11429647
000250 10 06 15 bd ad ed 3a 3c 63 0f d2 3d dd 63 cc bd
       -0.036382735 0.011409205 0.10256841 -0.09979985
000260 93 b9 40 bd 7b d5 92 3c 58 84 df bc 2f 5a f8 3b
       -0.047051977 0.017924061 -0.027284786 0.00757911
000270 30 18 bd bd 09 25 b7 bd 08 9f 2c 3d 1a 8c 00 be
       -0.09233129 -0.08942611 0.04214385 -0.12553445
000280 ef c1 ac bd d8 da df 3b 58 5d fb 3d 2a 80 da bd
       -0.084354274 0.006831508 0.12273663 -0.106689766
000290 26 f4 be bd e4 3f a5 bd 4b ec d3 3d c7 32 b4 3d
       -0.09323911 -0.08068827 0.10347804 0.087987475
0002a0 1f 3f bd 3c 04 d2 0d bc a2 e4 bd 3d 83 ec 40 3d
       0.023101388 -0.008656029 0.09272124 0.047100555
0002b0 4e fc ea bd bf e9 01 3d 3e 8e e7 bc a9 fb 60 3d
       -0.114739046 0.03171706 -0.028266069 0.0549275
0002c0 0f 0d af 3d b4 1d cc 3d 52 41 82 3d 84 74 cc 3d
       0.085474126 0.09966603 0.06360115 0.09983161
0002d0 aa 21 99 3d 4b ff f3 bd 44 cb f0 3d f4 21 ba 3d
       0.07477124 -0.11913928 0.1175752 0.09088507
0002e0 b4 cd 53 3d 79 c4 a6 3d c4 af f0 bd 3e dd 08 3d
       0.051709846 0.08142943 -0.11752275 0.033414118
0002f0 62 ce d0 bd 09 65 95 bd 6c dc 07 3d 13 e1 0b bd
       -0.101956144 -0.072946616 0.033169195 -0.034150194
000300 9a 3b e6 3b 71 fa c9 bc 91 68 ab bd 28 3e 62 3d
       0.007026148 -0.024655553 -0.08369554 0.055235058
000310 1e bd b2 3d 0f 54 d9 3d 19 56 8b bc ea b9 bb bd
       0.087274775 0.10611736 -0.017008828 -0.0916632
000320 1d 4d 06 bb ef 21 e0 bd 6a 92 36 3d e0 48 ef bd
       -0.002049274 -0.10943972 0.044573225 -0.11683822
000330 84 13 88 3d 48 4d c4 3d 82 b4 d2 3d 3a 88 98 3d
       0.06644347 0.09585053 0.102883354 0.07447858
000340 c9 b9 76 bd ce ae a6 3d ba 09 cd 3d ba 1d aa 3c
       -0.060235772 0.0813881 0.10011621 0.020766128
000350 9d ed 93 bd ad c7 6c bc 19 db 89 3d 2d b4 b8 bd
       -0.072230555 -0.014451903 0.06731243 -0.09018741
000360 4a 1b ab 3c c6 fc ef 3d bf cb ad 3c c1 52 a9 3d
       0.020887036 0.117181346 0.021215318 0.08267737
000370 4a b7 80 bb a8 2d e1 3d 88 0c fd 3d 68 4d 5c bb
       -0.0039280998 0.10995036 0.12355906 -0.0033615474
000380 d7 ed eb bd 9c 95 f9 bc 96 28 f6 3d 05 a4 4b 3d
       -0.11519974 -0.030466847 0.1201946 0.049716968
000390 f5 a7 eb 3c ad d4 85 bd 58 82 e1 bd 1a 9b e0 3c
       0.028766612 -0.06534705 -0.11011189 0.027417708
0003a0 13 c0 aa 3c 16 10 3c 3d 85 7a 4a bd ad cd fa 3d
       0.020843541 0.04591378 -0.04943325 0.12246261
0003b0 ec 47 aa 3d 36 7e ac bd 6d c0 18 bc 1b e3 f9 bc
       0.08314499 -0.0842251 -0.009323222 -0.0305038
0003c0 18 27 be bd 9e 74 d0 3d 34 4e 39 3d 0e 92 55 3d
       -0.092848 0.10178493 0.045240596 0.05214124
0003d0 86 46 83 bb f9 22 79 bd 9f e8 bd bd da 22 54 bd
       -0.00400621 -0.06082437 -0.092728846 -0.05179105
0003e0 5e 70 f5 bd b9 4f b8 bd be 9e c3 3d 7d 40 d6 3d
       -0.11984323 -0.08999581 0.09551762 0.10461519
0003f0 41 34 be bc f5 5c b8 3c b1 99 31 bd 4a 17 8c bc
       -0.023218276 0.022505263 -0.043359462 -0.017100949

lstm.weight_hh_l0 f4 [256, 64]
000000 94 2e e7 3d cc de de bd ad 39 2a bb 7f 16 21 3d
       0.11288181 -0.10882339 -0.002597432 0.039328095
000010 08 88 e5 bd 25 69 de bd 36 3b 6a 3d 83 0e e8 3d
       -0.112075865 -0.108598985 0.057185374 0.11330893
000020 d6 dc de 3d b1 09 c2 3b 33 03 b5 bc bb c5 aa 3d
       0.10881965 0.0059215655 -0.022096252 0.08338495
000030 9f 04 40 bd 36 79 2c bd 53 fb 02 bd 31 23 a5 bd
       -0.046879407 -0.042107783 -0.031977963 -0.08063353
000040 af 10 fe bd ee 56 91 3d 5e e7 86 bd 5f f9 ab bd
       -0.12405526 0.07096659 -0.065870985 -0.08397173
000050 8a 66 08 3d 0f 41 df bd 3e ff f5 bb 55 4c 86 bd
       0.033300914 -0.10901081 -0.007507234 -0.06557528
000060 f2 8a 00 3e ec 44 f2 3c 67 ba ef 3d 29 68 10 3d
       0.12553003 0.02957388 0.11705475 0.035255585
000070 6c 33 a6 bd 56 52 e7 3d 3d 09 18 bd a5 ed e0 bd
       -0.08115277 0.11295001 -0.037118185 -0.10982827
000080 65 c4 00 3d 24 28 e7 bc cd 8c b6 bb 10 77 cb bd
       0.031437296 -0.028217383 -0.005570984 -0.09934819
000090 95 9d f6 bb 51 f9 5c bd 6c 41 bc bd e3 79 c9 bc
       -0.0075261095 -0.053948704 -0.09192166 -0.024594253
0000a0 d1 74 87 3d c9 d8 76 3d 21 9c e8 bd 01 88 1f 3d
       0.06614078 0.060265336 -0.11357904 0.038948063
0000b0 7a ec 4b bd b9 4e f9 bc ec ab 95 3d 2a 87 79 3a
       -0.04978607 -0.030433046 0.07308182 0.0009518737
0000c0 b5 c2 ec 3d eb 25 eb bd c2 84 65 3d 8f 44 90 bd
       0.11560575 -0.11481842 0.05603481 -0.070443265
0000d0 ab 4f 06 bc 39 47 ac bd de 83 bc bd 6e e6 26 3b
       -0.008197705 -0.08412022 -0.09204839 0.0025466937
0000e0 93 6b 0a 3d 8f cd 3d bd a0 e7 78 bd 4e 01 39 bc
       0.033793997 -0.046338614 -0.06076777 -0.011291815
0000f0 8a fd ee bd 49 8e a1 bc 56 16 e6 bd 12 e6 cd bb
       -0.116694525 -0.019721167 -0.11234729 -0.00628353
000100 0b 77 81 3d b2 2d 83 3b e5 13 5f 3d 8a b5 a9 3c
       0.06321534 0.00400325 0.054462332 0.020716447
000110 5d 22 9e 3d 9b 9d 1d bd a3 4f b0 bc f1 c3 cf 3d
       0.07721398 -0.038480382 -0.021522349 0.10144795
000120 6e b9 e0 3d 16 d5 49 3d c8 ea ff bd 58 79 1d ba
       0.10972868 0.04927548 -0.12495953 -0.00060071563
000130 ca d1 c5 bc 42 97 ef bd ac c9 fb bc df 8c 98 bd
       -0.024147887 -0.11698772 -0.030735813 -0.07448744
000140 ca af ea bd 13 b8 64 3d 17 0d d6 bd 00 d1 cf 3d
       -0.1145931 0.05583961 -0.104517154 0.101472855
000150 19 c9 35 3c 52 23 89 bd 96 fe e5 bc 96 25 f2 3d
       0.011095309 -0.0669619 -0.028075498 0.11823575
000160 02 db 83 bd 5f d1 75 bc 4c 4d 2b bd 41 68 05 bc
       -0.06438257 -0.015003531 -0.041821763 -0.008142532
000170 42 3d 98 3d 28 f6 88 bd de 0e d0 3c 0a c3 ac bd
       0.07433559 -0.066875756 0.025397714 -0.08435638
000180 b2 eb bd bc 74 ee 7f 3d b1 aa 74 bd cb bd ed 3d
       -0.023183677 0.062483266 -0.059733097 0.11608466
000190 6b b1 92 bc c4 32 b4 3d de 06 8d bd 3d 0c 81 3d
       -0.017906865 0.08798745 -0.068860754 0.063011624
0001a0 60 d6 be bc 5c fb 7d bd 61 3c 68 bc b4 85 d7 bc
       -0.023295581 -0.062007293 -0.014174552 -0.026308872
0001b0 f1 8f 4e bd aa ec 33 bd 15 e0 e9 3c 72 64 82 bc
       -0.050430242 -0.043926872 0.028549233 -0.015917037
0001c0 f1 c5 48 bd 2d 88 df bc a9 4e 41 bd 62 b9 c6 bc
       -0.049016897 -0.027286613 -0.047194157 -0.02425832
0001d0 77 44 61 bc de d1 b1 bd 2f 3a b1 3d 2d b5 98 3d
       -0.013749233 -0.08682607 0.08653676 0.074564315
0001e0 cd 9e d0 3d c5 1b 5a bd cc b5 25 bb b4 9f bc bd
       0.10186539 -0.05324914 -0.0025285361 -0.092101485
0001f0 2a 7c 15 bd 9c 64 b8 bd 86 48 4d 3c 4a 00 f3 3c
       -0.036495365 -0.09003565 0.012529498 0.029663224
000200 09 5b f3 bd 98 ec 53 bc 3a 56 d8 3d 6b 06 f0 3a
       -0.11882598 -0.012934826 0.105633214 0.001831246
000210 01 f9 db bd ae d8 38 bd b5 12 40 bd 4a 5e 7f 3d
       -0.10740853 -0.045128517 -0.04689284 0.06234578
000220 b6 16 99 bd 50 d8 cb 3d 10 ea f9 3d 2e 46 3a 3b
       -0.07475035 0.09953368 0.12202847 0.0028423178
000230 54 3c 0c bd cc 49 25 bc bf 83 3d bd b3 eb e2 3d
       -0.03423722 -0.010088395 -0.04626822 0.11080112
000240 03 7f 6b 3d 0c d3 a2 bd 46 f2 67 bd 14 6e c7 3d
       0.057494175 -0.0795041 -0.056627534 0.097377926
000250 69 4f aa 3d 60 31 3b bb 24 03 4c bd fe 22 91 bc
       0.083159275 -0.0028563365 -0.049807683 -0.01771688
000260 6c f0 38 3d 49 09 8c bb b0 2b 06 3d 48 49 cb bd
       0.04515116 -0.004273568 0.032756507 -0.09926087
000270 dd 9c 16 3d 46 30 99 bc e9 4e 39 3d 16 41 77 bd
       0.03677069 -0.018699776 0.04524127 -0.060364805
000280 af 9c f3 3d af 19 f9 3d 98 d0 a9 3d ee a9 f6 3d
       0.118951194 0.12163102 0.08291739 0.1204413
000290 ee 2c aa 3d cb 51 15 bd 01 9c 29 bd 94 4f 9a 3a
       0.08309351 -0.036454957 -0.041408543 0.0011772984
0002a0 f9 66 df bd f9 35 9d bc d0 16 7d bd 89 51 84 bd
       -0.10908312 -0.019190775 -0.061789334 -0.06460864
0002b0 27 6d 1a 3d c0 5f b1 bd 8c d9 36 3d 76 71 a9 bd
       0.037701752 -0.08660841 0.044641063 -0.08273594
0002c0 88 4d 70 bd fa d0 c1 3d df 4d 31 3b c5 31 e6 bd
       -0.05866769 0.09463687 0.0027054471 -0.112399615
0002d0 01 a3 66 bb 1c f9 6b bd 96 8d 10 3d 23 0d 40 3d
       -0.0035192373 -0.057610616 0.035291277 0.04688753
0002e0 3d 26 cd bd dc 62 07 bb 67 4f fc 3d 93 b1 de bd
       -0.10017059 -0.002065829 0.12319832 -0.10873713
0002f0 e8 73 cf 3d 5d b7 5b 3d 2f 21 90 bd 6f 27 eb 3d
       0.10129529 0.053641666 -0.07037579 0.11482131
000300 e5 42 b2 bd f5 a1 eb bc 46 35 c9 bd 4e 56 bb bd
       -0.08704165 -0.02876375 -0.09824614 -0.09147321
000310 67 8f 4b bd 07 77 28 bd 59 23 fc 3d 8e 63 cb 3d
       -0.049697306 -0.04112914 0.123114295 0.09931098
000320 42 d6 fb 3d 08 08 85 3d 06 be f7 bd 36 b1 79 3d
       0.12296726 0.064956725 -0.12096791 0.060960017
000330 b6 7c e3 3c 45 ee b8 bb 91 72 30 3d b8 90 2f 3d
       0.027769428 -0.0056436383 0.04307801 0.042862624
000340 2c 33 ba bd 0e cc e4 3c a9 fc e1 bd ff a4 b5 bd
       -0.090917915 0.027929332 -0.11034519 -0.08869361
000350 57 e1 c7 3d bc 43 f8 bc 8d 0c 46 bd 3f ef b1 bc
       0.09759777 -0.030305736 -0.048351813 -0.021720527
000360 5b fd 10 3d c4 6e a3 3d a4 7b 0e 3d e5 9b 0c 3d
       0.03539787 0.07980111 0.03478588 0.03432836
000370 2a b3 ec 3b 4e 9d aa ba 18 b9 f7 3c e8 8a 5f bd
       0.0072235065 -0.0013016851 0.030239627 -0.05457583
000380 2a 5c b2 bd 0b df 85 bd ec 48 c8 bd 2c d3 ca bc
       -0.08708985 -0.06536683 -0.09779534 -0.024758898
000390 2c e9 a0 3d e2 10 38 bd 4b 9c f9 bd 81 16 d0 bd
       0.07856974 -0.044937976 -0.12188014 -0.10160542
0003a0 50 18 b3 3c 69 bf 46 3c 45 0d e4 bd 6f 4f bd bd
       0.021862179 0.012130597 -0.111353435 -0.092436664
0003b0 6a 11 ed 3d c4 ed b0 3d 03 ee b5 bd 04 f3 13 3d
       0.11575587 0.086391 -0.08883288 0.03612043
0003c0 85 9f e3 bd c6 65 85 bc 6a 08 10 bd 5c bc da 3b
       -0.1111441 -0.01628388 -0.035164274 0.006675286
0003d0 a4 d7 88 3d 1d e2 aa 3d 17 f9 85 b9 c1 1e 5c bd
       0.06681755 0.08343909 -0.00025553323 -0.053740267
0003e0 06 fc 8a bd 53 c4 13 bd e5 93 f0 3d ab 05 a8 3d
       -0.06786351 -0.0360759 0.11746959 0.08204206
0003f0 37 1c b5 bd 98 07 98 3d 33 67 fe 3d b5 33 7c bd
       -0.08843272 0.074233234 0.124220274 -0.06157275

lstm.bias_ih_l0 f4 [256]
000000 a4 7c 8a bc b4 76 c5 bc 9d cc 7e 3d 2d 05 fa bd
       -0.016905136 -0.024104454 0.062206853 -0.122080185
000010 c1 9d 5c 39 6a d8 eb 3d 7a 68 34 bd 6c 8e 6d 3d
       0.00021039603 0.11515887 -0.04404495 0.057997152
000020 57 04 96 bd bd fb 6b bd 58 e5 89 3d 94 7f c8 3d
       -0.073250465 -0.057613123 0.06733197 0.097899586
000030 b0 66 c0 3d 98 45 d0 bd db 16 25 3c 76 2b 01 bd
       0.09394586 -0.10169524 0.01007625 -0.03153559
000040 15 ea 4d bd a5 e2 8f 3c be 07 cf 3d 68 2a ca 3d
       -0.050272066 0.017564127 0.101088986 0.098713696
000050 fc 72 a1 bc 56 4f 45 ba 94 b0 7d bd b7 59 af 3d
       -0.01970815 -0.00075267756 -0.061935976 0.085620336
000060 b7 30 d6 3d e3 d6 f7 bc 06 77 df bd cc c5 72 3d
       0.1045851 -0.030253833 -0.10911374 0.059270665
000070 3b eb 84 bd 35 8b a0 bd 3a b7 3a 3d e2 8f 77 bd
       -0.06490179 -0.07839052 0.045584895 -0.06043995
000080 b1 dd 75 bd 24 7e f4 3d ee 6c e3 3d 69 e2 0f 3d
       -0.060025875 0.11938122 0.11104761 0.03512803
000090 83 18 d5 3d 8a e9 a6 3d 6a a5 d0 bc 75 97 0e 3d
       0.10405066 0.08150013 -0.0254695 0.03481241
0000a0 e9 34 b5 3d e4 b2 52 3d 47 f4 8b bd 2a 51 0c bd
       0.088479824 0.051440135 -0.068337016 -0.03425709
0000b0 6c 91 b8 3d 9f b5 78 bc cf 1d 6a bb 6c 4c 63 3d
       0.09012112 -0.015180021 -0.0035723334 0.055492803
0000c0 65 3c f7 bd 53 b1 13 3b ba b9 5f bd ba 57 bf 3c
       -0.12072066 0.0022536113 -0.054620482 0.023357261
0000d0 45 43 2f 3d 5b 4c 63 bd 28 72 1c bd 57 fd d6 bd
       0.042788763 -0.05549274 -0.038194805 -0.104975395
0000e0 44 65 8a ba 85 cf 4c 3c e3 93 08 bd c7 73 89 3d
       -0.0010558744 0.012500648 -0.03334416 0.06711536
0000f0 87 91 87 3d 9a d5 c3 3d 89 1d 26 3d 83 bf e5 3d
       0.06619554 0.09562226 0.04055551 0.112181686
000100 ed af 16 3d 68 2d c9 bc c8 c4 84 3d 44 94 c3 3d
       0.03678887 -0.024557784 0.064828455 0.09549764
000110 0e 89 f4 3d 9c 4a 8a 3c 54 49 7f 3d 10 c0 80 3d
       0.119402036 0.01688128 0.06232579 0.06286633
000120 cf ff 12 3d de 58 40 bd 55 7c 11 3c 21 d1 84 3d
       0.03588849 -0.04695975 0.008879741 0.06485201
000130 18 17 6c 3d 4c 40 59 3c 35 d6 a7 bd e1 4c bf 3b
       0.05763921 0.0132599585 -0.081951536 0.005838022
000140 d3 04 42 3c 27 ed d6 3d 87 66 d8 3d b6 5f 82 3b
       0.0118419705 0.10494452 0.105664305 0.003978695
000150 81 f2 d0 3d 94 e2 f0 3d 15 04 90 bd 0a 2f 31 3d
       0.10202504 0.11761966 -0.070320286 0.04325775
000160 9c 99 8b 3d 49 b9 2b 3d 44 d5 15 3d bf 39 3f 3d
       0.06816408 0.04192475 0.03658034 0.04668593
000170 06 bd d8 bd 1c aa 7c 3d be c1 37 3d 9f b5 38 bb
       -0.10582928 0.061685666 0.0448625 -0.0028184426
000180 4c 88 be bd bb fb f1 bd 8e 50 d9 bd c5 66 90 bd
       -0.0930334 -0.11815592 -0.10611068 -0.07050852
000190 4b 61 2e bd ce c5 9b bd e3 85 ec bd 2d 0d e7 3b
       -0.042573255 -0.076060876 -0.11548974 0.007051131
0001a0 17 22 c2 3c e7 b3 de bd f4 c9 81 3d 20 97 72 3c
       0.023697896 -0.108741574 0.063373476 0.014806539
0001b0 1a 04 fb bd aa 67 03 3e aa 8d f1 bd 0c df a2 3d
       -0.12256642 0.12832513 -0.117945984 0.07952699
0001c0 73 36 6c bd 94 f9 26 3c fe 20 0d bb a2 63 b0 3d
       -0.057669114 0.01019134 -0.0021534557 0.086127535
0001d0 ad 37 69 bd a4 7a f9 3b 3c 39 1e 3d 8a 58 c7 bd
       -0.056937862 0.007613497 0.0386288 -0.09733684
0001e0 f0 b7 9e bd 48 17 87 3b 24 81 2d bb c5 a9 04 3c
       -0.07749927 0.0041226484 -0.002647468 0.008097117
0001f0 95 d7 85 3d cc d3 ac bd 5c aa 42 bc ff d9 b0 3d
       0.0653526 -0.084388345 -0.011881437 0.086353295
000200 c3 4c 08 3b 1c 8f 94 bc a2 df e5 3d f5 4b a2 3a
       0.0020797707 -0.018134646 0.11224295 0.0012382256
000210 f9 83 93 3d af c2 e8 bd fa 30 fb 3d d5 f0 cd bd
       0.07202906 -0.11365258 0.12265201 -0.10055701
000220 b5 5f 38 bc 6a 8a 04 bd 90 c8 f0 3d 1a ff 8a bd
       -0.011253287 -0.032358564 0.11757004 -0.06786938
000230 51 a7 9d 3c 75 1c 97 3c f9 d5 71 3d f3 bf 85 bd
       0.019244822 0.018446187 0.05904195 -0.06530752
000240 22 ba be 3d 41 59 fd 3d 55 83 a1 3d a8 65 ef bd
       0.09312846 0.123705395 0.07886378 -0.11689311
000250 94 a3 f1 bd 55 11 1a 3c a9 f0 ab 3c 4a f4 ec bc
       -0.11798778 0.009403546 0.02098878 -0.02892508
000260 3e a2 15 bd 86 87 a9 bd e2 b9 22 bd 84 45 cd bd
       -0.03653168 -0.08277802 -0.039728053 -0.10023025
000270 1a 60 88 3d 53 66 3b 3d ab ea 13 3c 9f ea 8f bc
       0.06658955 0.04575188 0.009028117 -0.01756793
000280 b9 f1 76 3b 03 64 cc bb a9 34 a8 bb b9 50 3e bd
       0.00376807 -0.0062375083 -0.0051332307 -0.046463702
000290 e8 1a da bd f5 23 e9 3d 29 89 ec 3d 3e f0 dc 3a
       -0.10649663 0.113838114 0.11549599 0.0016856266
0002a0 a2 57 71 3d 14 a6 bc 3c 16 18 48 bd c5 e3 8c bd
       0.058921464 0.023028411 -0.048851095 -0.06879381
0002b0 43 6c ca 3d a2 d0 09 3d 04 6f 2a 3c 29 a3 36 bd
       0.098839305 0.033646233 0.010402445 -0.044589195
0002c0 90 a3 df 3d 92 0b 2e bd cb 94 dc bd 5b 3f e2 3d
       0.10919869 -0.042491503 -0.107705675 0.1104724
0002d0 5a 28 85 bc b1 22 75 bd cb 5e 97 bd 96 fd a3 3d
       -0.016254593 -0.059847537 -0.07391127 0.08007352
0002e0 23 e9 97 bd 8b de 9c 3c de f7 11 bd ad a7 58 3d
       -0.07417514 0.019149086 -0.035636775 0.052894283
0002f0 97 1c 9e 3d 32 3a 68 3d 6d e8 93 bd 1e 39 e5 bd
       0.07720297 0.056696124 -0.07222066 -0.11192535
000300 90 2c f8 bc ec a7 88 bd 30 c8 e5 bc 93 45 b7 bc
       -0.030294687 -0.066726536 -0.028049558 -0.022372043
000310 a0 4c a5 3d bb 06 4f 3d 90 ce cf bd f3 77 0e bd
       0.08071256 0.050543528 -0.101468205 -0.03478236
000320 5a 5f 98 3d 58 5d 7f bd 1d f3 a9 3d 81 28 63 bd
       0.07440062 -0.06234488 0.08298323 -0.05545855
000330 96 32 89 bd 90 9e 49 bd 23 41 15 3c 5b fd ea bd
       -0.066991016 -0.049223483 0.009109768 -0.11474105
000340 5e a2 df 3d c3 95 59 bd 2a 85 ba 3d 15 1d 76 3d
       0.10919641 -0.05312134 0.0910743 0.06008633
000350 ea dc 59 3d ef 30 f2 3c aa c8 da 3d 97 c8 9b bd
       0.053189196 0.029564349 0.10682805 -0.07606619
000360 98 24 f2 3d bd 66 c1 bc 6a 24 62 bd 91 ed a6 bd
       0.11823386 -0.02360856 -0.05521051 -0.08150781
000370 5b 63 86 bd 32 d9 ab 3d 2a 8e ca 3d 68 71 ac bd
       -0.06561919 0.08391036 0.09890397 -0.08420068
000380 6c 13 8f 3d b7 8f ae bd cc c6 52 bd 73 6c b6 3d
       0.06986126 -0.08523505 -0.05145912 0.08907404
000390 41 50 01 bd a8 2f b3 3d 5d de 95 bd c6 71 f9 3d
       -0.031570677 0.08749324 -0.07317803 0.12179904
0003a0 a6 2d 1c 3c 8c 96 00 be 74 c8 af bb d2 ea dc bd
       0.009532368 -0.12557429 -0.005364472 -0.10786976
0003b0 63 21 08 3d 57 2d a7 bd 52 7d d5 bd 9e fe 8f bd
       0.033234965 -0.08162945 -0.104242936 -0.07030986
0003c0 df 1b 11 3d 03 49 02 bc 08 5b 6a bd b7 85 9b bd
       0.03542697 -0.007951978 -0.05721572 -0.075938635
0003d0 79 19 69 bc e6 73 82 bd 8e 28 bf bd c1 ac db bd
       -0.014227265 -0.06369762 -0.09333907 -0.107263096
0003e0 3a bb f2 3b c3 0d f0 3d 7a ca f1 bd f7 6d 90 bd
       0.007407573 0.11721375 -0.118061975 -0.07052224
0003f0 6f 32 e8 3c a4 31 15 bd 27 54 9b bd fa ef be bd
       0.028344361 -0.036424294 -0.0758441 -0.09323116

lstm.bias_hh_l0 f4 [256]
000000 63 38 f5 bb 31 25 41 3d 0b f7 4f bd 4b 03 54 bd
       -0.0074835285 0.04715461 -0.050772708 -0.051760953
000010 00 db d4 bd 0c 3d dc bd 8d 2c 8c 3d d1 30 8b 3c
       -0.103933334 -0.10753831 0.06844435 0.01699105
000020 3f 72 b8 3d 98 45 9f bd 2b c3 4f bd e7 d6 52 bd
       0.09006166 -0.07776946 -0.050723236 -0.051474478
000030 bc 37 97 3d 7d 28 d7 bc 7b 5f 0f bd 24 0a c6 bd
       0.07383677 -0.026264424 -0.035003167 -0.09669903
000040 b7 2b d9 3d ec 9c db bd 5c 6d 6f 3d 18 b8 93 bd
       0.10604041 -0.1072329 0.058453903 -0.072128475
000050 20 d9 ff 3d 63 b7 82 bd 08 33 6b 3d 58 fc 50 3d
       0.12492585 -0.063826345 0.057421714 0.051021904
000060 d5 a1 f7 bd 77 97 83 bc a2 88 86 3d 84 87 32 3d
       -0.12091414 -0.016063435 0.065690294 0.04358627
000070 b6 67 50 bd 8b d4 c9 bd 8e fb 64 bd 2d bc d3 bd
       -0.050880156 -0.098549925 -0.055903964 -0.10338626
000080 b6 e2 e8 bc 4a a5 ed bd 7e 5f 8f 3d bf 58 98 bc
       -0.028428417 -0.11603792 0.070006356 -0.018597005
000090 69 62 7e 3d b0 54 cf 3d aa d0 8b bc 7a b6 2b 3c
       0.06210557 0.10123575 -0.017067272 0.0104805175
0000a0 c5 0a ee 3d 88 2b 39 bd 11 10 b3 3d 4f 3f 14 3b
       0.11623148 -0.04520753 0.08743299 0.0022620743
0000b0 7d 2e de bc 95 40 11 3d 35 8e 60 bd d7 c0 80 bc
       -0.027121777 0.03546198 -0.05482312 -0.015716953
0000c0 7f ad c8 bd 29 cc b1 3d 9d fe a8 bd 6f 9c aa 3d
       -0.09798717 0.086815186 -0.08251689 0.083306186
0000d0 d8 79 f3 3d 7a a0 f7 3d 85 ff c7 bd 2b 1e b0 3d
       0.11888474 0.12091155 -0.09765533 0.08599504
0000e0 8f 65 b4 3d 14 6e ff 3c 89 ab 4d 3d ab c9 f6 3c
       0.08808433 0.031180419 0.050212417 0.03012546
0000f0 ae 69 11 3c ef 9a 6b 3b a1 30 80 3d 4f 51 3d bc
       0.008875294 0.0035950502 0.06259275 -0.01155503
000100 04 c6 fa 3c a8 31 b0 3c 14 41 fe 3d ec 88 ee 3d
       0.030612 0.021508053 0.124147564 0.116472095
000110 20 04 55 bd 87 7d b0 bb 38 b6 22 3d fa c8 24 3d
       -0.052005887 -0.005386058 0.03972456 0.04023073
000120 81 c3 d5 bd c5 ee 42 bc 45 bf 1e 3c 0f 54 bf bd
       -0.1043768 -0.011897747 0.009689157 -0.09342205
000130 a7 58 95 bd 03 07 0a 3d 17 b5 f5 3d 2b d9 a8 bd
       -0.072923 0.033698093 0.11997431 -0.082445465
000140 b8 c2 34 3d 27 d3 65 bd c1 7c ec bd d3 6e 91 bd
       0.04413101 -0.056109574 -0.115472324 -0.07101216
000150 66 20 0b bd 51 eb ab 3c 33 fa c5 bd f6 f8 41 bd
       -0.033966444 0.020986231 -0.09666862 -0.04735657
000160 40 5f b2 3d 88 03 c2 3d 6f c0 a7 bd 4f b5 6b 3d
       0.08709574 0.0947333 -0.08191001 0.057545956
000170 26 37 5b bd 5c 98 16 3d f6 e1 55 bd 60 67 63 bb
       -0.05351939 0.036766395 -0.052217446 -0.0034699067
000180 d2 fe 88 3c 9f 28 89 bd 3c 78 fc bc 84 f9 00 3e
       0.01672307 -0.06697201 -0.030819051 0.12595183
000190 5e 62 78 bc d3 c4 11 3d 2e e7 64 bd 9f 81 8c 3d
       -0.015160171 0.035588097 -0.055884533 0.06860661
0001a0 ec 0f f5 bd aa 47 89 bc e5 01 35 bc 15 b0 24 bd
       -0.119659275 -0.016757805 -0.011047815 -0.040206987
0001b0 82 c3 e8 3d 60 20 d1 3d b8 b1 bf bd 56 24 72 3b
       0.11365415 0.10211253 -0.09360069 0.0036947927
0001c0 d1 57 e4 3d 89 00 c2 3d f5 73 f6 bd 01 45 04 bd
       0.11149562 0.09472758 -0.12033836 -0.03229237
0001d0 1d ef 4e bd 01 42 b1 bc 7e ec 83 bd b6 6f 19 bd
       -0.050521005 -0.021637918 -0.06441592 -0.03746005
0001e0 18 26 4a bc d3 94 9f 3c a1 b5 9a 3d 0f fb 18 3d
       -0.012338184 0.019480145 0.07554174 0.037348803
0001f0 83 93 6c 3d e5 d8 49 bd 39 09 6d 3d e4 cf 83 3d
       0.057757866 -0.049279112 0.057870124 0.06436136
000200 1f 77 37 bd 1e f5 b6 bd 0a ff cb bd fc 67 3a bd
       -0.044791337 -0.08933471 -0.09960754 -0.045509323
000210 ce f6 f8 bc 6c 9b 01 bd 6e be e8 bd eb f8 aa bd
       -0.030391123 -0.031642362 -0.113644466 -0.083482586
000220 d7 ad 06 bc 0b eb 2c bd 2f ab a4 3c b2 d6 32 3d
       -0.008220158 -0.042216342 0.020101158 0.04366178
000230 5c c9 aa 3d 45 69 ae 3c bf 4f db bd a7 0e d4 bd
       0.083391875 0.02129043 -0.1070857 -0.10354357
000240 92 56 d1 3c 4f 2f 9d ba 99 7a b1 3d 70 67 da bd
       0.025553975 -0.0011992248 0.08665962 -0.106642604
000250 68 eb ef bd 15 3e 57 3c f1 29 d7 3d ef 09 93 bd
       -0.11714822 0.01313736 0.105060466 -0.07179629
000260 8e 87 49 bd 76 2f 0f 3d a1 e4 b6 bd 72 dc 5b 3d
       -0.04920154 0.03495737 -0.08930326 0.05367703
000270 e0 d2 81 3d 11 6d d8 3c 74 58 5d bd 60 76 00 ba
       0.06339049 0.026419194 -0.054039434 -0.0004900452
000280 ea 3e 51 3a b6 a5 17 bd 30 ed d4 3d 3d b8 95 3d
       0.0007982092 -0.03702327 0.103968024 0.07310531
000290 90 9f 54 bd 03 e4 2f 3d ef a4 10 bd 60 fb 72 3d
       -0.051909983 0.04294206 -0.035313543 0.05932176
0002a0 83 8d c3 bd 8f 8e cf bd 98 7a aa 3b 09 74 bd 3d
       -0.095484756 -0.10134613 0.0052026026 0.092506476
0002b0 75 1c b1 3d a3 66 94 3d 67 90 54 bd ab 93 fb 3d
       0.08648006 0.07246139 -0.051895525 0.12284025
0002c0 f8 8d de bd 7e 7e 19 3d d7 1d 92 bd fd 97 0e 3d
       -0.10866922 0.037474148 -0.07134598 0.034812916
0002d0 93 d1 7d bd 01 a0 68 bd 1d da b3 3d a0 75 ce bd
       -0.061967444 -0.056793217 0.08781836 -0.10081029
0002e0 47 b3 ae bd 07 f9 bf 3d d1 5e 93 3d f9 9a ce 3c
       -0.08530288 0.0937367 0.07195819 0.025220381
0002f0 39 86 f3 bd b1 d3 e9 bd 0d c5 e7 3d c2 d6 5b 3d
       -0.11890835 -0.1141733 0.11316881 0.053671606
000300 7b ff d7 3d b4 53 ea bd 82 28 cc bd 09 82 31 bc
       0.10546776 -0.11441746 -0.09968664 -0.010834225
000310 b2 20 b8 bd 01 e2 79 bd 01 d3 c8 bb 66 4a dd bd
       -0.08990611 -0.06100655 -0.0061286693 -0.10805206
000320 c8 c4 aa bd 3d 0d eb 3d 47 c8 38 3c cf 5e c9 bd
       -0.08338314 0.114771344 0.011278219 -0.098325364
000330 57 09 37 3d af 61 d4 bd a2 1d f6 bd 6d 17 9c bd
       0.04468664 -0.10370194 -0.12017371 -0.076216556
000340 8b ee f8 bc 91 bc db bd 8b 1d 66 bc ca ec 19 3c
       -0.030387184 -0.107293256 -0.0140451295 0.009394834
000350 f6 f3 55 bd a8 0f 9c bd 32 f0 e7 bd b6 b8 68 bc
       -0.052234612 -0.07620174 -0.113251105 -0.014204195
000360 f0 0d ec bd 3f 43 dc 3d 7b 3e ec 3d 21 eb d5 3d
       -0.11526096 0.10755014 0.11535355 0.10445238
000370 ba ad 46 3c fe 23 d5 bd 4a 5a a0 bd 15 c5 09 3d
       0.012126381 -0.104072556 -0.07829721 0.033635218
000380 20 a1 9c bc fb a0 85 bd f8 27 dd 3d f5 ea 14 bd
       -0.0191198 -0.06524845 0.10798639 -0.036356885
000390 0b 5a 7d 3d 1c 0d 8d bd b3 8d 1b bb 16 96 12 3d
       0.06185345 -0.06887266 -0.0023735582 0.035787664
0003a0 fb e8 73 3d d5 5c 01 bc 6e 07 e7 bd 70 2d f1 3d
       0.05954836 -0.007895668 -0.11280714 0.11776245
0003b0 67 80 ec 3d 6b 9b 91 bd de 18 b7 bc ae 22 11 bd
       0.11547928 -0.07109722 -0.022350725 -0.035433464
0003c0 9e 65 e3 bd fa 90 8d bd 12 3b b3 bd 99 16 b0 bd
       -0.11103366 -0.06912418 -0.08751501 -0.0859806
0003d0 f5 9a 4d 3d d4 1f 18 3d ce cf a3 3d e7 e3 dc 3d
       0.050196607 0.03713973 0.0799862 0.107856564
0003e0 c7 08 81 bd ef b6 37 3c fd 9c d5 3c 1b ed cb 3d
       -0.06300502 0.011213048 0.026075834 0.09957334
0003f0 7f 81 04 3d 9d bd c8 3d b2 2e 46 bd 76 22 88 bd
       0.03235006 0.09801791 -0.048384376 -0.06647198

lstm.weight_ih_l1 f4 [256, 64]
000000 0b f6 bb 3c f8 86 fa bc 03 da 8e bd 04 68 c2 bb
       0.02294447 -0.030581936 -0.06975176 -0.00593281
000010 e1 a5 9f 3d 6b f9 e3 3d 5b 5d 0e bd 8e f2 a9 3d
       0.07795311 0.11131557 -0.034757 0.08298217
000020 6a ff 93 3d 3c e6 50 3d 0f f4 1b 3d 9e 3d 8c 3d
       0.07226451 0.05100082 0.03807455 0.0684769
000030 98 32 9c 3d 6c 72 5e 3d c5 20 bc 3d 95 19 01 be
       0.076268375 0.05430834 0.09185938 -0.12607415
000040 8d 7f fd 3d 82 35 42 bd 26 1d 56 bc 49 df 3e bd
       0.12377844 -0.04741431 -0.013068473 -0.04659966
000050 b2 a1 eb 3d 5e 2e 5f 3c 0c 90 86 bd ea 10 d8 3d
       0.1150545 0.013621895 -0.065704435 0.10550101
000060 8a 0a 92 bd 07 a8 b6 bd 4b d1 9d 3d a4 61 d3 3d
       -0.071309164 -0.089187674 0.07705935 0.10321358
000070 d9 82 f6 bd 5e f3 f3 bc 6b f9 99 bd b0 bc d4 3c
       -0.12036676 -0.029779132 -0.07518276 0.02596888
000080 0d 79 19 3d 9f c6 a9 3d 9c 34 0d bd f1 2b 38 bd
       0.03746896 0.08289837 -0.034474 -0.04496378
000090 4d 14 0e bd be 44 46 bd 13 eb e6 3d a6 31 86 bd
       -0.03468733 -0.0484054 0.112753056 -0.065524384
0000a0 3a ce 53 bd 92 fa ef 3d 77 43 6c bc b1 69 61 3d
       -0.051710345 0.11717714 -0.014420382 0.055032436
0000b0 e9 37 d9 3b e6 d3 80 3d 29 ce e6 3d e1 d1 bf bd
       0.0066289795 0.062904164 0.11269791 -0.09366203
0000c0 5d 1c 1e 3d bd 24 a4 bd bb 3f d6 bd 0f a2 a2 3d
       0.038601268 -0.0801482 -0.10461374 0.079410665
0000d0 af c4 8c bd e4 8d ec 3d c3 78 90 bd f3 0e b8 3d
       -0.06873452 0.11550501 -0.070542835 0.08987226
0000e0 40 01 03 bd e7 66 3d bd e5 14 c1 3c 01 ac 3a bd
       -0.031983614 -0.046240713 0.023569534 -0.045574192
0000f0 83 8c b5 3d 59 cc e0 3d cc fb 2e bd 4a 06 db bd
       0.08864691 0.10976476 -0.0427206 -0.10694559
000100 6e 3b cc 3d 0f e2 07 3d b4 a4 e6 3d a5 92 17 bd
       0.09972273 0.03317457 0.112618834 -0.037005085
000110 96 0b c6 3d 09 d6 ca bd 10 8e 3d bd 63 7f 00 be
       0.096701786 -0.09904105 -0.04627806 -0.12548594
000120 32 f7 c5 3d 5f 69 89 bb 6f 6a b7 bb 4f 32 42 bd
       0.096662894 -0.0041934694 -0.0055974047 -0.04741126
000130 0c e1 7a 3a 20 bc 36 bd 08 db 94 bd 0f af 15 3c
       0.0009570278 -0.044613004 -0.072683394 0.0091359755
000140 e1 93 a1 3d e3 23 f9 ba 82 ca 0e bc dc 51 cd bd
       0.07889534 -0.0019007887 -0.008715274 -0.10025379
000150 e1 93 f8 bd 70 f7 ac bd b1 18 1b bd af 42 bd 3d
       -0.12137581 -0.084456325 -0.037865344 0.092412345
000160 e4 dd 4b 3c ee 4f 77 bd 4c 82 ee bd 33 6a e3 3d
       0.01244304 -0.06037896 -0.11645946 0.1110424
000170 6b 30 c5 bb 63 d3 90 3c f1 22 f7 3d 8a 85 4f bd
       -0.0060177348 0.017678922 0.120672114 -0.050664462
000180 de 95 d0 bd 9d 1d 5a bd 16 0b 32 bd 5e c4 89 bd
       -0.10184835 -0.053250898 -0.043467604 -0.06726907
000190 56 08 5e ba 04 41 00 bd d7 73 ec bd 3e 85 91 3d
       -0.000846987 -0.031312004 -0.11545532 0.07105492
0001a0 2b 9b b1 ba 07 92 f0 3d e6 77 a2 bd f8 2c 68 3d
       -0.0013550272 0.117466025 -0.07933025 0.05668351
0001b0 80 f7 6a bb 76 13 f8 bd 03 bc 56 bd 3f d8 9b bc
       -0.0035853088 -0.12113087 -0.052425396 -0.019024013
0001c0 f5 39 b7 bc c5 1c 3a bb 44 91 ea bd 0f f3 99 bd
       -0.022366503 -0.0028398496 -0.114534885 -0.07517063
0001d0 e5 4f 37 bd df b4 c4 bb 93 f7 c4 3d fb 98 65 3d
       -0.044753928 -0.006003007 0.096175335 0.056054097
0001e0 1a b5 26 3c 33 4f 8f 3d c5 6e 2d 3d 7a 3e 4c bd
       0.010175014 0.06997528 0.042341966 -0.04986427
0001f0 c2 14 93 bd 36 ed 7b bd 59 6b 04 bc e3 75 0b 3b
       -0.071816936 -0.06150552 -0.008082234 0.0021279983
000200 96 e1 7c bd b4 d8 76 bd 78 ae 17 bd 18 5d c8 bd
       -0.061738573 -0.060265258 -0.03703162 -0.09783381
000210 34 f6 f3 bd ba fb 5b 3c f9 60 ba 3d 9d 52 00 3e
       -0.11912194 0.0134267155 0.09100527 0.12531514
000220 04 f3 57 bd 76 17 48 bd 0e ce 01 3b 6a 8a a1 bc
       -0.052721992 -0.0488505 0.0019806656 -0.019719321
000230 a5 bd 2d bd 0b fe ff bd a4 b7 bb bd af 52 4a bc
       -0.042417187 -0.12499627 -0.09165886 -0.012348815
000240 65 c0 be 3d 94 d4 b8 bd ff 6b c1 bd 88 24 a3 3d
       0.0931404 -0.09024921 -0.09444427 0.07965952
000250 10 26 73 bd 4f 3a 90 3d f7 8b e6 bc 78 4a 42 bd
       -0.05936247 0.070423715 -0.028142912 -0.0474343
000260 83 bc c3 3d 2c a1 d2 bd 00 5a 98 3c 61 26 09 3d
       0.0955744 -0.10284647 0.018597603 0.033483867
000270 50 dd 2a bd 96 e6 a2 3d 10 70 8a 3b 37 b6 ea bc
       -0.041714966 0.07954137 0.0042247847 -0.02865134
000280 88 f8 a4 bb df 16 d5 3d cd c4 cd bd eb 5f b0 bd
       -0.00503451 0.10404753 -0.100473024 -0.08612045
000290 ed b9 fa 3d 4f 05 fc bc 9c 12 f0 3d a5 7c ba 3b
       0.12242494 -0.03076425 0.117222995 0.0056911283
0002a0 1b 48 39 bd 71 6e 29 bd ef a5 fb 3d 82 b9 87 3d
       -0.04523478 -0.04136509 0.12287509 0.0662718
0002b0 1c b3 bd bd ed 27 e7 bb 0e 64 df 3d c8 76 d4 bd
       -0.09262678 -0.00705432 0.10907756 -0.10374218
0002c0 49 93 d5 3d 46 f8 f8 bd ac aa 70 bd 8d 45 91 3c
       0.10428483 -0.121567294 -0.058756515 0.01773336
0002d0 b4 e7 66 3c 04 10 b6 bd bf 89 e8 bd a5 0f ea 3d
       0.014093328 -0.088897735 -0.11354398 0.11428765
0002e0 00 3d db bd 9b 33 50 bd 05 08 cb bd 01 7a 8a 3d
       -0.10704994 -0.050830465 -0.09913639 0.06761552
0002f0 1e c5 e2 3d fd 02 92 bd 7e a9 20 3d 08 15 95 3d
       0.11072753 -0.07129476 0.03922414 0.07279402
000300 3f 49 86 3d dc 17 f0 ba ca de f2 3d 3d 9c 25 3d
       0.06556939 -0.0018317658 0.118589 0.040432204
000310 be ea de 3d 70 c5 f6 bd b3 7b 8a bd 0a 37 49 3d
       0.10884617 -0.12049377 -0.06761875 0.049124755
000320 64 0c dc bd 1c 78 6b bd a9 c2 cb bd e7 4a 81 3d
       -0.10744551 -0.057487592 -0.09949238 0.063131146
000330 d8 8a b1 3c 07 3f 78 bd ed 89 d5 3d ab 02 f5 bc
       0.021672651 -0.060606983 0.10426698 -0.029908499
000340 41 ab 5f 3d eb 8e 85 3d eb 28 ea 3d 24 83 13 bd
       0.05460668 0.065214 0.11433586 -0.036013737
000350 30 fe b9 3d 1e 85 af bb 0a 35 cc 3d ef 90 ea bd
       0.090816855 -0.005356445 0.09971054 -0.11453425
000360 3e 6b 1b bd be 91 b9 3d 8a 52 62 bd e0 02 ed 3d
       -0.03794407 0.09061001 -0.055254497 0.11572814
000370 63 9c 91 bc 6c cc 32 3d a1 2e bd bd a6 a4 16 bd
       -0.017774766 0.043651983 -0.092374094 -0.036778115
000380 ff 84 9c bd be ae 8b 3c 2d 6f 90 ba 17 54 a2 3d
       -0.076425545 0.017051097 -0.0011019461 0.07926195
000390 40 c3 f2 3c 84 b4 90 3d 93 9d b0 3d 48 56 f1 3d
       0.029634118 0.070656806 0.08623805 0.11784035
0003a0 17 eb 0d bd e6 4c aa 3c 7b 17 ec 3d 0e 8f 4e bd
       -0.034648027 0.020788621 0.11527916 -0.050429396
0003b0 f4 5d fe bc 12 81 51 3d 52 2b 8e bc 91 ac 84 bd
       -0.03105066 0.05114848 -0.017354641 -0.06478227
0003c0 3d 83 cf 3d 2e 9c 87 bd f6 2f bd 3d 53 e3 00 bd
       0.101324536 -0.06621586 0.092376634 -0.031466793
0003d0 1c 63 b3 3d 6a c4 fa bc b7 c0 2c bc 3b a3 f2 3c
       0.08759138 -0.030611236 -0.010543994 0.02961885
0003e0 4d 9f 85 3d 1d 17 95 bd 2f 9a b0 bd 3f 53 90 3c
       0.06524525 -0.07279799 -0.08623158 0.01761782
0003f0 7c 84 ec 3c 90 77 ec 3d cb 92 d3 3c 5a 5b 61 bd
       0.028871767 0.11546242 0.025826832 -0.05501876

lstm.weight_hh_l1 f4 [256, 64]
000000 47 54 04 bd e6 a8 69 bc b0 cf d8 bd 45 69 54 bd
       -0.032306936 -0.01426146 -0.10586488 -0.051858205
000010 cb 4d f1 bd 45 ad 38 bd c3 a3 20 bd 9d f9 d2 3d
       -0.11782416 -0.045087118 -0.039218675 0.10301516
000020 f7 57 77 3d df 9c ae 3d ca 8c a9 bd 15 7b f5 3d
       0.060386624 0.085260145 -0.082788065 0.11986367
000030 79 cd f2 3d f8 a4 00 be 66 6a d3 bc 2a e5 3d 3d
       0.11855597 -0.1256293 -0.02580757 0.046361126
000040 0d f3 5e ba ad 6b a1 bd 94 b4 5a bd b8 d8 61 bc
       -0.00085048453 -0.07881866 -0.05339487 -0.01378458
000050 83 e1 9b 3d fb c5 94 bc 45 7c db 3d e5 68 a8 bd
       0.07611372 -0.01816081 0.10717062 -0.08223132
000060 3c fb 8d 3d f1 ba 93 bd 8c 5f f8 3d fa 8c 65 bd
       0.06932685 -0.072133906 0.12127599 -0.05604265
000070 22 34 a9 bd 91 ce 9f bd 6b 65 b7 3b 1d 14 38 bc
       -0.08261897 -0.07803071 0.0055968068 -0.011235264
000080 15 e1 f5 bd 7f 4f 96 3a 92 fe e9 bd 23 93 d8 bd
       -0.120058216 0.0011467783 -0.114255086 -0.10574939
000090 70 00 9a bd fb bd e1 bd c8 e4 04 bd e5 b0 be 3d
       -0.07519615 -0.11022564 -0.032444745 0.09311084
0000a0 d4 4a 5f bd b2 f7 4b 3d 13 21 6e bd 87 ed db bd
       -0.05451472 0.049796768 -0.05813701 -0.10738664
0000b0 62 f0 7b 3d 58 f3 d2 3d 17 d5 79 bd 34 da 7f bd
       0.061508544 0.103003204 -0.060994234 -0.062463954
0000c0 f7 e9 26 3d 6f ec 34 3c 8f d9 7b 3d d4 b3 29 3d
       0.04075047 0.011042698 0.061486777 0.041431263
0000d0 97 ee ed bd de 0e 90 bd 4f 8a be 3c 0f 08 a8 bd
       -0.11617773 -0.07034086 0.02325931 -0.08204662
0000e0 44 44 d6 3d 92 39 69 bd 76 61 20 3d cf 6d a5 bd
       0.104622394 -0.05693967 0.039155446 -0.08077585
0000f0 b6 c9 1c 3d c8 45 5b 3d 16 1b c8 bd dc 19 b0 3d
       0.038278304 0.053533345 -0.09770791 0.08598682
000100 0b 30 b7 3d 89 64 32 bd 95 2a b6 bb ca cd 79 3d
       0.0894471 -0.04355291 -0.0055592754 0.06098727
000110 8a 9f 98 3c 9b f2 53 bd 69 fb a1 3d d2 b0 6e bd
       0.018630762 -0.05174504 0.07909281 -0.058274098
000120 93 a4 f3 3d 7d d2 9b 3d 34 d9 ad 3d 9f f5 03 3d
       0.118966244 0.07608507 0.08488694 0.032216664
000130 c7 ed 7f bb 77 31 a9 3c 02 25 fb 3d 12 63 b2 bd
       -0.0039051638 0.02065347 0.12262918 -0.087103024
000140 05 c1 6e 3c ef 4c c8 bd 85 28 b8 bd 16 97 df 3c
       0.014572387 -0.09780299 -0.089921035 0.027293723
000150 10 11 b4 3b b6 2f 6c bd 04 64 63 3d f3 36 32 3b
       0.005495198 -0.05766269 0.055515304 0.0027193397
000160 17 49 2c 3d 48 0a a4 bd 53 a0 bd bd 0f f4 d8 bd
       0.04206189 -0.080097735 -0.09259095 -0.105934255
000170 73 f6 90 bd a2 bf 9f bd 31 f5 25 3d fb 6d 97 3c
       -0.070782565 -0.07800223 0.040517036 0.01848506
000180 0e 7c bb bd a6 c4 f5 3d 9c 6e f6 3d 63 c1 b5 3d
       -0.09154521 0.12000398 0.12032816 0.08874776
000190 70 f3 95 3d 8a d6 55 bd 79 cf d4 3d 82 23 17 bd
       0.07321823 -0.052206554 0.10391135 -0.036899097
0001a0 0e 4f c8 3d a3 f9 8f bd ed b2 63 bd 47 79 42 bd
       0.097807035 -0.07030036 -0.05559056 -0.04747894
0001b0 9b 3e fe 3c 9c 9a ad 3d fb 07 af bb c1 11 a1 3d
       0.031035712 0.08476755 -0.0053415275 0.078647144
0001c0 82 6b bb 3d e4 00 ed 3d be 6e 53 3d 2b ff 3d 3b
       0.09151365 0.115724355 0.051619284 0.0028991203
0001d0 11 9c b7 3b 65 7d ad bd 9e 2b 0a 3a 82 33 74 3b
       0.0056033214 -0.08471183 0.00052707817 0.0037262146
0001e0 28 85 96 bd 8e 19 7d 3d e4 a8 b4 3d 2e 6a f7 3d
       -0.07349616 0.06179195 0.08821276 0.12080799
0001f0 35 7a db bc fd 99 be bb f1 b5 7f bd 71 cd 06 bd
       -0.026791671 -0.0058166967 -0.062429372 -0.032910768
000200 e3 9a 7b 3c d1 37 c0 3c b2 c3 f7 bd 05 b7 6c bd
       0.015356752 0.023464115 -0.12097873 -0.05779173
000210 81 d9 b9 3d 65 09 50 bd a0 7f 13 3d 55 4f 92 bd
       0.09074689 -0.05079021 0.036010385 -0.07144038
000220 a5 64 25 bd 2b 34 00 be 65 1c 8a 3d 54 75 ca 3d
       -0.040379185 -0.125199 0.06743697 0.0988566
000230 83 6b 8b bd 20 5b dd bd fc 3a c4 bd 47 bd 79 bd
       -0.068076156 -0.10808396 -0.09581563 -0.060971525
000240 61 9a a8 bd 6e d2 82 bd 9e c0 e2 bd 12 e7 c9 3d
       -0.082325704 -0.063877925 -0.11071895 0.09858526
000250 ed 9c c0 3d 1a 2d ff bd 85 f1 71 3d e6 48 cd bd
       0.09404931 -0.12459774 0.05906822 -0.1002367
000260 60 ab c3 3c 88 4e d6 bd cb c1 a8 3d f1 e0 8d 3d
       0.023885429 -0.104641974 0.08240088 0.0692767
000270 df 57 eb bd ad 7a 5d 3d 01 6f e2 3b a2 2c 95 3d
       -0.114913695 0.05407207 0.0069102054 0.07283904
000280 02 ed 8e bd 30 07 b6 bd 6a 3c b1 3d 0e 5c a1 3c
       -0.069787994 -0.0888809 0.08654101 0.019697215
000290 e9 28 e6 bd d1 ea 02 bd c9 9c b3 3d 5d 96 c4 bc
       -0.11238272 -0.03196222 0.08770139 -0.02399748
0002a0 10 5d d1 3c 13 c0 89 bc bd b7 c2 3d ca 07 e2 3c
       0.025557071 -0.016815221 0.095077015 0.027591605
0002b0 4b ae c3 bd eb 70 98 bd 19 0a a1 3c c8 0b f4 3d
       -0.09554728 -0.074434124 0.019658135 0.119163096
0002c0 a9 92 c3 bd 5c 61 d9 3c 11 7b 30 bd 61 b5 03 bd
       -0.095494576 0.026535682 -0.043086115 -0.0321554
0002d0 17 fc 96 bd 99 5d c9 bd 4d d3 b2 3d 5c d9 3b bd
       -0.07372301 -0.098323055 0.08731709 -0.045861587
0002e0 6f ac 83 3d b4 eb 8a bc 6c e2 ed 38 9f ad 5c bd
       0.064293735 -0.016958095 0.00011343215 -0.053876515
0002f0 e2 cc 02 bc 8d 8b d0 bd fb fb f2 bd fa 68 84 bd
       -0.007983418 -0.10182867 -0.11864468 -0.06465335
000300 6a cd 81 bd 86 61 eb 3b 50 77 89 bc 68 f7 d3 bd
       -0.06338008 0.0071832566 -0.016780525 -0.10349923
000310 28 6c d6 3d 98 7c c4 3d 6c 7c db 3d a3 72 58 3c
       0.10469848 0.09594077 0.10717091 0.013210925
000320 0a ba ce bc 3b 3b 09 3c b6 79 89 3d 75 62 b8 bd
       -0.025235195 0.008375938 0.06712668 -0.09003154
000330 f4 39 da bd de 83 80 bd d1 59 e9 3d 58 40 2a bb
       -0.10655585 -0.06275152 0.11394084 -0.0025978293
000340 f6 73 bd 3d 25 f6 72 bd 44 a9 36 3d b4 26 f8 bd
       0.092506334 -0.059316773 0.044595018 -0.12116757
000350 76 f6 e0 3d 58 9f 65 3d ae 92 de 3c 08 d4 cd bd
       0.10984509 0.056060165 0.027169552 -0.100502074
000360 f4 62 1e 3d 18 dc 86 bd 95 9d dd 3c e2 73 a6 3d
       0.038668588 -0.06584948 0.02705268 0.08127572
000370 8b fb b6 bd 5d 12 67 bd ff 88 c7 bd da c9 f9 3d
       -0.08934697 -0.056413997 -0.09742927 0.12196703
000380 12 fd b0 bc a2 b6 84 bd ca 1d e6 bd 93 fb ba 3d
       -0.021605048 -0.06480147 -0.112361506 0.09130015
000390 3a 29 fd 3d 3b b9 f4 bd 85 e7 a9 bd 3d dd b7 3d
       0.12361379 -0.119493924 -0.08296112 0.08977745
0003a0 f5 d7 d9 bd 40 e5 a5 bd 02 d6 f2 3d 0b 11 ab bb
       -0.10636894 -0.081003666 0.11857225 -0.0052205375
0003b0 7d 2f c2 bd 77 20 f3 3c 05 b7 e3 bd 29 64 33 bd
       -0.09481714 0.029678566 -0.111188926 -0.043796692
0003c0 ac 8d 8f 3d 0a c1 2c 3b fe cc 62 3d 54 38 55 bd
       0.07009444 0.0026360177 0.055371277 -0.05205567
0003d0 59 4e 56 bc 33 1f c9 bc fd b8 fc 3d f9 5b 96 bd
       -0.013080203 -0.02455101 0.12339971 -0.07341761
0003e0 33 20 80 bd 07 fd e4 bd 1f 24 88 bd 72 94 ad bd
       -0.062561415 -0.11181074 -0.066475146 -0.08475579
0003f0 1c 87 19 3d 83 e0 e9 bd 0c ab ea bd dd 4b c8 ba
       0.037482366 -0.11419775 -0.11458406 -0.0015281398

lstm.bias_ih_l1 f4 [256]
000000 be 63 f4 3d 0b c2 25 3c 01 e9 02 3d 80 c3 71 3c
       0.11933087 0.010117064 0.03196049 0.0147560835
000010 1c c9 5f 3d 05 33 be 3d 8f eb db bc 1c 38 a4 3c
       0.054635152 0.09287075 -0.026845722 0.020046286
000020 62 43 a7 bd 07 db c5 bd 9d 79 9e 3c 21 7a a4 bb
       -0.08167149 -0.09660917 0.0193451 -0.0050194417
000030 36 f2 dd 3c e3 1c be 3d 09 91 0e 3c 1e 3f 5b bd
       0.027093034 0.092828535 0.008701571 -0.05352699
000040 a4 40 ea bd d4 69 ba bc 29 6f ae 3d 76 78 57 bd
       -0.114381105 -0.02275554 0.08517296 -0.052605115
000050 8a 7a 9c 3d 66 0c 5f 39 dc a1 d2 3d 20 4b af 3d
       0.0764056 0.00021271556 0.102847785 0.08559251
000060 f7 97 c5 bd 6e b1 cd 3c 73 d6 1f bd 22 c1 59 3d
       -0.096481256 0.02510902 -0.039022874 0.0531627
000070 89 d8 3b bd 82 1a ec 3d 97 93 49 3d 34 35 02 bd
       -0.0458608 0.115284935 0.04921302 -0.03178902
000080 f9 d1 80 3d 31 ee 75 bc 3e 6d a1 bc b3 2b af 3d
       0.06290049 -0.015010403 -0.019705411 0.08553257
000090 50 f6 00 3d 7d ee eb bc 3a 2c 22 bd a4 32 bd bd
       0.031484902 -0.028800244 -0.03959296 -0.092381746
0000a0 89 86 7e bc ea d1 fb bc 1f 84 8a 3d 07 3d 72 bd
       -0.015535005 -0.030739743 0.06763481 -0.05914023
0000b0 97 90 26 bc e4 8d 91 bd a4 63 60 bd 68 a6 6f 3d
       -0.010166309 -0.071071416 -0.054782525 0.058508307
0000c0 3c 3b 44 3d cf 1c 88 3c fc f4 aa bd c1 84 bf bd
       0.047908053 0.0166153 -0.08347508 -0.09351493
0000d0 34 44 80 bd 07 3c 01 3d 7e 1e f7 bd 9c c3 c1 bc
       -0.06263009 0.031551387 -0.12066363 -0.023652844
0000e0 73 04 9d 3d 40 01 d4 bd 5e 87 b9 bd f8 aa af 3d
       0.07666864 -0.10351801 -0.09059022 0.085775316
0000f0 a9 86 ee 3b da a5 ac 3d c4 5f 0e 3d b5 fa 8b 3d
       0.0072792363 0.08430071 0.034759298 0.06834928
000100 7c c0 92 bd 8f a6 ed 3d 82 fc 25 3d 81 06 67 3d
       -0.0716562 0.11604034 0.040524013 0.056402687
000110 d5 29 5f bd 8a ae 8a bd 01 71 a4 bb 08 2a 28 3d
       -0.054483254 -0.06771572 -0.005018354 0.04105571
000120 17 45 aa 3d ce b3 e8 bd ea bd a5 3d 4d ab 3c bd
       0.08313959 -0.1136242 0.08092864 -0.046061803
000130 20 06 56 3d f4 c5 25 3d ca c8 ac bd 1f b2 7d 3d
       0.052251935 0.040471986 -0.08436735 0.061937448
000140 45 23 c4 bd 38 7b 34 3c f4 53 80 bd 4f fe 96 3d
       -0.0957704 0.011015706 -0.06266013 0.07372724
000150 ad 69 ee 3d 6e ed b3 bd 64 76 78 bd f2 3d b1 3d
       0.1164125 -0.087855205 -0.06065978 0.08654393
000160 8d 82 f2 3d 66 01 3d bd bf fe 99 bd 6d dc fb bc
       0.11841307 -0.04614391 -0.07519292 -0.030744756
000170 c0 85 b7 bd 5f 12 9f 3c 7b 6d 10 bd 28 89 5b bd
       -0.08961058 0.01941794 -0.03526066 -0.0535976
000180 09 6a c1 bd 8d 79 a3 bd ba b9 cf 3d 19 2a 87 3d
       -0.09444053 -0.07982168 0.101428464 0.06599826
000190 4c 5b ef 3d e5 d5 5b 3d 63 e4 85 3d 94 78 9a 3c
       0.11687335 0.053670783 0.06537702 0.018856324
0001a0 56 0c be 3b 80 f7 9d bd 70 e8 b1 3c 4a fa 1d 3d
       0.0057998104 -0.077132225 0.02171728 0.038568772
0001b0 83 9b fa 3d 20 c1 e8 bd 71 3d 07 bb 4c c4 22 bd
       0.12236693 -0.11364961 -0.0020635987 -0.039737985
0001c0 16 3b 5f bd d2 cb 2d 3d 70 4a 09 bc 95 d8 a6 bd
       -0.054499708 0.042430706 -0.008379564 -0.081467785
0001d0 01 4b eb bd cb ab 8e bc 54 a6 06 bd 4b e2 a3 3c
       -0.11488915 -0.017415902 -0.032873467 0.020005366
0001e0 9b 77 5d 3c d0 97 92 3d c7 a9 38 3d c5 d8 b8 bc
       0.013517286 0.07157862 0.045083787 -0.022564301
0001f0 50 73 0a 3d ac 6e 81 bd 3b 66 d2 3d c9 54 15 bd
       0.033801377 -0.06319937 0.10273405 -0.03645781
000200 84 f7 96 bd 7c bb 9b bd ef 0c 04 3d 7a 5a d7 bd
       -0.073714286 -0.07604119 0.032238897 -0.10515304
000210 e3 e1 4f 3c 21 cb 13 bd 88 41 e9 bd 67 7e 08 bc
       0.012688133 -0.03608239 -0.11389452 -0.008330918
000220 90 40 99 3c 89 8a b6 3c 89 ec 67 3d 40 1c 88 bd
       0.018707544 0.022282856 0.056622062 -0.06646013
000230 c2 66 b9 3b e8 a3 ba bd 48 b3 01 3d 2d 41 d1 3d
       0.0056580016 -0.09113294 0.031665117 0.102175094
000240 86 25 1c 3d 8d 4b d5 3d 1a b4 75 3b ab c2 98 3d
       0.038121723 0.10414801 0.0037491382 0.07459005
000250 83 9d 14 3c 7b d6 93 bd 0c 2d c9 3d d3 ac cd bd
       0.009070757 -0.07218643 0.09823045 -0.10042729
000260 ee c8 e4 bd 72 bb f7 3d 60 7a 62 bd ab 41 7e bd
       -0.11171137 0.12096299 -0.055292487 -0.062074345
000270 13 fe 05 3d 98 72 70 3d 66 72 c6 bd b0 89 74 bd
       0.032713007 0.058703035 -0.096897885 -0.05970162
000280 6e 08 e8 3c b4 00 05 bd a8 88 c7 3d d1 8a a3 3d
       0.028324332 -0.032471374 0.09742862 0.079854615
000290 7a 51 88 3c c7 ce 4f 3d a9 20 d6 bd 74 5c c5 3d
       0.016640414 0.050734308 -0.10455448 0.09636775
0002a0 4d 1f 4b bd 65 84 92 3d 61 e3 95 bd 13 85 83 3d
       -0.049590398 0.071541585 -0.0731876 0.06421866
0002b0 c3 61 bc 3d 20 bb 11 3c df da d2 bd ec c8 51 bd
       0.09198334 0.008894712 -0.102956526 -0.051217005
0002c0 f1 c3 58 3d 8e a8 ec 3d 99 93 6e bc 88 07 a0 bd
       0.05292124 0.11555587 -0.014561557 -0.078139365
0002d0 e4 02 87 3d d2 f1 79 bd dd d6 92 3c 7c c1 7d 3c
       0.06592348 -0.061021633 0.01792472 0.015488025
0002e0 7e f1 89 bd 99 e6 de 3d 69 11 e7 3d b3 5b 95 3d
       -0.06735514 0.10883827 0.112826176 0.07292881
0002f0 28 81 e2 3d 9d cc 78 3d 83 57 52 bd 20 d1 bd 3c
       0.11059791 0.06074201 -0.05135299 0.023171008
000300 1a 94 ed bc c6 88 ea 3c 1a 94 c0 3c 80 26 5a bd
       -0.029001284 0.028629672 0.02350812 -0.053259373
000310 39 53 58 bc 68 3b fe 3d 13 a0 c3 bd 32 8c 6a 3b
       -0.013203436 0.124136746 -0.09552016 0.003578913
000320 94 5d 6e 3d 66 3b f8 3d d5 20 b0 bd 90 75 e7 3d
       0.05819471 0.12120704 -0.08600012 0.1130172
000330 b2 60 e6 bd 49 52 98 3d 77 5b 81 bd f9 ce c3 bc
       -0.11248912 0.0743757 -0.06316274 -0.023902403
000340 2d e2 41 bd 32 a5 a4 3c 88 f1 02 3e 19 c2 21 3c
       -0.04733484 0.020098303 0.1278745 0.009872937
000350 10 24 90 3c 4c ff f6 bd 63 33 11 3d 32 ba 94 bd
       0.017595321 -0.12060413 0.035449397 -0.072620764
000360 16 27 67 3d 89 d6 8a 3d a6 1b 12 3d 3a e5 ae bd
       0.05643376 0.067792006 0.0356709 -0.08539815
000370 1b 25 8b 3d 55 2e 2f 3d 6f 05 f7 bd 08 d3 a9 bd
       0.06794187 0.042768795 -0.12061583 -0.08292204
000380 e3 7f e2 bd 86 82 dd 3d 08 81 5c bd fa 82 fc ba
       -0.11059549 0.10815911 -0.05383399 -0.0019265108
000390 ae 46 68 bd e9 92 cb bd 8b 3c 66 3d 5c c5 86 bd
       -0.05670803 -0.0994013 0.056210082 -0.06580612
0003a0 6d 8a c0 bd 32 f8 8d 3d 94 6d af bd 93 43 6f bd
       -0.094014026 0.06932105 -0.08565822 -0.058414053
0003b0 6f f5 c9 bc bf 45 3a bd ad 91 8f bc 8b 81 9c bd
       -0.024653165 -0.04547667 -0.017525518 -0.07641896
0003c0 7f b0 e2 3c 71 50 98 bb 25 0b be 3c a8 db 74 3c
       0.02767205 -0.0046482612 0.023198674 0.014944948
0003d0 5f a0 2f 3c 8c 25 8c 3d 1f 5a 2b bd 61 6c 0a 3d
       0.010719388 0.06843099 -0.041833993 0.033794764
0003e0 3d 1a 4e ba 90 c0 89 3d 6e 1e 2d 3d ed df 38 3d
       -0.0007862186 0.067261815 0.042265348 0.045135427
0003f0 4d a2 d9 3d eb 48 7b bc 04 46 a2 bd 6f 1d 06 bc
       0.106266595 -0.015337209 -0.07923511 -0.008185728
