lstm_ts.pth (torch, 827839 bytes, 10 tensors)

lstm.weight_ih_l0 f4 [512, 12]
0	0x3ca64a54	0.020299114
1	0xbc15c9b8	-0.009142332
2	0xbdb08d53	-0.086207055
3	0x3c75a189	0.014992126
4	0xbc9111e2	-0.017708723
5	0xbd1588e3	-0.0365075
6	0xbd6f3d7f	-0.058408257
7	0x3b679dab	0.003534178
8	0xbcb8265b	-0.022479227
9	0xbda30537	-0.07959979
10	0xbd0de2fb	-0.034640294
11	0xbd469681	-0.048483375
12	0x3d6ab049	0.057297025
13	0x3d22e6db	0.039770942
14	0xbd98cb81	-0.0746069
15	0x3d2f1bf5	0.04275127
16	0x3d006717	0.031348314
17	0x3d33132b	0.043719452
18	0xbd885b87	-0.066580825
19	0xbbba6481	-0.0056882505
20	0xbd8baeda	-0.0682046
21	0xbd9d2678	-0.07673353
22	0x3da437b7	0.08018439
23	0x3d9c2738	0.07624668
24	0x3d2d8b12	0.042368956
25	0xbcd34384	-0.02578903
26	0x3c193600	0.0093512535
27	0x3d860042	0.06543018
28	0xbd04fcc5	-0.032467622
29	0xbcbe895e	-0.023258861
30	0x3dad58c6	0.08464198
31	0xbcef26d5	-0.029193321
32	0x3cb26821	0.021778168
33	0x3d591317	0.05299672
34	0x3ce21e55	0.027602354
35	0xbb306268	-0.0026914123
36	0x3d9d85db	0.076915465
37	0xbd864be8	-0.06557447
38	0xbd340ae2	-0.04395569
39	0x3dae06d2	0.084973946
40	0xbd8709f8	-0.06593698
41	0x3c59b39c	0.013287451
42	0xbda61d66	-0.08111076
43	0x3da3a2dc	0.07990047
44	0x3d26dee5	0.040739913
45	0x3d671ee4	0.056425944
46	0xbc6af166	-0.01433978
47	0xbd22bb2c	-0.039729282
48	0xbd9a7e89	-0.07543666
49	0xbc1b16a5	-0.009465848
50	0x3d2cd3e4	0.042194262
51	0xbd1469b0	-0.036233604
52	0xbcf64f4a	-0.030067105
53	0xbce89063	-0.028389161
54	0xbccf8528	-0.025332049
55	0x3da44c32	0.080223456
56	0x3da49ada	0.08037348
57	0x3d88a631	0.066723235
58	0xbcf21ee0	-0.029555738
59	0xbb9334b8	-0.0044923685
60	0x3d0b8447	0.034061696
61	0xbd46db8f	-0.04854923
62	0xbd2084c0	-0.0391891
63	0xbbb9202f	-0.0056495885
64	0x3bd9ff6f	0.0066527645
65	0x3d1b3e33	0.037901115
66	0xbcbc906f	-0.02301809
67	0x3d383002	0.04496766
68	0xbc004f4a	-0.007831404
69	0x3d518307	0.051150348
70	0xbcba8c9e	-0.02277213
71	0xbcb33c37	-0.021879299
72	0x3b522fd4	0.0032071965
73	0x3d368c2f	0.044567283
74	0x3c4b1441	0.012394966
75	0xbcf090f1	-0.029365988
76	0xbd2cf9db	-0.04223047
77	0xbcbe4e3c	-0.023230664
78	0xbd9964d6	-0.07489936
79	0xbd13fd40	-0.03613019
80	0x3cdd5f1b	0.027022889
81	0xbd4e670a	-0.050391234
82	0x3c2b40e5	0.010452484
83	0xbd9220df	-0.07135176
84	0x3cfb4f36	0.03067742
85	0xbd883e2d	-0.06652484
86	0xbdb8596c	-0.09001431
87	0xbc4d84f7	-0.012543908
88	0xbb364b51	-0.0027815888
89	0xbd935ef7	-0.071958475
90	0xbd44738a	-0.04796175
91	0xbc44d938	-0.01201468
92	0xbd9ea156	-0.07745616
93	0x3cd0990e	0.025463607
94	0x3c9639ca	0.018338103
95	0xbcf2d512	-0.029642615
96	0x3d6a5032	0.057205386
97	0xbd64f375	-0.05589624
98	0x3b971a60	0.0046112984
99	0x3cb73ac6	0.022366893
100	0x3cb009fb	0.021489134
101	0xbd9f6e99	-0.07784767
102	0x3d597662	0.053091414
103	0xbdb1ded4	-0.08685079
104	0xbc9c1d29	-0.019056873
105	0xbbaa981c	-0.005206121
106	0x3ca5a506	0.02022029
107	0xbcfa7d62	-0.030577365
108	0x3d08f45e	0.03343617
109	0x3d5f53ce	0.05452328
110	0xbd3d1985	-0.046166915
111	0x3c283090	0.010265484
112	0x3b8b05d0	0.0042426363
113	0x3d9d2f7c	0.076750726
114	0xbd801f5b	-0.062559806
115	0xbdb41976	-0.08793919
116	0xbcf9ddfd	-0.03050136
117	0x3cd022af	0.025407163
118	0x3d8e4fb0	0.06948793
119	0xbc9bfb60	-0.019040763
120	0x3d95c6ae	0.07313286
121	0x3d0735ce	0.033010297
122	0xbba1f9b7	-0.0049430984
123	0x3b02b375	0.001994339
124	0x3c121143	0.008915248
125	0x3d1a7244	0.03770663
126	0xbd4f4fe4	-0.0506133
127	0xbc87c1a2	-0.016571824
128	0x3b5e5d8b	0.0033930268
129	0x3da995fc	0.082805604
130	0x3da12be0	0.078696966
131	0xbc52aff1	-0.0128593305
132	0x3d28e5d2	0.0412348
133	0x3d84cdb0	0.06484544
134	0xbd011d5b	-0.031522136
135	0x3d90f1eb	0.07077392
136	0xbd163da8	-0.036679894
137	0xbb8177de	-0.003951057
138	0xbd83b4c0	-0.0643096
139	0xbd7056cc	-0.058676526
140	0x3ba774fa	0.0051103802
141	0xbbc5b38b	-0.006033366
142	0x3c1fd816	0.009756109
143	0xbdaed252	-0.08536209
144	0x3d7c2730	0.06156081
145	0x3d450726	0.04810252
146	0x3d842381	0.06452084
147	0x3c80329c	0.015649132
148	0x3c2743bc	0.01020902
149	0xbd0e6fc8	-0.03477457
150	0x3da7e33e	0.0819764
151	0xbc0e4929	-0.008684435
152	0x3dab7502	0.08371927
153	0x3d0a8e55	0.033827145
154	0x3d5ccda6	0.05390706
155	0xbd3a1cf2	-0.04543776
156	0xbd9ce4c8	-0.07660824
157	0x3d98e678	0.074658334
158	0x3d668498	0.056278795
159	0xbd92e4a8	-0.07172519
160	0xbc7910f6	-0.015201798
161	0x3daafb87	0.08348756
162	0x3d53c688	0.051703006
163	0x3cdbea19	0.026845025
164	0x3d038a2a	0.032114185
165	0x3b31986f	0.0027098914
166	0x3a8f275e	0.0010921767
167	0xbda5aa44	-0.08089116
168	0xbd93eda7	-0.07223063
169	0xbd80b1ed	-0.06283937
170	0xbbd6df12	-0.006557354
171	0xbdaafe22	-0.08349253
172	0x3d08ee25	0.033430237
173	0xbd88ab7d	-0.06673334
174	0xb888725a	-6.506285e-05
175	0xbbb10c10	-0.0054030493
176	0x3d15b06d	0.036545206
177	0x3b99343b	0.004675416
178	0x3d2e2264	0.042513266
179	0xbca62b0d	-0.0202842
180	0xbd51e20a	-0.05124096
181	0x3d66746a	0.056263365
182	0xbd00ef30	-0.031478107
183	0xbc97627e	-0.018479582
184	0x3a98f0d3	0.0011668451
185	0xbd98c3de	-0.07459234
186	0x3b57a654	0.0032905536
187	0x3d14e15a	0.036347724
188	0x3c26aa49	0.010172435
189	0x3d9cd2eb	0.07657417
190	0x3d4c0af1	0.049815122
191	0x3c80cca1	0.015722575
192	0x3da8eb11	0.0824796
193	0x3d568681	0.052374367
194	0x3cd6fe27	0.026244236
195	0x3d92a45d	0.07160256
196	0x3c8a76ff	0.016902445
197	0xbd7f8c82	-0.062389858
198	0x3d54b6cd	0.051932145
199	0x3cb71c19	0.022352265
200	0xbd11fb3f	-0.035639998
201	0x3d1b278e	0.03787952
202	0xbaa2c2df	-0.0012417695
203	0xbda31420	-0.07962823
204	0x3d4dd127	0.05024829
205	0x3d96f0ef	0.07370173
206	0xbb8873ef	-0.004164211
207	0xbd685bf0	-0.056728303
208	0x3d396920	0.04526627
209	0xbc7e7180	-0.01552999
210	0x3d0de65f	0.034643527
211	0xbd99562b	-0.07487138
212	0x3db0c8c1	0.08632041
213	0xbc24765f	-0.0100379875
214	0xbda31ac6	-0.07964091
215	0xbb881f9a	-0.004154158
216	0xbc8408bc	-0.016117446
217	0xbd6f593c	-0.05843471
218	0xbdabdb7b	-0.08391472
219	0x3d05fe9a	0.03271351
220	0x3d968c2b	0.07350954
221	0x3bdef3c0	0.0068039596
222	0x3d9e2341	0.07721568
223	0xbc2b6c4e	-0.010462834
224	0xbdaec5e6	-0.0853384
225	0x3d9cbcc1	0.076531895
226	0xbd8dcc0b	-0.06923684
227	0x3d235971	0.03988022
228	0x3d733105	0.05937292
229	0xbd1ff4bf	-0.039051767
230	0x3c53b729	0.012922087
231	0x3d45d55e	0.048299186
232	0xbcefcff1	-0.029273959
233	0x3dab0f7e	0.08352564
234	0x3adb3e81	0.0016727002
235	0xbd9888ad	-0.07447944
236	0x3ad6d1bf	0.0016389414
237	0xbd984dc3	-0.07436707
238	0x3d53fbeb	0.05175392
239	0xbd16ba93	-0.036799025
240	0x3cede004	0.029037483
241	0xbd56c27b	-0.052431565
242	0xbb44c9e2	-0.0030027558
243	0xbda73d2e	-0.08165966
244	0x3d4409e9	0.047861014
245	0x3d9c28b0	0.07624948
246	0xbce7ba05	-0.028286943
247	0xbd49eb43	-0.04929663
248	0x3d6b6a3c	0.05747436
249	0x3d2ca918	0.042153448
250	0xbdb1987e	-0.08671664
251	0xbcb21526	-0.0217386
252	0x3da73b7e	0.08165644
253	0x3d73b160	0.05949533
254	0x3d8d7cc5	0.069085635
255	0x3d5a9231	0.053362075

lstm.weight_hh_l0 f4 [512, 128]
0	0xbdb03c3a	-0.08605237
1	0x3c530903	0.0128805665
2	0x3d90b7a3	0.07066276
3	0x3db17533	0.08664932
4	0x3cd1fa56	0.025632065
5	0xbc47db83	-0.012198332
6	0xbd9c5dd5	-0.076350845
7	0x3d7d5aed	0.06185429
8	0x3b33f97b	0.0027461934
9	0xbb5d87b2	-0.0033802805
10	0xbd5dc106	-0.05413916
11	0xbca06faf	-0.019584505
12	0x3d7cbe63	0.061705004
13	0x3d0f29a6	0.03495183
14	0xbd3e695a	-0.04648719
15	0x3daf598b	0.08562001
16	0x3d9fffba	0.07812448
17	0x3d2e1f3d	0.04251026
18	0xbcae57da	-0.021282125
19	0x3d29dc11	0.041469637
20	0x3d3eabf0	0.04655069
21	0x3d505a36	0.05086728
22	0xbd98770d	-0.07444582
23	0x3d159de8	0.036527544
24	0xbcff3efa	-0.03115796
25	0xbcaae7d7	-0.020862503
26	0xbb1a071e	-0.0023502777
27	0x3daba82a	0.08381684
28	0xbd5df243	-0.054186117
29	0xbc5dd043	-0.013538423
30	0x3d92ec6e	0.07174002
31	0xbcb106da	-0.021609712
32	0x3d82ed8c	0.06392965
33	0x3c9bfe29	0.019042091
34	0xbd23de0e	-0.04000669
35	0xbd89edb7	-0.06734794
36	0xbc90bc52	-0.017667923
37	0x3c1951ce	0.009357883
38	0xbc468a32	-0.012117909
39	0xbdad8041	-0.08471728
40	0x3ccf39f5	0.02529619
41	0x3bc3b699	0.005972695
42	0x3d9f1166	0.0776699
43	0x3d96b307	0.073583655
44	0xbca95b7f	-0.020673512
45	0xbd78ec75	-0.060772378
46	0x3d8a5d7d	0.06756113
47	0x3d1f7a16	0.03893479
48	0xbdb04635	-0.08607141
49	0xbd787991	-0.06066281
50	0xbc1f9148	-0.009739228
51	0x3c2a930e	0.010411037
52	0xbc4db268	-0.012554742
53	0x3d87b4bb	0.066262685
54	0xbd87fe76	-0.066403314
55	0xbd9a50ff	-0.0753498
56	0xbd983197	-0.074313335
57	0x3c365f4a	0.011131117
58	0x3d9e1dd7	0.07720535
59	0x3c0cc072	0.008590804
60	0x39979bf0	0.00028917147
61	0xbda07988	-0.0783568
62	0xbd27a261	-0.04092634
63	0xbab8c43b	-0.0014096567
64	0xbb907060	-0.0044079274
65	0xbd25fdf2	-0.040525384
66	0xbda9937f	-0.08280086
67	0xbc90ec20	-0.017690718
68	0xbd99b405	-0.07505039
69	0x3da3aeb0	0.07992303
70	0xbce5da22	-0.028058115
71	0xbcda00a3	-0.026611632
72	0x3d8149f0	0.063129306
73	0x3bb40944	0.0054942686
74	0xbda20865	-0.079117574
75	0xbd7f3351	-0.0623048
76	0xbc28769f	-0.010282188
77	0xbcb7a0a3	-0.022415465
78	0x3d52d773	0.051475
79	0xbd512bb7	-0.05106708
80	0xbd738727	-0.059455063
81	0x3db4dd4b	0.08831271
82	0x3991ad30	0.0002778559
83	0x3c5bb57e	0.01340997
84	0xbd564eaf	-0.052321132
85	0x3cf41c52	0.02979866
86	0xbc96ca1e	-0.018406924
87	0x3d63069b	0.05542622
88	0x3d7185bb	0.058965426
89	0x3d909dd9	0.07061357
90	0xbd233453	-0.039844822
91	0xbd855d3f	-0.06511926
92	0x3d54af6e	0.051925115
93	0xbd6de1a2	-0.05807651
94	0x3d4e3795	0.050345976
95	0xbd13718a	-0.03599695
96	0xbd2a2df4	-0.04154773
97	0xbd543215	-0.051805574
98	0xbdaa879d	-0.083266474
99	0x3cb9d1ec	0.022683106
100	0x3c826d22	0.01592118
101	0x3db48a9c	0.088155
102	0xbd9c53ec	-0.07633194
103	0xbda5211d	-0.080629565
104	0x3da0c2b1	0.078496344
105	0x3db1c3a6	0.08679895
106	0x3d0e1dac	0.034696266
107	0x3d2b088a	0.04175619
108	0xbd324ab2	-0.043528266
109	0x3c86bf13	0.016448533
110	0xbd9820b7	-0.07428115
111	0x3d8584f4	0.065194994
112	0xbc4a4c05	-0.012347226
113	0x3d4cb5b2	0.049977966
114	0x3d907bdd	0.07054875
115	0x3d32d6fe	0.043662064
116	0x3c0620bf	0.008186518
117	0x3d639ccd	0.05556946
118	0xbc8d64a1	-0.017259898
119	0x3c861fdb	0.016372612
120	0x3db1d15b	0.086825095
121	0xbd5fe9cf	-0.054666337
122	0xbcd1b66e	-0.025599685
123	0x3bead08a	0.007165973
124	0x3ca23b42	0.019803647
125	0xbd45d459	-0.048298214
126	0xbd3008bb	-0.042977076
127	0xbbf15f74	-0.007366115
128	0x3c26d22c	0.010181945
129	0x3d9df963	0.07713582
130	0xbcdd5763	-0.027019208
131	0xbd836040	-0.064148426
132	0x3c8b821d	0.017029816
133	0xbd7e233b	-0.062045317
134	0xbdb1fe83	-0.086911224
135	0xbd7f1854	-0.06227906
136	0xbc25f4a7	-0.01012913
137	0xbd907b8c	-0.07054815
138	0x3d9169e8	0.07100278
139	0xbd7d215f	-0.061799403
140	0x3d0700b6	0.032959662
141	0x3da5e0da	0.08099528
142	0xbbb74fd6	-0.005594234
143	0xbc6f0e9d	-0.014590886
144	0x3db1ba1e	0.08678077
145	0x3dab41b5	0.08362142
146	0x3d482a66	0.04886856
147	0x3d14f2c3	0.036364328
148	0xbd9ef998	-0.0776245
149	0xbcb63d1b	-0.022245934
150	0x3b54c110	0.0032463707
151	0x3ceafaaa	0.028683979
152	0x3d9a08bb	0.075211965
153	0x3cd50da3	0.026007479
154	0x3ce2da57	0.027692003
155	0x3da99f06	0.082822844
156	0x3d39e423	0.045383584
157	0x3dac0282	0.08398916
158	0x3d5cceb2	0.053908058
159	0xbd9942b4	-0.07483426
160	0xbdab351a	-0.08359738
161	0xbda8220b	-0.08209618
162	0x3da25276	0.079258844
163	0xbbaad833	-0.0052137612
164	0xbd62d71e	-0.055380933
165	0xbc0e531f	-0.00868681
166	0xbd182812	-0.03714759
167	0x3d26ebda	0.04075227
168	0xb99747fb	-0.00028854594
169	0xbd982e56	-0.07430713
170	0xbd98ade6	-0.074550435
171	0xbd3a4627	-0.04547706
172	0xbd7329c0	-0.059365988
173	0x3d1b61f0	0.037935197
174	0xbce10f65	-0.027473161
175	0x3d6086af	0.054815944
176	0xbc9bce5d	-0.0190193
177	0x3d451442	0.048115022
178	0x3dadb161	0.08481098
179	0x3d04b35f	0.032397624
180	0xbdadf491	-0.08493913
181	0x3d8661cf	0.06561624
182	0x3cf64fb7	0.030067308
183	0xbd5f44f7	-0.05450913
184	0xbd945444	-0.07242635
185	0x3db046ab	0.08607229
186	0xbccf02ef	-0.025269954
187	0x3d8fd306	0.070226714
188	0xbcdbab1a	-0.026814986
189	0x3d2d10c8	0.042252332
190	0xbd91f593	-0.07126918
191	0x3d29373e	0.04131245
192	0x3d5374c3	0.051625025
193	0x3d6d1bc2	0.0578878
194	0xbd6fac7d	-0.058514107
195	0xbdb0d527	-0.086344056
196	0xbcdaca33	-0.026707744
197	0xbdafd4fd	-0.08585546
198	0xbce6e0d1	-0.028183373
199	0xbd42b70b	-0.047537845
200	0xbd66a696	-0.056311212
201	0x3cf897d8	0.030345842
202	0x3d19ad98	0.037519068
203	0xbd95f7f5	-0.07322685
204	0xbcf67552	-0.03008524
205	0x3d654102	0.0559702
206	0x3da71d50	0.08159888
207	0xbbf0f24d	-0.0073531033
208	0x3d2e5067	0.042557146
209	0x3d9afef0	0.07568157
210	0x3dae0ab4	0.08498135
211	0x3aa7d439	0.0012804336
212	0xbce384b5	-0.02777324
213	0x3ccb5651	0.024821432
214	0xbd8a36b1	-0.06748713
215	0xbd20b35d	-0.039233554
216	0xbd1211e1	-0.035661582
217	0x3d2d278a	0.042274036
218	0xbda64825	-0.08119229
219	0xbd90e545	-0.0707498
220	0xbb98881a	-0.0046548964
221	0x3cfe59de	0.031048711
222	0xbd6e8561	-0.05823267
223	0x3d52ea80	0.051493168
224	0xbcc630ca	-0.024193186
225	0xbcaacb2c	-0.020848833
226	0xbd26ddc7	-0.040738847
227	0x3d02e426	0.03195586
228	0xbd28548b	-0.04109625
229	0xbd297bca	-0.04137782
230	0x3d647ff4	0.055786088
231	0xbb87d86c	-0.0041456725
232	0x3c4e6bc7	0.012598938
233	0x3d92b974	0.071642786
234	0xbc24b8c1	-0.010053814
235	0x3d08d920	0.03341019
236	0x3d99d7f9	0.07511897
237	0xbc8fcd72	-0.017554019
238	0x3ca73eca	0.020415682
239	0xbace3f72	-0.0015735461
240	0xbc8aed35	-0.016958812
241	0x3d6ec731	0.058295432
242	0xbd904508	-0.07044417
243	0x3d688f8d	0.056777526
244	0xbd24d641	-0.04024339
245	0xbc8db3e1	-0.017297687
246	0x3d040be0	0.032237887
247	0xbd866d9c	-0.06563875
248	0x3d9883a7	0.07446986
249	0xbba5a37d	-0.0050548897
250	0x3a25883f	0.0006314553
251	0xbd163393	-0.03667028
252	0x3d609fb9	0.054839823
253	0x3d18081a	0.0371171
254	0xbd8b4e17	-0.06802004
255	0xbd5e00e4	-0.054200068

lstm.bias_ih_l0 f4 [512]
0	0xbc8d0929	-0.017216282
1	0xbd972b2e	-0.07381283
2	0x3c200599	0.00976696
3	0xbc8d590a	-0.017254371
4	0xbd94c0a1	-0.072633035
5	0x3d1447fa	0.036201455
6	0x3d003d17	0.03130826
7	0x3c466fd6	0.012111625
8	0xbd5f8794	-0.054572657
9	0xbcd33fbd	-0.025787229
10	0xbd8f1421	-0.06986261
11	0xbd62ce16	-0.05537232
12	0xbda41ed3	-0.08013692
13	0x3da4fb67	0.08055764
14	0xb94bf8c5	-0.00019452262
15	0x3d0bb104	0.034104362
16	0xbd860712	-0.06544317
17	0xbbb1d9ae	-0.005427561
18	0x3902b096	0.0001246355
19	0x3d93305e	0.0718696
20	0x3d732ce7	0.059368994
21	0x3841c4f7	4.6198224e-05
22	0xbcec0278	-0.028809771
23	0xbd09b2ea	-0.03361789
24	0xbc5ca485	-0.013466959
25	0x3d7dc803	0.061958324
26	0x3b2445e7	0.002506608
27	0xbd75a276	-0.059969388
28	0x3d4abe41	0.049497847
29	0x3c628f4d	0.013828111
30	0xbd9064d7	-0.07050484
31	0xbc251b91	-0.010077373
32	0xbb7f3724	-0.0038942778
33	0xbd2aea33	-0.041727256
34	0xbca95d99	-0.020674514
35	0x3d57b74f	0.05266505
36	0x3c837da9	0.01605113
37	0x3cf0e34e	0.029405262
38	0x3c07f737	0.008298687
39	0xbd0a39f2	-0.033746667
40	0x3da37699	0.07981605
41	0xbd04edef	-0.032453474
42	0xbd72668e	-0.059179835
43	0x3cc0330e	0.023461845
44	0x3d8c6316	0.06854837
45	0x3cea567a	0.028605688
46	0x3d5251ea	0.05134765
47	0x3d737aaf	0.059443172
48	0x3c1d1099	0.009586477
49	0xbda9aa34	-0.08284417
50	0xbcb82317	-0.02247767
51	0xbc987b8e	-0.018613603
52	0x3d52774a	0.051383294
53	0x3d920af6	0.07130997
54	0x3d3cbaab	0.046076458
55	0xbd257ca7	-0.04040208
56	0x3ca7cec2	0.020484332
57	0x3c797000	0.015224457
58	0x3cfab6e0	0.03060478
59	0xb9e4085c	-0.00043493777
60	0xbd57ace4	-0.052655116
61	0x3d6550bb	0.055985194
62	0xbd38e239	-0.045137618
63	0x3c802d64	0.015646644
64	0x3d523981	0.05132437
65	0xbd85bbc0	-0.06529951
66	0x3cee19d8	0.029065058
67	0xbd775259	-0.060381267
68	0x3d928e94	0.07156101
69	0x3d01cf73	0.03169198
70	0x3d67e7d7	0.056617584
71	0xbd13cddb	-0.03608499
72	0x3bdae2f6	0.006679888
73	0x3d867913	0.06566062
74	0x3d45a16e	0.048249654
75	0x3d9d974c	0.07694873
76	0xbd0c851f	-0.03430664
77	0xb9a59a6a	-0.000315863
78	0xbba8c644	-0.005150588
79	0x3d323dde	0.043516032
80	0xbc3ef5e0	-0.011655301
81	0x3d010938	0.031502932
82	0x3b918fb6	0.0044421805
83	0xbd3e7e9b	-0.04650746
84	0x3d208aa7	0.03919473
85	0x3d414d2e	0.047192745
86	0xbd695649	-0.056967054
87	0x3ca5df8d	0.020248199
88	0xbd15ee94	-0.03660448
89	0xbd3b4f92	-0.04573018
90	0xbd841e40	-0.06451082
91	0x3d6911e6	0.056901835
92	0xbd44b91e	-0.048028104
93	0xbd56b3f1	-0.0524177
94	0x3dac891c	0.08424589
95	0xbcf1a77b	-0.029498806
96	0xbd414e28	-0.047193676
97	0x3a22bdce	0.00062080927
98	0x3cf237a4	0.029567547
99	0x3db6e7e4	0.089309484
100	0xbd8cb644	-0.06870702
101	0xbc523d82	-0.012832047
102	0x3db91d5c	0.09038803
103	0xbbf61652	-0.007509985
104	0x3c32f49f	0.01092258
105	0x3da11fda	0.07867403
106	0x3d608d57	0.054822292
107	0x3d1ed220	0.03877461
108	0xbcdec9a7	-0.027195765
109	0x3d56c44c	0.052433297
110	0xbc1a99de	-0.009436099
111	0x3db32802	0.08747865
112	0xbd87ede1	-0.06637169
113	0x3d016561	0.031590823
114	0x3c75728d	0.014980924
115	0x3dba032d	0.09082637
116	0xbc44e8d3	-0.0120184
117	0x3d778b89	0.060435805
118	0xbd0da1df	-0.0345782
119	0xbd8a823d	-0.06763122
120	0x3d88c424	0.06678036
121	0xbd8e2182	-0.06939985
122	0xbc9ac391	-0.018892081
123	0x3d235ff9	0.03988645
124	0xbc21f257	-0.0098844385
125	0x3d2eb22f	0.042650398
126	0xbd627b67	-0.055293467
127	0x3c917043	0.017753726
128	0x3da40489	0.080086775
129	0xbc6b47a3	-0.014360341
130	0xbc702d20	-0.014659196
131	0x3c9f5ef1	0.019454451
132	0xbd96b95f	-0.073595755
133	0x3d88a0b3	0.06671276
134	0xbd8d4b36	-0.06899111
135	0xbd8ab6ed	-0.067731716
136	0x3d07e807	0.033180263
137	0xbd9e95df	-0.077434294
138	0x3c597953	0.013273555
139	0xbceeee7d	-0.029166454
140	0x3d21944d	0.03944807
141	0x3d427995	0.04747923
142	0x3c330904	0.010927442
143	0x3db70e70	0.089383006
144	0x39f783d4	0.0004720973
145	0x3d704f6d	0.058669496
146	0xbd42cc6f	-0.047558244
147	0xbb223e6c	-0.0024756445
148	0xbdae0ba9	-0.08498318
149	0x3d3e666d	0.0464844
150	0xbd8dc164	-0.06921652
151	0xbd3378eb	-0.04381649
152	0xbd809dd4	-0.06280103
153	0xbc77dc5a	-0.0151282195
154	0x3a909986	0.0011032082
155	0x3d34273b	0.043982726
156	0xbcbff6f9	-0.023433195
157	0xbc05b242	-0.008160176
158	0x3bd10bc1	0.006379575
159	0xbccd800f	-0.025085477
160	0xbd3e0665	-0.046392817
161	0xbcee5106	-0.02909137
162	0x3d6e272b	0.058142822
163	0x3cd55a80	0.02604413
164	0x3cabc441	0.020967605
165	0x3d9a1535	0.07523576
166	0xbc65cef6	-0.014026394
167	0xbd5dfcef	-0.054196294
168	0xbd938fb2	-0.07205142
169	0x3d0efb25	0.03490748
170	0x3d9adf02	0.075620666
171	0xbc54b04d	-0.0129814865
172	0x3d4123f7	0.04715344
173	0x3cc0a173	0.023514485
174	0x3c6ffe86	0.014648085
175	0xbd895df6	-0.06707375
176	0xbd6a7f0d	-0.05725007
177	0x3d1ede4e	0.038786225
178	0x39b78fa9	0.00035011515
179	0x3d8767fe	0.06611632
180	0x3d44704d	0.04795866
181	0xbda2d1b0	-0.07950151
182	0x3c8f97a0	0.017528355
183	0x3da8806a	0.08227618
184	0xbd306eea	-0.043074526
185	0xbd8c9b91	-0.068656094
186	0x3c8b343d	0.016992683
187	0x3b970125	0.0046082907
188	0x3d904a6d	0.070454456
189	0xbbd1527c	-0.0063880067
190	0x3ce2826c	0.02765008
191	0xbdb85ff0	-0.090026736
192	0xbdb0bce7	-0.0862978
193	0x3d43ad0a	0.047772445
194	0x3d8da40a	0.069160536
195	0x3da0f4a6	0.07859163
196	0xbc18fb09	-0.009337195
197	0x3d3b843c	0.045780405
198	0x3d7dda7c	0.06197594
199	0x3d5fd003	0.054641735
200	0x3d563ada	0.05230222
201	0x3c851a1e	0.016247805
202	0x3d0dc62b	0.034612816
203	0xbdac9d1a	-0.08428402
204	0xbd894861	-0.06703258
205	0xbc5af2e2	-0.013363572
206	0x3da930b6	0.08261244
207	0x3db6b968	0.08922082
208	0x3d43c867	0.04779854
209	0xbc9cda06	-0.01914693
210	0xbda8b70e	-0.0823804
211	0xbcb91ac5	-0.022595773
212	0x3d13d4c1	0.03609157
213	0x3d644489	0.055729423
214	0x3d532362	0.051547416
215	0x3cd38e9f	0.025824843
216	0xbcc05c6b	-0.023481568
217	0xbd86e3d2	-0.06586422
218	0xbd655eef	-0.05599874
219	0xbd02cc0b	-0.03193287
220	0x3c9d7d73	0.019224858
221	0x3d8a1196	0.067416355
222	0x3d3e76c2	0.046499975
223	0x3d95639d	0.0729439
224	0xbda3e5b6	-0.08002798
225	0xbd07740a	-0.033069648
226	0xbbc2d678	-0.005945977
227	0x3dbbe97f	0.09175395
228	0x3b08ebf3	0.002089259
229	0x3da84aa3	0.08217361
230	0x3ca80a38	0.020512685
231	0xbd3d2a68	-0.04618302
232	0xbdaa7fc5	-0.08325151
233	0xbd805bc8	-0.06267506
234	0xbd82eb91	-0.06392587
235	0x3b3ecdfa	0.002911447
236	0x3a0243bf	0.00049692014
237	0x3d46cddf	0.048536178
238	0xba82b796	-0.0009972926
239	0x3d14f3af	0.036365207
240	0xbd632ad4	-0.055460766
241	0x3c8924f0	0.016741246
242	0x3c5940f2	0.013260113
243	0x3b01d4ad	0.0019810603
244	0xbda64ece	-0.081204996
245	0x3d8073bf	0.06272077
246	0xbd534a4d	-0.05158453
247	0x3da46477	0.08026975
248	0x3b9e63ec	0.004833689
249	0xbd0d1efd	-0.03445338
250	0xbd539286	-0.051653408
251	0xbcf482b3	-0.029847478
252	0x3b8b8dbd	0.00425884
253	0x3d7f45d3	0.06232245
254	0xbd1256fe	-0.035727493
255	0x3d33b983	0.04387809

lstm.bias_hh_l0 f4 [512]
0	0xbd61bfdc	-0.055114612
1	0xbd6cb652	-0.05779106
2	0xbc8039e0	-0.015652597
3	0x3d5d0c56	0.053966843
4	0x3d3e8f2a	0.04652325
5	0xbcbf3e6a	-0.023345191
6	0x3d6162b0	0.055025756
7	0x3d37bb36	0.044856273
8	0x3d535080	0.051590443
9	0xbda52d7c	-0.08065316
10	0xbb8ccaea	-0.00429665
11	0xbb70f32d	-0.0036766038
12	0x3c281a90	0.010260239
13	0x3d61c029	0.0551149
14	0xbda7ac9f	-0.08187222
15	0xbc6089e7	-0.0137047535
16	0x3d9b54a9	0.07584507
17	0xbb4c517c	-0.0031176498
18	0x3cb86fc9	0.02251424
19	0x3b77e88e	0.0037827822
20	0xbd0caf85	-0.034347076
21	0xbdab0a35	-0.08351556
22	0xbd98bfdc	-0.07458469
23	0x3d875d23	0.06609561
24	0x3d3e5e1a	0.04647646
25	0x3c5061e2	0.01271865
26	0x3d0baa97	0.034098234
27	0xbcf4c464	-0.029878803
28	0xbc1387dd	-0.00900456
29	0x3d7c7645	0.061636228
30	0xbd5715b4	-0.052510932
31	0x3d088ca4	0.03333725
32	0x3da4557d	0.08024118
33	0xbd97585d	-0.07389901
34	0x3cf6d67b	0.03013157
35	0x3c280590	0.010255232
36	0xbd1fbd2d	-0.03899877
37	0xbd6ca662	-0.057775863
38	0xbc7822ff	-0.0151450625
39	0x3c7970cb	0.015224646
40	0x3c9f19ce	0.019421484
41	0xbd917549	-0.071024485
42	0xbd97de19	-0.07415409
43	0xbd76afc5	-0.06022622
44	0xb8659f9a	-5.4746495e-05
45	0x3d511914	0.051049307
46	0xbd8e18e3	-0.069383405
47	0xbd7583b6	-0.059940062
48	0x3d179b06	0.037013076
49	0x3d1b8d03	0.037976276
50	0x3d85d591	0.06534875
51	0xbd21ff88	-0.039550334
52	0x3d8691e0	0.06570792
53	0xbd319b47	-0.043360975
54	0xbdadd9b3	-0.084887885
55	0x3db1e410	0.086860776
56	0x3d773253	0.060350727
57	0xbbf21d7e	-0.0073887696
58	0x3d2ef5e4	0.04271497
59	0xbc94d740	-0.018169045
60	0x3d906f4f	0.070524804
61	0x3bf10a15	0.007355938
62	0x3ca8ef55	0.020621935
63	0x3c58ace5	0.013224815
64	0x3d2000fd	0.039063442
65	0xbdb4939a	-0.08817215
66	0x3d57c37e	0.05267667
67	0x3d924af3	0.07143202
68	0x3d48372b	0.048880737
69	0x3d8b305a	0.06796332
70	0x3cb6f358	0.022332832
71	0xbd053c8f	-0.032528456
72	0x3dad69ac	0.08467421
73	0xbab7353e	-0.0013977659
74	0x3d37fdea	0.044919886
75	0xbd270d37	-0.040784087
76	0xbd76da60	-0.060266852
77	0x3ca11795	0.019664565
78	0x3d2902c2	0.041262396
79	0xbd883c81	-0.06652165
80	0xbd96f68d	-0.073712446
81	0xbcc25ac9	-0.02372493
82	0xbd104b84	-0.035228267
83	0xbd9cbb41	-0.07652903
84	0xbd41e142	-0.047333963
85	0x3bd3340f	0.006445415
86	0xbd836e0a	-0.06417473
87	0xbb402318	-0.0029317793
88	0x3d13c6ab	0.036078136
89	0xbd66fb9a	-0.05639229
90	0xbd065d18	-0.032803625
91	0xbd9f8db4	-0.077906996
92	0x3da40e77	0.080105714
93	0x3cdcbacc	0.02694454
94	0xbd970f23	-0.07375934
95	0x3c9080a2	0.017639462
96	0xbd442d4b	-0.047894757
97	0x3d94f410	0.07273114
98	0xbd4f65dd	-0.050634254
99	0x3d870cd6	0.06594245
100	0x3d64c8b5	0.05585547
101	0x3d4e917f	0.050431725
102	0x393ae9f5	0.00017825498
103	0xba6aaff0	-0.00089526083
104	0x3bc3021b	0.0059511787
105	0x3d22cc6f	0.039745744
106	0xbd55be3f	-0.052183386
107	0xbda22bcf	-0.07918512
108	0xbca5f68e	-0.020259168
109	0xbd6ee5e7	-0.05832472
110	0x3c1d285f	0.009592145
111	0xbda3fc9b	-0.08007165
112	0xbc99e1d6	-0.018784445
113	0xbd9f3549	-0.07773835
114	0xbda8fc60	-0.08251262
115	0x3d92faff	0.0717678
116	0x3d9ddc22	0.077080026
117	0xbcdc6305	-0.026902685
118	0xbd6493f8	-0.055805176
119	0x3caef493	0.021356856
120	0x3db1f7a2	0.0868981
121	0x3c9f6b37	0.019460304
122	0xbc076425	-0.008263622
123	0x3bbe6cc9	0.005811308
124	0x3d10728f	0.0352655
125	0x3cbe5d7a	0.023237932
126	0x3db633c0	0.08896589
127	0x3d8a5421	0.067543276
128	0xbc6a572a	-0.014303008
129	0x3d164c95	0.036694128
130	0xbd4b3a56	-0.04961618
131	0x3c93f4ff	0.01806116
132	0xbd813c08	-0.06310278
133	0xbbef38ed	-0.0073004873
134	0xbce92dd5	-0.028464237
135	0x3dadbabf	0.084828846
136	0xbca600ac	-0.020263992
137	0xbdb30549	-0.087412424
138	0x3cacc0e7	0.021088077
139	0xbd3d0f20	-0.046157002
140	0xbb05f72c	-0.0020441515
141	0xbb0d3dfd	-0.002155184
142	0xbcea1a15	-0.02857689
143	0x3dba0364	0.09082678
144	0xbc420a2b	-0.011843245
145	0xbc557933	-0.013029384
146	0x3d1609df	0.036630508
147	0x3db4321a	0.087986186
148	0xbd4fbfc8	-0.050720006
149	0xbdafeb21	-0.08589769
150	0xbaacb68f	-0.0013176965
151	0x3d6e8e49	0.058241162
152	0x38acb1a8	8.23469e-05
153	0x3cd9a58c	0.026568197
154	0x3cf0caba	0.029393543
155	0xbd6c819b	-0.05774079
156	0x3d6dbef4	0.058043435
157	0x3ca47a0f	0.020077733
158	0x3d3675b8	0.04454586
159	0xbca363e7	-0.019945098
160	0x3d6631ec	0.056199953
161	0xbd473442	-0.04863382
162	0x3ba72702	0.0051010856
163	0xbd2dfa15	-0.042474825
164	0xbda587e1	-0.080825575
165	0x3d3858e5	0.04500665
166	0xbd9f613e	-0.07782219
167	0x3d614129	0.054993782
168	0x3d6c5fda	0.0577086
169	0xbc6ad7d3	-0.014333683
170	0xbdb45c5d	-0.088066794
171	0xbd719a86	-0.058985256
172	0x3c8c5778	0.017131552
173	0xbcad0976	-0.021122675
174	0x3cc6650a	0.024218101
175	0xbda73d1f	-0.08165955
176	0xbca8da42	-0.020611886
177	0x3ce539cc	0.027981661
178	0xbcbdccd0	-0.023168951
179	0xbd9ad10d	-0.075594045
180	0xbd005193	-0.031327795
181	0x3cb7ab46	0.022420537
182	0x3c902504	0.017595775
183	0x3d58791b	0.05284987
184	0xbc9bd140	-0.019020677
185	0x3a207a43	0.0006121734
186	0xbda855ee	-0.08219515
187	0xbc0289c5	-0.007967417
188	0x3c282356	0.010262331
189	0x3bf3358e	0.0074221557
190	0xbd064c7c	-0.032787785
191	0xbc7501cd	-0.014954043
192	0xbd8c7359	-0.06857938
193	0xbd6711f6	-0.056413613
194	0x3cea8f0f	0.028632669
195	0x3d8debae	0.06929718
196	0xbd127c5f	-0.03576314
197	0xbbe80321	-0.007080451
198	0xbd98f5cd	-0.07468758
199	0x3d9f2a82	0.077717796
200	0x3d6a1d26	0.057156704
201	0xbd460153	-0.048341107
202	0x3d919804	0.07109073
203	0x3cfb2735	0.030658344
204	0x3cff0cf5	0.031134108
205	0xbd9543cd	-0.072883226
206	0xbd44cb0c	-0.048045203
207	0xbd09e458	-0.03366503
208	0xbda64df5	-0.08120338
209	0x3c2a605c	0.01039895
210	0xbc1bd805	-0.009511952
211	0xbbf5239c	-0.0074810516
212	0xbd264365	-0.040591616
213	0x3d94f2aa	0.07272847
214	0xbd091d71	-0.033475343
215	0x3da64c2a	0.08119996
216	0x3cc98a05	0.024601946
217	0xbd77469d	-0.060370076
218	0x3d6b3b72	0.05742974
219	0x3d1c343d	0.038135756
220	0x3c7b98f0	0.015356287
221	0xbcb456ad	-0.022013986
222	0xbcb9e2d4	-0.022691168
223	0x3b6437a9	0.0034823215
224	0xbda07e76	-0.078366205
225	0xba39234c	-0.00070624496
226	0x3d1ee3e9	0.03879157
227	0x3ccca564	0.024981208
228	0x3c318afe	0.010836361
229	0xbd6d206b	-0.057892244
230	0x3da37121	0.07980562
231	0xbc64fc34	-0.013976146
232	0x3d9258b9	0.07145829
233	0x3c3383e9	0.010956743
234	0xbd86fbab	-0.065909706
235	0x3d99e6c0	0.07514715
236	0xbb0b7b8e	-0.002128336
237	0x3c16dd89	0.009208092
238	0x3d8b7a15	0.06810395
239	0xbdaa6238	-0.08319515
240	0x3d8cb47e	0.06870364
241	0xbac8a144	-0.001530685
242	0x3d3cdec1	0.046110872
243	0xbd9f8aa8	-0.077901185
244	0x3d24791d	0.040154565
245	0x3d820e3b	0.063503705
246	0xbdaad414	-0.08341232
247	0xbb48e400	-0.0030653477
248	0x3daf1657	0.08549183
249	0x3d89b338	0.067236364
250	0xbd0791e5	-0.03309812
251	0xbcb1bf67	-0.021697713
252	0x3d422c55	0.04740556
253	0xbdafe790	-0.08589089
254	0xbb016494	-0.0019743787
255	0xbd52a6d9	-0.05142865

lstm.weight_ih_l1 f4 [512, 128]
0	0x3cc0bbeb	0.023527106
1	0xbcfeed21	-0.031118931
2	0x3b314399	0.0027048348
3	0x3d4ab83b	0.049492102
4	0x3b90d8fb	0.0044203973
5	0x3b966955	0.0045901933
6	0x3d7af542	0.061269052
7	0x3d98d2cd	0.07462082
8	0x3da88c67	0.082299046
9	0xbd9872a8	-0.07443744
10	0x3d895bc5	0.06706957
11	0x3cc143f1	0.023591967
12	0xbd271c6a	-0.040798582
13	0x3cfb9f6f	0.030715672
14	0xbcbfefc1	-0.023429753
15	0x3d9a59be	0.07536648
16	0xbd28f81a	-0.041252233
17	0xbd46bd17	-0.048520174
18	0xbd020176	-0.031739675
19	0xbc8de66f	-0.017321793
20	0x3c633dfe	0.013869761
21	0xbd8d3dde	-0.06896566
22	0xbdad9d25	-0.084772386
23	0xbd71f8a8	-0.059075028
24	0x3daedac8	0.08537823
25	0x3cf684a9	0.030092554
26	0x3bac4fec	0.005258551
27	0x3d85e3f8	0.06537622
28	0xbdb4db67	-0.0883091
29	0x3cf3afb2	0.029746864
30	0xbcca75b4	-0.024714328
31	0xbc4e89c5	-0.012606089
32	0x3cfbde87	0.030745758
33	0x3d8183f6	0.06323998
34	0xbcb167f3	-0.021656012
35	0xbd8d5b99	-0.069022365
36	0x3d9fc94a	0.07802065
37	0xbd8a42ed	-0.06751046
38	0xbd81d07f	-0.063385956
39	0xba92057b	-0.0011140549
40	0xbda1025f	-0.078617804
41	0xbd32a627	-0.043615486
42	0x3d72485e	0.059151046
43	0xbdba41d3	-0.09094586
44	0x3d8832f0	0.066503406
45	0x3d952c46	0.07283835
46	0x3cfd6eb4	0.030936576
47	0x3c7388ed	0.014864189
48	0x3d80476f	0.06263625
49	0x3d8df06d	0.06930623
50	0x3d1858a3	0.037193906
51	0xbd08d082	-0.033401974
52	0xbd426d9e	-0.04746782
53	0xbc2d882f	-0.010591551
54	0x3d880cf1	0.066430934
55	0x3d029672	0.031881757
56	0xbd6f050d	-0.058354426
57	0xbd5a4120	-0.053284764
58	0xbca40405	-0.020021448
59	0xbd41c552	-0.04730732
60	0xbbb8aab5	-0.0056355842
61	0xbd649825	-0.05580916
62	0xbcae003c	-0.021240346
63	0x3d9e7b98	0.077384174
64	0x3da65d65	0.08123282
65	0x3d4aa2a6	0.04947152
66	0xbd23a534	-0.03995247
67	0x3da27070	0.07931602
68	0x3c91137d	0.017709488
69	0xbd880ad1	-0.06642688
70	0xbd900abb	-0.07033297
71	0xbd65a22c	-0.056062862
72	0x3ccabec3	0.024749165
73	0xbda3c650	-0.079968095
74	0xbd361a1d	-0.044458497
75	0x3ca313d2	0.019906912
76	0x3cce4650	0.025180012
77	0x3daf8577	0.08570378
78	0xbc08e505	-0.008355384
79	0xbd10ba85	-0.03533413
80	0xbc89f897	-0.01684217
81	0x3d383c22	0.044979222
82	0x3d182815	0.0371476
83	0xbd187fe8	-0.037231356
84	0x3d78487d	0.060616005
85	0x3c5dc98b	0.013536821
86	0xbd981be5	-0.074271955
87	0x3ca34b7e	0.019933458
88	0xbc533ba6	-0.012892639
89	0x3d9855e0	0.07438254
90	0x3d24b259	0.040209148
91	0x3cc7ba3e	0.0243808
92	0xbd0fed22	-0.035138257
93	0x3c8ddceb	0.017317256
94	0x3c4c455b	0.0124677075
95	0xbd7a4ec9	-0.06111029
96	0x3d809fb5	0.06280462
97	0x3d00311d	0.031296838
98	0x3bb7f6a6	0.0056141196
99	0xbc0b9f7c	-0.008521911
100	0xbd77cb54	-0.060496643
101	0xbd9478b4	-0.07249585
102	0x3c7c4144	0.01539642
103	0xbd98cfb9	-0.07461495
104	0x3da02605	0.07819752
105	0x3d6bb74a	0.057547845
106	0xbc55a019	-0.013038659
107	0xbc0b34f1	-0.008496509
108	0x3b7de568	0.0038741473
109	0x3bc226d3	0.0059250384
110	0xbd5e1d6d	-0.05422728
111	0x3d418938	0.047250003
112	0x3aa0c6ff	0.0012266337
113	0xbd89e8e3	-0.06733873
114	0xbd899641	-0.06718112
115	0x3daf4806	0.08558659
116	0x3c9d1afa	0.019177902
117	0x3d481dcf	0.048856553
118	0xbd48cd84	-0.04902412
119	0xbd599c0b	-0.05312733
120	0x3da8e364	0.08246496
121	0x3cda056c	0.026613913
122	0x3d056076	0.032562695
123	0x3cb2aa5e	0.021809753
124	0x3c82b0bf	0.01595342
125	0x3b524381	0.0032083692
126	0xbd4c68ac	-0.04990451
127	0x3dae1899	0.085007854
128	0x3d57c1eb	0.05267517
129	0xbd098104	-0.033570305
130	0xbd22f6a9	-0.039786015
131	0x3d8ac338	0.06775516
132	0xbd8f95d9	-0.07011003
133	0xbd7807ef	-0.06055444
134	0x3b529be4	0.0032136375
135	0x3d802027	0.062561326
136	0x3d58701b	0.052841287
137	0x3d18be83	0.03729106
138	0xbce1e6e5	-0.02757592
139	0x3d6af457	0.057361927
140	0x3cf64640	0.030062795
141	0x3d11e42e	0.035618
142	0x3c39c949	0.011339494
143	0xbd917cbe	-0.07103871
144	0x3ca3d42a	0.019998629
145	0x3cbc75f5	0.023005465
146	0x3baeec7e	0.0053382507
147	0x3ca4396b	0.02004691
148	0xbd14437e	-0.036197178
149	0x3c05bb9d	0.008162406
150	0xbda9f6d3	-0.08299031
151	0xbd9fe56c	-0.078074306
152	0xbcd15e4a	-0.025557656
153	0xbd8f4573	-0.06995668
154	0x3c821567	0.015879346
155	0xbca4ae6a	-0.020102698
156	0x3d9b5c62	0.0758598
157	0xbd15a668	-0.03653565
158	0x3d3d33c1	0.046191934
159	0xbd949ea9	-0.072568245
160	0xbda6f370	-0.08151901
161	0xbcc4a3ef	-0.02400395
162	0xbd01c27f	-0.031679627
163	0x3b91e494	0.0044522975
164	0xbc8a5231	-0.016884895
165	0x3d580336	0.052737437
166	0x3db5f70e	0.088850126
167	0x3d2c5d3d	0.042081106
168	0xbd9e17d4	-0.077193886
169	0xbd1e1868	-0.038597494
170	0x3dab0b5b	0.08351775
171	0x3d9451db	0.07242175
172	0xbb429204	-0.0029689083
173	0x3ac01da3	0.001465727
174	0x3d4c285e	0.049843185
175	0x3bde33d1	0.0067810793
176	0x3c93cc8a	0.018041868
177	0x3bfac959	0.007653397
178	0xbcf11312	-0.029428039
179	0xbc9b4043	-0.01895154
180	0xbd348fa9	-0.044082318
181	0xba870ddb	-0.0010303812
182	0x3d94b146	0.07260375
183	0xbcc7fc96	-0.024412435
184	0xbd64784a	-0.05577878
185	0x3d858d92	0.06521143
186	0x3d927d1f	0.07152771
187	0xbc2a18cc	-0.010381889
188	0x3d05d39d	0.032672513
189	0x3ce476ef	0.027888743
190	0x3d790dc3	0.06080414
191	0x3d8c1b64	0.06841162
192	0xbd9fbc30	-0.07799566
193	0x3db4099f	0.087908976
194	0xbd63ada8	-0.055585533
195	0xbcd18f7d	-0.025581116
196	0x3d850517	0.064951114
197	0x3da98338	0.08276981
198	0xbd39ad92	-0.045331545
199	0x3dbb9458	0.09159154
200	0xbd2bc0ae	-0.0419318
201	0xbdac6b8f	-0.08418953
202	0xbcfd45cb	-0.030917069
203	0xbdba487d	-0.09095857
204	0x3d85d0d1	0.06533969
205	0xbdaa306c	-0.08310017
206	0xbd90b508	-0.07065779
207	0xbd3f5ffa	-0.04672239
208	0xbd6542ca	-0.0559719
209	0xbda2f5eb	-0.079570614
210	0xbd250141	-0.0402844
211	0xbd4a9644	-0.04945971
212	0xbd9395c7	-0.07206302
213	0x3cc94660	0.02456969
214	0xbd37b6db	-0.04485212
215	0xbd97537e	-0.07388972
216	0x3d09727d	0.03355645
217	0xbda56575	-0.08075992
218	0xbcdf7a99	-0.027280139
219	0x3b2342f6	0.0024911738
220	0x3d06bf0b	0.032897037
221	0x3d8ba7b1	0.06819094
222	0xbd985821	-0.07438684
223	0x3d51fcce	0.051266484
224	0xbd25ad58	-0.040448517
225	0xbd605ddd	-0.054777015
226	0xbcbe8974	-0.023258902
227	0x3d558a97	0.052134123
228	0x3d44bfbd	0.04803442
229	0x3da8bafa	0.08238788
230	0x3da1243e	0.07868241
231	0x3be91f19	0.007114303
232	0x3d4da98f	0.05021053
233	0xbd40d499	-0.04707775
234	0x3d532f70	0.05155891
235	0xbd658dcb	-0.056043427
236	0xbda28be1	-0.07936836
237	0x3da51448	0.08060509
238	0x3d86c4c6	0.065805
239	0xbd71a78c	-0.058997676
240	0x3d8ce798	0.068801105
241	0xbd610051	-0.054931942
242	0xbd3b53dd	-0.045734275
243	0xbdac9166	-0.0842617
244	0x3d7b091f	0.061287995
245	0x3c2c0a02	0.010500433
246	0x3d8227e0	0.06355262
247	0x3d0e8cfd	0.034802426
248	0x3d826c74	0.06368342
249	0x3cf559f0	0.029950112
250	0xbd78c3c3	-0.060733568
251	0xbd01e5aa	-0.031713165
252	0x3d3baf99	0.04582176
253	0xbc8fd025	-0.017555306
254	0x3d9dfa14	0.07713714
255	0xbd1a42a2	-0.037661202

lstm.weight_hh_l1 f4 [512, 128]
0	0xbc31c3c3	-0.010849896
1	0x3d28037f	0.04101896
2	0xbd491b01	-0.04909802
3	0xbd407cef	-0.046994146
4	0x3d92d9d0	0.07170451
5	0xbd87d655	-0.066326775
6	0x3d6c4cbe	0.057690375
7	0xbd07073c	-0.032965884
8	0xbd96ebb9	-0.07369179
9	0xbda72b4f	-0.08162557
10	0xbd993534	-0.07480851
11	0x3d2a6772	0.04160256
12	0x3d8fe0cb	0.07025298
13	0xbcbe2742	-0.023212079
14	0xbd15191a	-0.03640089
15	0xbd9365eb	-0.07197174
16	0x3d095cb9	0.033535693
17	0xbd04e368	-0.032443434
18	0x3d1202d0	0.035647213
19	0xbb69d9f8	-0.0035682898
20	0xbb091676	-0.0020917929
21	0xbd37a683	-0.044836532
22	0xbaad46d4	-0.0013219961
23	0xbd9b51ff	-0.07583999
24	0x3ce3c56e	0.027804103
25	0x3ca8e449	0.020616667
26	0x3c566aab	0.013086955
27	0xbd27a5d7	-0.04092964
28	0x3d625a6c	0.055262014
29	0xbd2fbff7	-0.04290768
30	0x3c6bd102	0.014393093
31	0xbc9ccf34	-0.01914177
32	0xbc300887	-0.010744221
33	0x3d67c693	0.05658586
34	0xbbdc133b	-0.0067161596
35	0x3db681fb	0.089115106
36	0xbd9bdcbd	-0.07610462
37	0x3ca4076e	0.020023074
38	0x3ce9caf3	0.028539157
39	0xb9b3f385	-0.00034322977
40	0x3b6d710d	0.0036230714
41	0x3d14448a	0.036198176
42	0xbd86d2d1	-0.06583179
43	0xbcfbbcc4	-0.030729659
44	0x3ba15b8e	0.0049242442
45	0x3d4aef16	0.049544416
46	0x3d531b0c	0.051539466
47	0xbdac1a8f	-0.08403503
48	0xbd92d094	-0.07168689
49	0xbdb51ac7	-0.08842998
50	0xbcd810a1	-0.026375117
51	0x3d63d5d5	0.055623848
52	0x3da9e3c7	0.08295398
53	0x3d463dd9	0.048398826
54	0x3d1b7b26	0.03795924
55	0xbd39584b	-0.04525022
56	0x3c2764fa	0.010216946
57	0x3d8ba3b7	0.068183355
58	0x3d4a7873	0.049431276
59	0xba120a02	-0.0005570949
60	0xbc4bbf59	-0.012435758
61	0x3b739d9b	0.0037172798
62	0x3d6dee17	0.05808839
63	0xbdb4dfc0	-0.088317394
64	0x3d90fb54	0.07079187
65	0xbd724aa7	-0.059153225
66	0x3d9f1db9	0.07769341
67	0xbcaaf1be	-0.020867225
68	0x3d1c26ce	0.038122945
69	0x3d976a37	0.07393306
70	0xbc448df9	-0.01199674
71	0xbd0a77e9	-0.03380576
72	0x3da0a125	0.07843236
73	0xbda94461	-0.08264995
74	0x3d850ae7	0.0649622
75	0x3bc68385	0.006058159
76	0x3d9ba101	0.075990684
77	0x3da91957	0.08256786
78	0xbce7a92f	-0.028278915
79	0x3b4a3b95	0.0030858268
80	0x3d9ac5f5	0.075572886
81	0xbbfff60f	-0.007811315
82	0x3d99aa7e	0.07503222
83	0x3dabf14e	0.083956346
84	0xbc6ce313	-0.014458436
85	0x3d6ce0c8	0.057831556
86	0xbda4dff4	-0.08050528
87	0xbd2e3afc	-0.04253672
88	0x3da2f282	0.07956411
89	0x3ca4d057	0.020118875
90	0xbd06230f	-0.03274828
91	0xbd06ce47	-0.032911565
92	0xbba9a870	-0.00517755
93	0xbb8a510d	-0.004221088
94	0x3c4a2122	0.012337001
95	0x3d82ec13	0.06392684
96	0x3d8ac00f	0.067749135
97	0x3d8be24f	0.06830274
98	0xbd6502f4	-0.05591102
99	0x3c87781b	0.016536763
100	0xbcff07f8	-0.03113173
101	0xbc2d6479	-0.010583037
102	0xbd761dba	-0.060086943
103	0xbd47e9ca	-0.048806943
104	0x3d84635f	0.06464266
105	0xbdae70a9	-0.08517582
106	0xbd82fd73	-0.06395998
107	0xbcfe793a	-0.031063665
108	0x3c8a64fb	0.016893854
109	0xbc791a3d	-0.01520401
110	0x3d29d769	0.041465197
111	0x3c89a85a	0.01680391
112	0xbd8f0b76	-0.06984608
113	0xbd9625bf	-0.07331418
114	0xbb68a18b	-0.0035496678
115	0x3cf62be4	0.030050226
116	0x3d2387cf	0.03992444
117	0xbd9ca3bf	-0.076484196
118	0x3d2aea45	0.041727323
119	0xbc4efffe	-0.0126342755
120	0x3b06a18f	0.0020543074
121	0xbc595289	-0.013264307
122	0xbd890d4d	-0.0669199
123	0x3c450f05	0.012027507
124	0xbccac6d3	-0.02475301
125	0x3b0a2fef	0.00210857
126	0xbd1bfe7a	-0.038084485
127	0xbd3a89d4	-0.0455416
128	0xbda164c7	-0.0788055
129	0xbd7a92b2	-0.061175056
130	0xbdad0f75	-0.08450214
131	0x3db8249b	0.08991357
132	0xbd94e04c	-0.07269344
133	0xbd4f0f26	-0.050551556
134	0xbd27b29a	-0.040941812
135	0xbd8901a1	-0.06689764
136	0x3c5154b1	0.01277654
137	0xbd85a72b	-0.065260254
138	0xbd32943c	-0.0435984
139	0xbd32aac7	-0.043619897
140	0xba55cb23	-0.0008155575
141	0x3d73bc2f	0.059505638
142	0x3da50952	0.08058418
143	0xbb8d8523	-0.0043188496
144	0xbd6f9c2e	-0.058498554
145	0xbd4193a8	-0.047259957
146	0xbd2f7c4a	-0.04284314
147	0x3db3128e	0.087437734
148	0xbcc7e6da	-0.02440207
149	0xbd917e39	-0.07104153
150	0xbbcace7f	-0.006189167
151	0xbc9b7dab	-0.018980822
152	0x3d970b6f	0.07375228
153	0xbd87c7d9	-0.06629915
154	0x3d5f0d02	0.054455765
155	0x3c29eb30	0.0103710145
156	0x3d939412	0.072059765
157	0x3b2850d3	0.002568294
158	0xbd796f37	-0.06089708
159	0xbc1000ed	-0.008789283
160	0x3da5eed2	0.08102192
161	0x3c97f604	0.018549927
162	0x3c072a44	0.008249823
163	0x3ce7a3c1	0.028276326
164	0xbd32071d	-0.043463815
165	0xbd44f692	-0.04808671
166	0x3d8e8fe6	0.0696104
167	0x3cb9bf14	0.022674121
168	0x3d145e52	0.036222763
169	0xbdb85928	-0.0900138
170	0x3d3c214a	0.045930184
171	0xbd6b2faa	-0.057418503
172	0xbcb35786	-0.02189232
173	0xbd1150b8	-0.03547737
174	0x3ca76980	0.020436049
175	0xbd1fc635	-0.039007384
176	0xbd5877e6	-0.05284872
177	0x3cb7607e	0.022384878
178	0x3d893f9e	0.06701587
179	0x3cd356be	0.025798198
180	0x3d7ac759	0.06122527
181	0xbc61ae93	-0.013774532
182	0x3d3d7ed1	0.04626352
183	0x3d40a9c5	0.047036905
184	0x3d506943	0.050881635
185	0xbc304195	-0.0107578235
186	0x3c58066f	0.013185128
187	0xbcb8bc69	-0.022550778
188	0x3d241f3a	0.040068842
189	0xbd5415fe	-0.051778786
190	0xbd6f17db	-0.05837236
191	0x3d8bd980	0.06828594
192	0x3c205ef4	0.009788264
193	0x3cd67ce4	0.0261826
194	0x3d9a0feb	0.07522567
195	0x3d15bd4d	0.036557484
196	0xbda9e245	-0.082951106
197	0xbd861760	-0.06547427
198	0x3b032339	0.0020010008
199	0x3cd5ac33	0.026083088
200	0xbd0dbb77	-0.03460261
201	0x3cc6b00f	0.024253873
202	0xbd735015	-0.059402544
203	0x3dac8570	0.08423889
204	0x3c700854	0.014650423
205	0xbd3e4e8a	-0.04646162
206	0x3cd15f51	0.025558146
207	0xbdb41bce	-0.08794366
208	0xbd80697f	-0.06270122
209	0xbd82afa4	-0.06381157
210	0xbc8a13bf	-0.016855119
211	0x3d88c215	0.06677643
212	0x3d714b31	0.0589096
213	0xbcfbb3f1	-0.030725451
214	0xbd257ed7	-0.040404167
215	0x3d3f756d	0.046742845
216	0x3c4d57ac	0.01253311
217	0xbc6cbc27	-0.014449156
218	0x3da90adb	0.08254024
219	0x3c34715a	0.011013353
220	0xbda8474a	-0.08216722
221	0x3cb897c0	0.022533298
222	0x3d885ac6	0.06657939
223	0x3c5b9f54	0.013404686
224	0xbd8211e7	-0.06351071
225	0xbd9feedf	-0.07809233
226	0xbc1d0d9e	-0.009585766
227	0xbd312276	-0.043245755
228	0xbd1d6d77	-0.038434472
229	0xbcfff38a	-0.031244058
230	0x3bdd9ef0	0.0067633316
231	0x3ce7f067	0.028312875
232	0xbd75b05d	-0.059982646
233	0x3ce2363d	0.027613753
234	0xbd8ec683	-0.06971457
235	0xbd44d233	-0.048052024
236	0xbd9f3abb	-0.07774874
237	0x3cc0848e	0.023500707
238	0xbc08917e	-0.008335469
239	0x3ba8fc9e	0.0051570674
240	0xbd4a5a94	-0.04940279
241	0xbd871ff5	-0.06597892
242	0xbda263f8	-0.07929224
243	0xbd44072e	-0.04785841
244	0x3db7b37e	0.08969782
245	0xbda48e28	-0.08034927
246	0x3ca920bc	0.020645492
247	0xbbd6149c	-0.0065332185
248	0x3d0a6fb5	0.03379794
249	0x3d447b1b	0.047968965
250	0x3d7c74f7	0.061634984
251	0x3db40847	0.08790641
252	0xbc3bf5e1	-0.011472196
253	0x3a9cb585	0.0011955953
254	0xbd8314fb	-0.06400486
255	0x3d0a0cfd	0.033703793

lstm.bias_ih_l1 f4 [512]
0	0xbcfeaeca	-0.031089205
1	0x3d56176d	0.052268434
2	0xbc7ae824	-0.015314136
3	0xbd6ab869	-0.057304773
4	0x3c545ce9	0.012961605
5	0xbc214829	-0.0098438645
6	0x3d493c6c	0.04912989
7	0xbd0cf5b0	-0.034413993
8	0xbd06ab9e	-0.03287851
9	0x3d4821f3	0.0488605
10	0xbc9a7ed8	-0.018859312
11	0x3d244608	0.04010585
12	0x3c79b9eb	0.01524208
13	0xbd5ad1d2	-0.053422756
14	0x3db7f8b3	0.089829825
15	0x3bc02498	0.0058637373
16	0x3c85956a	0.016306598
17	0xbd899258	-0.06717366
18	0xbda0e208	-0.07855612
19	0x3db6eb11	0.08931554
20	0x3d454991	0.04816586
21	0x3d151889	0.03640035
22	0xbbb500ad	-0.005523762
23	0x3d1726e5	0.036902327
24	0x3c85de93	0.016341483
25	0xbd90db0b	-0.07073029
26	0xbd1889f1	-0.037240926
27	0x3d5ea948	0.054360658
28	0x3c51c098	0.012802266
29	0xbd34df08	-0.04415801
30	0x3cc17b46	0.023618352
31	0xbc174562	-0.009232851
32	0xbd64a182	-0.05581809
33	0x3cd1d511	0.025614293
34	0xbd2276cd	-0.03966408
35	0xbd8b82f0	-0.06812084
36	0xbd62224b	-0.055208486
37	0xbd892ce7	-0.066980176
38	0x3c7d7f40	0.015472233
39	0x3c5446ee	0.012956364
40	0xbc919b62	-0.017774288
41	0xbd9f95dd	-0.07792256
42	0x3d429e69	0.047514353
43	0x3d34d977	0.044152703
44	0x3801c5f2	3.0940348e-05
45	0xbca3803f	-0.019958613
46	0x3d85cdc5	0.06533388
47	0x3d1c592d	0.038170982
48	0xbd212267	-0.03933945
49	0x3cebb57e	0.028773066
50	0xbc7369b3	-0.014856744
51	0xbd77955a	-0.060445167
52	0xbda5fc36	-0.08104746
53	0x3d1df32a	0.038561977
54	0xbc9d4643	-0.019198542
55	0x3d812429	0.06305725
56	0x3cfc373b	0.030788055
57	0x3d122c45	0.03568675
58	0x3d537e8d	0.05163436
59	0x3d983012	0.07431044
60	0xbb90999f	-0.0044128443
61	0xbd4f1a57	-0.05056223
62	0x3d98bbc2	0.07457687
63	0xbce9ab5c	-0.028524093
64	0x3d2c9c64	0.042141333
65	0xbc94cc48	-0.018163815
66	0x3c9bd1d1	0.019020947
67	0x3c044434	0.0080729015
68	0xbcbe978a	-0.023265619
69	0x3cb00d9f	0.02149087
70	0xbc6d2b78	-0.014475696
71	0x3d8befbc	0.06832835
72	0xbcb8d68b	-0.02256324
73	0x3bc06d78	0.0058724247
74	0xbd509564	-0.05092372
75	0x3b8f5545	0.0043741786
76	0xbd9d09f5	-0.07667915
77	0x3d80634d	0.0626894
78	0x3d808a31	0.06276358
79	0xbdb01b20	-0.08598924
80	0xbd1cc26b	-0.03827135
81	0x3bece187	0.0072290334
82	0xbc36eda5	-0.011165057
83	0x3cbfd67c	0.023417704
84	0x3d96331f	0.07333969
85	0x3abbc077	0.0014324327
86	0xbdaa231c	-0.08307478
87	0xbcbd72cc	-0.023126028
88	0x3d9d0803	0.07667544
89	0xba22028f	-0.0006180191
90	0x3d7ff173	0.062486123
91	0x3d79d2a8	0.060991913
92	0x3d0e5608	0.034750015
93	0xbcf3fd71	-0.029783936
94	0xbb2f2538	-0.0026725065
95	0xbafa6c0c	-0.0019105687
96	0x3b9b1d97	0.004733752
97	0x3d676151	0.056489293
98	0x3d895e8e	0.06707488
99	0x3d083a3a	0.033258654
100	0xbdae4f33	-0.085112
101	0x3dae2f06	0.08505063
102	0x3d83e64e	0.064404115
103	0xbd8a9baa	-0.06767972
104	0xbc0bad1f	-0.008525162
105	0xbcb34302	-0.021882538
106	0x3d3fcdcc	0.046827123
107	0x3d94fc48	0.07274681
108	0x3c8f5c25	0.017499993
109	0x3d9e62a9	0.07733662
110	0x3bdfe144	0.0068322737
111	0xbc0daabc	-0.008646663
112	0xbcf5d52b	-0.030008873
113	0x3d3ffb0d	0.04687028
114	0xbbd21b75	-0.0064119645
115	0x3d2e82f7	0.042605367
116	0xbd8a3d11	-0.06749929
117	0xbd38e848	-0.045143396
118	0x3d01fea9	0.031737003
119	0x3d6f6aa3	0.058451306
120	0xbcebeaf0	-0.02879855
121	0xbdab5e20	-0.08367562
122	0xbcc14a5b	-0.023595026
123	0x3b8597eb	0.004076948
124	0x3b157b86	0.0022809221
125	0xbcefc73d	-0.029269809
126	0xbd632f0b	-0.055464786
127	0xbd612b3b	-0.05497287
128	0xbce9507e	-0.028480764
129	0xbd9322f1	-0.07184399
130	0xbdb22b96	-0.086997196
131	0xbd417ff1	-0.047241155
132	0x3c5341e3	0.012894127
133	0x3c3c4c1e	0.011492757
134	0xbd95c5f0	-0.07313144
135	0x3d089a3b	0.03335021
136	0x3d74e51d	0.059788812
137	0xbcd1d632	-0.025614832
138	0xbd053582	-0.032521732
139	0x3d36a3db	0.04458986
140	0xbc2e00d5	-0.010620316
141	0xbbe82c34	-0.0070853475
142	0x3d3a36c6	0.045462392
143	0x3b1344b9	0.0022471382
144	0xbd2d0dea	-0.042249598
145	0x3c81c1ec	0.01583954
146	0x3da3f8a9	0.080064125
147	0xbc10504a	-0.008808205
148	0xbcd99ea6	-0.026564907
149	0xbd870414	-0.06592575
150	0x3d970cbb	0.07375475
151	0xbd8a4e89	-0.06753261
152	0x3cbacd54	0.022802986
153	0xbc68df37	-0.014213375
154	0xbd5c7c4a	-0.05382947
155	0x3d8430d1	0.064546235
156	0x3d8b92fe	0.06815146
157	0xbd93706c	-0.07199177
158	0xbc3a6cc0	-0.011378467
159	0x3ab2ad8d	0.0013632044
160	0xbd85b804	-0.06529239
161	0x3d8d0f99	0.06887741
162	0xbdb0dd04	-0.086359054
163	0xbd2b5891	-0.04183251
164	0x3d9697bc	0.0735316
165	0x3da69d99	0.08135528
166	0x3b6cd55e	0.003613792
167	0xbd06cc43	-0.032909643
168	0x3d7691b1	0.060197536
169	0x3a9b2805	0.0011837488
170	0xbbb6de48	-0.005580697
171	0xbda102aa	-0.07861836
172	0xbc9494fe	-0.018137451
173	0x3d216624	0.03940405
174	0xbd6c6fee	-0.057723932
175	0xbd8c26b6	-0.06843321
176	0x3c8c19eb	0.017102202
177	0x3d5a4dd0	0.053296864
178	0xbd36ddf8	-0.04464528
179	0x3cff227e	0.031144377
180	0xbd4e2262	-0.05032576
181	0xbd9241aa	-0.07141431
182	0x3d80f734	0.0629715
183	0x3d309c2f	0.0431177
184	0x3d46131e	0.048358075
185	0xbc18dd1a	-0.0093300585
186	0xbdac65d8	-0.08417863
187	0x3c12daf2	0.008963333
188	0xbd994294	-0.07483402
189	0xbd0b8be0	-0.034068942
190	0xbcde3c66	-0.02712841
191	0x3c44f1b5	0.012020518
192	0x3d9fcc49	0.07802636
193	0xbd406563	-0.04697169
194	0xbd2b4e9a	-0.041823007
195	0xbd962e33	-0.073330306
196	0xbd3b3eba	-0.045714118
197	0x3d12ffa9	0.035888348
198	0x3db21025	0.086944856
199	0xbc12525c	-0.008930769
200	0x3d4f6021	0.050628785
201	0xbd630b6b	-0.05543081
202	0xbc4b47a3	-0.012407216
203	0xbc9751b3	-0.018471574
204	0xbc0fe22a	-0.008781949
205	0xbd2b9653	-0.041891407
206	0x3c1ed893	0.00969519
207	0x3d28db6f	0.041224893
208	0xbda79d93	-0.08184352
209	0xbd9803ae	-0.07422577
210	0x3d4c1702	0.04982663
211	0x3d3bd80c	0.045860335
212	0xbd86f0ac	-0.06588873
213	0xbd9eb851	-0.07749999
214	0xbd86ed92	-0.06588282
215	0x3d409844	0.04702021
216	0xbd3fdeb3	-0.046843242
217	0x3d3dd1d7	0.046342697
218	0x3ca15825	0.01969535
219	0xbd6aa5cb	-0.05728702
220	0xbd5049f3	-0.050851773
221	0x3ce6943d	0.028146857
222	0x3c87d929	0.016583042
223	0xbd70aa84	-0.058756366
224	0x3b843955	0.004035155
225	0xbd859fbd	-0.06524608
226	0xbd863ac1	-0.06554175
227	0xbbe0b24a	-0.006857191
228	0x3d1aaa0c	0.037759826
229	0x3d68e3a7	0.05685773
230	0xbd3141fc	-0.04327582
231	0xbcad7eb5	-0.021178583
232	0xba16baaa	-0.0005749861
233	0xbd7fad77	-0.06242129
234	0x3d9e5afb	0.07732197
235	0x3d2fb0c0	0.04289317
236	0x3c08379b	0.008314039
237	0xbc318ee7	-0.010837293
238	0x3d785398	0.060626596
239	0xbd94a4c7	-0.07257991
240	0xbca36903	-0.019947534
241	0xbd637f14	-0.055541113
242	0x3d8df2a8	0.06931049
243	0x3d5007cb	0.050788682
244	0xbd735088	-0.059402972
245	0x3c94775f	0.018123327
246	0xbc8a7185	-0.016899833
247	0x3ca52900	0.020161152
248	0xbbbcac54	-0.005757848
249	0x3ced4cd9	0.028967308
250	0xbd5dfa36	-0.054193698
251	0x3d73562f	0.059408363
252	0x3d721cf3	0.05910964
253	0x3cb5cf4d	0.022193575
254	0x3d713522	0.058888562
255	0xbdb01317	-0.08597391
