lstm_ts.pth (torch, 150463 bytes, 10 tensors)

encoder.lstm.weight_ih_l0 f4 [256, 5]
00000000: 619e b43d d517 5d3d 07d6 333d ac9a 25bc
00000010: ffac 9e3d 3d08 943d 13a1 c4bd 2c9c e23d
00000020: dba7 80bd fd4e dabd 4313 28bd 5e6c e53c
00000030: 0e90 723d 33cc 1f3d d640 e43d 8495 b1bb
00000040: 84d4 3abd 592a 993d f4d8 43bc e7d7 853d
00000050: 8b73 b93c 7686 85bd 3ee8 8b3d 875a 143e
00000060: 694a e83d 47f4 0e3e 2068 983d fb51 a13b
00000070: 8f20 8fbd 0a23 8bbd 7b19 b63c 59e8 543c
00000080: c86e fa3d 5878 adbc 4f4a 9b3d 91eb 1e3d
00000090: 2e97 ad3a 3d2b 543d 544f 273d a669 05bd
000000a0: 8dcf e4bd c4c3 953b bf57 f6bd db28 9f3d
000000b0: eedc d23d b747 a23b 971b 583d 349f 1ebd
000000c0: b419 f03d b408 3dbc 4bbd 55bd c47f 4ebc
000000d0: 5df9 1d3d 2ab8 8dbd c588 bd3d 023c ffbd
000000e0: 68a0 17bd 9d94 083e 4ec6 c2bd 2761 87bd
000000f0: 8469 bbbd 85ec e3bb ede9 a23c e144 103d
00000100: 59fd 9d3c 2a90 b9bd 4c14 ad3d 3b08 95bc
00000110: 18da 63bd cffb 093d 84cf aa3d 525d efbd
00000120: cec1 a83d 165f c73d 6508 7c3c 2aa3 d13c
00000130: 7b5c 033e d84f 533d 4d42 0d3d 232e ec3d
00000140: 99cc 3f3d e15e 103d 2c9f ba3c 5f9f bb3d
00000150: b5f7 d3bd 4968 fe3d 8dfa 76bd ea46 543d
00000160: 0123 0d3e 84ae 86bd 89cb 873c 5f16 8bbd
00000170: ec30 0e3c e24b b2bb a1e1 d2bc 9a70 80bd
00000180: a7d6 ddbd 2e6a c73c b6e0 3d3a 6944 1dbe
00000190: e4ba 0a3e acfa 983c 0291 b93d 4bdf ba3c
000001a0: 76c1 953d fb89 c0bd 9150 d2bd b538 bd3c
000001b0: fc9b adbd 6e6d ed3d ad73 8c3c 123d 133e
000001c0: ddab 053e f2ac 303c 5d12 b53d 7cb4 b83c
000001d0: dbde f83d f008 adbd 512f 473d 0919 363d
000001e0: 6ab1 2bbd ef7a 0ebd 21bb 19bd c07a 5ebd
000001f0: 23ca 273b dc99 103e 2078 a73c a1f3 4abd
00000200: 34a5 08bd 9010 203d b993 13bb ff22 ce3d
00000210: 830a cfbb 18e5 d63d 2f0a 973d 7e5a 2cbd
00000220: 9e69 aebd 06ca 99bc 38d5 33bc cc72 65bd
00000230: feaf 0fbc 7ab6 7a3d 391a 86bd 9f73 90bd
00000240: 5988 793d a468 b73d f5dc 2abd 5ca2 7a3b
00000250: 29d0 a3bd d74f cdbb e252 c6bc 4fc7 ce3d
00000260: 05ba 143e baaf 333d b072 88bd f8c3 ff3d
00000270: 1e26 62bd 2b96 e5bc c8c2 2b3c 170b e43d
00000280: 9e76 bbbd f17e 033d b863 83bd 33ba 163e
00000290: 2b75 193e b625 8a3d 3203 a13c 0b7c c9bd
000002a0: 107d 7e3d 8688 043e 5e72 74bc 4239 92bd
000002b0: 6008 98bc 1f39 eebc 3472 12be 8548 cc3c
000002c0: 7231 c6bd a31a e33d 35c1 43bc ccea 85bd
000002d0: de40 ce3c 2cad 23bc bc37 a83d 6b63 2a3d
000002e0: 0025 2fbd 5fbc a5bc 70f3 a9bd 6dae a03c
000002f0: 6cf9 6e3a ea72 dbbd eac3 293d e82b 113e
00000300: 6c06 de3d 0d85 77bd 9da5 af3d 4e85 b0bd
00000310: 28c9 a03b c375 123e dbe7 583d 75c9 f2bc
00000320: 64a9 313c 7b08 e43d 681c 333d d0aa 01bc
00000330: f68e 03bd 2243 59bd 9590 5fbd 8171 bbbd
00000340: c40c 353d 75b2 af3d 0f96 a93c 4ba3 7cbd
00000350: def3 eb3d f816 983d 5680 0e3e 9b15 08be
00000360: 0ae5 f6bd 722b a1bd 9698 b3bd 6724 443d
00000370: 3c2d aa3d 81bf 893d 38ed bc3d 5188 94bc
00000380: 9149 bdbd ba24 fa3b f481 85bd d2e7 a4bc
00000390: 071f 0d3e 9aa7 e6bc 8536 563a a383 c13d
000003a0: e5aa 9c3d 77b1 15bd 0ef1 863c 13f9 d1bd
000003b0: 5609 523c 2404 a73d e9dc 483b 53b5 d3bc
000003c0: cde1 babd 269c 5b3c 9c58 58bd d599 96bd
000003d0: ba53 09bd 2fc1 6abd 2df6 ab3d cb80 56bd
000003e0: 1782 193d 79e0 9bbd c281 a9bd 67fc 0ebd
000003f0: e75c dc3b 974d 13bd b54e 46bd 4e0e 043e
0.08819271 0.053977806 0.043905284 -0.010107677 0.0774784 0.07228134 -0.09601035 0.11064944
-0.06282016 -0.10659597 -0.041033994 0.028005775 0.059219413 0.0390131 0.11145179 -0.005419435
-0.045612827 0.0747878 -0.011953581 0.06535321 0.022638103 -0.06519787 0.06831406 0.14487658
0.113423176 0.13960372 0.07441735 0.004923103 -0.06988632 -0.067937925 0.022228947 0.012994849
0.12228161 -0.021175548 0.075825326 0.038798872 0.0013243908 0.051799048 0.040847138 -0.032571457
-0.111724 0.004570456 -0.12028455 0.077714644 0.10296045 0.0049523967 0.052760687 -0.038726047
0.117236525 -0.0115377195 -0.052182477 -0.012603704 0.03856789 -0.06919892 0.09254602 -0.124626175
-0.03701821 0.13337941 -0.0951048 -0.06610327 -0.09150985 -0.0069556856 0.019886935 0.035221938
0.019285845 -0.090607 0.08451137 -0.018192401 -0.055627912 0.03368741 0.08340362 -0.11687721
0.0824009 0.09734933 0.015382861 0.025590498 0.12828247 0.051589817 0.034487057 0.115322374
0.04682598 0.035246734 0.022780977 0.09161257 -0.10349981 0.124222346 -0.060297538 0.05182544
0.13782884 -0.06576255 0.016576545 -0.06791376 0.008678656 -0.005441175 -0.025742354 -0.06271477
-0.10831957 0.024342623 0.00072432624 -0.15358128 0.13547856 0.018674217 0.09060861 0.022811553
0.0731229 -0.09401318 -0.10269273 0.02309833 -0.08477017 0.11593138 0.017145002 0.14378765
0.13053842 0.010783421 0.08841393 0.022547 0.12151881 -0.0844897 0.04862911 0.04445747
-0.041917242 -0.034785207 -0.037531976 -0.054316282 0.002560266 0.14121193 0.020443022 -0.04954875
-0.033360675 0.039078295 -0.002251847 0.10065269 -0.0063183918 0.10492915 0.07374989 -0.042078488
-0.08516239 -0.01877309 -0.010976128 -0.056017682 -0.008769987 0.06120918 -0.0654797 -0.07053303
0.060921047 0.089555055 -0.041714627 0.0038243746 -0.07998688 -0.006265621 -0.024209443 0.10096609
0.14524086 0.043868758 -0.066625 0.1248855 -0.055212133 -0.028025707 0.010483451 0.11134928
-0.09153484 0.032103483 -0.06415504 0.14719467 0.14986102 0.06745474 0.019654844 -0.098381124
0.062130988 0.12942705 -0.014919845 -0.07139827 -0.018558681 -0.029079972 -0.14301378 0.024936924
-0.096774 0.11089065 -0.01194792 -0.065389246 0.025177415 -0.009990018 0.082137555 0.04159872
-0.042759895 -0.020231424 -0.08298385 0.019614423 0.0009116146 -0.107152775 0.041446604 0.14176905
0.108410686 -0.06042962 0.0857651 -0.08619176 0.004906792 0.14302735 0.05295549 -0.029637078
0.0108436085 0.1113443 0.043728262 -0.00791426 -0.03211876 -0.05304254 -0.054581244 -0.091525085
0.044201627 0.0857896 0.020701436 -0.061679166 0.11521123 0.07426256 0.13916144 -0.13289492
-0.120554045 -0.07869615 -0.08769338 0.04788628 0.08309409 0.067259796 0.092249334 -0.018131407
-0.09242547 0.0076337727 -0.06518927 -0.020130072 0.13781367 -0.02815609 0.0008171576 0.09448936
0.07649783 -0.036546197 0.016472366 -0.10252585 0.012819609 0.08155087 0.003064925 -0.025843298
-0.09125099 0.013403928 -0.05281888 -0.0735356 -0.033527113 -0.05731314 0.08396564 -0.05236892
0.03747758 -0.07611174 -0.082767025 -0.03490868 0.006724942 -0.035962667 -0.048414905 0.12896082

encoder.lstm.weight_hh_l0 f4 [256, 64]
00000000: 5944 923c 56cf 66bb 4565 2f3c 8114 82bd
00000010: ae51 0a3e 5811 af3d 46ef 0cbd bfc8 73bd
00000020: 48e3 46bd 595e 593d 88b6 8ebd 69a4 0fbe
00000030: 50a4 0e3e 95b3 b0bd ea5b 173d 44c8 b93d
00000040: 7e79 fcbc ab4d 3c3d 9ebd 283d 22e2 e6bb
00000050: 02ef e4bd 5e9c 48bb 8665 0c3d 2a2f 933d
00000060: 14e1 e83c c279 cf3c 53fc c8bd 98f3 063e
00000070: 1cd7 603d 920e 513d 01fc 3e3d 6848 6abd
00000080: ed27 8d3d c419 c13b 5259 943c 9195 02bb
00000090: e9e8 633d f7ba af3c 008c a3bc 0e3f f93d
000000a0: d8b6 c93d 6149 92bc 9b21 ec3c afc8 183e
000000b0: 37c5 bc3d 7649 d53b 327c 43bc 4c6b b23d
000000c0: 197b 4dbd e8d8 e13d db74 75bd 3f78 a43d
000000d0: c8e5 83bd 9d2a d7bc 0e7b 483d c670 eb3c
000000e0: b08d f6bd 985a b33c 1344 b73d bd4a 40bb
000000f0: d13f ffbb 329a 6bbd bfda a3bd e4f1 63bd
00000100: 2719 28bd 7c88 77bb 0a3e fc3d df60 e83d
00000110: 4fe2 5a3d e7fb e63d 3588 063d 0c9e 303c
00000120: 110d eb3c c150 b139 3066 c8bd 2b4e 0dbe
00000130: bb9d 00be 43ed 9b3d 55d0 2dbd d1d2 403d
00000140: f472 80bd 1c67 cdbc 2722 a53d 26dc 96bc
00000150: 8125 35bd b849 11bd 7cbe e1bd 240f d83d
00000160: 1813 493c ddaf 2cbc 2c52 8b3c 8036 1d3d
00000170: 37f3 473d dc2b 98bc 762d 873d 3874 49bd
00000180: 40cc 13bc 33ea 0dbe be10 8f3d 300f 32bd
00000190: d1d1 30bc de02 ba3d 5313 bd3d 2d56 97bc
000001a0: bd93 42bd 880c aebd e860 9e3d 0e65 403d
000001b0: 4d8e 563d e187 3f3c 45a8 bcbd 12eb ca3d
000001c0: 147e 08bc 0f44 963d 800c b2bd 7a42 c5bc
000001d0: fb59 a23d 5435 b2bd 2e7a 86bd 3b45 4cbd
000001e0: 5ef6 893d de7a 5fbc 078a 323d 22fc 8f3d
000001f0: 6ebe b03d 083c a5bd e772 863d 7602 43bd
00000200: c3ce 453d 2350 9c3c 1553 c7bb 759c 27bc
00000210: 431a 06bb aad4 efbd c810 cc3c 5128 6a3d
00000220: 3e79 833c 188e c33d 7b74 763c ea1a e23c
00000230: 05b1 f1bc bd31 d8bd 76dc 303c 66f2 0fbd
00000240: 5061 babd 9dab 153e cbe7 703d 2675 21bd
00000250: bcfa 9b3b 50fe a9bc a3e2 bfbd 2583 82bd
00000260: 36c2 943d 8606 b1bd fd60 3dbc 93d7 f83d
00000270: b223 debd 460a bd3d a2b8 ba3d 630e e7bc
00000280: 7750 2abd 22c3 52bd cd7d 973d ca75 7c3d
00000290: 7259 55bd e4ae 713d 7350 103e 00c6 fcbc
000002a0: 6423 043e d298 c4bb 5cc9 72bd b2d3 c6bb
000002b0: 835b 91bc 84d7 713d f533 153e ea03 55bc
000002c0: 4755 ce3d 151f ea3d ee7a 083e f573 92bd
000002d0: c87f a63d 78c2 543d 09cb 723d 91d5 5c3d
000002e0: 3069 ac3d c95f dfbd 18f7 a53d 3c3f f83d
000002f0: e232 b2bd c300 f7bd 4b09 1e3e eed9 a43d
00000300: 123b fb3d 4fc1 a9bc 99e3 99bd c98f 4c3d
00000310: 7633 4d3d 26bd 03be ddee 9abd cd39 b43d
00000320: 7cc2 de3c d6ca 2abd f837 443c 8787 1abe
00000330: 806f bf3b 6dd8 91bd 8bdf 103d 2c93 723d
00000340: 92c2 803d 7878 b23d 3893 f03a 9722 c53d
00000350: ac25 28bc 6af6 dfbc 0890 b7bd cbff 63bd
00000360: 64fa e1bd d416 7dbd fb42 9a3d 984d c2bd
00000370: 8a55 66bd 6f15 d13d f5f6 8a3d dcc3 823d
00000380: db6e 10bd a018 bfbc 377b 2bbd e5d9 31bc
00000390: 49b2 babb b5c1 00bb afbf c9bc a94a 1bbc
000003a0: 4e26 e53d b15a e3bd bd55 e1bd 9171 003d
000003b0: f284 45bd 952e c43d e1a6 253c 3cd7 e2bd
000003c0: f63a 533d 2e3c 49bd 2d31 4b3d 980f c03c
000003d0: 679a abbd 3e81 743d aac1 3f3d 0120 89bd
000003e0: e570 65bd 85a0 013e a7db 93bc fdfa 95bd
000003f0: 5457 81bc 60a5 4bbb 42ec 89bd 2931 eabd
0.017854856 -0.0035218797 0.010705297 -0.06351567 0.13507721 0.0854823 -0.034407876 -0.05951762
-0.048556596 0.053068493 -0.06968409 -0.14027561 0.13929868 -0.086280026 0.03695289 0.09071401
-0.03081965 0.045972507 0.041196458 -0.007046 -0.111783996 -0.003061078 0.034276508 0.0718673
0.028427638 0.025326613 -0.09813752 0.13178861 0.054892644 0.051039286 0.04662705 -0.05719796
0.06892381 0.005892964 0.018108997 -0.0019925574 0.055642042 0.021451456 -0.019964218 0.1217023
0.09849328 -0.017857255 0.028824618 0.14920305 0.09217303 0.0065090014 -0.011931466 0.087118715
-0.050166223 0.110277 -0.059925895 0.080307476 -0.06440312 -0.026265437 0.04894548 0.028740298
-0.120387435 0.021893784 0.08948531 -0.0029341422 -0.00778959 -0.0575201 -0.08000707 -0.055650607
-0.041039612 -0.003777056 0.123165205 0.11346602 0.05343848 0.11278515 0.03284474 0.010779869
0.028692754 0.00033820237 -0.09785116 -0.1379935 -0.1256017 0.076136135 -0.04243501 0.04707605
-0.062719256 -0.02507358 0.08063155 -0.018415522 -0.04422522 -0.035470694 -0.1102266 0.10549763
0.012272619 -0.010539976 0.017006956 0.038382053 0.048815932 -0.018575601 0.06600468 -0.0491831
-0.009020865 -0.13858871 0.06985615 -0.043471515 -0.010792212 0.09082578 0.092322014 -0.018473709
-0.047504175 -0.08498484 0.07733327 0.046971373 0.052381802 0.011690111 -0.09211782 0.09908117
-0.008330841 0.073372 -0.086937904 -0.02407955 0.07927319 -0.08701578 -0.06566273 -0.04987071
0.06736444 -0.013640134 0.043588664 0.070305124 0.086300716 -0.08068091 0.06564885 -0.04760977
0.048292886 0.01908118 -0.006082902 -0.010230173 -0.002046243 -0.11710484 0.024910346 0.057167355
0.016049024 0.095485866 0.01504242 0.027600724 -0.029503355 -0.10556362 0.0107947495 -0.03514328
-0.09100592 0.14616247 0.058814805 -0.039418362 0.0047601145 -0.020751148 -0.093693994 -0.0637267
0.07263605 -0.08643822 -0.011558768 0.121504925 -0.10846652 0.09230475 0.09117247 -0.028205102
-0.041580644 -0.051455624 0.073970415 0.06163577 -0.052087255 0.05900468 0.14093189 -0.030856133
0.12904125 -0.005999663 -0.059274063 -0.0060677165 -0.017743832 0.059043422 0.14570601 -0.0130014215
0.10074859 0.1143171 0.13328144 -0.07151023 0.08129841 0.051943272 0.05927566 0.05391461
0.084185004 -0.109069414 0.0810377 0.12121436 -0.087011114 -0.12060692 0.15433232 0.08049379
0.12267126 -0.02072206 -0.07514114 0.04994181 0.050097905 -0.12865123 -0.07565091 0.08800087
0.027192347 -0.041697346 0.011976235 -0.15090762 0.0058421493 -0.07121358 0.035369437 0.059222385
0.06287111 0.08714384 0.0018354421 0.09625738 -0.010262888 -0.02733918 -0.08963019 -0.055663865
-0.11034086 -0.06178935 0.07532307 -0.09487456 -0.05623392 0.10209166 0.067853846 0.063850135
-0.03526197 -0.023327172 -0.041865554 -0.010855173 -0.005697523 -0.0019646708 -0.024627535 -0.00947825
0.11188947 -0.111012824 -0.110026814 0.031358305 -0.04822249 0.09579197 0.010110588 -0.11076209
0.0515699 -0.049129657 0.049607445 0.023444936 -0.08379059 0.059693567 0.04681555 -0.066955574
-0.056015868 0.1265889 -0.018049074 -0.07323263 -0.015788712 -0.0031073913 -0.06734516 -0.11435158

encoder.lstm.bias_ih_l0 f4 [256]
00000000: 9f1e 8fbc 4e46 8ebd 88e9 37bc 3d19 a5bd
00000010: 6909 c43c a276 153d 677a c9bc 3765 203c
00000020: c37a b6bd 1633 4abd 87d3 b0bc a421 703d
00000030: f33c 3c3d 2aff 2b3d a208 b3bd ac83 fdbd
00000040: b87a adbc 21fc db3d 5cd6 3fbd 84d6 273c
00000050: 6633 f93d 70fc 093e 0f28 c23d 48e2 58bd
00000060: fc68 41bd f87d c6bc a311 92bc 3f95 9bbd
00000070: 727a e53d 5085 223e f705 afbc 4e29 bd3d
00000080: 1570 fd3c 7d48 833d da89 443d ed76 cc3d
00000090: 615c 8cbd 16c6 843d ade0 1fbd 2e2a e13d
000000a0: 5967 0e3e 360c 983d 4ae9 293d 563a 5cbd
000000b0: fd12 913c e947 cdbc fe01 8f3d 7f6a d23d
000000c0: 597b 13bd 74db f5bc d788 6a3d 56da 073c
000000d0: 2a7f 873d 31ba 95bd 8ebe c3bd 9f79 0e3e
000000e0: a10a 26bd 1ac1 5a3b d621 0bbd 36a4 893d
000000f0: 658d 9d3d 3276 cabd 8e0b 57bd c56d b53d
00000100: 868b a63d 3d02 7d3d 70db 873d e539 343c
00000110: a167 513d 9160 0e3e a0b7 073e 2b4b af3d
00000120: a169 06bd fe94 8b3d 7454 f03c 14f2 b73d
00000130: f348 ef3d 26a7 e53c d4f1 903d d5d2 cdbd
00000140: 3a8e 60bd 746f a5bd e506 153e f827 a5bd
00000150: caa0 b8bc f195 e53d a94e 53bd 48a5 05bd
00000160: ddb3 a93d f917 833d 0fb0 f63d a0fc e13d
00000170: 5965 0b3e 2392 19bd de84 ee3c 9571 6c3d
00000180: 73ff d43d 8b6f ebbc 3939 7dbd f0a0 903d
00000190: b968 d8bc 7d4d e7bc 2dd2 37bd 4d01 a6bd
000001a0: b7b8 ca3d c9af 55bc 76ff 563d 760c 5d3d
000001b0: 3099 db3d 6cf9 9ebd ecd6 8f3d defc a6bd
000001c0: 1e68 e3bc 0b9b c53d 51ea bb3b d7b0 8d3c
000001d0: 053b dc3d ab27 45bc 6174 e73d 4920 a1bd
000001e0: 51d0 103e e8ac fa3d eca0 c9bd e948 f93d
000001f0: 46c1 42bc 4344 e3bd 857c d9bd 69e3 063d
00000200: cc17 b2bd 6ef2 0a3e f64b 2bbd 0591 093e
00000210: 4ae5 613d d0fe 0ebd 8e36 5f3d 9fc7 0f3e
00000220: 762b f23d 4879 703c 10bd db3b ba43 9dbd
00000230: 01e9 e2bd 1595 503d 2349 23bd 5e63 6f3d
00000240: 78d4 f83d 272e 69bd 9f21 e6bd 91b2 0a3e
00000250: f1ba f43d f601 ee3d 032e a23c ab81 c43c
00000260: c34a 05be 63cf 8ebd 5662 993d 045c 95bd
00000270: 0a4c 03be 3b17 753c b79f e2bd 2558 123e
00000280: bebe f0bd 33a7 3cbd 6721 01be d32f 133e
00000290: d16f c73c f50b f13d e155 92bc c244 843d
000002a0: 0562 d7bc 7e0f e13d acf9 3ebc a4bb 933d
000002b0: 9a7f 82bc 1049 9b3d 74a0 453d 01ee 1abd
000002c0: 847c 093d 961b 303d 2af5 babd 89eb 92bc
000002d0: 6e56 32bd e0e6 9ebd b877 a7bd 6f7d 1cbd
000002e0: 0b33 aabd 8b6d 763c a4c6 e03c b9c1 5b3d
000002f0: a6cf d5bc 127c 02bd 7239 a73d 3ea9 ca3d
00000300: acb1 c33d 6141 0a3e af94 2d3d 1336 93bd
00000310: 11c9 043e 728c 1d3e 7830 ef3d 4d42 803d
00000320: 4caf 253b 3982 233e 06a8 a9bb 273e 1d3d
00000330: af8a cd3c 0657 1f3d a65c 1b3d 32ec b43d
00000340: a020 353d e4cf a63c 5d29 ee3d 3a4d c4bd
00000350: ce1d 39bd b91a aabd 89e5 193e c9dc 883d
00000360: fc51 653d 697b 043c aa5c 9c3c 9eab ea3d
00000370: 35fe 6f3d ffaf f3bb dc84 92bc 7b6e 0c3d
00000380: fae3 123e 10f4 9abd 2816 13bd 8afb 083e
00000390: fb4e debd 0c4d 0abd ad05 263e 6bab 013e
000003a0: eb3b e43d d5f3 afbd 8c65 fbbb 1760 a5bd
000003b0: f024 4e3c 7921 133e d0d2 88bc 8f5f 88bd
000003c0: b74a 253e c368 cabd d1ec b53c e186 903d
000003d0: d066 383d 7224 f03d 6f9d d1bd 8e9d a23d
000003e0: b9fb dd3d ed62 cebd 2eab fab9 247c 4cbd
000003f0: 3bc6 05bd 15e0 db3d b9b4 e73c cb5b a33c
-0.017470656 -0.06947003 -0.011225112 -0.080614544 0.023930268 0.03649009 -0.024594499 0.0097897565
-0.08910134 -0.049365126 -0.02158524 0.058625832 0.045956563 0.04199139 -0.08741881 -0.1237863
-0.02117668 0.10741449 -0.04683529 0.010244016 0.121680066 0.13475204 0.09480297 -0.052950174
-0.04721926 -0.024229988 -0.017830675 -0.07596826 0.11204995 0.15871167 -0.021365149 0.09236394
0.030937234 0.064103104 0.047983028 0.09983621 -0.068535574 0.064830944 -0.039032627 0.10994373
0.13906612 0.07424204 0.041482247 -0.05376657 0.01770925 -0.025058703 0.06982802 0.10274219
-0.036006305 -0.03001187 0.057259407 0.008291801 0.066160515 -0.07310904 -0.0955783 0.13913582
-0.04053748 0.0033379258 -0.033967815 0.06720774 0.076929845 -0.09885825 -0.052501254 0.088588275
0.08132081 0.061769713 0.06633651 0.011000131 0.05112422 0.13904025 0.13253641 0.08559259
-0.03281558 0.068155274 0.029337145 0.089817196 0.11683836 0.028033804 0.07077375 -0.10049979
-0.054823138 -0.080778986 0.14553411 -0.08064264 -0.022537608 0.1121024 -0.051588688 -0.032628328
0.08286259 0.06401057 0.12045299 0.110345125 0.1361288 -0.037492882 0.02911609 0.057725508
0.104002856 -0.028739711 -0.06182215 0.070619464 -0.026417123 -0.028235191 -0.044878174 -0.08105717
0.09898513 -0.013042399 0.05248972 0.05396696 0.107225776 -0.07762417 0.07023415 -0.08153699
-0.027759608 0.09648713 0.00573472 0.017296238 0.107534446 -0.012033383 0.113014944 -0.07867486
0.14141966 0.122400105 -0.098451465 0.1217211 -0.0118869 -0.11097004 -0.10619453 0.03293172
-0.08695945 0.13569042 -0.04182049 0.13434227 0.055150308 -0.034910977 0.054495387 0.14040993
0.11824696 0.014677353 0.0067058876 -0.076789334 -0.11079598 0.050923426 -0.03986467 0.058444373
0.121499 -0.05692878 -0.112368815 0.1354468 0.11949719 0.11621468 0.01979733 0.023987612
-0.130168 -0.069731496 0.07489459 -0.07292941 -0.12821975 0.014959152 -0.110656194 0.14291437
-0.11755131 -0.04605789 -0.12610398 0.14373712 0.02434531 0.11769859 -0.017863216 0.06458427
-0.026291857 0.10989283 -0.011656206 0.07213524 -0.015929986 0.07582295 0.048248723 -0.037824634
0.033566013 0.042995058 -0.091287926 -0.017934578 -0.043539457 -0.0775888 -0.081771314 -0.03820556
-0.08310517 0.0150407655 0.02743847 0.053651545 -0.026099991 -0.031856604 0.08165254 0.09895562
0.095553726 0.13501503 0.042378124 -0.07188048 0.12967326 0.15385607 0.116791666 0.06262646
0.0025281487 0.15967645 -0.0051775007 0.03838935 0.025090544 0.03890135 0.037930153 0.08834113
0.044220567 0.020362802 0.11628983 -0.09585042 -0.04519444 -0.08305878 0.15028967 0.066827364
0.05598639 0.008086064 0.019087154 0.11458515 0.05859204 -0.007436752 -0.017885618 0.03428505
0.14344779 -0.075660825 -0.0359098 0.13377205 -0.10854908 -0.033764884 0.16213103 0.12663047
0.11144241 -0.08591429 -0.0076720174 -0.08074968 0.012582049 0.14368238 -0.016702086 -0.06658851
0.16141783 -0.09883263 0.02220765 0.07056976 0.045019925 0.117257014 -0.10235106 0.079402074
0.10839028 -0.10077462 -0.00047811255 -0.049923077 -0.03265975 0.107361 0.028284417 0.019941231

encoder.lstm.bias_hh_l0 f4 [256]
00000000: ad6e b6bc cfa1 05bd c548 5a3d 8d71 39bd
00000010: cd6a c33d 265f c9bc 6a25 c13d 1cf5 b33a
00000020: 8613 3b3d f41b 173e 0583 d93c f5c2 443d
00000030: 410f 883b ed76 cdbd f031 b8bd 5dde b33d
00000040: 3075 e03c 8d9d 3abd 4283 4cbd 0f01 e63d
00000050: 0adf 0c3e 6901 693c 67d5 0dbd d4aa 3dbd
00000060: 8db2 883d e72b 89bd 5372 60bd 5c20 c2bc
00000070: 5a6c b03d 1d34 01bd a2c4 51bd 14a7 82bb
00000080: aa9a 7fba 1d17 d43d 19c2 0b3e 48e0 c03c
00000090: 0308 19bd 692d 753d 73ee 493d 089a ae3c
000000a0: f86e da3d 2631 89bd 8d29 e2bc 3bd4 d8bd
000000b0: 3e56 893d 07e3 f93d e9f9 64bd 396e 1a3e
000000c0: 3ea4 793c 21bb c0bd 5ddd ce3d bfca d03d
000000d0: 5abe e83d 1eb9 ca3d 7686 aebd 825d ed3d
000000e0: 905d 13bd 4daa 143d e5be dd3c 7a16 66bd
000000f0: b656 34bd 6afb 6fbd 1b96 81bc 9a44 90bd
00000100: b9b8 c23d 4a9c c5bd ceac 9c3d 33ac aebd
00000110: d137 213e 0f04 533d a399 1f3e 87f4 a43d
00000120: aad2 9f3d 55cc 9c3d b8fa adbb fd4e 233d
00000130: 8265 843d 3f11 91bd 4b88 aebd 7378 bc3c
00000140: 95f1 273c 04f4 b23d b0e6 0b3e e2a5 a1bd
00000150: 2a38 9abd 9193 8e3d e7c4 fa3d 32c8 0e3e
00000160: 251b 3ebd 6559 ed3d f4aa 073e 6206 153d
00000170: eb4e 75bd 87db 7fbd 4818 d93d f0f6 2f3d
00000180: 48c0 91bb e6da 67bd 8804 e2bd 300e 5bbd
00000190: f322 fb3d 5524 433d d55a ac3d 0ccb 073e
000001a0: e0d9 08bd 52d3 95bc f7fb 9a3d 7f94 ed3d
000001b0: 00c6 c3bd f8c4 193d 28ce 683d 88f4 3dbd
000001c0: 7762 c8bb 85b1 97bd a5d2 273d 922a 7fbd
000001d0: 35d1 aabb 8217 c7bb a6fa fabc 563e 593d
000001e0: b176 fc3d b80e a2bd 7a7c 34bd e7f5 0abd
000001f0: ec32 82bd 6ed2 e7bd b330 d03d 2792 bbbd
00000200: d2a9 b73d cabb 8dbd 104b 9fbc 7bcf d0bd
00000210: 2bc2 03bc 90da 86bd f967 d33d 6085 ee3d
00000220: 6ab6 ea3d af75 093d bf61 2d3d 4ae2 2abd
00000230: b2eb 923c 1289 e0bd af59 f23d 2334 cd3d
00000240: 6d0c b83d 5663 0b3e 839d b0bb 06ea 91bd
00000250: e9e8 a8bd b353 083e 18c4 d03d 2b61 533c
00000260: 9a33 8ebd 9a66 10be 7d01 e43d 59cf a23c
00000270: ea92 c9bd adbc 20be 505c ae3d a579 303d
00000280: 9145 41bd cc13 c2bd aed7 0bbe 1388 63bd
00000290: b1ed e9bd bfe7 973d 4931 8bbc 5808 2ebd
000002a0: 1f8f 573b 373b 223d b4d5 eabd dd90 3e3d
000002b0: 5a1a e8bd a42f 88bd 261b 59bd 9f6a 1f3e
000002c0: aa71 67bd 6b12 34bc c6fe 1d3e ba5d 723d
000002d0: 8349 933d f0d9 47bd 4c3e 99bd 5b10 8dbd
000002e0: 2ddc d03d 67fb 013e d027 e53b 1050 833d
000002f0: 7522 a2bd 194d 57bd a946 b53d bbad 793d
00000300: d451 b13d f48b 973d b40d 85bc 2cfd 9abd
00000310: b1dc a13d 8282 ca3c 553c 9b3d 0217 0bbc
00000320: 23ce 113e 921f 893c ebca e13d 0d0f aa3d
00000330: 1aa0 d73d 3a23 a33d d50c babd 8e43 0e3d
00000340: 5fb8 0b3e 89a5 573c 2ac3 a7bd 0e7d a1bd
00000350: 16d3 a53d b35b 43bd 1e36 7a3d ba5d dd3d
00000360: 2c8a 00bd b9a3 083e e94d cc3d aece 6c3d
00000370: 13cc 17bd d0a6 633d 46df 46bd 6a74 6dbd
00000380: b8dc 083d e549 153d 9f39 61bd 0f0b 083e
00000390: f95b 88bd 1863 8d3d 09c8 9f3d e36f e03c
000003a0: ac98 1a3e c9e2 babd 25b1 193d 5c38 143e
000003b0: c218 afbd 1516 e23d e17c c7bd f818 053e
000003c0: 79c3 4fbd e993 4a3c addd 58bd 2579 0e3e
000003d0: e338 adbd b0f6 88bd 69b9 bc3d 1c13 413d
000003e0: 2f66 5b3d 96dc ae3c 1f0e ecbd ca2b a4bd
000003f0: ab13 a7bd 5992 df3d 8d82 cf3d 37cd 1c3d
-0.022269571 -0.032625016 0.053292055 -0.045274306 0.09541855 -0.024581503 0.09430964 0.0013729664
0.045672916 0.14756757 0.026551733 0.048037488 0.004152209 -0.10032449 -0.089939 0.08782647
0.02739963 -0.04556041 -0.049929865 0.11230671 0.13756958 0.014221528 -0.034627344 -0.046305493
0.06674681 -0.06697827 -0.054796528 -0.02369707 0.086144164 -0.03154384 -0.051212914 -0.0039872024
-0.0009750525 0.10355971 0.13648261 0.023544446 -0.037361156 0.05985776 0.04929967 0.021313682
0.10665697 -0.066988274 -0.027607704 -0.10587355 0.067059025 0.12201505 -0.055902395 0.15081109
0.015236912 -0.09410692 0.101008154 0.10194921 0.11364432 0.098985896 -0.0852174 0.11590101
-0.0359779 0.036295224 0.027068565 -0.05617378 -0.044028006 -0.058589377 -0.015818646 -0.07044335
0.09507889 -0.096489504 0.076501474 -0.08528938 0.15743949 0.051517542 0.15585952 0.080544524
0.07803853 0.07656161 -0.005309429 0.03987025 0.064646736 -0.070833676 -0.085220896 0.023006653
0.010250469 0.087379485 0.13662219 -0.07892968 -0.07530244 0.0696174 0.122445874 0.13943556
-0.046412606 0.11589316 0.13248807 0.03638304 -0.059889715 -0.062465217 0.106003344 0.042960107
-0.0044479705 -0.056605242 -0.110360205 -0.053480327 0.122625254 0.04764207 0.08415762 0.1326105
-0.033410907 -0.018289242 0.0756759 0.11600589 -0.0955925 0.03754136 0.05683723 -0.04637578
-0.0061152535 -0.07406906 0.04097237 -0.062296458 -0.0052129277 -0.0060758004 -0.030637097 0.053037964
0.12327326 -0.07912964 -0.044064023 -0.033925917 -0.06357369 -0.11319433 0.10165539 -0.09158736
0.089679375 -0.069205835 -0.019444972 -0.10195824 -0.008041899 -0.06584656 0.103225656 0.11646533
0.11460574 0.033559497 0.042329546 -0.041719712 0.017934654 -0.10963644 0.11833512 0.1001971
0.08986745 0.13612112 -0.0053898706 -0.071247146 -0.08247549 0.13313179 0.10193652 0.012901585
-0.06943436 -0.1410164 0.11133096 0.019874262 -0.09842475 -0.15696974 0.08513701 0.04308476
-0.047185484 -0.09476432 -0.13656494 -0.055549692 -0.11422289 0.07417249 -0.016991274 -0.042488426
0.0032891703 0.039607253 -0.11466542 0.04652487 -0.11333151 -0.06649712 -0.053004406 0.15568016
-0.056504883 -0.010990719 0.1542922 0.059171416 0.071917556 -0.048791826 -0.07482585 -0.06887885
0.10198245 0.12693559 0.0069932714 0.06411755 -0.079167284 -0.05256376 0.08851368 0.060956698
0.086581856 0.07399741 -0.016241886 -0.0756782 0.07903422 0.024720434 0.07579867 -0.008489372
0.14238791 0.016738687 0.11025032 0.08303652 0.10528584 0.07965703 -0.09084479 0.034732394
0.1364455 0.013162025 -0.081915215 -0.078851804 0.08096902 -0.047694873 0.061086766 0.108088925
-0.03138177 0.13343705 0.09975798 0.057814293 -0.037059855 0.055579007 -0.048552774 -0.05797235
0.03341362 0.036447424 -0.054986592 0.13285469 -0.066581674 0.06903666 0.078018256 0.027397102
0.15097302 -0.09125287 0.037522454 0.14474624 -0.08549644 0.11039368 -0.09740616 0.12997806
-0.050723527 0.012364366 -0.05294578 0.139134 -0.08458116 -0.06687677 0.09215052 0.047137365
0.053564247 0.021345418 -0.11526131 -0.080161646 -0.08158048 0.109165855 0.101323225 0.038281646

decoder.lstm.weight_ih_l0 f4 [256, 5]
00000000: 1ab9 9b3d 674c d33c 1867 babd 73da 6d3d
00000010: 75a5 e7bb 8568 9a3d 991f bcbb 94c3 abbd
00000020: 9fa9 153c 2bb9 61bd 9bd4 513d eb75 80bc
00000030: 5c14 3abd aa15 f1bd b761 dabd 9b10 7c3d
00000040: e57d c03d 075b e73d 4cd8 193e f9d6 f03c
00000050: a2eb 233d 81da edbc acbf 64bd d3c3 dd3d
00000060: 39b3 4f3b 36df 12be 06c6 19be 904e a7bd
00000070: 52ec 0ebe 066c d4bd b925 b5bd affc 9e3c
00000080: 03b0 0a3e 69e0 003e 107a 9e3d 739b ad3d
00000090: 11d5 553d 81e8 8d3d 00df 87bd 47d1 a63d
000000a0: c127 3e3d ea60 d3bd 5f34 433d 3669 72bd
000000b0: e6d0 c6bd 2a58 f93d 5cfa 703b ab3c 7abd
000000c0: 1560 cc3d e836 bebd b87c 95bc 1a45 e23c
000000d0: 10e1 bbbd 9b22 abbd 2920 3bbd 4804 efbd
000000e0: bc3b c8bd 8502 18bd f1be ccbd 810d 8cbd
000000f0: 8b0f 1fbc 66b8 8fbc 385c c5bc 2be1 f2bd
00000100: 25b4 15be aa50 abbd 7ca1 b93c 2c50 5bbd
00000110: 91f4 093e 4192 54bd f76f 4f3d fbdf e9bb
00000120: 590a e3bd 15b1 f2bd 0f22 13be fa3f a6bd
00000130: a87a 023e 10eb b03d 55bf 92bd 021d e8bc
00000140: 9972 63bd 8eeb d43c 1e31 01bd 0729 bbbd
00000150: 05c4 cc3d 1998 d13d ec9f bcbd 4a64 f63d
00000160: 1d6d 86bd 0b00 b5bd eb92 ef3c 0bb8 a93d
00000170: 4d5f ca3c e712 ebbd cee0 e7bd 508e b1bd
00000180: 1c4f 33bd e5a0 acbd a15f 013c 26a6 bcbd
00000190: 268a 1bbb d1ee 703d d41d b0bd 2c0d b6bd
000001a0: dc7e a4bc b496 6e3d e2d5 82bd 3498 95bd
000001b0: 320e d03d f2fd 203d 0bbc a2bd d8b6 97bd
000001c0: e8bb ffbc 9452 bb3d c62e 4f39 e57e c4bd
000001d0: 58e3 403d af06 74bd 7099 54bd 2a3c 05bd
000001e0: f9b3 783d f75d a73d f6d6 dfbd 3c6c aa3d
000001f0: e1de 02be 601e 9fbd ae66 e83d 289f c33c
00000200: dee7 ec3d 56ca 9fbd fb35 51bd 0376 893d
00000210: c76a 8b3d 509f 913d e170 15be 4b1e 8cbb
00000220: f836 883b cc6c 83bd 0024 393d 6bb0 68bd
00000230: db09 ce3c 5799 e3bd 2709 90bd 6388 38bb
00000240: c2a2 b33a c84c 403d 0eb9 c3bd 4193 413d
00000250: bb5f 893d 3d0f 21be 79b6 013e f92f a3bc
00000260: 54d6 fe3c e9ab e0bc 73cf 38bd 0468 cbbd
00000270: 9490 8dbd 961f 963d 0c2c 80bc cbbb febc
00000280: 97f4 763d 4c7d bb3b a1f4 5c3d f7d4 323d
00000290: 3574 72bc c738 013e 7f6e 59bd cb11 c33c
000002a0: 8cad 123d 4dad af3d d978 823c 59ba 613d
000002b0: 9a43 d43c ea49 573b 4cf0 28bd 900b 08be
000002c0: 172d bf3d c8ac 443b 451a 83bc f49b eebd
000002d0: f761 493d b817 0a3e 54fa a0bd 9ea8 fa3d
000002e0: 34e0 4ebd 0b36 4c3d 7a11 833d 6340 c8bd
000002f0: be15 49bd 12a4 80bd 4806 863d 0d94 ee3d
00000300: c5f8 2abd 5596 a0bd a73f 46bd 7da6 d7bb
00000310: 61e9 003e cc04 253d 5d74 0abd 9f8e fa3d
00000320: 9ce6 54bd 3453 1b3d 718d 013e 4d3f 8ebc
00000330: 1695 923a be5a 01be e2ab e9ba bfe1 63bd
00000340: 8e9d babc 326f ffbd f529 a13d 5c20 7abd
00000350: afd3 023d 403d 84bd fc30 c83c e8d6 ea3b
00000360: 5d10 443c ad7f 403d 7b2c 8dbd 6082 69bd
00000370: 1447 323d 8022 6dbd 60af 68bc 6ef3 b83d
00000380: ce91 f5bd a521 753c 148d 183e bc8a b3bc
00000390: 0029 da3d 509d 28bd 12ef 00be 4257 16be
000003a0: 527b ed3c 1cb0 33bd d42b 873d 43fb 1ebd
000003b0: ff6c c43c a20a 6c3d 6e7a 89bd fc9d d73c
000003c0: ac68 be3d 2fb3 fcbc 4be2 80bd d719 06be
000003d0: 41a2 863d 2916 f03d cddf 8b3d b3b0 933d
000003e0: b976 a63d 17d4 173e fc95 f23c c41c 8fbc
000003f0: 68ee 783d bd55 bd3d 8439 b83d 9805 cbbd
0.07603665 0.025793267 -0.09101695 0.058069658 -0.0070692846 0.07539467 -0.0057410714 -0.08386913
0.009134679 -0.05510823 0.051228147 -0.015681228 -0.045429572 -0.1177171 -0.10663169 0.061539274
0.093990125 0.11296659 0.15023917 0.029399382 0.04001964 -0.029034855 -0.055846855 0.10828366
0.0031692518 -0.1434296 -0.15016946 -0.081692815 -0.13957337 -0.10372166 -0.08845086 0.019407598
0.13543706 0.12585606 0.07738125 0.08476915 0.05220515 0.06929112 -0.06634331 0.08145385
0.04642463 -0.10321219 0.047657367 -0.05918237 -0.09707813 0.12175019 0.003677032 -0.061093014
0.09979264 -0.09287816 -0.018247947 0.02762084 -0.09173787 -0.0835621 -0.045684967 -0.116707385
-0.097770184 -0.037111778 -0.09997357 -0.06838513 -0.009708296 -0.017543983 -0.024091825 -0.11859354
-0.14619501 -0.08364995 0.02266001 -0.053543255 0.13472201 -0.05189729 0.050643887 -0.0071372963
-0.11085958 -0.11850182 -0.14368461 -0.08117671 0.12742102 0.086385846 -0.071654 -0.028334145
-0.05552921 0.025991227 -0.031540982 -0.09138685 0.09998325 0.102340885 -0.0921019 0.12030847
-0.065637805 -0.08837899 0.02924486 0.082870565 0.024703646 -0.11478215 -0.11322175 -0.08669722
-0.043776616 -0.08429126 0.007896335 -0.09211378 -0.0023733466 0.058821503 -0.08599439 -0.08889231
-0.020080023 0.05824919 -0.06388451 -0.07304421 0.101589575 0.03930468 -0.079460226 -0.074079216
-0.03121753 0.0914661 0.00019758483 -0.09594516 0.047091812 -0.059576686 -0.051904142 -0.03252808
0.06071851 0.08172219 -0.109296724 0.08321425 -0.12780334 -0.077694654 0.113477096 0.023879603
0.11567663 -0.078022644 -0.05107687 0.06711962 0.068074755 0.071104646 -0.14593841 -0.004276072
0.0041569434 -0.06417236 0.045200348 -0.05680887 0.025151184 -0.11113232 -0.07032996 -0.0028157465
0.0013705122 0.046948224 -0.09556781 0.047259573 0.06707712 -0.15728469 0.12667264 -0.019920336
0.031108059 -0.027425723 -0.045119714 -0.09931949 -0.06912342 0.07330243 -0.015646003 -0.031095406
0.060291853 0.0057217237 0.053944234 0.04366013 -0.014798214 0.12619315 -0.053083893 0.023812195
0.03581004 0.085779764 0.015926765 0.055109356 0.025911141 0.0032850453 -0.04124479 -0.1328566
0.09334772 0.0030010212 -0.016003737 -0.116508394 0.049165692 0.1348561 -0.07860246 0.122391924
-0.050506786 0.049856227 0.06399818 -0.09777906 -0.049093 -0.06281294 0.06544167 0.11649332
-0.04174115 -0.078411736 -0.048400547 -0.0065811262 0.12589027 0.040287778 -0.03380238 0.12234234
-0.05197774 0.037921146 0.12651612 -0.017364169 0.0011183347 -0.12632272 -0.0017827714 -0.05563521
-0.022780206 -0.12472381 0.07869331 -0.061066017 0.03194016 -0.06456995 0.02443742 0.007166732
0.011966792 0.04699676 -0.068932496 -0.0570091 0.043524817 -0.05789423 -0.014201969 0.090308055
-0.11990701 0.014961635 0.14897567 -0.02191674 0.106523514 -0.04116565 -0.12591198 -0.14681724
0.028989468 -0.043869123 0.066001564 -0.03881384 0.023977755 0.057627328 -0.06712805 0.02632045
0.09297308 -0.03084716 -0.06293162 -0.13095795 0.06573916 0.11722977 0.06829796 0.07211437
0.08128113 0.14827 0.029612534 -0.017469771 0.060774237 0.09244869 0.08995345 -0.09913176

decoder.lstm.weight_hh_l0 f4 [256, 64]
00000000: b372 ea3d c0fa 653d 5c2a 9ebb 27b9 0e3e
00000010: 1529 b7bd bad4 19bd 7841 88bd f4be 46bd
00000020: 9cd9 db3d e1a5 e83d 7c8f a4bd f87d 52bd
00000030: c8c7 12bc e830 333c 4780 f13d c5f9 983b
00000040: f54c d63d 98a8 d6bb 9408 733d c55a b9bd
00000050: aa9d a33c 668a 863d ed15 94bd 8f00 8ebd
00000060: 88b2 9c3c b4ee eebb a608 903a 22dc a23c
00000070: f09e 463d ae60 aabd dcf6 6dbd 1d04 cd3d
00000080: 3d2e 953d ba6a d53d d81e cc3d 614d 733d
00000090: 90fd 043d 4e85 b43d f184 ba3d b271 1b3d
000000a0: 854c ad3d 2616 21bc e37a d9bd 753d 083e
000000b0: e0e6 663d 3f90 973d 1a8f dc3d 379f f23d
000000c0: 42a6 a83d f423 393c 642f 84bd 4ab2 0c3d
000000d0: ad61 89bd a545 ecbd 7aa9 7abd feea 8bbb
000000e0: 7183 613d 715d b0bd 40b4 133e 72a9 683d
000000f0: f676 9fbd c83c 64bd e729 ae3d 3fad 45bd
00000100: fa93 9a3d 6300 76bc 53a8 24bd 4885 dabc
00000110: b3b8 f9bd 2573 b33b c166 fa3d e654 93bd
00000120: ec89 51bd 064f 173b 9a4b 6cbc 9ac1 08be
00000130: a575 9e3c 3aed 1e3c 7c22 a23d e262 6c3d
00000140: c042 39bd 1521 f73d f041 7fbc 17da 96bd
00000150: 877b 803d f015 0ebd a5d2 673d 33dd a13b
00000160: 5bce a03d cc10 573d 2e48 573d 7fbd 0abd
00000170: 9504 c33d 65bb f1bd b09f b63d f226 41bd
00000180: 7ea2 fcbd 2fbe f7bc 3146 233c 200c 2b3c
00000190: 9309 86bc ea6b 973d c5bc a03d 85f7 bfbd
000001a0: d226 8b3d a0b4 67bd 70b6 943c c11e 88bd
000001b0: ca87 80bb c506 12be 7abb f1bc 9d4c 93bc
000001c0: 90c1 1ebd a965 f93c cd43 d3bd 7ee8 ddbc
000001d0: 8b55 063d f6c4 db3d 334d a6bd 1552 aebd
000001e0: 159c b1bd 3e6d 243e ce19 77bd 668c d2bd
000001f0: fb17 99bd 4af1 00be 9ff9 f2bd 6df1 abbd
00000200: 3196 83bd 365d b33d a6bd b53c 065b 19be
00000210: b696 89bd 0dce 36bd 7d64 b7bd cd0a 0d3e
00000220: 0a82 fb3d 1f6a 6b3c 6496 a73d 5b62 133d
00000230: 1e75 dabd c908 00bd 674b 1c3e e0fb 1c3e
00000240: 4961 f73d 492a 9b3d c439 dbbd b65d 7fbd
00000250: 9882 773d 6439 c3bc 3004 b3bd 367a 0c3e
00000260: 7b69 b23d f03b a53d 8ae5 643c 114e e8bd
00000270: a6bd e93c 4649 ddbd 9282 233d 137e 85bd
00000280: 768d 1abe b525 e8bd 1da5 7a3d e905 a63d
00000290: 18d9 0abd 211b c43d 9f55 bfbd 50d5 a73d
000002a0: 6592 22bd b5d5 1a3d 5d96 97bd 0de0 173e
000002b0: 006e 08bd 815d 72bd a53c 0e3c 4ca1 9bbb
000002c0: edf9 e3bd bba5 febd 0dd7 2cbd fd32 1cbd
000002d0: 4b0c 48bd b69d 06bd ee1e 1c3d 4c31 93bc
000002e0: 6277 82bc d34d c6bc 1023 393c 408c 8a3c
000002f0: b085 f43c aefb d6bc a12d 023d 3a24 a53c
00000300: 30bf 153e 0375 08bd 0c4f 96bc 0ce0 e13d
00000310: 2976 853d d857 56bd c446 de3d 10a6 0b3e
00000320: e0e4 44bc 6e92 b63d a369 203e 1018 92bd
00000330: 40ba 013e d884 51bd 91c2 88bd 277a c8bd
00000340: 5954 bf3d 6d31 60bd 4d14 19be 626d 1c3e
00000350: 6d3f 1cbc 3404 703d b528 6b3d 7203 73bc
00000360: e8e6 573c 7738 563d c9b7 293d e23b 013e
00000370: 9676 453d 0d3a b13c 244a ee3d ed8c 82bd
00000380: 77b1 103e 38f6 b0bd 9787 773d 32ee 0a3e
00000390: 4002 e0bd 5c96 363c c977 103e bb92 933c
000003a0: 8f70 e33d d311 15bd c90a 4a3d d162 4f3d
000003b0: dbd8 733c 8bf8 91bd df30 f03d b3f3 123e
000003c0: f925 2dbd f0a0 6ebb c907 1c3e a66d 1e3e
000003d0: 837a bb3d ec62 cebc 439b 3c3d 6b16 253d
000003e0: e109 0f3c 1ecf c13d a7e8 f93d f93d e3bc
000003f0: c16b aabc 2062 2cbc 4426 143e fa4e 8c3c
0.114476584 0.056147337 -0.004826827 0.13937818 -0.08943383 -0.037556387 -0.06653112 -0.04852195
0.10734865 0.11359764 -0.0803518 -0.051389664 -0.008958764 0.010936953 0.11792045 0.0046684467
0.10463897 -0.0065508597 0.059334353 -0.09050516 0.019972641 0.06569366 -0.072307445 -0.069337
0.0191281 -0.007291639 0.0010988906 0.019880358 0.04849142 -0.083192214 -0.05809675 0.1001055
0.0728421 0.10420747 0.099668205 0.059399966 0.03246838 0.08814488 0.09107388 0.037950225
0.084618606 -0.009831941 -0.10619142 0.13304694 0.056372523 0.0740056 0.10769482 0.11846774
0.08234836 0.011300076 -0.064543515 0.034349717 -0.06708083 -0.11536721 -0.06119678 -0.0042699566
0.055056993 -0.086115725 0.14424229 0.05680222 -0.07786362 -0.055722028 0.08504086 -0.048260923
0.075477555 -0.015014741 -0.04019959 -0.026674882 -0.12193432 0.005476373 0.1222663 -0.071939275
-0.051156923 0.0023087873 -0.014422322 -0.13355103 0.019343207 0.009700114 0.079167336 0.05771149
-0.045229673 0.12066857 -0.015579686 -0.07365816 0.06273561 -0.03468889 0.05659737 0.004939699
0.07851859 0.052506253 0.05255907 -0.033872124 0.09522358 -0.11803321 0.08917177 -0.04715628
-0.123356804 -0.030242054 0.009965465 0.010439903 -0.016361987 0.0739363 0.07848505 -0.093733825
0.06794514 -0.05656874 0.0181534 -0.06646491 -0.0039224373 -0.14260395 -0.029508341 -0.017980868
-0.038758814 0.030443983 -0.10315666 -0.0270884 0.032796424 0.10730927 -0.08120193 -0.0851175
-0.086723484 0.16057298 -0.060327344 -0.10280685 -0.07475277 -0.12592044 -0.11864018 -0.08395658
-0.06425131 0.08758013 0.022185158 -0.14976129 -0.06718199 -0.0446301 -0.089547135 0.13773651
0.12280662 0.014368563 0.081829816 0.03598247 -0.106668696 -0.03125838 0.15263139 0.15330458
0.120791025 0.07576425 -0.10704377 -0.06234523 0.06042728 -0.023831077 -0.08741033 0.13718495
0.08711525 0.08068073 0.013970742 -0.11343015 0.028532814 -0.108049914 0.039919443 -0.065181874
-0.15093026 -0.11335317 0.06119262 0.08106596 -0.033898443 0.09575487 -0.09342503 0.08194983
-0.039690394 0.037801463 -0.074017264 0.14831562 -0.03330803 -0.059171204 0.008681451 -0.0047494527
-0.11131654 -0.12433954 -0.042197276 -0.038134564 -0.04883985 -0.03286525 0.038115434 -0.017967843
-0.015926067 -0.024207031 0.011299863 0.01691258 0.029848903 -0.026243057 0.031781796 0.020158876
0.14623713 -0.033314716 -0.01834824 0.11029062 0.06516678 -0.052329868 0.10853341 0.13637567
-0.012017459 0.08914648 0.15665297 -0.07133496 0.12668705 -0.05115208 -0.066777356 -0.09788924
0.0934226 -0.054734636 -0.1494915 0.15276101 -0.009536606 0.05859776 0.057411868 -0.014832364
0.013177611 0.052299943 0.041435037 0.126205 0.048208795 0.021634126 0.11635235 -0.06374536
0.14130197 -0.086407125 0.060432043 0.13567427 -0.10937929 0.011144247 0.14108194 0.018014302
0.11105453 -0.03639395 0.04932669 0.050631348 0.014883245 -0.07127484 0.117280714 0.14350776
-0.04227254 -0.0036411844 0.15237345 0.15471515 0.09154227 -0.025193654 0.046046507 0.040304583
0.008730383 0.094633326 0.12202578 -0.027739512 -0.020803334 -0.010521442 0.14467722 0.017127503

decoder.lstm.bias_ih_l0 f4 [256]
00000000: 27b4 36bd 60d9 023e a44d 90bd 1bf1 0a3c
00000010: d34d 0fbd 373f ba3c c193 89bd 8ba9 4bbd
00000020: 2f50 ce3d 6525 663d ea97 0fbc 993f f4bd
00000030: bcd9 da3c 29b6 74bd aeb2 463c f797 d33d
00000040: dc59 af3c abaa 0cbd 2687 fc3d 2254 e7bc
00000050: 65dc 2f3a 6e6c 3e3d 0b5e 93bd cc88 1f3c
00000060: 0dfa c5bd e456 cbbd 65e6 063e 2dfe cf3d
00000070: 37f5 f0bb 4a78 88bd 1283 e9bc 52b0 e23d
00000080: 3027 86bd 6fe9 a8bd e2e8 f73d 5594 bbbd
00000090: c3fd 043e d03a ab3d 269a ce3d 188e 343d
000000a0: ff82 a2bd ec17 223c f5ba d0bd 1244 f4bc
000000b0: a8df 353d 3aa8 67bd 0347 91bd d5ee 80bd
000000c0: d03e 443d 6d4c e4bd b017 0e3d 21da 943d
000000d0: 0b40 873d a86c b03c b3bf afbd 1a55 af3c
000000e0: 248b 073e 5acb fc3d 3609 003d 641c 58bc
000000f0: 9d6d b5bd 519b 7abd a5c2 9f3c d8b4 203d
00000100: afb1 1d3e f889 55bd 70ba 9a3d 9a95 abbd
00000110: 701a 80bd 410f 113c 530f 9b3d 838a de3c
00000120: b7cd 643d fcde a1bd c81d ae3c 9d23 e13d
00000130: a266 9ebd 55d9 a2bd 5625 2abd 510d cebd
00000140: efab d43b 7466 423d c8d3 ed3b 0518 dc3d
00000150: c826 803d 5373 e13d 14a4 a33d 97ba 1fbd
00000160: 2b4c 22bd d0a4 a53c 8876 533b 05db d8bd
00000170: d1ff 52bc 83e0 923d 2eb2 a2bd bd9a 6f3d
00000180: a352 03bb 49c5 9b3c da67 c7bd 6b1e cdbc
00000190: 8d57 523d 0c0a a6bd 4ebf 96bd 2fa5 d73c
000001a0: 1ef2 5dbd 1981 9b3d aba9 083e 0cd0 5a3d
000001b0: ac69 70bd 11e2 3ebd 4798 03bd b93a 633d
000001c0: 65fb 0f3e 37a3 9c3d ff94 77bb ce55 26bd
000001d0: de93 ca3d 5121 b4bd 7cf1 57bd f09f 13bd
000001e0: b8f2 b83d 8b1a 093d 9631 2e3d 0323 febd
000001f0: ff0b 403d 3f61 ac3c 7bc9 983c b1ce 073d
00000200: 7274 91bd 8834 c33d 0a56 8c3d 348c bfbc
00000210: 4dcb 3dbd 5f1e 913d edc7 cf3c 3d19 7ebc
00000220: 3bad a43d 154f 36bc 7944 f9bd 92cf c7bd
00000230: d249 9ebd 05f1 9dbd a5be bf3d 78a0 afbc
00000240: 6867 12bd f4dd 14bd 2b6b 163d d813 bdbd
00000250: f3bf be3d dffd eb3d 78bc ad3d 77ee b6bd
00000260: de24 06be 2e33 bdbd ff76 a13c 1763 c9bc
00000270: 1d6d 833a 3133 263d 1fa6 393d ce7b 913d
00000280: 049b 083e e402 0b3e 87b2 bc3c 07fc a5bc
00000290: 773a 003e 5b8b 893d c7ee 133d 4539 bd3d
000002a0: dc53 e0bd a6d5 02bd ad4d 103d aa3b 62bb
000002b0: 9a4a 91bd 7cf2 8bbd 5620 cebd 89c7 5ebd
000002c0: 830c 97bd 7b32 483d bf5c 193c bc33 bebd
000002d0: 4273 0c3e 91d8 fd3c 44df 4b3d f954 04bd
000002e0: 7e6e d93d 0007 b83d c654 09bc 02d2 963d
000002f0: b5b1 51ba e121 18bc bdc4 d03d 7323 f63d
00000300: 05f7 6fbc fffd 00bd 926b 923d 980d 91bd
00000310: ab64 8a3d 3cc8 833d 529e 0c3e 7a23 0c3c
00000320: 9e40 f03d b76e 20bd d7e9 c33d e41b 723d
00000330: 4c17 053e 64f7 e13c d8e1 913d 587c d3bd
00000340: d950 f23c 5692 e43c f9cc 40bd 4d8b aabd
00000350: 6652 823d caf8 89bd 971c d2bb 73fd 153d
00000360: 202a 3b3d 9c5d 2e3d cbb0 af3b 3ae9 cd3d
00000370: 79cd e9bd a794 9ebd f6a4 0ebd 5cc7 5cbd
00000380: 63ea 41bd 7ac7 7d3d ebfb ee3c f44f 893d
00000390: 88f5 bebd 9bb1 fa3d 6fd1 0f3e b9ce a93d
000003a0: 1e84 8bbd 01a1 5dbd ac14 e43d f755 723d
000003b0: e837 1f3d 3a31 f7bc 6564 21bd 53ee 15bd
000003c0: 2071 033e 3c94 b8bd 27dc 173d 9c70 7ebd
000003d0: ec00 133b f516 5d3d 8d11 e23d b3cf b6bd
000003e0: 40ca adbd bb99 013e a191 873d 327d 8ebc
000003f0: e50b b13d e7a7 aabc ded7 b3bd c49e 623d
-0.0446054 0.12778234 -0.07046059 0.008480336 -0.03498633 0.022735221 -0.06717635 -0.049722236
0.100738876 0.056188006 -0.0087642465 -0.11926193 0.026715152 -0.059744034 0.0121275615 0.10331719
0.021405153 -0.03434245 0.12330465 -0.02823836 0.00067085616 0.046490125 -0.07195672 0.009737205
-0.09666834 -0.099286824 0.13173826 0.10155902 -0.0073534506 -0.06663568 -0.028504882 0.11068787
-0.06550443 -0.08247649 0.12104966 -0.091591515 0.12987427 0.08360827 0.10087995 0.044080824
-0.07935142 0.009893399 -0.10191909 -0.029817615 0.04440275 -0.056556918 -0.070936225 -0.062955536
0.047911465 -0.111473896 0.03469056 0.07268167 0.06604012 0.021536186 -0.085814856 0.021402884
0.13236672 0.12343474 0.031258784 -0.013190363 -0.08858798 -0.061183278 0.019501993 0.039234966
0.15399812 -0.05213353 0.075550914 -0.083781436 -0.062550426 0.0088537345 0.07571282 0.027165657
0.055860247 -0.07903859 0.021254435 0.10993121 -0.077344194 -0.07951609 -0.041539513 -0.10061134
0.0064902226 0.04746099 0.0072579123 0.10746769 0.06257397 0.110083245 0.0799028 -0.038996305
-0.03962342 0.02022019 0.0032266695 -0.1058865 -0.012878374 0.071717285 -0.07944141 0.05849718
-0.002003827 0.019014971 -0.09736605 -0.025038918 0.051353026 -0.08107385 -0.07360707 0.026323883
-0.05418598 0.07592983 0.13345973 0.053421065 -0.058694527 -0.046602312 -0.032127645 0.055475924
0.14060743 0.07648318 -0.0037778018 -0.040609173 0.09891485 -0.08795417 -0.05272053 -0.0360412
0.0903067 0.03347258 0.042527758 -0.12409022 0.04688644 0.021042464 0.01865076 0.0331561
-0.07102288 0.09531504 0.06852348 -0.023382284 -0.04633646 0.07085871 0.025363887 -0.015508947
0.080408536 -0.011127253 -0.12171263 -0.09756388 -0.07728924 -0.077119865 0.093625344 -0.021438822
-0.035743147 -0.036344483 0.036723297 -0.092323005 0.09313955 0.115230314 0.08483213 -0.08932202
-0.13100001 -0.092382774 0.019710062 -0.024583383 0.0010027025 0.040576164 0.04532444 0.07103692
0.13340384 0.13575321 0.023034347 -0.020261778 0.12522303 0.06716033 0.036116388 0.09239439
-0.10953495 -0.031942032 0.035230327 -0.0034520426 -0.07094307 -0.068333596 -0.10064761 -0.05438951
-0.07375433 0.048876267 0.009360491 -0.09287211 0.13715842 0.030987056 0.04977347 -0.0323076
0.10616778 0.0898571 -0.008382028 0.073642746 -0.00079991977 -0.009285421 0.10193775 0.1201848
-0.014646296 -0.03149223 0.07149424 -0.07082671 0.06757482 0.06434676 0.1373227 0.00855338
0.11731075 -0.039168086 0.09566086 0.05910863 0.12997168 0.027583785 0.071231544 -0.10326451
0.029579567 0.02790181 -0.047070477 -0.08327351 0.063633725 -0.06736906 -0.0064120996 0.03661866
0.04569447 0.04256974 0.0053616515 0.1005425 -0.11416144 -0.07743197 -0.034825288 -0.05390106
-0.04734267 0.061957814 0.029172858 0.06704703 -0.09324175 0.12240907 0.14044736 0.08291382
-0.06812309 -0.054108623 0.11136755 0.059164014 0.038871676 -0.03017484 -0.039402384 -0.036604237
0.12836123 -0.090126485 0.037075188 -0.06211911 0.002243097 0.05397697 0.11038504 -0.08926334
-0.08485842 0.126563 0.066195734 -0.017393682 0.08644847 -0.020832015 -0.08781408 0.055327192
