lstm_ts.pth (torch, 161983 bytes, 10 tensors)

encoder.lstm.weight_ih_l0 f4 [256, 10]
-0.019141532 -0.05076881 -0.085106984 0.0588152 -0.065133706 -0.1022141 -0.12413409 -0.10123652
0.08354501 -0.12007173 0.09823728 0.08275142 0.080399044 -0.12942535 0.09312215 0.11288234
0.0014429836 -0.0981996 0.04299651 0.05499633 -0.07600573 0.06612327 0.043655273 0.056054372
0.05564393 0.014328425 0.028870365 0.029491954 -0.008782908 -0.10873835 -0.078321695 -0.02470717
-0.0427824 -0.07918952 -0.010037765 0.104552455 -0.008516852 -0.038702726 0.13746177 0.031009732
0.0826326 -0.07233666 -0.08589391 -0.087096065 -0.093217075 0.029696241 0.09192981 0.043424632
-0.055777933 0.05092196 -0.082278915 -0.018565485 0.008176215 0.01596102 0.15316543 -0.06052016
0.013416965 0.0063371235 -0.07318567 0.041523278 0.04070918 -0.09080088 0.11388497 -3.609946e-05
0.016991846 -0.1167038 0.03908139 -0.07254486 0.05830953 0.1250271 -0.050040733 -0.08225013
-0.034883153 -0.0005772026 0.04499316 -0.11690451 -0.08400135 0.062724315 0.035601128 -0.108231805
-0.11990118 0.04764333 0.09019758 -0.039052024 0.085284725 0.029888287 0.038175073 0.032660253
-0.028537441 0.017512364 0.08998734 0.104888305 -0.10851871 6.1085426e-05 -0.11888364 -0.11309483
0.041182797 -0.008981016 0.04217579 0.10267752 0.09604622 -0.0822847 -0.038346723 -0.048372675
0.053294726 0.09009468 0.0025542185 0.039821804 0.03410499 -0.1317993 0.08022992 -0.074186996
0.058299776 0.0869618 -0.10543003 0.11636064 0.046625268 0.09967418 -0.002438719 -0.09842061
-0.03898994 -0.11322184 0.067927025 -0.06029498 0.10677867 -0.029731032 -0.045061264 0.035034027
-0.017630704 0.05383421 0.0756186 -0.09140945 0.07416095 0.027263302 0.035253756 -0.009288335
0.0059893574 0.13069658 -0.09363216 0.044582594 0.059479225 0.027648792 0.07016996 -0.012613518
0.060193248 0.022612024 -0.05462584 0.08931201 -0.058422785 -0.039691675 -0.105107464 0.090620965
0.115809 0.042902593 0.10574372 -0.08115749 -0.016571166 0.029874977 -0.093593925 0.04876849
0.06965588 0.041842736 -0.078143954 -0.099352635 -0.03716639 -0.05640299 -0.02156873 0.117828965
-0.054129396 -0.0022137272 0.07431008 -0.1009375 0.027066676 0.082512826 -0.090236165 -0.022835938
-0.09995284 0.045110844 -0.032867096 -0.09309492 0.050075747 0.045410205 -0.1264527 -0.11041139
-0.047548443 0.030646272 0.06177399 0.05303281 0.060654167 -0.096523955 -0.036733985 0.0235455
0.1161355 -0.0013708055 0.058470257 0.11946715 -0.0086834235 -0.04863834 0.13237788 -0.018236563
-0.06492984 0.037462056 0.0408006 0.031858414 0.092989765 -0.005670858 -0.13464901 0.08836518
-0.072006986 -0.055463538 -0.08573549 0.01318316 0.12288589 -0.088450894 0.039655983 0.13999234
0.119640484 -0.09671247 -0.08978595 -0.042320993 -0.025698053 0.04889433 0.059495352 0.0025919995
-0.03544875 0.04703627 -0.043773714 -0.037413638 0.009419569 -0.018485304 0.004619891 0.040828936
0.10484381 0.00082599296 -0.042301204 -0.0016756792 -0.002575715 0.025110375 -0.1408873 0.03099773
0.033542324 0.07527603 0.015205017 0.036594436 0.08433849 0.06121392 -0.008209092 0.04018379
-0.11452201 -0.042560525 0.092448495 0.10226573 0.08090124 0.007824875 -0.065858416 -0.077759646
00000000: b4ce 9cbc f5f2 4fbd 924c aebd 35e8 703d
00000010: d264 85bd a055 d1bd 043a febd 1855 cfbd
00000020: a519 ab3d 2be8 f5bd a130 c93d 9479 a93d
00000030: 41a8 a43d 1488 04be d3b6 be3d db2e e73d
00000040: 7f22 bd3a df1c c9bd 1c1d 303d d543 613d
00000050: e4a8 9bbd a36b 873d dfcf 323d 4599 653d
00000060: e4ea 633d c5c1 6a3c 8b81 ec3c 1c99 f13c
00000070: 30e6 0fbc 36b2 debd 2067 a0bd b166 cabc
00000080: 993c 2fbd 1d2e a2bd 7075 24bc 991f d63d
00000090: 448a 0bbc c086 1ebd c7c2 0c3e 1f08 fe3c
000000a0: 483b a93d 3e25 94bd 25e9 afbd 6c5f b2bd
000000b0: 98e8 bebd 8845 f33c b245 bc3d 07de 313d
000000c0: 6777 64bd 8c93 503d d981 a8bd a516 98bc
000000d0: 88f5 053c afc0 823c 66d7 1c3e fde3 77bd
000000e0: d4d2 5b3c a5a7 cf3b 5ee2 95bd 5014 2a3d
000000f0: abbe 263d d0f5 b9bd 863c e93d 8069 17b8
00000100: 7c32 8b3c 6702 efbd cf13 203d 6692 94bd
00000110: f9d5 6e3d 1b07 003e 83f7 4cbd c272 a8bd
00000120: a3e1 0ebd 694f 17ba bf4a 383d a26b efbd
00000130: e608 acbd 9b75 803d 7dd2 113d a3a8 ddbd
00000140: c08e f5bd a725 433d 82b9 b83d 04f5 1fbd
00000150: c2a9 ae3d 48d8 f43c 775d 1c3d c2c6 053d
00000160: 5ac7 e9bc 1776 8f3c 484b b83d aecf d63d
00000170: 0f3f debd fd1a 8038 4479 f3bd 439e e7bd
00000180: 4baf 283d 1d25 13bc 85c0 2c3d 9748 d23d
00000190: e1b3 c43d e184 a8bd 7411 1dbd 6d22 46bd
000001a0: 924b 5a3d 8f83 b83d ad64 273b 301c 233d
000001b0: adb1 0b3d 65f6 06be 964f a43d 5aef 97bd
000001c0: bfcb 6e3d 0719 b23d b3eb d7bd 7d4e ee3d
000001d0: 23fa 3e3d fa21 cc3d ead2 1fbb bf90 c9bd
000001e0: eab3 1fbd dae0 e7bd 531d 8b3d def7 76bd
000001f0: c6ae da3d 7e8e f3bc 2992 38bd d77f 0f3d
00000200: 446e 90bc 4381 5c3d eddd 9a3d e134 bbbd
00000210: b2e1 973d 4a57 df3c 3e66 103d 1a2e 18bc
00000220: 5f42 c43b 53d5 053e 38c2 bfbd 3d9c 363d
00000230: 7da0 733d b87f e23c 45b5 8f3d eea8 4ebc
00000240: 328d 763d da3c b93c 58bf 5fbd 37e9 b63d
00000250: bb4c 6fbd bd93 22bd 9542 d7bd 7c97 b93d
00000260: 452d ed3d a1ba 2f3d 2a90 d83d e635 a6bd
00000270: 41c0 87bc 5ebc f43c 2cae bfbd 78c1 473d
00000280: bea7 8e3d 4a63 2b3d f009 a0bd 6579 cbbd
00000290: c93b 18bd d206 67bd e8b0 b0bc 5050 f13d
000002a0: c9b6 5dbd 2e14 11bb e22f 983d 52b8 cebd
000002b0: efba dd3c 7cfc a83d bdcd b8bd 6f12 bbbc
000002c0: 13b4 ccbd 26c6 383d a69f 06bd 8da8 bebd
000002d0: 3a1c 4d3d 0d00 3a3d d17c 01be 5e1f e2bd
000002e0: 28c2 42bd e40d fb3c b906 7d3d ef38 593d
000002f0: 8170 783d 5aae c5bd 6076 16bd 7ee2 c03c
00000300: 73d8 ed3d 9aac b3ba 827e 6f3d 31ab f43d
00000310: eb44 0ebc ff38 47bd 118e 073e d864 95bc
00000320: f0f9 84bd d071 193d 881e 273d f87d 023d
00000330: 6b71 be3d 9bd2 b9bb 6ee1 09be cef8 b43d
00000340: 6678 93bd bc2d 63bd 1796 afbd 2efe 573c
00000350: 99ab fb3d be25 b5bd 506e 223d 275a 0f3e
00000360: 1206 f53d 3011 c6bd b2e1 b7bd c758 2dbd
00000370: b984 d2bc 6c45 483d 66b1 733d 89de 293b
00000380: b532 11bd 1ba9 403d 114c 33bd 0b3f 19bd
00000390: 8954 1a3c 7e6e 97bc 7462 973b 3e3c 273d
000003a0: 5ab8 d63d 7387 583a 0744 2dbd 77a2 dbba
000003b0: 54cd 28bb 46b4 cd3c c344 10be f4ee fd3c
000003c0: ad63 093d 522a 9a3d 771e 793c 0ce4 153d
000003d0: a9b9 ac3d 73bb 7a3d 6d7f 06bc c297 243d
000003e0: 848a eabd f253 2ebd a355 bd3d b270 d13d
000003f0: 8daf a53d e833 003c c7e0 86bd 7340 9fbd

encoder.lstm.weight_hh_l0 f4 [256, 64]
0.070940845 0.10030193 -0.13769878 -0.021233365 -0.0053227465 -0.058466513 -0.12872863 -0.046007264
0.0822095 -0.082731515 -0.014745141 -0.102182336 -0.093618006 -0.059174616 -0.07191354 -0.13794696
0.009898476 0.011524499 0.08771547 -0.12115006 0.048671164 0.096306086 -0.086769894 0.057650123
-0.0515183 0.05929139 0.12557864 -0.07949805 0.009123284 -0.022357661 -0.06984447 0.07041374
0.010283428 -0.011367241 0.09172111 0.0039288295 0.022244964 0.024020242 0.10492844 0.03870012
0.09120135 0.033939626 -0.06679325 0.06602222 0.003078543 0.09342245 0.13584056 0.10867044
0.14320979 -0.15586159 0.10139122 0.11448406 -0.027536402 0.081428185 0.048669986 0.061153673
0.07515627 0.033095997 0.09755575 -0.1042931 0.0036497419 0.040681783 0.13618597 0.043453526
-0.12480736 0.07589782 0.03169049 0.074427806 -0.020351991 0.030606143 -0.035291933 -0.13963933
-0.075891465 -0.1301967 0.060709126 -0.06487985 -0.08959875 -0.024552975 0.07257152 0.027077653
0.06208241 0.09113814 -0.054944374 -0.040569093 -0.05707566 0.007859965 0.043191507 -0.062129393
0.04296277 0.07624131 0.11643476 0.043368027 0.08858223 0.015022817 0.06346514 0.11121364
0.08647822 -0.07779609 0.00757469 0.111117385 0.08070484 -0.12459685 0.07454681 0.11313683
-0.050065335 0.09887821 -0.09900876 0.04313981 -0.073667064 0.11427718 0.10827649 0.08872683
0.054501276 -0.084681325 -0.1317201 0.013171093 0.07550614 0.072164804 0.11295986 -0.10282301
0.061447207 -0.10755319 -0.016607376 -0.09488667 -0.08632318 -0.01681092 -0.07447626 -0.08117886
-0.14274025 -0.15640058 -0.113326736 0.016567707 -0.052695118 -0.027577886 0.06592382 0.034818653
-0.019865349 0.12516123 -0.046022307 0.05563896 -0.11288832 0.1384911 -0.042524565 0.059802406
-0.071794026 0.07659447 0.013956102 -0.095192656 0.07104033 0.0034171015 -0.03920035 0.040871516
-0.01278563 -0.026977645 -0.083902575 0.09264443 0.103771776 -0.07070711 -0.08254962 0.021192994
0.05925653 -0.071336776 -0.009722314 0.05073742 -0.04570122 -0.11988153 -0.0046440694 0.15682217
0.061533652 0.012721618 0.008752117 0.09599904 0.11261371 -0.08721649 0.033265486 -0.10844039
0.012511324 -0.058734197 -0.057247613 0.12357546 0.0052364264 0.093495436 -0.038177796 0.053551324
0.15806158 0.073489584 -0.07448314 0.05724705 -0.08895027 -0.046846826 0.035774544 0.11671115
-0.07751077 0.012012602 0.021903703 0.0044141267 -0.12776811 -0.002289688 -0.09751078 0.067244865
-0.037061177 0.116445705 -0.058587853 0.03499003 -0.00074947183 -0.102349244 0.12866025 0.0631631
-0.07862515 -0.056965332 -0.08503972 0.13245642 0.106555395 -0.04669989 0.13242911 -0.1384449
-0.022272898 -0.10682251 -0.12688139 -0.038207624 0.07909156 -0.07256697 -0.01051726 0.10716296
0.09163115 -0.12555727 -0.0700745 -0.083931535 0.08939803 -0.07132753 0.13232768 0.054314762
0.027564228 0.00090452586 -0.07709143 0.012035027 -0.027166706 -0.04991101 -0.010934265 -0.111991696
0.10217555 0.036232892 -0.10671445 0.03942239 0.13079564 -0.08366016 -0.073017046 -0.113280386
-0.023306442 0.07923319 0.05713367 0.1230224 0.026800316 -0.11874387 -0.12184777 -0.08501377
00000000: 6f49 913d 196b cd3d e900 0dbe 98f1 adbc
00000010: 6f6a aebb 957a 6fbd 70d1 03be 1d72 3cbd
00000020: 745d a83d 246f a9bd 9b95 71bc f944 d1bd
00000030: ccba bfbd 1561 72bd 6847 93bd f841 0dbe
00000040: 382d 223c 41d1 3c3c 2ba4 b33d 861d f8bd
00000050: 6a5b 473d 203c c53d 6ab4 b1bd 8922 6c3d
00000060: da04 53bd 87db 723d b097 003e e0cf a2bd
00000070: d479 153c 6a27 b7bc 9e0a 8fbd 1435 903d
00000080: d37b 283c aa3d 3abc 47d8 bb3d 69bd 803b
00000090: 123b b63c 19c6 c43c b9e4 d63d 0484 1e3d
000000a0: c6c7 ba3d 4704 0b3d e6ca 88bd a836 873d
000000b0: 62c1 493b 4554 bf3d ca19 0b3e 9c8e de3d
000000c0: 96a5 123e 2e9a 1fbe 33a6 cf3d 9e76 ea3d
000000d0: 0594 e1bc d2c3 a63d 2e5a 473d 467c 7a3d
000000e0: 88eb 993d ab8f 073d 4fcb c73d 9f97 d5bd
000000f0: 8230 6f3b f1a1 263d 5674 0b3e 53fc 313d
00000100: 009b ffbd 5170 9b3d e3cd 013d 9b6d 983d
00000110: 38b9 a6bc bcb9 fa3c 468e 10bd 9dfd 0ebe
00000120: fc6c 9bbd 4952 05be 22aa 783d badf 84bd
00000130: 8d7f b7bd 5223 c9bc 61a0 943d f4d1 dd3c
00000140: 204a 7e3d a2a6 ba3d 5a0d 61bd c72b 26bd
00000150: 2bc8 69bd 15c7 003c 94e9 303d 647b 7ebd
00000160: bbf9 2f3d 6724 9c3d 5975 ee3d aca2 313d
00000170: 9a6a b53d 4322 763c 03fa 813d fac3 e33d
00000180: 7e1b b13d 8e53 9fbd 1b35 f83b 8391 e33d
00000190: 9448 a53d a22c ffbd ffab 983d 48b4 e73d
000001a0: 4f11 4dbd a980 ca3d 1bc5 cabd 5fb3 303d
000001b0: c2de 96bd 270a ea3d 10c0 dd3d 6ab6 b53d
000001c0: bb3c 5f3d 676d adbd a2e1 06be 91cb 573c
000001d0: f7a2 9a3d 24cb 933d 8057 e73d df94 d2bd
000001e0: 11b0 7b3d d944 dcbd 310c 88bc f153 c2bd
000001f0: 35ca b0bd 0eb7 89bc 0287 98bd 1a41 a6bd
00000200: 802a 12be 7927 20be d917 e8bd 00b9 873c
00000210: d6d6 57bd 05eb e1bc 1103 873d 019e 0e3d
00000220: a8bc a2bc 442a 003e e381 3cbd aee5 633d
00000230: fe31 e7bd 9cd0 0d3e 3d2e 2ebd 5ef3 743d
00000240: bf08 93bd 90dd 9c3d 22a8 643c 5ef4 c2bd
00000250: 987d 913d 73f1 5f3b 8c90 20bd e468 273d
00000260: d27a 51bc 3900 ddbc 1dd5 abbd 5dbc bd3d
00000270: 4c86 d43d e4ce 90bd c60f a9bd ee9c ad3c
00000280: fab6 723d 0419 92bd 574a 1fbc 0ad2 4f3d
00000290: 3431 3bbd 7384 f5bd 472d 98bb fe95 203e
000002a0: b60a 7c3d 556e 503c 0a65 0f3c 259b c43d
000002b0: 04a2 e63d 8f9e b2bd 6441 083d ff15 debd
000002c0: 4cfc 4c3c 4593 70bd 797c 6abd 2115 fd3d
000002d0: 5496 ab3b 897a bf3d 5260 1cbd a258 5b3d
000002e0: e5da 213e b581 963d 9e8a 98bd e27b 6a3d
000002f0: 8f2b b6bd 75e2 3fbd 5488 123d 4106 ef3d
00000300: f7bd 9ebd 81d0 443c 656f b33c 61a4 903b
00000310: a5d5 02be 970e 16bb bbb3 c7bd adb7 893d
00000320: 76cd 17bd 167b ee3d d1f9 6fbd b551 0f3d
00000330: 3478 44ba 7b9c d1bd 83bf 033e a85b 813d
00000340: 3906 a1bd 7b54 69bd 4e29 aebd a8a2 073e
00000350: b739 da3d 6248 3fbd 7f9b 073e 80c4 0dbe
00000360: a775 b6bc c3c5 dabd 32ed 01be 997f 1cbd
00000370: c1fa a13d fe9d 94bd 9650 2cbc 4178 db3d
00000380: 1da9 bb3d 1692 00be 3883 8fbd 4ce4 abbd
00000390: 5016 b73d 2b14 92bd e880 073e 2879 5e3d
000003a0: 60ce e13c b41d 6d3a 1de2 9dbd 902e 453c
000003b0: b68c debc 7d6f 4cbd a225 33bc e75b e5bd
000003c0: 6a41 d13d f168 143d 1b8d dabd 5f79 213d
000003d0: 4bef 053e 0556 abbd f689 95bd 8cff e7bd
000003e0: 27ed bebc 0345 a23d ff04 6a3d 2bf3 fb3d
000003f0: 568c db3c fc2f f3bd 538b f9bd b31b aebd

encoder.lstm.bias_ih_l0 f4 [256]
0.11470729 0.13447818 -0.05102201 -0.056235194 0.11542118 -0.021413174 0.13078143 0.07930604
0.09209186 0.06981496 0.03684091 0.03573541 -0.09500538 0.13369013 -0.055899173 0.09025343
0.14058596 0.048392832 0.06457626 0.04790815 -0.06310211 -0.06323302 -0.057461444 0.11923663
0.027894242 0.10877276 0.11961385 0.02085407 -0.08108614 0.13876717 0.02185644 0.01867032
0.13570754 0.023022631 0.073743835 -0.0044020563 -0.08935098 0.122072704 -0.061593268 0.14382546
0.12851669 0.1079285 -0.011600533 0.07476689 -0.09222661 -0.07186333 -0.09352828 -0.045267653
0.09674996 0.058319926 0.1112439 0.018270792 -0.08630467 0.072868586 -0.08873472 0.1241662
0.013245719 -0.073347405 -0.13394248 0.10785188 -0.06068811 -0.009349218 -0.031476762 -0.09700171
-0.06049837 -0.050523743 0.021733198 0.12193055 -0.020976726 -0.07934432 0.01250852 -0.08513627
0.07323898 -0.07111678 0.038523432 -0.09313175 0.060353756 -0.005222867 0.13381514 0.080710694
0.0106581 -0.012571877 0.047528222 0.10884878 0.15039332 0.11372944 0.06619585 0.09597685
0.16210866 0.11816881 -0.042051967 0.14692174 -0.013067618 0.10378063 -0.0006151155 -0.0092902025
0.12117483 0.116728194 0.056051765 0.11993232 0.038767315 0.002501763 -0.07367448 -0.09318586
0.07319877 0.007787931 -0.08454841 -0.066570036 0.072190024 -0.08985217 -0.08396605 0.09243312
0.046922203 -0.040266648 -0.037002996 0.02724656 0.121470585 -0.054549064 -0.020236492 0.11528405
-0.0012386112 -0.03139936 -0.102448896 -0.059924096 -0.0225041 -0.08438542 -0.1048508 -0.03070143
-0.12321681 0.021308456 0.00052191765 -0.12378028 0.056723833 0.101884805 -0.108409345 -0.0554892
0.0620621 0.024735862 0.034764897 -0.08795077 -0.0075062113 -0.001264936 0.084550604 0.000571631
-0.13000457 0.055412136 0.06402256 -0.0013258759 0.053569723 -0.08752589 0.080697134 0.09769986
0.057361964 0.11850961 0.045430884 -0.027730398 0.07772769 0.12647001 0.08916013 -0.07101961
-0.12826978 -0.07702203 -0.050947085 0.028096236 0.122928575 -0.043086037 -0.007006011 0.057573006
0.05746646 0.09699938 0.058030598 0.045057543 -0.03775509 -0.076388195 -0.034300297 8.774053e-05
0.12622325 -0.081705965 -0.09858316 0.12154601 -0.03794352 0.13955577 -0.0057982784 -0.062430676
0.13705349 0.10616215 -0.06112442 -0.027102154 -0.054401703 -0.08007827 -0.1074454 0.14863016
0.07935307 0.00061254954 0.03697421 0.01621154 0.11479519 -0.05476669 0.042029794 -0.04440262
-0.077871986 0.06549743 -0.09670858 0.11400472 0.11651403 0.071280956 0.09238747 0.0019041564
0.14947495 0.030893253 -0.0059594945 -0.08842331 0.057339936 -0.09986107 -0.016164966 0.121868454
0.1115419 -0.031065762 -0.033718348 -0.075094 -0.03829508 0.0054986984 -0.018127363 0.12909825
-0.045861162 0.04291519 0.13824241 0.055993896 0.0038043894 0.105125815 -0.095063515 -0.07401947
-0.07064408 0.15239343 -0.059158538 0.03372817 -0.09964744 0.058132574 -0.013160345 0.026073622
0.009281461 0.121758 -0.04337057 0.113345236 -0.062919654 0.075553484 -0.022093564 -0.04880109
0.08711478 0.09032693 0.07861999 0.1547024 -0.009058129 -0.07175841 -0.022854222 -0.00049379485
00000000: a8eb ea3d a6b4 093e 75fc 50bd e056 66bd
00000010: f161 ec3d ae6a afbc 91eb 053e 356b a23d
00000020: a89a bc3d 25fb 8e3d 7ee6 163d 4b5f 123d
00000030: 2e92 c2bd 11e6 083e 88f6 64bd cad6 b83d
00000040: c4f5 0f3e 9037 463d 8f40 843d 563b 443d
00000050: ae3b 81bd 5080 81bd b15c 6bbd 5632 f43d
00000060: 7782 e43c 41c4 de3d 1bf8 f43d 28d6 aa3c
00000070: 7d10 a6bd fb18 0e3e 470c b33c 80f2 983c
00000080: ebf6 0a3e f599 bc3c 0207 973d 203f 90bb
00000090: a6fd b6bd 4101 fa3d 3949 7cbd fb46 133e
000000a0: e199 033e 9e09 dd3d 2910 3ebc 621f 993d
000000b0: 4ee1 bcbd 152d 93bd c18b bfbd 936a 39bd
000000c0: d824 c63d e0e0 6e3d d8d3 e33d a1ac 953c
000000d0: 81c0 b0bd 203c 953d 8dba b5bd d94a fe3d
000000e0: 9204 593c 2a37 96bd 3828 09be 72e1 dc3d
000000f0: 1894 78bd 762d 19bc c7ed 00bd d5a8 c6bd
00000100: 24cd 77bd fcf1 4ebd d209 b23c b9b6 f93d
00000110: 62d7 abbc 467f a2bd 89f0 4c3c ed5b aebd
00000120: 51fe 953d ada5 91bd bfca 1d3d dcbb bebd
00000130: 8035 773d 9524 abbb d606 093e a64b a53d
00000140: 509f 2e3c 46fa 4dbc f4ac 423d 1cec de3d
00000150: b500 1a3e fbea e83d b191 873d 838f c43d
00000160: d0ff 253e 7d02 f23d af3e 2cbd a772 163e
00000170: 9019 56bc f08a d43d b43f 21ba ef35 18bc
00000180: 822a f83d 310f ef3d 8996 653d 149f f53d
00000190: 7aca 1e3d 9ef4 233b a5e2 96bd 3ad8 bebd
000001a0: 3de9 953d e631 ff3b b727 adbd df55 88bd
000001b0: 5dd8 933d 6a04 b8bd 64f6 abbd 934d bd3d
000001c0: 7f31 403d a4ee 24bd 7490 17bd 2e34 df3c
000001d0: 92c5 f83d d76e 5fbd 00c7 a5bc 0b1a ec3d
000001e0: e558 a2ba 9e9c 00bd bad0 d1bd f872 75bd
000001f0: 855a b8bc 43d2 acbd 04bc d6bd 9181 fbbc
00000200: 1859 fcbd 128f ae3c 4dd1 083a 8480 fdbd
00000210: 4057 683d fba8 d03d b805 debd a548 63bd
00000220: d434 7e3d dda2 ca3c a365 0e3d 891f b4bd
00000230: aaf6 f5bb 36cc a5ba de28 ad3d 82d9 153a
00000240: eb1f 05be d6f7 623d 431e 833d 03c9 adba
00000250: ed6b 5b3d c640 b3bd 8a44 a53d dd16 c83d
00000260: 61f4 6a3d 2bb5 f23d bc15 3a3d dc2a e3bc
00000270: b22f 9f3d 5b81 013e 9699 b63d bb72 91bd
00000280: 2759 03be babd 9dbd e4ad 50bd 142a e63c
00000290: fac1 fb3d fc7a 30bd ae92 e5bb acd1 6b3d
000002a0: f361 6b3d 9ca7 c63d 7eb1 6d3d 428e 383d
000002b0: 15a5 1abd 6a71 9cbd 787e 0cbd 5701 b838
000002c0: ab40 013e 7555 a7bd f8e5 c9bd 1ded f83d
000002d0: aa6a 1bbd b5e7 0e3e 7cff bdbb 4fb7 7fbd
000002e0: c057 0c3e 8b6b d93d 9a5d 7abd 5605 debc
000002f0: 52d4 5ebd 1300 a4bd 550c dcbd 8132 183e
00000300: dd83 a23d 8193 203a 4572 173d 10ce 843c
00000310: be19 eb3d 0953 60bd 6f27 2c3d 86df 35bd
00000320: 597b 9fbd 8423 863d 260f c6bd 4e7b e93d
00000330: e89e ee3d c0fb 913d a435 bd3d e394 f93a
00000340: f60f 193e d913 fd3c dd47 c3bb 4817 b5bd
00000350: 48dd 6a3d f683 ccbd 646c 84bc 2b96 f93d
00000360: 1470 e43d a07d febc 401c 0abd e2ca 99bd
00000370: 4ddb 1cbd 6d2e b43b d67f 94bc 5532 043e
00000380: ead8 3bbd d7c7 2f3d 6b8f 0d3e db59 653d
00000390: 1053 793b 344c d73d a9b0 c2bd 8597 97bd
000003a0: d8ad 90bd 060d 1c3e 3950 72bd 8d26 0a3d
000003b0: f513 ccbd 6c1c 6e3d 7d9e 57bc 5998 d53c
000003c0: 4511 183c 425c f93d 57a5 31bd 8c21 e83d
000003d0: 05dc 80bd c9bb 9a3d 90fd b4bc a7e3 47bd
000003e0: 3c69 b23d 53fd b83d 8403 a13d 4e6a 1e3e
000003f0: 8c68 14bc 13f6 92bd c738 bbbc 0372 01ba

encoder.lstm.bias_hh_l0 f4 [256]
-0.07653551 -0.091673054 0.08368962 0.026319433 0.042313714 0.058710396 0.1458385 -0.0066492264
0.11123135 0.06716773 0.12898925 0.0845095 0.03990722 0.10453951 0.15302972 0.111757725
-0.049560897 0.076494455 -0.008276899 0.10235799 0.15194833 -0.062097833 0.009570342 -0.082794026
0.024382515 -0.009584343 0.093784355 0.07510323 0.09030334 0.06504197 -0.008635383 0.043018486
-0.028247096 0.03070407 -0.090699986 0.13807943 0.12526216 -0.08260303 0.03616638 -0.012050286
-0.0931539 -0.012940622 -0.11300486 -0.0760165 0.11763781 -0.07383814 -0.048281856 0.04139629
-0.017602488 0.011203867 0.06979342 0.029337866 -0.0061941906 -0.047440913 0.09733041 0.055778358
-0.0932024 0.13857336 -0.02923776 -0.04858602 -0.046742268 -0.03405986 0.08821779 -0.026706088
-0.028383883 0.013330969 0.13586241 0.099037685 -0.040457882 -0.055378657 -0.047591314 0.081269555
0.09538209 0.122646354 0.0642784 -0.07171663 0.122964844 -0.06257097 -0.014313311 0.11023705
0.0927301 0.027022455 0.025421983 -0.010065755 -0.0048985174 -0.067612946 0.012451401 0.13802293
0.052824195 -0.060246136 -0.08004375 0.066961996 -0.06958964 0.10930948 0.038109127 0.051258825
-0.01990309 -0.04173118 0.019771455 0.06723665 -0.06714108 -0.11585606 -0.08777184 0.10661871
0.05731404 0.13471168 -0.1005781 -0.053682853 -0.059220225 0.08666084 -0.06276141 0.12917013
0.023037909 0.09711021 -0.031006837 0.036948945 -0.0055449572 -0.08399243 0.07015982 -0.053511865
0.058168475 -0.09338925 -0.042253405 -0.0356125 0.010272709 -0.06804762 -0.0074075214 -0.017173957
0.024969922 -0.115537696 -0.006817205 -0.080899164 -0.12478445 0.10013644 -0.039073423 -0.064581975
-0.058592897 0.05025531 0.13400157 -0.118014015 -0.06696062 0.033217106 0.121034205 -0.06698592
-0.09598383 0.051330015 -0.04190692 0.07233174 -0.08771183 -0.045136906 0.08982292 0.038678013
0.0856968 0.07701044 -0.03375837 -0.05042849 -0.0037988 0.13612522 -0.10375713 -0.002833748
0.09066112 -0.02653836 -0.12546308 0.13979693 -0.043905236 -0.055316478 0.02057624 -0.025861878
0.112540506 0.0721549 -0.005262115 0.09805593 -0.05910068 0.032018054 0.13424389 -0.020254401
-0.08386926 -0.077855684 -0.017046938 0.048340578 -0.052490614 -0.0032603983 0.025841076 0.024355527
0.034232154 0.11466994 0.036271203 -0.01417728 -0.14046825 0.12048821 0.023029475 -0.013901969
-0.044391006 0.061618432 0.12498159 0.051749546 0.0011074838 -0.07119105 -0.08602618 0.0025386664
-0.007355171 -0.015070353 -0.002177478 -0.008157994 -0.06146567 -0.030041013 0.07238561 -0.027808722
-0.039885018 -0.07662649 0.12634602 0.037399884 -0.043372545 0.03069004 0.05429128 -0.072019756
-0.058391303 0.11806061 -0.0703154 -0.08851435 -0.08151035 0.09226818 0.0044601206 0.0688949
0.042031117 -0.05191964 0.049796756 -0.0674065 0.066287026 0.093963414 0.13638109 0.09784191
0.054942857 0.025846882 -0.08306916 -0.059167575 -0.07635865 0.04143532 0.14888997 0.114310674
-0.049770508 0.051711533 -0.010442306 0.14335437 0.092342004 -0.058123566 0.024496531 0.061050873
0.067314714 0.08007831 -0.023700027 0.006204191 0.14189391 0.008076583 0.12790039 0.031299282
00000000: a6be 9cbd 15bf bbbd 7765 ab3d da9b d73c
00000010: 2551 2d3d 507a 703d b056 153e c1e1 d9bb
00000020: 43cd e33d 3c8f 893d c215 043e 5113 ad3d
00000030: c175 233d d018 d63d d3b3 1c3e 3ce1 e43d
00000040: 5e00 4bbd 20a9 9c3d d59b 07bc 11a1 d13d
00000050: 5898 1b3e 4c5a 7ebd eccc 1c3c ea8f a9bd
00000060: d7bd c73c a607 1dbc 0312 c03d b9cf 993d
00000070: f5f0 b83d b934 853d 6c7b 0dbc 2734 303d
00000080: 7466 e7bc 1a87 fb3c eac0 b9bd b264 0d3e
00000090: b944 003e c72b a9bd 3323 143d 906e 45bc
000000a0: 79c7 bebd e704 54bc 186f e7bd 8aae 9bbd
000000b0: 18ec f03d 7338 97bd 32c3 45bd 288f 293d
000000c0: 1833 90bc 6d90 373c daef 8e3d f755 f03c
000000d0: a3f8 cabb 6751 42bd 2a55 c73d d977 643d
000000e0: e6e0 bebd 2de6 0d3e 0784 efbc 2202 47bd
000000f0: d274 3fbd 5a82 0bbd 87ab b43d bac6 dabc
00000100: 5185 e8bc 236a 5a3c 841f 0b3e 45d4 ca3d
00000110: 2ab7 25bd bbd4 62bd 1cef 42bd a770 a63d
00000120: af57 c33d 032e fb3d 65a4 833d 2be0 92bd
00000130: fed4 fb3d 3525 80bd 6182 6abc f6c3 e13d
00000140: 47e9 bd3d 325e dd3c c341 d03c d6ea 24bc
00000150: be83 a0bb a878 8abd f600 4c3c e255 0d3e
00000160: 2f5e 583d a7c4 76bd faed a3bd 5f23 893d
00000170: 0385 8ebd a6dd df3d 5118 1c3d c6f4 513d
00000180: ce0b a3bc 50ee 2abd bff7 a13c 5eb3 893d
00000190: 4381 89bd f145 edbd b9c1 b3bd e95a da3d
000001a0: 20c2 6a3d dcf1 093e e4fb cdbd 8de2 5bbd
000001b0: e890 72bd 3d7b b13d 0e89 80bd 2d45 043e
000001c0: ffb9 bc3c b8e1 c63d 0d02 febc c757 173d
000001d0: 79b2 b5bb 3904 acbd f4af 8f3d 422f 5bbd
000001e0: 1142 6e3d dd42 bfbd e811 2dbd 6ade 11bd
000001f0: dd4e 283c 8d5c 8bbd cbba f2bb 66b0 8cbc
00000200: b98d cc3c 079f ecbd dc62 dfbb 76ae a5bd
00000210: fd8e ffbd 5514 cd3d 740b 20bd 8e43 84bd
00000220: 1bff 6fbd 83d8 4d3d b537 093e 55b1 f1bd
00000230: a622 89bd a90e 083d c8e0 f73d ea2f 89bd
00000240: 2c93 c4bd 6c3f 523d 97a6 2bbd aa22 943d
00000250: 43a2 b3bd 7ae1 38bd 14f5 b73d d66c 1e3d
00000260: ce81 af3d a6b7 9d3d 3746 0abd 1b8e 4ebd
00000270: 4af5 78bb 6964 0b3e 9e7e d4bd 67b6 39bb
00000280: 8aac b93d fa66 d9bc 6579 00be ed26 0f3e
00000290: fad5 33bd 8893 62bd 818f a83c 4adc d3bc
000002a0: a37b e63d f3c5 933d d26d acbb 8cd1 c83d
000002b0: 8e13 72bd 5d25 033d 3b77 093e 8fec a5bc
000002c0: a6c3 abbd cd72 9fbd 05a6 8bbc c500 463d
000002d0: 6600 57bd 68ac 55bb aab0 d33c 3e85 c73c
000002e0: 0437 0c3d 13d8 ea3d 1d91 143d d247 68bc
000002f0: e9d6 0fbe 86c2 f63d 4fa8 bc3c 16c5 63bc
00000300: 58d3 35bd 9c63 7c3d 59f6 ff3d 55f7 533d
00000310: fd28 913a 9dcc 91bd 7e2e b0bd c15f 263b
00000320: a503 f1bb a4e9 76bc 05b4 0ebb 1ba9 05bc
00000330: 6dc3 7bbd 9218 f6bc e83e 943d 1ecf e3bc
00000340: 795e 23bd 59ee 9cbd da60 013e 9f30 193d
00000350: 69a7 31bd ae69 fb3c 8960 5e3d 187f 93bd
00000360: b82b 6fbd c3c9 f13d 8501 90bd 0347 b5bd
00000370: e6ee a6bd 19f7 bc3d 3426 923b c518 8d3d
00000380: d228 2c3d b0a9 54bd aff7 4b3d 6b0c 8abd
00000390: 7ec1 873d e46f c03d 7ca7 0b3e 5761 c83d
000003a0: c30b 613d d7bc d33c 2a20 aabd b359 72bd
000003b0: ed61 9cbd 15b8 293d 9d76 183e b71b ea3d
000003c0: 29dc 4bbd 79cf 533d 3516 2bbc 7dcb 123e
000003d0: ce1d bd3d fa12 6ebd f3ac c83c 7b10 7a3d
000003e0: 4cdc 893d 1900 a43d 8f26 c2bc 874c cb3b
000003f0: a34c 113e a553 043c 52f8 023e ad33 003d

decoder.lstm.weight_ih_l0 f4 [256, 10]
0.0740574 0.05694447 -0.099090286 0.044930857 0.11851795 -0.09706511 -0.007592444 0.0056047747
0.055761855 0.03000746 0.022323508 -0.07500795 0.013095525 0.09684083 0.08399688 0.05052243
-0.13289924 -0.10486331 0.037506077 -0.03622907 -0.07388709 0.09064108 -0.019792208 0.10456545
0.05790491 -0.09468386 0.032053396 -0.008899317 0.032856245 0.076902606 0.06842759 0.012298266
0.076886736 -0.06620846 -0.10661387 -0.10995919 0.048166376 0.04509566 0.07840494 0.052289102
-0.0068371054 -0.09395913 0.066756405 -0.0015897119 -0.08864701 -0.027212901 -0.1094636 0.0503502
0.019552173 0.105319954 0.09394216 -0.03300456 0.12249135 0.028394103 0.1041422 0.13132259
0.006323853 -0.01716646 -0.09576071 -0.06418414 -0.118656345 0.017823858 -0.13771865 0.060186733
0.09105669 0.09052311 0.0058183153 0.0015879493 0.086426824 -0.09007307 0.035485823 -0.07140427
0.06623849 0.11684764 0.10067497 0.13701946 -0.057974413 0.053538196 0.032901186 0.029732917
-0.055754434 -0.016339751 -0.14905365 -0.05195921 -0.084180444 0.08170358 -0.073973306 -0.10855964
0.078937076 -0.039716017 0.10331698 -0.062158123 0.10040436 0.10559233 -0.016003827 -0.03782348
-0.048296984 -0.06077508 -0.029882325 0.047764443 -0.12843233 0.07917335 -0.10784948 0.103267536
0.047914688 -0.022266207 0.019603446 -0.047050472 0.011870113 -0.042842776 0.02020458 0.06797327
0.017190518 -0.09454226 -0.1343531 -0.011197002 -0.09862809 0.083268255 -0.1301299 -0.119180895
0.042224884 0.07902753 -0.07995692 -0.10650485 0.052231044 0.066307485 -0.010570798 -0.04460238
0.006355359 -0.08557851 0.07799102 -0.09285582 -0.053244267 0.07127008 -0.09900881 -0.132177
0.046399973 -0.12507188 -0.119094685 0.07773066 -0.039970245 -0.04305121 -0.040789712 -0.030408658
-0.064141154 0.09722983 -0.044282813 0.070733584 0.08301502 -0.04722724 -0.03793549 0.10395224
-0.06879009 0.084968425 0.061949357 0.068906866 0.018920317 0.014256263 0.11780496 -0.08280681
0.084478244 -0.011875015 0.019030243 0.11527515 0.04563299 0.05296059 0.059609354 0.04593849
0.019338636 0.04627547 -0.12968962 0.056739934 -0.11879465 -0.07483523 -0.043715037 0.03586276
-0.03013364 -0.056974284 0.053709127 0.057869837 0.06510867 0.031580463 -0.0124965375 -0.018587906
0.02852335 0.04249778 -0.06965153 -0.09706892 -0.029743887 -0.023277646 0.05436178 -0.092004955
0.12208337 0.023447942 0.10452355 0.09567134 0.016701328 0.121198244 0.02310821 0.13335873
0.10366451 0.05580672 -0.10599597 -0.09599679 0.087510504 -0.0028719637 0.13528073 -0.0025895876
-0.023796152 0.119845465 0.10076429 -0.034164973 -0.021327725 -0.06790734 0.03644628 -0.016232798
0.10241738 0.058913745 0.07439781 0.12547995 -0.025839558 0.044160932 -0.08655463 -0.13161145
-0.07916501 0.02983957 0.015433656 -0.009708305 -0.013760615 -0.0132945 -0.14694557 -0.08859309
-0.028507875 -0.013328376 0.030867558 -0.1462146 0.087269686 -0.07062492 -0.08884437 -0.0865202
-0.036582917 -0.06603215 -0.051332638 -0.021302179 -0.073191516 -0.035444524 0.08472635 0.06861477
0.039622184 -0.10366355 -0.09091427 0.14041021 -0.01796614 0.00063699216 0.108576246 0.07944517
00000000: 68ab 973d 9b3e 693d d9ef cabd 6b09 383d
00000010: 8ab9 f23d 13ca c6bd 09ca f8bb 42a8 b73b
00000020: 8b66 643d 34d2 f53c cadf b63c c59d 99bd
00000030: 9d8e 563c 7c54 c63d 8e06 ac3d 9cf0 4e3d
00000040: bd16 08be 93c2 d6bd f99f 193d ef64 14bd
00000050: 1d52 97bd 08a2 b93d 4523 a2bc 6926 d63d
00000060: b32d 6d3d 9de9 c1bd 6c4a 033d 71ce 11bc
00000070: 4594 063d 1d7f 9d3d c423 8c3d ab7e 493c
00000080: cb76 9d3d 4d98 87bd 5f58 dabd 4932 e1bd
00000090: 1b4a 453d 3ab6 383d c592 a03d 192d 563d
000000a0: cc09 e0bb a56d c0bd 95b7 883d e15d d0ba
000000b0: 908c b5bd 97ed debc 742e e0bd 033c 4e3d
000000c0: e12b a03c fdb1 d73d bf64 c03d ca2f 07bd
000000d0: bfdc fa3d c09a e83c 8148 d53d 6e79 063e
000000e0: 5338 cf3b ada0 8cbc 311e c4bd f972 83bd
000000f0: 1902 f3bd 5703 923c 1e06 0dbe 5d86 763d
00000100: ee7b ba3d 2e64 b93d 91a7 be3b bd22 d03a
00000110: 8c00 b13d 3b78 b8bd 9559 113d 673c 92bd
00000120: 0ca8 873d d14d ef3d ae2e ce3d d44e 0c3e
00000130: 9476 6dbd de4a 5b3d 65c3 063d 7292 f33c
00000140: c35e 64bd f1da 85bc 85a1 18be 2ed3 54bd
00000150: cc66 acbd 3554 a73d 517f 97bd 8454 debd
00000160: c3a9 a13d 43ad 22bd da97 d33d 8499 7ebd
00000170: cda0 cd3d cb40 d83d 751a 83bc cbec 1abd
00000180: 0fd3 45bd 4aef 78bd c7cb f4bc a6a4 433d
00000190: c483 03be a325 a23d 30e0 dcbd ee7d d33d
000001a0: 3142 443d 9f67 b6bc 6897 a03c ffb7 40bd
000001b0: dd7a 423c e87b 2fbd 1384 a53c 9235 8b3d
000001c0: 21d3 8c3c 5f9f c1bd dc93 09be a173 37bc
000001d0: 86fd c9bd 8c88 aa3d c640 05be 1d15 f4bd
000001e0: 00f4 2c3d 30d9 a13d 74c0 a3bd 371f dabd
000001f0: 38f0 553d 38cc 873d 2431 2dbc fcb0 36bd
00000200: 9e40 d03b c943 afbd c2b9 9f3d 312b bebd
00000210: a916 5abd 0cf6 913d 22c5 cabd 6859 07be
00000220: e60d 3e3d d812 00be eae7 f3bd 4131 9f3d
00000230: d7b7 23bd 7756 30bd 1d13 27bd 941b f9bc
00000240: 705c 83bd 6f20 c73d e561 35bd c5dc 903d
00000250: c703 aa3d 5a71 41bd 3f62 1bbd e9e4 d43d
00000260: d2e1 8cbd ed03 ae3d 9cbe 7d3d 0b1f 8d3d
00000270: c8fe 9a3c 1a93 693c ba43 f13d 9e96 a9bd
00000280: ee02 ad3d 6c8f 42bc 50e5 9b3c 6115 ec3d
00000290: a8e9 3a3d 34ed 583d f028 743d 002a 3c3d
000002a0: 0f6c 9e3c 598b 3d3d 5bcd 04be 2268 683d
000002b0: 9c4a f3bd 3743 99bd 8a0e 33bd d4e4 123d
000002c0: d3da f6bc de5d 69bd 1afe 5b3d ec08 6d3d
000002d0: b257 853d 845a 013d 47be 4cbc aa45 98bc
000002e0: cda9 e93c 2712 2e3d 76a5 8ebd 12cc c6bd
000002f0: 74a9 f3bc c3b0 bebc 75aa 5e3d 186d bcbd
00000300: d906 fa3d e615 c03c 7110 d63d 56ef c33d
00000310: 39d1 883c c936 f83d 6e4d bd3c 318f 083e
00000320: 0f4e d43d 9695 643d 6a14 d9bd f799 c4bd
00000330: b538 b33d 8e37 3cbb 0887 0a3e 12b6 29bb
00000340: 26f0 c2bc 8a71 f53d 825d ce3d 92f0 0bbd
00000350: 7bb7 aebc 0113 8bbd b248 153d a5fa 84bc
00000360: 34c0 d13d 8a4f 713d e15d 983d d17d 003e
00000370: 7bad d3bc 18e2 343d 8e43 b1bd 27c5 06be
00000380: 4421 a2bd 1d72 f43c 72dd 7c3c 950f 1fbc
00000390: 3474 61bc 2dd1 59bc e678 16be 4b70 b5bd
000003a0: 5989 e9bc 435f 5abc f6dd fc3c 48b9 15be
000003b0: 73ba b23d cca3 90bd 09f4 b5bd 8131 b1bd
000003c0: f8d7 15bd dd3b 87bd 2c42 52bd e881 aebc
000003d0: 6fe5 95bd 472e 11bd 0285 ad3d e785 8c3d
000003e0: df4a 223d 8e4d d4bd 4331 babd b2c7 0f3e
000003f0: ba2d 93bc d2fb 263a 395d de3d 26b4 a23d

decoder.lstm.weight_hh_l0 f4 [256, 64]
-0.11874033 -0.114728674 0.11582868 -0.118850626 0.053539183 0.04147014 -0.14362538 0.11401751
0.05956486 0.011526364 -0.044428032 0.08559798 0.021572867 0.15450102 0.13323154 -0.06312387
-0.041874904 -0.08918181 -0.037240334 -0.059303783 0.06436545 0.0566594 -0.09286143 -0.08550695
0.027083443 0.14720048 -0.07539354 0.049367677 0.0071272384 -0.0052759615 0.026846161 0.062514484
0.047598667 0.053653505 0.06920213 -0.05578697 0.0527269 0.055737898 0.03254516 0.017798275
0.14573921 -0.11825004 0.016657582 0.00044560706 -0.031101145 0.09263747 -0.06563126 0.03418368
0.008340234 0.15111539 -0.10368322 0.017071424 0.12504032 -0.06332237 -0.018391838 0.027739791
0.049239855 0.119195744 -0.076921344 0.031913 0.075687185 0.05333355 0.0877125 -0.058984626
-0.007714971 0.020913847 0.10665646 -0.1268201 -0.02499847 -0.019010853 0.124319084 -0.07810667
-0.0035877465 -0.013158416 -0.01566457 -0.05819267 0.0082062045 -0.055043757 -0.011580917 -0.10297122
0.02134278 0.070068836 0.0010336029 -0.035995398 0.09007845 -0.10225559 0.016749669 0.052070208
-0.061189048 -0.13278545 -0.061796416 -0.027126262 -0.02829758 -0.08092282 -0.022528611 -0.0068088584
0.017255567 -0.0726211 -0.08811901 -0.018868012 0.018566726 -0.03483293 0.014459366 -0.06748632
0.07285218 -0.06636989 0.06425248 -0.07289002 -0.07853216 -0.13555147 -0.028132608 -0.058011938
0.04684373 -0.0039807367 -0.11356078 0.012676829 -0.030900996 0.095662355 0.11913959 -0.06846758
0.051166132 -0.10522416 0.043032937 -0.025917131 -0.08649155 0.15145513 -0.021808557 -0.1041097
0.08586132 -0.113337055 -0.04283565 -0.008959701 -0.021587443 0.060201716 -0.030974628 -0.026219005
0.02002627 0.047535736 0.024688488 -0.10280071 -0.09192368 -0.07302468 0.0724871 0.052891493
-0.14793111 -0.059038855 0.065215796 0.044285942 -0.07566015 -0.086621985 0.12184181 -0.112610884
0.085298434 0.11628914 0.028713342 -0.0039140913 0.039108813 0.106133796 0.0880608 -0.025842901
0.13269393 0.0026858235 -0.038756765 -0.0895443 -0.15209587 0.03521419 -0.061900325 -0.09389186
-0.015997047 0.011903839 -0.020780474 -0.1343861 0.14845861 -0.04907885 -0.08596589 0.04386434
-0.10101607 -0.04481197 -0.062594116 0.066087425 -0.044487864 -0.09285412 0.063128 0.108075924
0.040632773 0.044915054 -0.05222966 0.15676592 0.08162635 0.09360961 -0.1082633 0.05065874
0.036755055 -0.09658224 0.018170698 0.009114515 -0.053162057 0.09165787 0.12663385 0.050766446
0.14745823 0.047878314 -0.033624932 0.091496155 -0.016309908 0.09960533 0.043766215 0.043821257
-0.07615841 0.057847254 -0.055936445 0.09399877 -0.08249045 -0.034847677 -0.07709916 0.04763032
0.064565554 0.10980461 -0.07002349 0.04735659 -0.0902134 0.015168433 0.082425855 -0.12705112
-0.110513434 -0.030855086 -0.080212355 0.030919852 -0.083307676 -0.08764392 0.0011966256 0.07928618
0.084289 0.11452424 0.102479555 0.118177086 -0.12889196 -0.106280215 -0.090705805 0.08178027
0.12993844 -0.010658523 0.018749502 0.069667004 0.06812538 -0.0891161 -0.04827813 -0.03220542
0.060280785 -0.06946477 0.1539173 -0.07253939 0.040147096 0.12256036 -0.06459877 -0.1342186
00000000: 212e f3bd def6 eabd 9637 ed3d f567 f3bd
00000010: e74b 5b3d 98dc 293d 8812 13be 0382 e93d
00000020: 48fa 733d 13d9 3c3c 2bfa 35bd fe4d af3d
00000030: 95b9 b03c 8435 1e3e d96d 083e 1647 81bd
00000040: 0585 2bbd f4a4 b6bd 5289 18bd 86e8 72bd
00000050: 08d2 833d b013 683d 222e bebd 451e afbd
00000060: 19de dd3c b9bb 163e ee67 9abd c335 4a3d
00000070: 9c8b e93b f9e1 acbb 7bec db3c 9807 803d
00000080: d2f6 423d c7c3 5b3d d9b9 8d3d e180 64bd
00000090: 29f8 573d 6c4d 643d 134e 053d b0cd 913c
000000a0: a93c 153e 142d f2bd 7b75 883c 5ea0 e939
000000b0: d4c7 febc b7b8 bd3d af69 86bd 3004 0c3d
000000c0: 7aa5 083c febd 1a3e de57 d4bd 5fd9 8b3c
000000d0: 920a 003e 29af 81bd 7baa 96bc 8f3e e33c
000000e0: bbaf 493d e61c f43d f088 9dbd 35b7 023d
000000f0: e201 9b3d 4874 5a3d 9ca2 b33d dd99 71bd
00000100: decd fcbb 8453 ab3c b46e da3d 21dd 01be
00000110: 97c9 ccbc a6bc 9bbc 019b fe3d 64f6 9fbd
00000120: 6620 6bbb 6696 57bc fc52 80bc 705b 6ebd
00000130: 5173 063c 9075 61bd e3bd 3dbc 93e2 d2bd
00000140: 0ed7 ae3c 4080 8f3d f579 873a e96f 13bd
00000150: 0d7b b83d 616b d1bd 9a36 893c 9247 553d
00000160: 5ea1 7abd e9f8 07be 3d1e 7dbd e537 debc
00000170: 54d0 e7bc ddba a5bd ec8d b8bc d81c dfbb
00000180: 8c5b 8d3c 5fba 94bd bd77 b4bd 1791 9abc
00000190: 3f19 983c f9ac 0ebd fae6 6c3c 4536 8abd
000001a0: 8633 953d f0ec 87bd ce96 833d 5d47 95bd
000001b0: 78d5 a0bd 01ce 0abe 5b76 e6bc ed9d 6dbd
000001c0: 36df 3f3d d770 82bb 8e92 e8bd 79b2 4f3c
000001d0: 1624 fdbc a0ea c33d 75ff f33d bb38 8cbd
000001e0: 9493 513d c47f d7bd 4e43 303d 2a50 d4bc
000001f0: 7b22 b1bd 0e17 1b3e dca7 b2bc 7737 d5bd
00000200: 0fd8 af3d 421d e8bd 6f74 2fbd b6cb 12bc
00000210: 26d8 b0bc 1396 763d 81be fdbc 3dc9 d6bc
00000220: 220e a43c d5b4 423d 833f ca3c 2e89 d2bd
00000230: 7b42 bcbd f78d 95bd 1e74 943d c0a4 583d
00000240: 417b 17be bad2 71bd dc8f 853d 2d65 353d
00000250: b5f3 9abd de66 b1bd 3388 f93d 89a0 e6bd
00000260: f2b0 ae3d 0029 ee3d 3e38 eb3c c741 80bb
00000270: 9030 203d ad5c d93d 3959 b43d 7eb4 d3bc
00000280: ebe0 073e a404 303b 6abf 1ebd 0163 b7bd
00000290: 05bf 1bbe c13c 103d 328b 7dbd 604a c0bd
000002a0: 3d0c 83bc 5208 433c d03b aabc 839c 09be
000002b0: 8905 183e e706 49bd e20e b0bd 18ab 333d
000002c0: 83e1 cebd c28c 37bd 5831 80bd d858 873d
000002d0: e838 36bd 4d2a bebd 4149 813d e956 dd3d
000002e0: 8d6e 263d d9f8 373d c5ee 55bd 3f87 203e
000002f0: b72b a73d 65b6 bf3d 26b9 ddbd 8a7f 4f3d
00000300: 788c 163d e9cc c5bd b7da 943c 0c55 153c
00000310: 75c0 59bd 1fb7 bb3d 4eac 013e 7af0 4f3d
00000320: 4aff 163e 0d1c 443d 4cba 09bd 5662 bb3d
00000330: 5b9c 85bc e1fd cb3d 3444 333d eb7d 333d
00000340: f1f8 9bbd 3ef1 6c3d 9d1d 65bd 6d82 c03d
00000350: c1f0 a8bd 70bc 0ebd 2ae6 9dbd 0318 433d
00000360: f23a 843d 3de1 e03d 7a68 8fbd fcf8 413d
00000370: cec1 b8bd 0585 783c e3ce a83d b019 02be
00000380: de54 e2bd cec3 fcbc 6046 a4bd a14b fd3c
00000390: 379d aabd a87e b3bd 18d8 9c3a cb60 a23d
000003a0: b69f ac3d af8b ea3d cde0 d13d d406 f23d
000003b0: 41fc 03be 71a9 d9bd f7c3 b9bd 6a7c a73d
000003c0: 950e 053e 16a1 2ebc 8e98 993c 93ad 8e3d
000003d0: 5285 8b3d 8082 b6bd 4abf 45bd d5e9 03bd
000003e0: fce8 763d 8c43 8ebd 7f9c 1d3e 888f 94bd
000003f0: 4871 243d ed00 fb3d 5c4c 84bd 9a70 09be

decoder.lstm.bias_ih_l0 f4 [256]
0.059268165 0.004277071 0.11124456 0.0697039 -0.029723398 0.017971663 0.01677076 -0.046586584
-0.08512683 0.058003467 0.040098295 -0.0030056925 0.006142985 -0.003294321 0.051619798 -0.049554765
0.019829933 -0.0908904 -0.117049634 0.13169974 0.105849735 -0.09949318 -0.074781366 0.09179483
-0.03530024 -0.021482524 0.12622538 0.16052186 0.013205289 -0.101713374 0.019498102 -0.055041607
0.033358783 -0.084669836 0.12941076 0.11322575 -0.024899602 0.10565796 -0.0044561466 0.08594264
0.010325755 -0.019948715 -0.042758215 0.07810859 -0.080671236 0.047199834 0.040552944 0.08112677
-0.08143229 0.04601223 0.04694847 0.010485332 0.08340928 0.14228086 -0.019584911 -0.027473276
-0.024515316 0.1274155 0.081151135 -0.07787707 -0.055467382 0.03465021 -0.056322113 -0.0014645434
0.031100862 0.009291572 0.09386844 0.019687122 -0.10802321 0.08315533 -0.0011286901 -0.07341707
0.015914356 -0.049350284 0.05580987 0.028862435 0.12871613 0.10792372 0.046189662 0.07558012
0.06631679 0.054859634 -0.044334527 -0.03819377 0.05273649 0.010427685 0.07345154 -0.051616784
-0.030396556 0.09471764 0.030485364 0.06258511 -0.08545888 -0.041842118 0.06886058 -0.059487507
-0.09139408 0.09520801 0.06399057 0.04414686 0.007840602 -0.07169491 -0.054273557 0.07581115
0.124615654 0.10682431 0.09133613 0.09182513 0.06094124 -0.00470364 0.10240789 0.05078639
0.056792792 0.09880202 -0.040316515 0.11835338 -0.047180388 -0.08330411 0.06774429 0.059753936
-0.032063246 0.038535763 -0.068327405 0.08422972 0.018709311 0.11734909 0.09335907 -0.10310272
-0.019306876 0.12009179 0.11797793 -0.036315124 -0.056735158 0.030147431 0.054499324 -0.038293827
0.043745834 -0.029934315 0.14027582 -0.020460494 -0.07885205 0.0135791795 -0.04424879 -0.036173858
-0.044402067 -0.032033067 -0.08841302 -0.036890958 0.0011854402 -0.007853734 0.042328864 0.10475289
-0.0944109 -0.0567208 0.04659964 -0.034193914 -0.099987574 0.06308557 0.031916857 -0.07176346
0.030860422 0.033808976 -0.13982874 -0.05604452 0.01846145 0.053490218 0.119337775 0.077552825
0.107995085 0.13478743 0.08396304 -0.029084 -0.03142532 0.105213605 0.025717191 0.097373225
0.094882324 0.041611064 -0.042786095 0.05520009 0.07152285 0.065021984 -0.05544001 0.0038478675
0.07686294 -0.074930206 0.007966078 -0.015747286 -0.0177561 0.07105221 0.03846443 0.00029728236
0.0713818 0.11907656 0.14073755 0.15090798 0.124957204 -0.03924048 0.06765665 -0.05410828
-0.033587474 0.14331152 -0.06392285 -0.021279357 -0.05025178 0.10799119 -0.0341394 -0.06671927
0.08626111 0.07193638 -0.112267435 -0.051024612 0.13569766 0.11904546 0.026338635 -0.06534779
0.027335912 0.14420654 0.040163986 0.08480527 0.1279874 0.15142971 0.067666605 0.02718404
0.06007808 0.04836554 0.06532341 0.12015879 0.13646095 -0.065055184 0.010230037 0.12045767
0.032390133 0.025271656 -0.10452334 -0.060386613 0.080240175 -0.04110043 0.07599942 -0.00978129
0.0039988034 0.08528683 -0.07405389 0.15550305 0.12978351 0.098039605 -0.081040554 -0.084524445
0.02476468 -0.07510847 0.081855714 -0.013909152 -0.013131429 0.08206668 -0.026806662 0.095404066
00000000: 2dc3 723d ac26 8c3b 30d4 e33d ebc0 8e3d
00000010: 7c7e f3bc 4f39 933c d562 893c 93d1 3ebd
00000020: fa56 aebd 0b95 6d3d 1c3e 243d 27fb 44bb
00000030: 184b c93b 89e5 57bb 486f 533d f0f9 4abd
00000040: 6272 a23c bf24 babd b8b7 efbd 4cdc 063e
00000050: bfc7 d83d 15c3 cbbd f926 99bd eefe bb3d
00000060: fc96 10bd 1efc afbc 3a41 013e d85f 243e
00000070: ff5a 583c 1a4f d0bd 7cba 9f3c 4f73 61bd
00000080: 38a3 083d 6167 adbd 4184 043e e7e2 e73d
00000090: 40fa cbbc 3363 d83d de04 92bb b202 b03d
000000a0: 5b2d 293c 7d6b a3bc 3d23 2fbd 65f7 9f3d
000000b0: f636 a5bd 9d54 413d d81a 263d cb25 a63d
000000c0: f9c5 a6bd 5277 3c3d 0a4d 403d acca 2b3c
000000d0: 7cd2 aa3d 13b2 113e 8970 a0bc a30f e1bc
000000e0: 58d4 c8bc 3579 023e 9132 a63d 037e 9fbd
000000f0: c431 63bd 61ed 0d3d 04b2 66bd ecf5 bfba
00000100: 3cc7 fe3c ad3b 183c 193e c03d e346 a13c
00000110: 463b ddbd 574d aa3d 8ef0 93ba b05b 96bd
00000120: d35e 823c 8623 4abd e498 643d ea70 ec3c
00000130: 29ce 033e 1c07 dd3d 5f31 3d3d c0c9 9a3d
00000140: 19d1 873d 7fb4 603d 1f98 35bd 1271 1cbd
00000150: 3802 583d e2d8 2a3c c36d 963d 1f6c 53bd
00000160: 3302 f9bc 52fb c13d 71bc f93c 9f2c 803d
00000170: 1105 afbd a462 2bbd c706 8d3d 2ca9 73bd
00000180: d22c bbbd 6bfc c23d 7d0d 833d 56d3 343d
00000190: de75 003c c8d4 92bd f34d 5ebd e042 9b3d
000001a0: 7e36 ff3d b4c6 da3d 700e bb3d d00e bc3d
000001b0: 869d 793d fe20 9abb 3abb d13d 6405 503d
000001c0: 8f9f 683d b758 ca3d ee22 25bd 4263 f23d
000001d0: 3940 41bd 589b aabd 85bd 8a3d 8bc0 743d
000001e0: c054 03bd add7 1d3d 3def 8bbd a280 ac3d
000001f0: 4544 993c b854 f03d 0a33 bf3d 8527 d3bd
00000200: 7429 9ebc aff2 f53d 6a9e f13d 2bbf 14bd
00000210: 2063 68bd bff7 f63c af3a 5f3d fdd9 1cbd
00000220: d52e 333d cf38 f5bc 77a4 0f3e c49c a7bc
00000230: 2f7d a1bd 357b 5e3c 383e 35bd 0a2b 14bd
00000240: f1de 35bd 1b35 03bd e311 b5bd f91a 17bd
00000250: c660 9b3a f3ac 00bc 0861 2d3d af88 d63d
00000260: 805a c1bd 1254 68bd 44df 3e3d eb0e 0cbd
00000270: 49c6 ccbd 0233 813d 40bb 023d b9f8 92bd
00000280: ffce fc3c 487b 0a3d 442f 0fbe f08e 65bd
00000290: 773c 973c 8f18 5b3d 5d67 f43d 04d4 9e3d
000002a0: 872c dd3d b705 0a3e d0f4 ab3d 9241 eebc
000002b0: d6b7 00bd 3b7a d73d dcac d23c 9d6b c73d
000002c0: aa51 c23d 5d70 2a3d 7940 2fbd 7d19 623d
000002d0: 927a 923d 3f2a 853d 1015 63bd 812c 7c3b
000002e0: 516a 9d3d 0275 99bd 2784 023c 7400 81bc
000002f0: 3e75 91bc d283 913d e18c 1d3d 90dc 9b39
00000300: 9f30 923d 69de f33d 811d 103e 9f87 1a3e
00000310: 90e9 ff3d a0ba 20bd 928f 8a3d a5a0 5dbd
00000320: 0593 09bd 41c0 123e fce9 82bd 0c52 aebc
00000330: cfd4 4dbd 7c2a dd3d c1d5 0bbd 1da4 88bd
00000340: aaa9 b03d 6153 933d 78ec e5bd 2fff 50bd
00000350: 54f4 0a3e 1bce f33d 1fc4 d73c 10d5 85bd
00000360: 90ef df3c e1aa 133e fe82 243d 63ae ad3d
00000370: 210f 033e 6410 1b3e ca94 8a3d 10b1 de3c
00000380: 6f14 763d f21a 463d 48c8 853d d015 f63d
00000390: 6bbc 0b3e a73b 85bd e39b 273c 83b2 f63d
000003a0: 84ab 043d 8106 cf3c 5510 d6bd f457 77bd
000003b0: f654 a43d ed58 28bd 95a5 9b3d b441 20bc
000003c0: 6508 833b ddaa ae3d 91a9 97bd 313c 1f3e
000003d0: f8e5 043e fdc8 c83d 97f8 a5bd 271b adbd
000003e0: 4cdf ca3c 78d2 99bd f8a3 a73d 36e3 63bc
000003f0: 3525 57bc 9312 a83d a599 dbbc 3563 c33d
