lstm_ts.pth (torch, 827839 bytes, 10 tensors)

lstm.weight_ih_l0 f4 [512, 12]
00000000: 085c 563d d8d7 a43d c6bb 9b3d 84e3 a6bd
00000010: 9c4c 903d c1aa 98bd ecb2 82bd 2216 cebc
00000020: f10c d4bc 1306 9a3c 9340 9bbb 9e54 8cbd
00000030: 1071 33bc 1fed a3bd c78b 54bd f3ec a13d
00000040: d4e8 ffba ce1a 7abd ed6b b5bc 1815 61bd
00000050: 9041 7f3d 5cc9 22bd fde8 1f3d 9a9e 97bd
00000060: d790 febc 8bf2 78bd 5abf 9d3d 76db b83c
00000070: 8732 4e3d a271 e03c 3d23 8cbd b128 2abb
00000080: 3c93 be3c 215f c3bc 1655 5ebd c107 14bd
00000090: 196c 25bd efb4 87bd 6d6b 0dbd d0b2 a33d
000000a0: ad38 9c3d 82a3 96bd 970d 1cbd 791d 9a3d
000000b0: 7531 ddbc c495 16bd 96f4 193d 9f59 68bd
000000c0: c3bd d63c 40be c03b cc1c b43d 0229 583b
000000d0: 79d9 563d aaa6 793d 310a 2ebd f32a 73bd
000000e0: 949e f5bc 4c2f 853c 3787 adbd a239 40bb
000000f0: 0cfa a93b 7017 92bd 8702 883d a376 09bc
00000100: 2c37 053c 89a3 4a3d 7ec9 aebd 1224 8a3d
00000110: 6dc6 79bc cf3b 5cbd d357 a03d d6c0 223d
00000120: 913c 5bbd 9887 553d e7d4 94bd 3459 7ebd
00000130: 54f2 e93c 96c6 e03a 3080 27ba 7afb 133d
00000140: 98c4 533d 4db1 773d 8089 833d 666d 4e3d
00000150: a6aa bd3c 1d4c 67bd c1fe 3f3c 0aa7 4d3d
00000160: 671c 8a3d 0c4d 443d 3917 953c 4f8a 1f3d
00000170: a719 e0bc 6170 5fbd bc51 5b3c fe4b c4bb
00000180: 62bd 79bd b93c 17bd 74ca 41bd ccbd 92bd
00000190: 5877 38bd 91c1 c8bc dc76 003d bf61 89bb
000001a0: 91ec b13d df06 653d f131 b83d f3b2 2abd
000001b0: d794 6dbd 79f7 2a3d 1729 b63c b84e 873c
000001c0: cd0c 81bd 7630 02bd f8e0 563d ff37 0bbd
000001d0: da66 09bc cd48 94bd f5a8 90ba 10c5 803d
000001e0: 52ee b4bd 7b40 8cbc 2f3f 47bc 3550 86bd
000001f0: 0f72 343c fea1 21bd 3fe2 0fbd 0e35 0b3c
00000200: 9783 7e3d e9da aa3d 33a0 83bd 85b0 15bc
00000210: c28b 083d 2d83 59bd fe90 d43b 229e ac3d
00000220: d519 653d 8d4d 9fbd 8fb7 78bc ed92 7a3d
00000230: b800 02bc 5707 0e3d ba43 50bd 244a a4bc
00000240: 6975 68bd fdf9 babb 036b 3cbd 2469 e03c
00000250: 885a 34bd 472f b3bd dcd7 7b3d 0bf8 433b
00000260: 2e8c 91bd 2d05 283d dcfb 49bd a99c 293d
00000270: f506 2d3d 30d9 f83c 6322 77bd 441e 40bc
00000280: 09bc 3dbd 0f49 453d b05f 0e3d 38aa 82bd
00000290: 2524 97bd 5b76 0abd 0de5 733c f48e 713d
000002a0: ceff 2fbc 7191 803d d8d6 6038 317a 0d3b
000002b0: 22eb 713d c90a 16bd 9070 dabc 8c39 60bd
000002c0: 3225 583c e494 da3c 32d3 adbd 1ab0 5cbc
000002d0: c2a4 343d 3e5e 11ba 68b3 743d 6560 363d
000002e0: 680d 8b3d 0e26 003d 5101 79bd b026 7d3b
000002f0: 638e 7cbd 5c9d 8abd 34a2 e9bc e2d0 993d
00000300: 5a47 143d d051 873d 750f 7fbd 31a9 a6bd
00000310: bf22 2cbc b587 7abd 55d2 e8bb 569e 8f3d
00000320: f76b 37bc acca a9bd 7288 e7bc edc0 40bd
00000330: 513d a3bc 6818 0f3b 539c 973c fa27 3b3d
00000340: b6c4 1ebc 81c1 44bd 252f 8c3d 8ad7 50bd
00000350: 6280 1dbc 6e8f 20bd 7d48 9c3d 3a10 58bd
00000360: 7a57 9a3d 18da 94bb d467 37bd afe0 993c
00000370: 2eaa 033d 9b6f 8cbd 1947 683d 284c 103a
00000380: 4076 f83c 02d9 9d3c ff44 c8bc 7023 f1ba
00000390: 906b 81bd fb6f a7bd e67e 9dbd b067 51bd
000003a0: 4d40 4f3d b807 51bd 7563 97bd 450e d7b9
000003b0: 4071 713c a835 0d3d cc55 4bbd 5fd9 38bd
000003c0: 3e9d 92bd 1b54 bfbc eb84 7e3d d2d8 783d
000003d0: aa4a 9ebd f511 94bd 3dae 7abd 9307 75bd
000003e0: eb63 883d 36a3 a4bd 8441 6ebc 7e3a 813d
000003f0: 2d8d 093c 4e38 6ebd ef40 8a3c 7490 aa3d
0.05233386 0.080489814 0.07604174 -0.08148864 0.07045862 -0.07454444 -0.06381783 -0.025157038
-0.025885077 0.018801725 -0.0047379225 -0.06852077 -0.010952249 -0.08004212 -0.051891115 0.079065226
-0.0019524344 -0.06106072 -0.02214619 -0.054951757 0.062318385 -0.039742813 0.039040554 -0.07403298
-0.031074924 -0.060778182 0.07702513 0.022565585 0.050341155 0.027397934 -0.06842659 -0.0025964195
0.023263566 -0.023849072 -0.054280363 -0.036140207 -0.040386293 -0.06626307 -0.034526277 0.0799309
0.076279975 -0.073554054 -0.038098898 0.07525153 -0.027001122 -0.03676392 0.03758677 -0.056726094
0.026213532 0.0058820546 0.08794555 0.0032983427 0.05245349 0.06094996 -0.042490188 -0.05936713
-0.029982843 0.016257904 -0.08473056 -0.0029331227 0.0051872786 -0.071333766 0.06641107 -0.008390102
0.00813083 0.049472366 -0.08534525 0.06745161 -0.015245062 -0.053767975 0.07829251 0.039734684
-0.053524558 0.052131265 -0.072671704 -0.06209679 0.028557934 0.0017149027 -0.0006389646 0.0361285
0.05170116 0.06047182 0.064227104 0.0503973 0.02315266 -0.05646907 0.011718453 0.05020813
0.067436986 0.04792504 0.01819955 0.03895026 -0.027355982 -0.054550532 0.013386186 -0.0059905043
-0.060971625 -0.036923144 -0.047312215 -0.07165107 -0.04503569 -0.024506362 0.031363353 -0.0041925604
0.086876996 0.055914756 0.089939006 -0.041674566 -0.058003273 0.041739915 0.02223639 0.016517028
-0.0630127 -0.031784497 0.05246064 -0.03398895 -0.008386338 -0.07240448 -0.0011036681 0.06287587
-0.088345185 -0.01712059 -0.01216106 -0.06558267 0.011013522 -0.03946113 -0.035127874 0.008496536
0.062137213 0.08342535 -0.0642704 -0.009136324 0.03333641 -0.053103615 0.006487011 0.08428599
0.05593284 -0.077784635 -0.0151804825 0.061175276 -0.007934742 0.03467497 -0.05084584 -0.020054884
-0.056752596 -0.0057060705 -0.04600049 0.027393885 -0.04403165 -0.08749252 0.061485156 0.0029902484
-0.07106815 0.04102056 -0.049312457 0.04140917 0.042242963 0.030377 -0.060335528 -0.011725966
-0.046321902 0.048165377 0.034759223 -0.06380123 -0.07379941 -0.03380428 0.014886153 0.05897422
-0.010742141 0.06277741 5.360585e-05 0.0021587724 0.05906213 -0.03663138 -0.026665002 -0.05474238
0.013192462 0.026682325 -0.08487548 -0.01346972 0.044102438 -0.0005545354 0.059741408 0.044525523
0.067896664 0.03128629 -0.06079227 0.0038627796 -0.061659228 -0.06768295 -0.028519727 0.07510544
0.03620086 0.06607401 -0.0622706 -0.081377394 -0.010506331 -0.061164577 -0.0071051517 0.07012622
-0.011195174 -0.0829061 -0.028263304 -0.04705899 -0.019926699 0.0021834616 0.018507158 0.04569242
-0.009690454 -0.048036102 0.068449296 -0.050986804 -0.009613128 -0.039199285 0.076310135 -0.05274985
0.07536216 -0.0045426004 -0.044776753 0.018783895 0.032144718 -0.068572246 0.05670843 0.0005504512
0.030329823 0.019268516 -0.024446962 -0.0018397402 -0.06319344 -0.081756555 -0.076902196 -0.051124275
0.05059843 -0.05103275 -0.07392017 -0.00041018627 0.014736474 0.034475 -0.04964237 -0.045129176
-0.07158898 -0.023355534 0.06213848 0.06075365 -0.07729085 -0.072299875 -0.061201323 -0.059821676
0.06659683 -0.080389425 -0.014541987 0.063099846 0.008395475 -0.058159165 0.016876666 0.083283335

lstm.weight_hh_l0 f4 [512, 128]
00000000: 3122 273d 9b46 773c dc41 a0bb f823 07bd
00000010: c2c7 3c3d 8eee 053d b146 a73c dea4 1ebd
00000020: 3021 a7bd 9a26 f63c 0bfc 0d3c 65c3 b53b
00000030: adad 84bd 4330 143d 3578 14bd 88db aebd
00000040: eae2 0b3d 76fa a23d 2cf7 67bd 4440 9cbd
00000050: e610 353c 8137 22bd 8616 90bd 86dd 2d3d
00000060: 0d14 acbc 0e9f 8c3d 5d7d 353d dc51 74bd
00000070: 4bb1 b23b 1bb4 55bd ca38 7e3c c8aa 18bd
00000080: 8559 403c 02f4 8e3d a3f2 59bc f6a7 2ebd
00000090: 85a0 b3bc 1752 30bc 9e31 9dbd 70f0 313d
000000a0: 2c17 743d 6152 883d 5595 6a3c 0214 d53c
000000b0: 896a 9c3c eed0 b3bd 2338 82bd 36ba 683d
000000c0: 60ed 283d d58f b0bd d812 25bd ee70 6dbc
000000d0: 07fb 72bc 2285 43bc 0892 14bd b693 f3bc
000000e0: ccb6 313d 6c9c 753d 3449 033d a772 3dbd
000000f0: ba56 6d3d a3b1 91bd 725a c2bc b2a9 4cbc
00000100: 1f34 9d3d 71b1 dbbc 57d6 32bd 9970 653b
00000110: 8016 60bd 7107 60bd 60ea b93b 5115 833d
00000120: 2032 463c 0104 a03d 100b 573c d7a8 88bd
00000130: 1863 3abd cbd2 143d dac8 763d 227a b73d
00000140: 9b12 a9bb 43a2 5fbd 33e3 723d 80c3 91bd
00000150: 90a2 a63c 11b7 b0bd 4402 283d 1471 213d
00000160: 0015 493d 996f bdbc f2b1 8d3d d3e5 b0bd
00000170: 0dba 86bd 121b 48bc 07a5 9c3d 6a92 ff3c
00000180: 798b 0ebd d991 bfbc 6af4 97bd 907a a5bd
00000190: d758 20bd cdd8 81bd d764 90bd b1fe a83d
000001a0: 7254 9abd 0a33 663c 0c51 993d 9986 b93d
000001b0: a073 ad3d c74b 2b3d 40d6 d4bb e3af cb3c
000001c0: b6d3 abbd 3c79 4abd 49d9 77bd b883 863d
000001d0: 448a 47bd 0240 5abb f4e7 b13d fc61 a7bb
000001e0: 235e b1bd ee03 433d 9a69 693d 886e 573d
000001f0: 9fde 48bc 9d96 4ebd c16e eabb 8196 963c
00000200: 6ef3 b7bc e17b af3c a47f a0bb 5b4a 913d
00000210: 9257 933d 39b1 8a3c d5c9 c8bc 2376 5c3d
00000220: baa9 97bd ff44 37bd 8f82 daba 1219 3fbd
00000230: 47b0 d03c e172 22bc 64fc 363d 4ccf 203d
00000240: 3634 3ebd f721 a6bc 8dc7 8abb fba2 94bd
00000250: aced 23bd 6073 983d 869f a53c af86 17ba
00000260: 0c28 153d 62dc 813c db12 133c 286f 923d
00000270: be44 923c bddc 79bd 9932 a3bd 2e35 a5bd
00000280: 64ee 2fbd 4e01 febc da6f d3bc cc8d eebc
00000290: 820f 13bd ee6f 74bc 7725 6a3d 45d5 573d
000002a0: 41f8 02bd 7dc1 06bd 809f f9bb f67e 84bd
000002b0: 49fe a63c 12c2 80bd e324 a4bd 657b 88bd
000002c0: b021 933c c313 db3c 9b77 733d fc51 893d
000002d0: 2e92 863d bf4c 71bc e31a 9c3d fcbc 07bd
000002e0: 81ff 5e3d cac9 943c 026d 7fbd a798 363d
000002f0: 856c a33d 02d6 a2bd dbe1 c73c 0ca9 833d
00000300: 49bf a93d eb82 d2bc 8f04 ab3d 7d2d 813c
00000310: 16db 13bd 4919 94bd 1442 35bd d375 95bd
00000320: afc2 803d c6f3 e03c 3087 8abd dc13 333b
00000330: bd1e 973c 53f7 12bd 86b8 77bd 87bb 643d
00000340: 820f 1cbd 0480 4ebd 04f2 a1bd a2bd 4ebd
00000350: 913d 833d 2b5c a8bc dd19 14bd 3026 aa3d
00000360: a6e2 f4bb 20e9 99bd 6c74 4e3d a1e0 013d
00000370: a579 96bd 83e3 adbd a63b 96bd 52b3 903d
00000380: 9f57 a03d eb28 ccbc 9eba c53a a247 773d
00000390: 06a0 a63d aa8f a73d 2326 0d3d 3cd8 b1bb
000003a0: e5c3 67bd 8d55 29bd 00dc 72bc e994 80bd
000003b0: dcfe 8abc f536 b3bc 9865 0e3d 5a95 34bd
000003c0: eb5e 5ebc 7a04 b6bc cea7 573d df26 78bd
000003d0: 8fd3 a23d 1cdb 6fbd c8a9 9dbd 9469 093c
000003e0: c701 2fbc bdf5 623d 35e8 04bd 5fe4 7b3d
000003f0: f7d6 79bd 5139 fc3c 585e 363d 38af 9ebd
0.04080409 0.015092517 -0.0048906635 -0.032993287 0.04608894 0.032698207 0.02041945 -0.03873145
-0.08160627 0.030047704 0.008666049 0.0055469745 -0.064784385 0.03617884 -0.03624745 -0.08537966
0.03415195 0.07957928 -0.056632206 -0.07629445 0.011051392 -0.039603714 -0.07035546 0.04244759
-0.021005655 0.06866275 0.04430901 -0.05964838 0.005453264 -0.052173715 0.015516469 -0.037272245
0.011740093 0.069801345 -0.013302478 -0.04264065 -0.021927128 -0.010761759 -0.07675479 0.04344219
0.05959241 0.066563375 0.01431783 0.026010517 0.019093769 -0.087800846 -0.063583635 0.05681821
0.041242003 -0.08621184 -0.040301174 -0.014492257 -0.014830357 -0.011933597 -0.03627208 -0.02973352
0.04338722 0.05996363 0.032052234 -0.04625192 0.057944037 -0.0711396 -0.023724768 -0.01249163
0.07675957 -0.02681801 -0.04366144 0.003500974 -0.054708958 -0.054694597 0.0056736916 0.0640055
0.012096912 0.07813264 0.013125196 -0.06672829 -0.04550466 0.03633384 0.06025014 0.08958842
-0.0051596886 -0.054598104 0.059298705 -0.07117367 0.020341188 -0.08628667 0.041017786 0.03941448
0.049092293 -0.023124503 0.06918706 -0.086375855 -0.06578455 -0.012213485 0.07648664 0.031197745
-0.03480098 -0.023384975 -0.07419665 -0.080800176 -0.039147224 -0.063401796 -0.07050484 0.082517035
-0.07535638 0.014050255 0.074861616 0.090588756 0.08469319 0.041820314 -0.006495267 0.024864143
-0.0838999 -0.049432024 -0.060509954 0.06568092 -0.048715845 -0.0033302312 0.0868682 -0.005108116
-0.08660533 0.04761117 0.056985475 0.052595645 -0.012260108 -0.050436605 -0.007154316 0.018382313
-0.022454944 0.021421375 -0.0048980284 0.0709426 0.07194437 0.01693021 -0.024510304 0.0538236
-0.0740542 -0.044743534 -0.001667099 -0.04665477 0.02547468 -0.009915085 0.044674292 0.039260194
-0.04643651 -0.020279868 -0.004235214 -0.072576486 -0.040021583 0.07443881 0.020217668 -0.0005780262
0.036415145 0.015852157 0.008976663 0.071501076 0.017855044 -0.061001528 -0.07968635 -0.08066784
-0.042951956 -0.031006481 -0.02581017 -0.029120348 -0.03590346 -0.014919264 0.057164636 0.052693624
-0.031975035 -0.03289937 -0.007617891 -0.064695284 0.020384924 -0.06287016 -0.08014848 -0.06664161
0.0179604 0.026742822 0.059440237 0.067050904 0.0657085 -0.01472777 0.07622316 -0.033139214
0.054442886 0.018162627 -0.062359817 0.044579174 0.07979683 -0.07950975 0.024399688 0.064287275
0.08288438 -0.025697192 0.08350479 0.01576876 -0.03609761 -0.07231385 -0.04425247 -0.07297864
0.06287133 0.02745999 -0.06764066 0.002732507 0.018447274 -0.035880398 -0.06047871 0.055842903
-0.038100727 -0.050415054 -0.07907489 -0.050473817 0.06408227 -0.020551762 -0.036157478 0.08308065
-0.0074733077 -0.07515168 0.050403997 0.031708363 -0.073474206 -0.0849066 -0.07335596 0.07065453
0.078292124 -0.024921855 0.0015085523 0.06037105 0.08135991 0.081816986 0.034460198 -0.0054273885
-0.056583304 -0.041341353 -0.01482296 -0.06278402 -0.01696723 -0.021876791 0.034764856 -0.044087745
-0.013572435 -0.022218931 0.052650265 -0.060583945 0.07950508 -0.05855857 -0.07698399 0.008386988
-0.010681576 0.055410136 -0.032448012 0.06149709 -0.060996022 0.03078905 0.044523567 -0.07748264

lstm.bias_ih_l0 f4 [512]
00000000: da17 663c d4d8 453c 7e9b adbd 75cb 573c
00000010: 8545 de3c 669b 50bd 8e25 893d 6494 433c
00000020: ae58 eabc 4a2d 30bd 6f59 073d 4391 63bc
00000030: f70d 6e3d f91c b3bc 3944 1dbd b0dd 89bd
00000040: 9508 9dbd adfb 86bd 72a5 e03c efc4 9dbd
00000050: a17b 783d 538c 62bb f141 713d dbc4 95bd
00000060: 48ff 073c a1fe 8bbd eb29 09bd bd58 853d
00000070: cee3 8a3b 0db8 d4bb 1b20 dcbb 4948 8abd
00000080: 3fc7 c2bc bc71 3bbc 7cd1 aebd 7782 d43c
00000090: c06c 753d 4efd dd3c 9b86 b73d cba1 44bc
000000a0: 8963 ae3d 4104 713d 7e7e 02bd 335f a4bd
000000b0: d448 b53c 788d b7bc fd5f 663d bdc4 963d
000000c0: 24e3 6e3d ff1c 97bc a406 253d 3986 113d
000000d0: 1786 233d d345 a43d 46b9 9d3d 4f3a 20bd
000000e0: f073 8dbd 8935 7f3d 57b4 7d3d 3dbe 943c
000000f0: bced da3b 6068 2abd 48eb f6bc bfe2 533d
00000100: d60a 8bbd 532a b3bd 7112 99bd 4571 43bc
00000110: 215a e43b e28b 2ebd b230 1fbd 2296 0abd
00000120: d2c5 ad3d be1a 8abd 2f80 89bd c8b6 8fbd
00000130: 66ea 97bd fb11 3b3d 175e e2bc f274 ecbc
00000140: 43f3 103c 1fb2 f03c 672f 623d ef5d 7f3d
00000150: db72 33bc 9f8a 8e3d c499 823d 61e2 2abd
00000160: d2c2 453d 61aa 95bd edc7 7d3d 126f 4cbc
00000170: 113b 9dbd 1564 4e3d 8a91 993d b2fe 743d
00000180: 2411 58bd 6db1 1ebd ebe9 2c3d 9cfb 983c
00000190: ef18 e2bc 24bc 3abc 5959 0a3d 362e 453d
000001a0: ab26 a0bd 1d70 2fbd d7a0 553d 31db 4fbd
000001b0: a04b 9abc e7e3 4d3c 67e9 9d3d 3ba7 823d
000001c0: 22f7 2abd 0069 733c 9a95 9d3d d803 5abc
000001d0: 5174 803d e69c 11bd d1cd 2dbd a804 c13b
000001e0: 293e 4d3d e782 4e3d 5199 5d3d 8b5c 7cbd
000001f0: 7440 413d 0efc 053d 8ad2 73bc c211 183d
00000200: 35ea 473d 66cc 88bb 2bc4 abbd 20a8 b23d
00000210: b835 01bd ced7 cc3c cddd 0d3d e750 6fbc
00000220: fbfa 133d 128d 873d a0bf 9cbb 1fcf 67bc
00000230: 20ce 6a3d ce9a 8d3d 6b06 72bd 55b3 653d
00000240: 836d 67bd b0e1 4c3d 164d 6f3a f5a8 943d
00000250: 76d1 8b3d 4731 42bd c4d0 cbbc 00e5 513d
00000260: 8d0b 40bd 9509 adbd 7f41 5bbc dea1 8a3d
00000270: 3552 85bd 5b6d 333d 4e41 8abd 1fab cd3c
00000280: a30b 973d ef73 573b 4f24 b4bc 8e54 5abc
00000290: 31c9 b13d 155d 403c 4971 d83c 3bd5 573c
000002a0: 25e1 983d 1c3b ec3b 9e48 003c 4f51 5e3d
000002b0: 5721 6dbc e281 7e3d 23da aa3d 5bf1 1abd
000002c0: bdf1 3fbd 1b6a 8dbd b70f 473c 8ec9 9139
000002d0: c0d9 f3bc b6fb 11bb c709 aa3d 69b9 1f3d
000002e0: e5c5 b6bc 23bd 8cbd 6e94 e9bc 34bb 913d
000002f0: 7ffc 9c3d 6382 b138 136e 47bd 9aab 5d3d
00000300: be4a f33c d239 353d 456a 9838 e73b 4d3d
00000310: 6a01 a1bd 8902 7b3d 134c 2dbd 3063 263d
00000320: 4f22 373c f345 a9bc d00e 5cbd f6bd 33bd
00000330: 13af 353c ed03 8f3d fec5 b03d 311a 97bd
00000340: 9fe6 873d 311e 833c 7ba4 883d 79d2 b1bd
00000350: 9185 0c3d d039 b3bb 933a 33bd 8e67 013c
00000360: 4e2f f5bc 2958 753d 65e3 edbc 781b 64bc
00000370: 7958 27bd cf71 953c e04f 15bd c2f1 713d
00000380: 1eee e5bc 3d05 e8bc 5d20 9abd 2712 2b3c
00000390: 96b0 19bd b26a a0bd 6096 333d 073b 90bd
000003a0: 949d 2abd aaf0 803c e487 2abd 8daf 9abd
000003b0: d42c 8ebd 9378 6cbc afa8 6e3d 327b ab3d
000003c0: cd17 89bd 5d42 db3c bb98 2c3d 7e76 4c3d
000003d0: b572 41bd 99e6 9e3d 5636 41bd 84ac 6fbd
000003e0: 5966 cf3b d33c d13c 24c8 99bd a606 93bd
000003f0: 86c5 37bd 29ff 353d 4bfd 8abd d02b 72bd
0.014043773 0.012075622 -0.084769234 0.0131710665 0.027132759 -0.05092945 0.06696616 0.011937235
-0.028606739 -0.04301194 0.033044275 -0.013889614 0.058118787 -0.021864401 -0.03839514 -0.06731737
-0.076676525 -0.06590972 0.02742264 -0.07703578 0.060664777 -0.0034568503 0.058900777 -0.07312938
0.00830061 -0.06835676 -0.03348724 0.06511066 0.004238582 -0.006491667 -0.0067176945 -0.067520685
-0.023776649 -0.011440691 -0.0853605 0.025941117 0.059918165 0.027098324 0.08961221 -0.012001465
0.085150786 0.058841947 -0.031858914 -0.0802597 0.022129454 -0.022406325 0.056243885 0.073617436
0.058322087 -0.018446444 0.040289536 0.035528395 0.0399228 0.080211304 0.07701354 -0.039118107
-0.06906879 0.062306914 0.061939564 0.018157119 0.006681172 -0.041603446 -0.030141488 0.051729914
-0.06789176 -0.08748307 -0.074742205 -0.011928861 0.006968752 -0.04261387 -0.0388648 -0.033834584
0.08484997 -0.06743382 -0.06713902 -0.07017285 -0.07417755 0.045671444 -0.027632756 -0.028864358
0.008847061 0.02938181 0.055220988 0.06234544 -0.010952677 0.069600336 0.06376985 -0.041719798
0.0482815 -0.07307888 0.061958242 -0.012477653 -0.07677282 0.050388414 0.074984625 0.05981321
-0.05275072 -0.038743425 0.04221527 0.018674664 -0.02759978 -0.011397395 0.033776615 0.048139773
-0.07819875 -0.04283153 0.052155342 -0.050746147 -0.018834889 0.012566543 0.077105336 0.06379553
-0.04173959 0.014856577 0.0769455 -0.0133065805 0.062721856 -0.03555002 -0.04243261 0.0058904476
0.05010811 0.050417807 0.054101292 -0.061611693 0.047180608 0.03271108 -0.014881739 0.03712631
0.04880734 -0.004174757 -0.083870254 0.087234735 -0.03154537 0.025005247 0.034635354 -0.014606691
0.036128026 0.06618704 -0.0047835857 -0.014148503 0.057325482 0.06914292 -0.059088152 0.056079227
-0.056500923 0.05001992 0.0009128613 0.072587885 0.06827061 -0.047410276 -0.02487982 0.051243782
-0.046886016 -0.08449093 -0.013382315 0.06769155 -0.0650982 0.04380546 -0.06750737 0.025106011
0.073752664 0.0032875498 -0.02198997 -0.0133258235 0.08680952 0.0117409425 0.026421206 0.013173397
0.07464818 0.007209195 0.007829813 0.05427676 -0.014473281 0.062135585 0.083423875 -0.03782783
-0.0468614 -0.06905004 0.012149743 0.00027806725 -0.029766917 -0.0022275276 0.08302646 0.03899518
-0.02231116 -0.068720125 -0.02851316 0.07115784 0.07665347 8.464304e-05 -0.04868896 0.05411873
0.029698726 0.044244595 7.267719e-05 0.050105955 -0.07861598 0.061281715 -0.04230888 0.040621936
0.011177613 -0.020663237 -0.053725064 -0.043882333 0.011089104 0.06983171 0.08631514 -0.073780425
0.06635784 0.016005607 0.06671997 -0.086827226 0.034307066 -0.0054695383 -0.043757033 0.0078982245
-0.029929783 0.05989853 -0.029039094 -0.013922565 -0.04085586 0.018242745 -0.036453128 0.05906845
-0.028067645 -0.02832281 -0.07525704 0.01044134 -0.03752192 -0.078328505 0.04384458 -0.070425086
-0.041654184 0.015739758 -0.0416335 -0.07553015 -0.06942144 -0.014433044 0.058266338 0.08373107
-0.06693993 0.026765043 0.042137843 0.04991769 -0.047228534 0.07758827 -0.04717096 -0.058514133
0.0063293395 0.025541699 -0.07508877 -0.071790025 -0.044866107 0.044432793 -0.06786593 -0.059123814

lstm.bias_hh_l0 f4 [512]
00000000: 2664 00bc 9c38 88bd 9cd6 773d eef0 b93c
00000010: b510 393d 455c b5bd f362 513d 04f5 19bc
00000020: 741e 883d 4ceb bf3c 1b2d 0c3d f065 093d
00000030: 65e1 983c bf4c 043d 0cb3 f5bc 08cb a2bd
00000040: 2b7f 163d b464 4b3d 291e b1bd d72e 433d
00000050: 6821 b1bd 759a ccbc 99d5 513d ca88 4f3c
00000060: 0763 743d a6c9 af3b b6d0 e4bc 0f42 7a3d
00000070: ee9d 76bd 4322 e43c 7911 ae3d ca7b 653b
00000080: 5ef6 95bd 2f42 9d3d 1808 30bb c197 91bd
00000090: 3cdb 133d c528 b93d 81b4 a53d 4bc9 8dbd
000000a0: 16bb a9bd 0c26 69bc 810e 3d3d f561 2b3d
000000b0: f4b9 aabd 80e2 a7bd c136 473c fa28 a5bd
000000c0: 2009 633d 8967 963d 5044 bdbc 491f b4bc
000000d0: 038c 113d 6bae b03d 69e5 cabc f0a0 943d
000000e0: ebd1 94bd b550 173d 4412 83bd 2af8 25bc
000000f0: 24e2 5fbb 1385 a6bd afdc 813a 949c a33c
00000100: 02d6 8abd 16f7 5dbd da34 953d 08d2 e33c
00000110: 7de6 ae3d 4bc0 a8bc 2811 803d 8efb 5a3d
00000120: b4b2 a2bd 96f5 0c3b 8566 37bc c765 543b
00000130: e20d 363d 6de0 173c 451e ed3c 382f a1bd
00000140: 6b3a 443c 96fa 1a3d c420 0dbd 0a1f c3bc
00000150: 900e 42bd ca8c 713d 8c85 9d3d 9be2 953d
00000160: ee33 583d a16e f13a 3086 773b ab8c 8bbd
00000170: b3d9 a6bd 702a 40bd b253 a93d 0d0b 91bb
00000180: d1cd 3b3d a95a 1cbd 7c9c 1ebd b07d 82bc
00000190: 88dd 563d 00dc a3bd 5602 933b a41b 893d
000001a0: 58b6 403d 6630 8fbb 6cef 7f3c 75b8 af3d
000001b0: e7f4 05bd 47dc 7a3d 6bd8 e23c f9ab f73c
000001c0: 3b14 833d 4410 b33d dde0 58bc 9659 633d
000001d0: 5c7b 453d e169 853d 2e42 08bc bada 67bd
000001e0: 18a6 33bd 8c25 643c 71c5 733d bb3c 14bd
000001f0: 06f8 233d 456e 983c 2f86 d2bc 2f05 993d
00000200: bdf6 3dbd de98 12bd 914b 94bd 611d 91bd
00000210: 914b b03c a426 353b acc1 9f3d cf92 a1bc
00000220: 22b9 7ebd 4b73 7d3d 741a 883d e665 983d
00000230: 2029 a4bd 1d86 bfbb 9f3a 39bd c177 173d
00000240: df2c 323d 0389 8abd 6493 25bd 5355 a2bb
00000250: ea02 503d c0fa b33b 81b4 adbd f025 333d
00000260: d7c6 a4bd 31a7 453c 313e 5b3c 8ab4 b5bd
00000270: 8bfb 7ebc 8ec3 bebc bd23 313c 822f 9fbd
00000280: b9a1 453d 908b ce3c 8602 ae3d c1bb 75bd
00000290: af8a 09bd 2061 ab3d ef78 81bd 43b7 93bd
000002a0: 53b2 433c 823b 493d 6959 77bd e619 8d3d
000002b0: 7e0f e7bb 1641 4f3d 8550 5b3d 7080 8fbc
000002c0: 796d 70bd 3fff 5fb9 fdae ba3d 58ec 1dbd
000002d0: 04f4 9a3d e0eb 873d c71d 9a3d 539b 183c
000002e0: fc86 043d 96a4 623d 34bc 9cbd 35cb a2bd
000002f0: 958f d9bc 5758 47bc fcb7 0d3d f904 2bbd
00000300: c676 ec3c 0ec4 243d b872 32bc 6835 53bd
00000310: a078 9cbd 3d6b 303d 8f41 92bd dc3e 1c3d
00000320: 29a2 42bc 554a b03d a1bd c43c cc10 b53c
00000330: 5a8f a83d fdc1 eabb 430f 683d 209c ab3d
00000340: b74f 5b3c 76f4 8d3d 688a 8e3c 9a0b b8bc
00000350: 77df c43c 48e6 c43c 21ce c03c 14a6 a2bd
00000360: c021 8bbd e807 aabc a8fe d2bc d70a 3f3d
00000370: 8c8a 753b f25e 7dbd dd95 aaba 10cb 183d
00000380: 79c8 14bd d980 fdbc 4dc3 17bd d2f8 683d
00000390: fc6d 5a3d b144 96bd 85d2 b43c cc49 b73d
000003a0: 3257 0c3c 12c3 b23d a37e 0abd 8dc6 1c3d
000003b0: f958 823d ee2f 88bd 51f5 5abd 246d a3bc
000003c0: 7002 bb3d a904 c53c de02 52bc 0b7d b23d
000003d0: 5574 8b3d e89d 603d 1eaa 88bd f9cd 463c
000003e0: 5512 cfbc 6dc9 863d d1ab 9e3d a88e 033d
000003f0: eb2c ad3c 4a30 433c 289a 75bc 8a3d 9bbd
-0.007836377 -0.066514224 0.0605074 0.022697892 0.04518195 -0.0885549 0.051119756 -0.009396795
0.066464335 0.023427628 0.034222703 0.03354448 0.018662164 0.032299753 -0.029992603 -0.079488814
0.03674237 0.049656585 -0.08648331 0.04765209 -0.0864895 -0.024975995 0.051229093 0.01266689
0.059664752 0.0053646145 -0.027931552 0.061098155 -0.060209207 0.027848369 0.084994264 0.003501641
-0.073223814 0.07678639 -0.0026860293 -0.07109023 0.03609775 0.09040979 0.08091069 -0.06923159
-0.08287637 -0.0142302625 0.04615641 0.041841466 -0.08336249 -0.08197498 0.01215905 -0.08064456
0.055428624 0.073439665 -0.023103863 -0.021987574 0.035533916 0.086270176 -0.024767594 0.07257259
-0.07266601 0.036942203 -0.06399968 -0.010129968 -0.003416189 -0.08130851 0.0009907688 0.019972123
-0.067791 -0.054190718 0.07285471 0.027810112 0.08540056 -0.020599505 0.06253272 0.053462557
-0.07944241 0.0021508685 -0.011193876 0.0032409297 0.044446833 0.009269816 0.028945098 -0.078703344
0.011976819 0.037836634 -0.034455076 -0.023818512 -0.04737717 0.058972158 0.07691488 0.07318612
0.0527839 0.0018419811 0.003776919 -0.0681394 -0.081469916 -0.04691547 0.08267917 -0.004426366
0.04585058 -0.038172398 -0.038723454 -0.015929073 0.052457362 -0.08000946 0.0044863624 0.06694725
0.047048897 -0.004369783 0.0156210475 0.08580104 -0.03270426 0.06124523 0.027691087 0.03023337
0.06400343 0.08743337 -0.013237205 0.055505358 0.048213348 0.065143354 -0.00831656 -0.05660508
-0.04385957 0.0139249675 0.059514467 -0.03619073 0.040031455 0.018607268 -0.02569875 0.07471692
-0.046377886 -0.035790317 -0.07240976 -0.07085682 0.021520408 0.002764144 0.07800612 -0.019723324
-0.062188275 0.06187753 0.066456705 0.074413106 -0.080156565 -0.005844845 -0.04522192 0.03697944
0.043499824 -0.06764414 -0.040423766 -0.004954019 0.05078403 0.005492538 -0.08481694 0.043737352
-0.08045738 0.012063787 0.013381527 -0.08872326 -0.015562902 -0.023286607 0.010811743 -0.07772733
0.048249934 0.025213033 0.08496575 -0.05999351 -0.033579525 0.083681345 -0.063218944 -0.07212689
0.011944371 0.049129017 -0.060388003 0.06889705 -0.0070514074 0.05059918 0.053543586 -0.017517298
-0.05869815 -0.00021362024 0.091154076 -0.038555473 0.075660735 0.066367865 0.07525211 0.009314376
0.032355294 0.055332743 -0.076530844 -0.07948915 -0.026557723 -0.012167058 0.03459929 -0.04175279
0.02886523 0.040226035 -0.010891609 -0.051564604 -0.07640195 0.04307102 -0.071414106 0.038145885
-0.011879482 0.08607928 0.024016203 0.022102736 0.08230467 -0.0071642385 0.05665518 0.08379388
0.013385705 0.06931393 0.017399982 -0.02246647 0.024032338 0.024035588 0.02353579 -0.07941833
-0.06793547 -0.020755723 -0.025756195 0.046641197 0.0037466614 -0.061858125 -0.0013014633 0.03730303
-0.036323998 -0.030945228 -0.037051488 0.05687792 0.053327546 -0.073373206 0.02207304 0.089496225
0.008565711 0.08728613 -0.033812176 0.03827529 0.063646264 -0.06649767 -0.05345661 -0.019949503
0.09131324 0.024050074 -0.012818066 0.08715256 0.06809298 0.05483809 -0.06673072 0.012134069
-0.025277296 0.06581388 0.07747615 0.03211847 0.021139583 0.0119133685 -0.014990367 -0.07580097

lstm.weight_ih_l1 f4 [512, 128]
00000000: 5ff1 6b3c 0b46 0d3d 92a1 9a3d 2563 023d
00000010: 660e bfbb e5b3 03bd 85fe 2f3d 5191 abbc
00000020: c141 843d bc7a 003d b30e f63c aeef 433b
00000030: bf02 be3c 1012 51bd 6f05 913d 4284 9d3c
00000040: dce0 d6bc a5d7 8a3d 140e 10bd 1f0a 8a3d
00000050: 73c1 4f3d 3d54 febc d25e 5cbd 9766 a9bc
00000060: e7a0 7cbd 37ab 80bd 075c c9bc 58d4 6c3d
00000070: 899f b7bd 351e a8bd ba17 8cbd 1d54 82bd
00000080: ad81 8e3d 4bbd 87bd 8d06 c03c 4f26 943d
00000090: 147f 8d3d 3f5d a43d 7604 b83c 6d8f 913d
000000a0: e025 4e3c 0754 3dbc cbfe 103d cf5e 97bd
000000b0: bcd3 0dbd 7f8a a13d 58ca 8c3c ce30 613d
000000c0: c4ee 3fbd 0b61 7c3d a6d7 213d eeae 3bbc
000000d0: 65f9 7d3c 20b4 c73b 8c85 863d 25c9 693d
000000e0: 29bd 8e3c 0809 05bd 3c31 1a3d c3cf 5bbd
000000f0: 8f63 223d de14 35bc c977 a7bd 13dd 903c
00000100: 721c 16bd 87ed 693d 3a49 11bd 55f7 88bd
00000110: 6203 59bd 6e56 a4bc 40f4 0fbc 9479 ff3b
00000120: 2e55 6a3c 48c5 67bc 0c98 4abc 4bb8 3b3d
00000130: 4e57 6cbd ed19 6bbd 53fe 4fbd fac1 93bd
00000140: 7e73 bebc 3ea0 cfba 89d0 14bd 6056 5f3d
00000150: d569 453d 6bc8 48bd 08d9 44bb 46da 983d
00000160: c1ce f6ba 7de2 643c 466c 9c3d 07a4 fcbc
00000170: ce98 00bd 4f3a b3bd 7254 2e39 56cb 853d
00000180: 4ac4 a0bd 2691 973d 8bca 2e3c b9f4 593d
00000190: 2558 99bd e391 0dbd 4095 a43d fa03 5bbd
000001a0: 220c b4bd cd9b bfbc 21a8 40bd 5b31 a6bd
000001b0: ace6 54bd caa3 97bd ff62 983d bdb9 173d
000001c0: 3874 68bd 0885 abbc b566 8d3c 21d3 23bd
000001d0: cc81 803d 56a9 383d 09ca 23bd 1b5a a63d
000001e0: dbbe 0e3d c2ac 863d 1735 02bb b6c4 1f3c
000001f0: a305 063d e76b 223d 35e9 233d 0bd4 31bd
00000200: e896 05bd 1be4 e53a 8420 7dbd afbf 963d
00000210: 096b e2bb 8f97 743d 6da9 8ebd 5e92 61bc
00000220: 0f41 d63c aff4 7a3d 3a6d 273d e898 45bc
00000230: 29c2 b2bd cfec d83c 1154 04bd 5033 00bd
00000240: c401 99bc 9fa9 aebb 7583 083d 3902 8b3d
00000250: 3fc5 723d 3a46 5abd 76e6 2d3d 8e33 1abd
00000260: a7be ad3b 9144 8b3d 762a e8bb 086b 623d
00000270: bd08 24bd cb36 9a3d 25ed 563d 4170 97bd
00000280: be55 86bd ad44 763d 0d36 1f3a 742b 3ebc
00000290: 6e3b b4bc b2f6 b73d 5bf2 e43c 32f9 a73d
000002a0: 9943 8fbd d7cf 833a cfd1 12bd f782 8fbd
000002b0: 1479 32bc ce27 5a3d c6c4 573d d636 80bd
000002c0: 4f6f 583b 00ec 803d 4c22 b23d 573a cd3c
000002d0: 0907 493d 8f62 babb ea61 2bbd f3f0 bbbc
000002e0: f968 493d 788d fa3c 8b7b e3bb 9963 a23d
000002f0: b4bf 54bd 392d d4bc dff4 8b3c b294 d53c
00000300: 0135 2dbc e009 4ebb 49a2 31bd e11a 453c
00000310: 1a53 2dbd edcf 283d b6a1 493d 5251 963b
00000320: 2629 093d 3cdb 10bc b5c4 4e3d d30b 493d
00000330: 5eec 81bd 4d60 95bd 0182 0ebd 7d6c acbd
00000340: d750 173d cf82 cf3c 2d3b 0b3d 3418 57bd
00000350: 67d9 3c3c 1ac9 37bd b764 b03d 79b4 88bc
00000360: 8834 813c 8fbe 493c ed4a 873b d1fe 953c
00000370: 3f42 3dbd ddb7 99bd 2733 8d3d 7f09 93bd
00000380: ad18 8e3d 9f79 a7bd ef23 01bd c2d0 8abd
00000390: 4804 8b3c 3469 053c 5010 64bd b241 673c
000003a0: fe2a 8dbd eeab fc3c faa3 96bc 49a3 de3c
000003b0: 09ab a23d 78c1 ad3d 9463 38bd 02f4 56bd
000003c0: 3d26 aebd f26c 093d ca76 95bd 2e0d a2bd
000003d0: 1add 813b a52b a03d a253 833d 3127 9b3d
000003e0: d030 693d ec9c 973d 86c4 0d3d 7b3a d6bc
000003f0: 49d4 49bc 5724 c03b 8a82 533d 7fe1 85bd
0.014400809 0.034490626 0.07550348 0.031832833 -0.005830574 -0.032153983 0.042967338 -0.020943316
0.06457854 0.03136705 0.030036306 0.00298975 0.023194669 -0.051042616 0.070811145 0.019228105
-0.026230268 0.06779412 -0.035169676 0.06740212 0.050721597 -0.031046027 -0.053801365 -0.020678801
-0.061676886 -0.06282657 -0.024580015 0.057819694 -0.08965976 -0.082088865 -0.06840463 -0.063636996
0.069583274 -0.06627902 0.023440624 0.07233869 0.06909004 0.08025598 0.022463065 0.071074344
0.012582272 -0.011555678 0.03539924 -0.0739113 -0.034625754 0.07887744 0.017186329 0.054978184
-0.046858564 0.061615985 0.0395123 -0.011455281 0.015501355 0.0060944706 0.06568441 0.057076592
0.017424183 -0.032479316 0.03764461 -0.053664934 0.039645728 -0.011052338 -0.08177144 0.017683541
-0.03664822 0.05711129 -0.035470225 -0.066878 -0.05298174 -0.020060744 -0.008786261 0.0077964757
0.014302535 -0.014146157 -0.012365352 0.045830052 -0.057700448 -0.05739777 -0.05077965 -0.072147325
-0.02324843 -0.0015840603 -0.036331687 0.054525733 0.048196632 -0.04901926 -0.0030036587 0.07463507
-0.0018829928 0.013970015 0.07637839 -0.030839933 -0.031395726 -0.08751356 0.00016625391 0.06532924
-0.07849939 0.07400732 0.010668407 0.0532119 -0.07487515 -0.034562957 0.0803628 -0.05347059
-0.08791377 -0.023389721 -0.04703534 -0.081148826 -0.0519778 -0.07404287 0.07440757 0.03704237
-0.05675146 -0.020937458 0.017260889 -0.03999627 0.06274757 0.045083366 -0.039987598 0.08122655
0.034849983 0.0657592 -0.001986807 0.009751489 0.03272022 0.039653685 0.040017325 -0.04341511
-0.03261462 0.0017539294 -0.061798587 0.073607795 -0.0069097322 0.05971485 -0.06965909 -0.013767807
0.02615407 0.061268505 0.04087565 -0.0120603815 -0.08728439 0.026480107 -0.032306734 -0.031298935
-0.0186776 -0.005330279 0.033328492 0.06787533 0.05927014 -0.05328963 0.042456113 -0.037646823
0.0053022685 0.068001874 -0.00708514 0.055277854 -0.040047396 0.07529982 0.052472252 -0.073944576
-0.06559323 0.060124088 0.0006073423 -0.01160704 -0.022000995 0.089826 0.027947595 0.08201827
-0.06995315 0.0010056448 -0.03584462 -0.070074014 -0.010893125 0.053260617 0.052677892 -0.06260459
0.003302533 0.062950134 0.08697948 0.025052233 0.049078975 -0.0056880186 -0.041841425 -0.022942042
0.049172375 0.030585036 -0.0069422177 0.07929153 -0.051940635 -0.02590047 0.017084537 0.02607188
-0.010571719 -0.0031438991 -0.043367658 0.012030334 -0.04231558 0.04121392 0.049226485 0.004587331
0.033486508 -0.008841332 0.050480563 0.049083542 -0.063439116 -0.072937585 -0.03479195 -0.0841913
0.03694233 0.02533093 0.03399198 -0.052513316 0.011526442 -0.04486952 0.0861296 -0.016687619
0.01577212 0.012313499 0.004128805 0.018309982 -0.046205755 -0.07505772 0.06894522 -0.071795456
0.069383 -0.08177494 -0.03152841 -0.06778099 0.016969815 0.008142758 -0.05567962 0.014114784
-0.06892966 0.030843701 -0.018388737 0.02717747 0.079427786 0.08484167 -0.04501684 -0.052478798
-0.08503387 0.033551164 -0.07298048 -0.0791267 0.003963125 0.078208245 0.06412436 0.075758345
0.056931317 0.07402977 0.034611247 -0.026150933 -0.012318679 0.005863707 0.051638164 -0.065371506

lstm.weight_hh_l1 f4 [512, 128]
00000000: 9cb1 1cbd b8e3 27bd 1ccd aabd 1a4c 193c
00000010: a333 fdbc 430d b0bd 827a c73c 8d7a 643d
00000020: 3ab2 45bd faa3 9e3d 2264 b2bd b553 c23c
00000030: 4fa2 91bc 9caf eabc 9a7e 38bd 705a a33d
00000040: d866 803a 6f2e bbba c356 7fbc 5731 11bd
00000050: 109f 56bb 57b0 fa3c 4132 913b f16b 91bd
00000060: 2dd3 4ebd 98fa 8abd 3f7c ac3d bfe1 cd3b
00000070: 30f8 763c 2c11 f43c 903b 28bd 988a a5bd
00000080: 2549 80bc 72bb 90bd faa2 883d d4a6 ab3d
00000090: cd9f a53d f120 abbd f1a4 8d3c a89f 7abc
000000a0: f7b9 9bbc 232c 823d 10b3 afbd d56a 87bc
000000b0: d4ef e93c 3915 a9bd 53c3 acbd af01 ad3d
000000c0: 8cc0 5c3d 56f0 72bc 57d2 8fbd 8847 98bd
000000d0: 23c5 93bd 2bf3 233c 7169 48bd 44f3 763d
000000e0: 4e37 a4bc 03af c1bb 25e3 f9bc 00b5 ab3d
000000f0: dfa3 da3c d1dd 53bc b1cd 8abd 6715 8e3c
00000100: f056 963c 835e ee3c e22e adbc 7668 95bd
00000110: 8bb6 8cbd 9719 05bd fe59 163d b43a 973d
00000120: b188 d0bc 9961 233d 1615 06bc 31e9 37bd
00000130: 2266 a1bd da51 4f3d bd36 18bd 9c55 8d3d
00000140: 0b46 61bd d39f 9a3d 3794 84bd 1882 0fbd
00000150: bf9c b03c ea5e 963d 4427 fd3c 9a0f d7bc
00000160: a2a4 1dbd 5c84 9cbd 3250 aabd dd74 4b3d
00000170: cf8a 0b3c b8cb 553d d391 22bd 5461 603d
00000180: e93f bfbc d986 94bc ef73 65bd 7790 a1bd
00000190: e1f4 dabc 95e3 75bd ce34 a9bd 0e29 a6bd
000001a0: c894 97bd 67af c33b 9e5c fbbc c74e aebd
000001b0: 2b56 3e3d 368e 5abd 098c 5e3d 74b1 ab3d
000001c0: 8721 743c 9c97 94bd f309 64bd 7486 283c
000001d0: 568e 853c aa88 6c3d 0e2e 5b3c 09ed 0abd
000001e0: c5d4 5ebd 5cd1 983d 6e21 953d d521 66bc
000001f0: 5854 ecbc 1f6e a4bd 2bce 983d 2203 b03d
00000200: ca94 8abd c035 663d 7912 313c eb71 feba
00000210: fef2 913d eeeb b3bb 6a79 07bd 27bd 89bc
00000220: 6be7 b8bc 7e4d d7bc 010b b0bd a511 34bd
00000230: bfd9 95bd 0870 afbd f2a4 8d3d 07c1 3c3b
00000240: 0b95 95bd d5fe 22bd bdf6 563c 27b5 0a3c
00000250: 4919 c13a 5064 3cbb 82dc 76bd 4ce9 623d
00000260: 4351 38bb 1c22 85bc c157 1a3d 5ce4 bb3c
00000270: e5ae 193d a87d 413d 7cfd 9dbc d37a a6bd
00000280: b570 193c d155 cc39 d769 c23c d21b 4cbd
00000290: 981d 5ebb 65b9 773b bb01 70bd 29f5 463d
000002a0: 8b22 ac3d a18e c8bc 24f8 4d3d 3da5 ebbc
000002b0: 964c 5e3d ea4d 38ba 1194 b1bc dad0 a3bc
000002c0: 4141 c2bc f82d 22bd 98aa 39bb fb97 8ebc
000002d0: 31f1 e6bc d64c b23c bad2 79bd 05ba c0bb
000002e0: 8ab3 a3bd 70d0 443d b470 cb3a 2740 723d
000002f0: 6d08 aa3d f88f 54bd 8b25 9d3c 85a1 79bc
00000300: 739e 533d 1482 a7bb a16e 84bd ca39 363d
00000310: bae7 64bd 0fa2 80bd 0521 a3bd c472 023d
00000320: 6a29 8abd a328 e83c f5bd d03c bcc6 123d
00000330: b825 2cbd 7df6 71bc fe4e 16bd fc07 95bd
00000340: efc5 aabd faaf 6c3d b15f 433d 06d4 97bd
00000350: d378 953c b0cf 46bd 45d3 b0bd b2dd 803d
00000360: 20a1 cf3c cf71 fcbb 25ac ccbc 6ef2 8dbd
00000370: 6f9b b3bb 3776 023d b35f a53d c7ff 83bc
00000380: 22d4 05bc a283 963d b726 dfbb bc8e 9cbb
00000390: 3c9f 6abd bff6 5f3d b052 763c a470 afbd
000003a0: 267c b7bc cb90 973d 7017 9a3d 97c4 3d3d
000003b0: 5d8f 513b 9d3e 8abd 5e46 653d 380e 7c3d
000003c0: 94f8 b03d 0d98 d3bb e367 3f3d e2f8 bdbb
000003d0: 169e 0cbd 0062 893d f71f 56bd 2f23 803d
000003e0: 410e 2c3c bb24 4fbd 0753 0d39 6318 a8bd
000003f0: 27d7 a9bc 1129 b2bd c71f 99bb 98e3 de3c
-0.03825532 -0.040988654 -0.08339903 0.009356523 -0.030908411 -0.085962795 0.024350408 0.055780936
-0.048265673 0.0774612 -0.08710505 0.023721555 -0.01777759 -0.02864819 -0.04504261 0.07976234
0.0009796275 -0.0014280806 -0.01558465 -0.035447445 -0.0032748617 0.030601664 0.0044310396 -0.07100666
-0.05049436 -0.06786078 0.084221356 0.0062830145 0.015073821 0.029793344 -0.04107243 -0.08083075
-0.015659878 -0.07067002 0.0667171 0.08381429 0.0808712 -0.083558924 0.017290564 -0.015296854
-0.019009573 0.06356075 -0.08579075 -0.016530434 0.028556742 -0.08256001 -0.08435693 0.08447587
0.053894565 -0.014827808 -0.07022541 -0.074355185 -0.07215335 0.010006706 -0.04892868 0.06029059
-0.020045903 -0.0059107556 -0.030503819 0.083841324 0.026689468 -0.012931303 -0.06777514 0.01734419
0.018352002 0.029097801 -0.02114052 -0.07295315 -0.06870755 -0.032495108 0.036706917 0.073842436
-0.025455805 0.039888 -0.008183738 -0.044900123 -0.078808084 0.05061517 -0.037161577 0.06901094
-0.05499844 0.07550015 -0.06473582 -0.035036176 0.021559117 0.07342322 0.030902512 -0.026252557
-0.038487084 -0.07642433 -0.08316077 0.049671996 0.008516981 0.052196234 -0.03968985 0.05478032
-0.023345904 -0.018130707 -0.056018766 -0.078888826 -0.026728095 -0.060031492 -0.08262025 -0.08113299
-0.07401425 0.0059718373 -0.030683812 -0.08511119 0.046468895 -0.05335828 0.054332767 0.08383456
0.014900572 -0.0725548 -0.05567355 0.010285962 0.016303223 0.05774752 0.0133776795 -0.03391746
-0.05440213 0.07461807 0.07281767 -0.014046152 -0.028848812 -0.080288164 0.074611984 0.085943475
-0.067666605 0.056203604 0.010807627 -0.0019412612 0.07126425 -0.0054907715 -0.033074774 -0.016813828
-0.022571286 -0.026282068 -0.08595849 -0.04396214 -0.073169224 -0.0856629 0.069162264 0.0028801577
-0.07303818 -0.039793808 0.01312035 0.008466042 0.0014732267 -0.0028746314 -0.060268886 0.05539827
-0.0028124608 -0.016251616 0.037681345 0.022936039 0.037520308 0.047238976 -0.01928591 -0.081288956
0.00936525 0.0003897385 0.023732109 -0.04983122 -0.003389215 0.0037799713 -0.0585954 0.048573647
0.08405026 -0.024482073 0.050285473 -0.028765315 0.054272257 -0.0007030653 -0.021677049 -0.01999705
-0.023712756 -0.03959462 -0.0028330442 -0.017406454 -0.02819118 0.021765154 -0.06099198 -0.0058815503
-0.07993229 0.048050344 0.0015521259 0.05914321 0.08302388 -0.05189511 0.019182941 -0.015236263
0.05166478 -0.005111942 -0.06466413 0.044488706 -0.055885054 -0.0628091 -0.07965282 0.03184773
-0.0674618 0.02833969 0.025481204 0.03583406 -0.04202816 -0.01476824 -0.036696427 -0.072769135
-0.08338534 0.05778501 0.04769868 -0.07413487 0.01824609 -0.04853791 -0.086340465 0.06292285
0.025345385 -0.0077039967 -0.024984429 -0.069310054 -0.0054811756 0.03185102 0.08074894 -0.016113175
-0.008168252 0.07349326 -0.006810035 -0.0047777575 -0.057280764 0.054678675 0.015034363 -0.08566406
-0.022398066 0.07400664 0.075240016 0.04633006 0.003197632 -0.06750224 0.05597531 0.061536998
0.086411625 -0.006457335 0.046729933 -0.0057974914 -0.03433045 0.06708145 -0.052276578 0.06256711
0.010501445 -0.05057214 0.00013477738 -0.082077764 -0.020732475 -0.08699239 -0.0046729776 0.027208135

lstm.bias_ih_l1 f4 [512]
00000000: d7fd 3bbd 5c96 acbd 91d7 133d d54b 563d
00000010: d5ea abbc 02f9 023d c62a ba3d 5eb4 8abc
00000020: 3024 02bc 292c a13d a602 9cbd adbc 0ebd
00000030: 0f48 ae3d 3a6c 9f3d 676f 7b3c 0280 76bb
00000040: 72de 1cbd 176c 9bbd d5c5 c2bc 1d43 843d
00000050: 781f 8b3b 97f1 6c3d 29b0 d8ba f2fe a93d
00000060: 0d65 acbd 84c9 8ebd 5bec dfbb ce70 67bd
00000070: 7434 07bd e4a4 ac3d ffc6 903d 3a38 48bd
00000080: 83a0 06bd 00e0 e6bb 8ea5 e3bc 333d 603d
00000090: d889 d3bc 9bcf 65bd 3c10 473b 2c51 fa3c
000000a0: 1b5b 73bc 37e4 3c3d a278 18bd e466 2f3d
000000b0: e792 6b3c 489d 9abc d2c2 d73b 040e a0bd
000000c0: 146b 893d f6d5 a3bd 1bbe b0bd cca5 5a3c
000000d0: 518f 95bd 8434 62bd 2390 4ebd 7100 ddb9
000000e0: 163a a13d 5c45 3ebd 0f1d 8d3d 1691 f8bc
000000f0: dc52 a4bc dd03 163c 6c48 23ba 0b15 56bd
00000100: e52e 1b3d 8ead ce3c 208e 1d3d 3f3a 743b
00000110: 8ca5 a8bd 80b5 233d 4f4d 423c 18c1 d3bc
00000120: fa4c 5bbd b12b c23c 62db f2bb d907 143d
00000130: c8f2 5bbd 8c75 b1bd 84b3 8d3d e004 ba3c
00000140: a636 6abd 0a80 ed3c 0170 3b3d e4ec 123d
00000150: 6cb4 8bbc de1f 02bb 0f56 983c f1c8 333d
00000160: 12a4 67bd bdfc 8e3c 0c03 15bc a5e9 e33a
00000170: 137d 2f3d dcc8 3e3d 2e1e 803d 8a57 37bd
00000180: 35f9 923d 9905 37bd 4210 96bd e9cf adbc
00000190: bc2e 0d3d 57fb 9abc dd4a 833c 4ebf 50bd
000001a0: b316 913c c687 85bc 4035 593d 6340 303d
000001b0: 8007 ad3c ddf2 883d ddea 2bbb 180b 87bd
000001c0: 741a 753d 472c 203d 2482 bf3c 88de 82bd
000001d0: d3ae 903d 9488 22bd 98a7 a1bb 943a 803d
000001e0: 90b7 4fbd fedf cebc 9de1 0ebd 114c 49bb
000001f0: 2636 99bc 1821 8e3d 4f2b 0e3d 95da ba3b
00000200: a661 a23d b8cd efbc 6b0f 05bd a233 473c
00000210: c9c6 75bc a872 b43d 9218 1cbd 1ee2 4b3c
00000220: 8c9f b03c 8ef9 b83c 202d 69bc c0f8 b6bd
00000230: 05d7 a63d e416 08bd 403e 01bc 1967 83bd
00000240: 9c46 323d 0338 423d 817a 9e3d 0f78 773c
00000250: 930e 6a3d fca1 8dbc 1c5c 2c3a cf14 b8bd
00000260: 8639 a53d c90f 4abd fbeb 6fbd 7f19 aebd
00000270: e87b b63d e5c4 38bd e20c 823c 1218 b2bd
00000280: ce6f 02bd 0402 97bd bd12 9d3c bf4b ecbc
00000290: 9e05 f43c 5bda 92bc 2362 473d 09ac 34bd
000002a0: abca ac3c 3647 c33c b0ff 813d d2a9 a7bd
000002b0: b451 a83d 5cb6 ddbc 1f92 9bbd aef2 4dbd
000002c0: 24b8 713d 45c3 213c a7a1 a5bd c488 a9bd
000002d0: a1a8 a7bd 8ab5 8bbd c99b 453d 53bc 363c
000002e0: 18f4 733d cb0d 84bd cb67 16bd a7d3 88bd
000002f0: 2733 f5bb d09d fcbc 6cc4 08bd 4182 06bc
00000300: 2f36 46bd e012 debc f3d0 f6bb c493 85bc
00000310: 61e1 1fbd 3b47 b93c 5ea1 973d ae7e 80bd
00000320: 4d04 e6bc 98a3 733d a4fb 39bd 4949 1c3d
00000330: acd9 293d d8ec 9fbd bd22 7e3c 755e babc
00000340: c7b1 9abd 92f8 863c e436 6f3c 3906 acbd
00000350: 35fe 0abd a0d5 aa3d 23fe 5ebc 40c3 4d3d
00000360: 807f 663c 56a3 94bd c3a6 3a3c a00e 7cbc
00000370: c729 3dbc c3d6 4f3c a9ca ac3d 9f36 183d
00000380: 44b6 303d 92ee 3abc a6a2 5dbc 26e9 cc3c
00000390: 0f57 6f3b a389 6abd b73a ec3c 7734 e63c
000003a0: 4a32 7bbd 7b8f 953c 861f 97bd 0826 93bd
000003b0: b60f 44bd 1bc2 81bd e18a dd3c aa48 2d3d
000003c0: 3d34 63bd 9b6f 203d 5256 a5bc 5e74 84bd
000003d0: a150 843d 2497 74bd fdff 9cbd 40dd 6ebd
000003e0: e979 073d 60e1 9c3d 14e0 b2bc 38df 3ebc
000003f0: 93b4 8abc f90e adbd 21f8 b0bd 60e2 983c
-0.045896377 -0.08427116 0.036094252 0.052318413 -0.020986 0.031975754 0.0909019 -0.016931709
-0.007943198 0.07869751 -0.07617693 -0.034847904 0.08509838 0.077843145 0.015346385 -0.003761292
-0.038298078 -0.07588976 -0.023775974 0.06458113 0.0042456947 0.057847586 -0.0016531992 0.0830058
-0.084177114 -0.0697203 -0.0068335957 -0.056504063 -0.033009008 0.08429888 0.070692055 -0.048881747
-0.03286792 -0.007045746 -0.027788904 0.054745864 -0.025822565 -0.05610619 0.0030374667 0.030556284
-0.014853264 0.04611608 -0.03722442 0.042822734 0.014378286 -0.018873826 0.0065845037 -0.07815173
0.06709877 -0.07999794 -0.0863001 0.013345193 -0.07302726 -0.055225864 -0.05043043 -0.00042152734
0.07872407 -0.046452865 0.06890308 -0.03034262 -0.020059042 0.0091561945 -0.0006228748 -0.052266162
0.03788652 0.025229242 0.03846562 0.0037266163 -0.082347006 0.039968014 0.011859252 -0.02584891
-0.053540207 0.023702474 -0.0074114064 0.036140297 -0.05369833 -0.086649984 0.069190055 0.022707403
-0.057181023 0.028991718 0.045761112 0.035870448 -0.017053805 -0.001985542 0.018595723 0.043892805
-0.056552954 0.0174545 -0.009094965 0.0017388357 0.04284389 0.046578273 0.06255756 -0.044761218
0.07176439 -0.044683073 -0.0732732 -0.021217303 0.034468397 -0.018918676 0.016026909 -0.050963692
0.01771102 -0.016300093 0.0530293 0.043030154 0.02112174 0.066869475 -0.0026232519 -0.06593913
0.05983968 0.039104726 0.023377486 -0.06390101 0.07064595 -0.039681032 -0.004933309 0.06261173
-0.05071217 -0.025253292 -0.03488313 -0.0030715505 -0.018702578 0.06939906 0.03470927 0.0057023265
0.07928781 -0.029272899 -0.032485407 0.012158306 -0.015001007 0.088109314 -0.03810937 0.012444047
0.021560453 0.022579934 -0.01423195 -0.08934164 0.081464805 -0.033224955 -0.007888377 -0.06416149
0.04352437 0.0474167 0.077382095 0.015104308 0.057142805 -0.017289154 0.00065750047 -0.08988344
0.08067612 -0.04933146 -0.058574658 -0.08500957 0.08910352 -0.04510965 0.015875284 -0.08695997
-0.031844907 -0.07373431 0.019173974 -0.028844712 0.029787835 -0.017926386 0.048677575 -0.044109378
0.021092733 0.023837667 0.06347597 -0.081866875 0.08218709 -0.027064495 -0.0759623 -0.050280266
0.0590135 0.009873216 -0.08087473 -0.08278039 -0.0818646 -0.06821735 0.04824427 0.011153298
0.059558958 -0.06447943 -0.03672008 -0.066809945 -0.0074829045 -0.03083697 -0.033390447 -0.008209766
-0.048391517 -0.02710861 -0.007532233 -0.016305812 -0.039033297 0.022616973 0.07403825 -0.06274162
-0.028078223 0.059482187 -0.045406 0.038155828 0.041467354 -0.07808846 0.015511212 -0.022750119
-0.075534396 0.01647595 0.014600489 -0.083996244 -0.033933837 0.08341527 -0.013610396 0.050235033
0.014068484 -0.07257716 0.011392298 -0.015384346 -0.011545605 0.0126854805 0.08437092 0.037161466
0.043142572 -0.011409419 -0.013527548 0.025013518 0.0036520397 -0.057260167 0.028836591 0.028101189
-0.061327256 0.018256893 -0.073790595 -0.07184988 -0.047866546 -0.06335851 0.027043762 0.042305626
-0.05546974 0.039168935 -0.020182762 -0.06467508 0.06460691 -0.05971445 -0.076660134 -0.05831647
0.033075247 0.07660174 -0.021835364 -0.011649899 -0.016931808 -0.084501214 -0.08641077 0.018662632
