lstm_ts.pth (torch, 205567 bytes, 9 tensors)

encoder.weight_ih_l0 f4 [256, 1]
0	0x3d367353	0.044543575
1	0xbddbad68	-0.10726434
2	0xbde02363	-0.109442495
3	0xbdd6f1c2	-0.104953304
4	0xbd49b370	-0.04924339
5	0xbd2efcbe	-0.042721502
6	0xbdb553b7	-0.08853858
7	0xbd180454	-0.037113503
8	0x3c47389c	0.012159493
9	0x3c10d6d0	0.008840278
10	0x3dabe66b	0.08393558
11	0x3de3a0fa	0.11114688
12	0x3dee8868	0.11647111
13	0x3d1f05e0	0.038823962
14	0x3da78459	0.0817954
15	0x3d2aa305	0.041659374
16	0x3d1a47bf	0.03766608
17	0x3ade4515	0.0016957844
18	0x3d0a8967	0.033822443
19	0x3d107e63	0.03527678
20	0x3df73ae9	0.12071783
21	0x3d22ca7d	0.03974389
22	0x3c821e6e	0.01588365
23	0xbc85cb57	-0.016332312
24	0x3db2dd5a	0.08733626
25	0xbdc8cb2b	-0.09804376
26	0x3d567a3c	0.052362666
27	0xbc1fcbeb	-0.009753208
28	0x3dc0ebd1	0.094199784
29	0x3dd16935	0.10225145
30	0x3da26eb9	0.07931275
31	0xbdd479ee	-0.10374819
32	0x3c321510	0.0108692795
33	0xbd70851e	-0.0587207
34	0xbdc9144b	-0.09818324
35	0xbcc9b2f5	-0.024621466
36	0x3d9d2093	0.07672229
37	0xbdbf869b	-0.09351846
38	0xbdb011e2	-0.08597161
39	0xbdb5f91b	-0.08885404
40	0xbbf6113d	-0.007509379
41	0xbce56d2b	-0.028006157
42	0xbdebc550	-0.11512244
43	0x3da30732	0.07960357
44	0xbd72bb1a	-0.059260465
45	0xba85ad51	-0.0010198747
46	0x3dd2c4eb	0.10291465
47	0x3cab2b5e	0.020894703
48	0x3c1b8058	0.009491049
49	0xbdd563f9	-0.10419459
50	0x3db1c2f9	0.08679766
51	0xbd373a6f	-0.04473346
52	0xbdaa4e18	-0.083156765
53	0xbd44d8e7	-0.048058417
54	0xbd817c69	-0.063225575
55	0xbd8e5cde	-0.06951307
56	0xbce0e2ab	-0.027451834
57	0xbc84a1ea	-0.016190488
58	0x3c219cc5	0.009864037
59	0x3cfb0f47	0.030646933
60	0xbdafca59	-0.08583517
61	0xbc2fb660	-0.010724634
62	0x3d1cb43b	0.03825782
63	0xbdaf8c13	-0.08571639
64	0xbd904a95	-0.070454754
65	0xbc1cbcfb	-0.009566541
66	0xbdbb5886	-0.09147744
67	0x3d6c2677	0.05765387
68	0x3befd771	0.007319384
69	0x3d9c4256	0.0762984
70	0xbdc3ee34	-0.09566918
71	0x3d090fff	0.03346252
72	0x3dccd30b	0.10001191
73	0xbdc52868	-0.096268475
74	0x3d056627	0.032568123
75	0xbd3431fa	-0.043992974
76	0xbddb2e94	-0.107022434
77	0x3d9a21df	0.07525992
78	0xbcd90e1e	-0.02649599
79	0xbc0e1cc8	-0.008673854
80	0xbcbdb4f3	-0.023157572
81	0xbd9f561c	-0.07780096
82	0x3ddf8be4	0.10915354
83	0x3dacfe9b	0.08447
84	0x3de22125	0.11041478
85	0xbd0a660b	-0.033788722
86	0xbdadfb12	-0.084951535
87	0xbd634d42	-0.0554936
88	0x3c6cafd9	0.014446222
89	0x3c2b6ab9	0.010462456
90	0x3dde4d53	0.10854592
91	0x3dc3fce8	0.095697224
92	0x3d9b5d8a	0.075862005
93	0xbd84f1d9	-0.06491441
94	0xbd849fa3	-0.06475761
95	0x3d9dbb62	0.07701756
96	0xbc8ba671	-0.017047139
97	0x3d3b6b38	0.04575655
98	0x3d9d54b3	0.07682171
99	0x3dc397b6	0.09550421
100	0xbdf3018c	-0.118655294
101	0x3dbe11b1	0.09280718
102	0xbddb780a	-0.10716255
103	0xbdbfe54c	-0.09369907
104	0x3da7226a	0.08160861
105	0x3dd792bf	0.105260365
106	0xbd991d7c	-0.07476327
107	0xbd4168bd	-0.047219027
108	0xbd5e1f58	-0.05422911
109	0xbdfab342	-0.12241222
110	0xb94d8299	-0.00019598975
111	0x3b875be7	0.0041308287
112	0xbdebfcb1	-0.115228064
113	0xbdaf7c4c	-0.085686296
114	0xbdae121f	-0.0849955
115	0xbc991e58	-0.018691227
116	0xbdeb813e	-0.1149926
117	0xbd3ea7b2	-0.046546645
118	0x3d985001	0.074371345
119	0x3dbc5161	0.09195209
120	0x3d70dd6d	0.058804918
121	0xbcccf889	-0.025020855
122	0xbd49f28f	-0.049303588
123	0x3d7d63a2	0.061862595
124	0x3db2af81	0.08724881
125	0xbdceca1f	-0.10097145
126	0x3daf65f8	0.08564371
127	0xbd3a10c1	-0.045426134
128	0xbddf4189	-0.10901172
129	0xbd168614	-0.03674896
130	0xbca899ed	-0.02058121
131	0xbd73a08f	-0.059479292
132	0xbd0e1d08	-0.034695655
133	0x3d7b40b7	0.061341014
134	0xbbc09e3e	-0.005878239
135	0x3c6b7a47	0.014372415
136	0x3d2e0eae	0.04249447
137	0x3de5ede2	0.11227013
138	0xbd23344d	-0.0398448
139	0xbd1e2fea	-0.038619913
140	0x3d2e74b5	0.04259177
141	0x3d1e5b67	0.038661387
142	0xbcb0bbdd	-0.021573955
143	0x3db5b3f5	0.08872215
144	0x3d9327f0	0.07185352
145	0xbde5d22e	-0.11221729
146	0x3ce13198	0.027489468
147	0x3d814462	0.06311871
148	0x3c0a9ec6	0.008460706
149	0xbd9409f2	-0.072284594
150	0xbccfc953	-0.025364554
151	0xbdd8de1e	-0.105892405
152	0xbc9075bf	-0.01763427
153	0xbdb696f2	-0.08915509
154	0xbd198929	-0.03748432
155	0xbd0754bb	-0.03303979
156	0x3ce8b3c5	0.028406033
157	0xbdd1c687	-0.10242944
158	0x3d9798b7	0.07402175
159	0xbd7a1a34	-0.061060145
160	0xbdaa4487	-0.08313852
161	0xbd277c33	-0.04088993
162	0xbd521dd0	-0.051297963
163	0xbda0f374	-0.07858935
164	0xbdf64f8a	-0.120268896
165	0x3db8f0f2	0.09030332
166	0x3da7aaa1	0.08186842
167	0xbbd2f096	-0.0064373715
168	0x3da21b75	0.07915393
169	0x3d494842	0.049141176
170	0xbdae663d	-0.08515594
171	0xbd86dfe8	-0.065856755
172	0xbde06fa7	-0.10958796
173	0x3d26c801	0.040718082
174	0x3dfbe90c	0.123003095
175	0x3dcb85c3	0.099376224
176	0xbd6beb6a	-0.057597555
177	0xbd9f39e9	-0.07774717
178	0x3d6efe25	0.05834784
179	0x3d2d9fdd	0.042388786
180	0xbdf92ff4	-0.121673495
181	0xbdd92232	-0.10602225
182	0xbbfdb573	-0.0077425777
183	0x3df26f08	0.11837584
184	0x3d0c1692	0.034201212
185	0xbc1eb1e2	-0.009685965
186	0x3dfa81eb	0.12231811
187	0x3dd4bdaf	0.10387742
188	0x3d5ca513	0.053868365
189	0xbdd7e3d1	-0.105414994
190	0xbc72773b	-0.014798935
191	0xbd528120	-0.051392674
192	0xbdb1dc97	-0.08684652
193	0xbc7f9e1c	-0.015601661
194	0xbda293fe	-0.079383835
195	0x3d43622c	0.047701046
196	0x3d9d3727	0.07676535
197	0xbc058257	-0.008148751
198	0x3cb74be4	0.022375055
199	0x3db47abf	0.088124745
200	0xbd56baff	-0.052424427
201	0x3dbd834d	0.09253559
202	0xbb91743f	-0.0044389064
203	0xbd7dcda3	-0.06196369
204	0x3dd09643	0.1018491
205	0xbc8496dd	-0.016185218
206	0xbb7e4e5f	-0.0038804037
207	0xbdb48586	-0.0881453
208	0xbd61a68b	-0.05509047
209	0x3c66fbd3	0.0140981255
210	0xbd80d24b	-0.0629011
211	0x3d215df4	0.03939624
212	0xbdeaeb29	-0.114706345
213	0x3c580b61	0.013186307
214	0xbd880b93	-0.066428326
215	0xbc7e426d	-0.015518767
216	0xbdf3606a	-0.11883624
217	0x3c96afd4	0.018394388
218	0xbb7c4ead	-0.0038499043
219	0x3d472e8f	0.048628386
220	0x3bc8a952	0.0061237
221	0xbd9b3524	-0.07578495
222	0xbd4597f6	-0.048240624
223	0x3b2ce5fc	0.0026382199
224	0xbdb44dac	-0.08803877
225	0x3ba714f6	0.0050989343
226	0x3dc40bf0	0.095725894
227	0xbdc8556d	-0.09781919
228	0xbd886ddc	-0.06661579
229	0xbdb0e10f	-0.086366765
230	0xbd322618	-0.04349336
231	0x3bda942e	0.0066704964
232	0x3cafd319	0.021462964
233	0x3df57c7d	0.11986635
234	0xbd28b406	-0.04118731
235	0xbda3a2a1	-0.079900034
236	0x3da6ec6d	0.081505634
237	0xbb123158	-0.0022307243
238	0x3c91b2d1	0.017785462
239	0xbd56a34c	-0.052401826
240	0x3df004d6	0.117196724
241	0x3df29f05	0.11846737
242	0x3daaf4fe	0.0834751
243	0xbd5a0007	-0.053222682
244	0x3d7a9e60	0.061186194
245	0x3d6dbed9	0.058043335
246	0xbc810b5c	-0.015752487
247	0xbd19f0fa	-0.03758333
248	0x3d76b9cf	0.060235795
249	0x3dc8c408	0.09803015
250	0xbc747e6a	-0.014922718
251	0x3dbb7f4e	0.09155141
252	0xbcf1099d	-0.02942353
253	0xbd47b424	-0.04875578
254	0xbcbe20a9	-0.023208933
255	0xbde7d308	-0.11319548

encoder.weight_hh_l0 f4 [256, 64]
0	0xbdbe8463	-0.093025945
1	0xbdcefc3c	-0.10106704
2	0x3da38609	0.079845496
3	0x3d88eb66	0.06685524
4	0x3ced008f	0.02893093
5	0x3ca4fcc5	0.020140061
6	0x3c5dc459	0.013535582
7	0xbdb8d8ee	-0.09025751
8	0x3d85cec9	0.06533582
9	0x3dd86f8f	0.10568153
10	0x3d8eeb3a	0.0697846
11	0xbc16be04	-0.009200577
12	0x3df6c78d	0.1204978
13	0xbde8e74f	-0.113722436
14	0x3d41cd43	0.047314893
15	0xbded477f	-0.115859024
16	0x3d38bed6	0.04510387
17	0xbc42c274	-0.011887182
18	0x3d21369f	0.03935873
19	0xbded8651	-0.115978844
20	0xbda71b59	-0.08159513
21	0xbdc0d394	-0.09415355
22	0xbdde298a	-0.10847767
23	0x3dbffd62	0.09374501
24	0xbdb4ad63	-0.088221334
25	0x3d3fba0e	0.046808295
26	0xbdd37026	-0.10324125
27	0xb8ea202c	-0.00011163982
28	0x3d292d28	0.04130283
29	0x3d95a5d9	0.073070236
30	0x3c4daa12	0.012552755
31	0x3db84b4e	0.08998738
32	0x3bf8cd60	0.007592842
33	0xbd135606	-0.03597071
34	0x3dcda9cb	0.10042151
35	0xbdeb42b6	-0.114873335
36	0x3d515d4b	0.05111436
37	0x3b97547e	0.0046182266
38	0x3b8900e4	0.0041810144
39	0x3db6969c	0.08915445
40	0xbc973ee3	-0.018462604
41	0xbdffe2da	-0.124944404
42	0xbdf1f3b8	-0.11814064
43	0x3dea0604	0.11426929
44	0x3d91351c	0.07090208
45	0xbdc1eea1	-0.09469343
46	0xbddca738	-0.10774082
47	0x3d838ee6	0.0642374
48	0xbdbd7959	-0.09251661
49	0x3d2050d8	0.0391396
50	0xbd8932de	-0.06699155
51	0xbc4aa4ed	-0.012368423
52	0x3da8e9d1	0.08247722
53	0xbdfcd003	-0.123443626
54	0x3d6b9c0e	0.057521872
55	0x3d01df62	0.031707175
56	0x39b855eb	0.0003515923
57	0x3df10551	0.11768592
58	0x3cd6fa5a	0.026242424
59	0xbdb53e1f	-0.08849739
60	0x3df6a4ee	0.120431766
61	0x3dc2ffcc	0.09521446
62	0x3b5db838	0.0033831727
63	0xbde04a00	-0.109516144
64	0xbc84dc15	-0.016218225
65	0xbd961889	-0.073288985
66	0x3da20c97	0.079125576
67	0xbdb700d1	-0.089357026
68	0x3d0f0af7	0.034922566
69	0x3dbb8a88	0.09157282
70	0x3d00713d	0.031357992
71	0xbdb42cef	-0.08797633
72	0x3d9c693d	0.0763726
73	0xbd9c9990	-0.07646477
74	0x3d8a3579	0.0674848
75	0xbbf30405	-0.0074162506
76	0xbcf25ef9	-0.029586302
77	0x3d3de96a	0.04636518
78	0xbd3504d4	-0.044194058
79	0x3dd18827	0.10231047
80	0x3b5d06ae	0.0033725905
81	0x3d27b756	0.040946327
82	0xbc55b222	-0.013042958
83	0x3d614af3	0.055003118
84	0x3b069495	0.002053534
85	0xbdece783	-0.11567595
86	0xbdb7930d	-0.089635946
87	0x3da07098	0.078339756
88	0x3cf4b74e	0.029872563
89	0x3c047891	0.008085386
90	0x3dabffec	0.083984226
91	0x3dece823	0.11567714
92	0xbd8e8680	-0.069592476
93	0xbdcb346f	-0.0992211
94	0xbdd9dee8	-0.10638219
95	0xbd9b0df7	-0.07571023
96	0xbd8814e6	-0.06644611
97	0xbd53fb39	-0.051753256
98	0x3d80d546	0.06290679
99	0x3d405d26	0.046963833
100	0xbd92e99a	-0.07173462
101	0x3df1fee1	0.118161924
102	0x3d9dc183	0.07702925
103	0x3d305db4	0.043058112
104	0x3db35277	0.08755963
105	0xbbc2e2e2	-0.0059474567
106	0xbd86a214	-0.06573883
107	0xbde5a74e	-0.112135515
108	0x3db101a7	0.08642893
109	0xbddd5033	-0.108063124
110	0x3da9f5bc	0.08298823
111	0x3d841358	0.06449002
112	0x3ce64191	0.028107436
113	0xbdb0dcb0	-0.08635843
114	0xbd82d55e	-0.06388353
115	0x3dc29ef2	0.09502973
116	0x3cd7f83c	0.026363485
117	0x3dc26cd2	0.09493412
118	0x3bffd3a0	0.00780721
119	0xbd51b9d2	-0.051202603
120	0x3d107d42	0.035275705
121	0x3d1ebd59	0.038754795
122	0x3ce57bb8	0.028013095
123	0xbda0dd04	-0.078546554
124	0x3d282b1d	0.04105674
125	0xbd94c306	-0.0726376
126	0x3d6f2e7b	0.058393937
127	0xbd161393	-0.03663976
128	0x3d154a3c	0.03644775
129	0x3df3dcf3	0.11907377
130	0x3ddefffd	0.1088867
131	0x3dfbcb96	0.1229469
132	0xbc4843d4	-0.012223203
133	0x3c00f2a2	0.007870348
134	0x3d395f21	0.045256738
135	0x3df78d61	0.12087513
136	0xbd091287	-0.033464935
137	0xbdd18f74	-0.1023244
138	0x3db821d2	0.08990826
139	0xbd392eea	-0.045210756
140	0xbcb6d59d	-0.022318656
141	0x3d06e7f4	0.03293605
142	0x3d8d0a2a	0.06886704
143	0xbd6b5942	-0.05745817
144	0xbde860bf	-0.11346578
145	0x3c844c90	0.01614979
146	0x3df33778	0.11875814
147	0xbc8a65d3	-0.016894257
148	0xbdb77d63	-0.089594625
149	0xbdd6a6af	-0.10481011
150	0xbe005880	-0.1253376
151	0xbcaa2e01	-0.02077389
152	0x3d9001e3	0.0703161
153	0xbd3bbcd2	-0.04583437
154	0xbdd2448e	-0.10266982
155	0x3dfdb23d	0.12387512
156	0xbcc618e3	-0.024181789
157	0x3d88dac5	0.06682352
158	0x3d2a04a2	0.041508324
159	0x3d45bc0c	0.04827504
160	0x3dabdb40	0.08391428
161	0xbd62c232	-0.05536098
162	0xbd8dc81d	-0.06922934
163	0xbca3f7a0	-0.020015538
164	0x3d22849d	0.03967725
165	0xbcb85a55	-0.022504011
166	0xbd10ceec	-0.035353586
167	0xbdda6bc7	-0.10665088
168	0xbd15a48f	-0.03653389
169	0xbdb8d4de	-0.09024976
170	0xbdcf8c26	-0.10134153
171	0x3aa1cd8d	0.0012344584
172	0x3c50492c	0.012712758
173	0x3d0dc51a	0.0346118
174	0xbd628b9e	-0.05530893
175	0xbcd40ae5	-0.025884101
176	0xbdb1df82	-0.08685209
177	0x3d0e526b	0.03474657
178	0x3d12e54d	0.03586321
179	0xbdaaf986	-0.08348374
180	0xbc351ee7	-0.011054731
181	0xbde13482	-0.10996343
182	0x3da50b36	0.08058779
183	0x3d626433	0.05527134
184	0xbdf95813	-0.12175002
185	0xbcee639d	-0.029100234
186	0x3d87412b	0.06604227
187	0xbb801dfe	-0.0039098253
188	0xbde9d00b	-0.11416634
189	0x3d6d0c98	0.05787334
190	0x3dd31d45	0.10308317
191	0xbd4f2edc	-0.050581798
192	0xbd96424d	-0.073368646
193	0xbd8a0fcf	-0.067412965
194	0x3d9a6dff	0.07540511
195	0x3d33c6b7	0.04389068
196	0x3d7b3d42	0.061337717
197	0x3de1fb31	0.11034239
198	0x3dada234	0.084782034
199	0x3d818dff	0.06325912
200	0x3c9e63b0	0.019334644
201	0x3d042ee1	0.03227127
202	0xbd855feb	-0.065124355
203	0x3de07f4c	0.1096178
204	0x3c82b1ce	0.015953925
205	0xbd94752e	-0.07248913
206	0xbd594332	-0.053042598
207	0x3cb58ab5	0.022160867
208	0xbd33c62d	-0.043890167
209	0x3dc0a99b	0.0940735
210	0xbddcdea4	-0.10784653
211	0xbd827c6e	-0.06371389
212	0x3dce5406	0.1007462
213	0x3ce1d569	0.027567582
214	0xbd9347e9	-0.0719145
215	0xbddb9f0e	-0.10723697
216	0xbd8ce45a	-0.06879492
217	0x3c8b544a	0.017007966
218	0x3da80655	0.08204333
219	0xbc5490d4	-0.012973983
220	0x3b5b9785	0.003350706
221	0xbdbbfb6d	-0.09178815
222	0xbdd14020	-0.10217309
223	0xbdee30a3	-0.116303705
224	0x3b7ab32c	0.0038253767
225	0xbcf4eb33	-0.029897308
226	0x3de6d262	0.11270596
227	0xbd57f026	-0.052719258
228	0x3d1691a6	0.036759995
229	0x3dd6a9da	0.10481615
230	0xbda2f725	-0.07957295
231	0xbdcbdd8e	-0.099543676
232	0xbcaa9075	-0.020820836
233	0xbd7aadf7	-0.061201062
234	0xbdb29e5e	-0.087216124
235	0xbcebec3b	-0.028799167
236	0xbd88c675	-0.06678478
237	0xbdbac31f	-0.09119248
238	0x3db23636	0.08701746
239	0xbda5707a	-0.08078094
240	0x3dcfe335	0.10150758
241	0xbd1d6b22	-0.038432248
242	0xbd829f99	-0.06378097
243	0x3df73030	0.12069738
244	0xbdc0680d	-0.09394846
245	0x3c7f37dd	0.015577284
246	0xbd59e248	-0.053194314
247	0xbdfd9993	-0.123828076
248	0xbc3bbfb5	-0.011459281
249	0xbd4bacda	-0.04972539
250	0xbd9737d4	-0.07383695
251	0xbd074b09	-0.033030543
252	0xbd059f02	-0.032622345
253	0x3d84616a	0.06463893
254	0x3d8f66aa	0.070020035
255	0x3dff320d	0.12460718

encoder.bias_ih_l0 f4 [256]
0	0xbde988eb	-0.11403068
1	0x3db602e4	0.0888727
2	0xbcc46c98	-0.023977563
3	0xbdcda741	-0.10041667
4	0xbd65bb34	-0.056086734
5	0x3d6b0652	0.057379074
6	0x3c9671e2	0.01836485
7	0xbdb9ef79	-0.09078879
8	0x3dc73721	0.09727312
9	0xbdcb384b	-0.099228464
10	0xbd6f6ce6	-0.058453463
11	0xbdb85ccc	-0.090020746
12	0xbdf10cf9	-0.117700525
13	0x3c3a07f0	0.0113544315
14	0xbdb8d185	-0.09024338
15	0xbd9e1653	-0.07719102
16	0xbdfbd234	-0.122959524
17	0x3df992d1	0.12186206
18	0x3c3ef77a	0.011655683
19	0xbdc741b9	-0.097293325
20	0x3d62e851	0.055397335
21	0xbc930e2b	-0.017951092
22	0xbd31f9f6	-0.043451272
23	0xbd8f0b71	-0.06984604
24	0xbdcfba71	-0.10142983
25	0xbd8ed978	-0.069750726
26	0x3db586cd	0.08863602
27	0x3dac56ba	0.08414979
28	0x3d99ff8f	0.07519447
29	0x3dd4a28d	0.103825666
30	0xbdad7ac7	-0.084706835
31	0xbd3c2bf0	-0.04594034
32	0x3d1d95f5	0.03847309
33	0xbde1f3cb	-0.11032828
34	0x3dda8a10	0.106708646
35	0x3dee918c	0.116488546
36	0xbc2c278b	-0.010507475
37	0x3d931902	0.07182504
38	0x3cd592be	0.026070949
39	0x3dc9966b	0.09843143
40	0x3d2baf93	0.041915487
41	0xbdd53d1e	-0.10412048
42	0xbd8f4743	-0.06996014
43	0x3db1d568	0.08683282
44	0xbaa3e173	-0.0012503102
45	0x3d420c0d	0.047374774
46	0x3db15ad7	0.086599045
47	0xbbbea5cb	-0.005818104
48	0xbd9204e8	-0.07129842
49	0xbd84a529	-0.06476814
50	0xbc320652	-0.010865765
51	0xbdd2dabb	-0.10295626
52	0xbd872b5e	-0.066000685
53	0xbde5b018	-0.11215228
54	0x3da3133d	0.07962654
55	0x3d9d433e	0.07678841
56	0xbc4f839f	-0.012665658
57	0xbdfb657f	-0.12275218
58	0xbd3992c6	-0.04530599
59	0xbde18c77	-0.1101312
60	0x3d662021	0.056182984
61	0xbd8d5029	-0.06900055
62	0xbdf8d756	-0.12150447
63	0x3d9f08af	0.07765328
64	0x3d1079c2	0.035272367
65	0xbd592be1	-0.05302036
66	0x3c5027a1	0.012704761
67	0x3c6ed45c	0.014576998
68	0xbdc491b2	-0.09598102
69	0x3bf7bf2c	0.0075606313
70	0xbdead466	-0.11466293
71	0x3da0fc65	0.078606404
72	0xbd370d09	-0.044690166
73	0x3d5d6067	0.054047015
74	0xbda1feba	-0.07909913
75	0x3dfb2e9c	0.122647494
76	0xbd589934	-0.05288048
77	0xbddcf9b2	-0.10789813
78	0xbdc902bc	-0.09814975
79	0x3cfef14e	0.031120922
80	0xbd024be3	-0.031810652
81	0xbc89e225	-0.016831467
82	0x3dfa7314	0.12228981
83	0x3da5cf96	0.080962345
84	0x3d1633db	0.036670547
85	0xbd7a22e2	-0.061068423
86	0xbd929cb2	-0.071587935
87	0xbd0703e0	-0.03296268
88	0x3df78942	0.12086727
89	0x3de4c9a3	0.11171272
90	0x3ddb584f	0.10710203
91	0x38f51bee	0.00011687713
92	0xbc1bf08e	-0.009517802
93	0xbdd41a5b	-0.103565894
94	0x3d620ac9	0.055186067
95	0xbd138992	-0.03601987
96	0x3de8f2d9	0.113744445
97	0x3dbd816f	0.09253203
98	0x3d2f2a21	0.042764787
99	0xbc1595e5	-0.009129976
100	0x3de0ea13	0.10982146
101	0x3dfbac2b	0.12288698
102	0xbdb8792a	-0.09007485
103	0x3db516c7	0.08842235
104	0x3d5128e9	0.051064406
105	0x3dba2733	0.09089508
106	0xbac79ae6	-0.0015228658
107	0x3d8e44c0	0.06946707
108	0x3db99905	0.09062389
109	0xbda5fe4b	-0.08105143
110	0x3d56e6f8	0.052466363
111	0x3bde1646	0.0067775575
112	0xbb5a068c	-0.0033268062
113	0xbb237927	-0.0024944039
114	0x3dc3a42a	0.09552796
115	0xbbd72718	-0.0065659396
116	0x3d4f5ec7	0.050627496
117	0x3c7b35da	0.015332663
118	0xbd403fd2	-0.046935864
119	0x3dceb39c	0.100928515
120	0x3d484e9b	0.04890309
121	0x3dd63d1e	0.10460876
122	0x3d837901	0.06419564
123	0x3dec295c	0.11531326
124	0x3d0ec33b	0.034854155
125	0x3decf822	0.11570765
126	0xbcaa9044	-0.020820744
127	0xbd1d0082	-0.038330562
128	0xbdcdb735	-0.100447096
129	0x3d83e052	0.0643927
130	0xbd93c9ce	-0.072162256
131	0x3dd31303	0.103063606
132	0x3dbd6c81	0.09249211
133	0xbdbeefb3	-0.09323063
134	0xbcd8d5a1	-0.026469054
135	0xbb562bd7	-0.003267994
136	0x3de25db9	0.110530324
137	0x3d4c72c6	0.049914144
138	0x3d9ba248	0.07599312
139	0x3db16f7b	0.08663841
140	0x3b25faf0	0.0025326572
141	0x3d5fcabc	0.054636702
142	0x3dc33311	0.095312245
143	0xbd36e939	-0.044656012
144	0xbdf44015	-0.11926285
145	0x3ba63fe4	0.0050735343
146	0x3dcb4d0b	0.09926804
147	0xbda60c9e	-0.08107875
148	0x3ccd64d4	0.025072493
149	0x3dd36fc0	0.10324049
150	0xbc2dbc8a	-0.010604033
151	0xbde22302	-0.110418335
152	0xbd52465c	-0.05133663
153	0x3d9fd90d	0.07805071
154	0xbd897503	-0.06711771
155	0x3d091949	0.03347138
156	0xbdc76689	-0.09736354
157	0xbc390af7	-0.011294118
158	0xbba4b151	-0.0050260206
159	0xbd2088bb	-0.039192896
160	0x3dd18a2e	0.10231434
161	0x3dfb59a8	0.1227296
162	0x3d9f1463	0.0776756
163	0xbdf69bc6	-0.1204143
164	0x3daa50a4	0.08316162
165	0x3d1d6280	0.038424015
166	0xbd2bc66b	-0.041937273
167	0x3c3e54fb	0.011616941
168	0x3d90aa05	0.07063679
169	0xbdb7a0ea	-0.08966239
170	0x3d41f0bb	0.04734872
171	0x3c96d4fc	0.018412106
172	0xbd3826b0	-0.04495877
173	0x3d123932	0.035699077
174	0xbc9d4656	-0.019198578
175	0xbaf552bb	-0.0018716672
176	0x3ccdbf15	0.02511553
177	0xbd960624	-0.0732539
178	0x3d8aacfb	0.06771275
179	0xbca14155	-0.019684473
180	0xbcf12553	-0.029436743
181	0xbd89dd88	-0.06731707
182	0x3db64ce8	0.089013875
183	0xbca22c09	-0.019796388
184	0xbdb8f22a	-0.09030564
185	0xbdda58f7	-0.106615
186	0x3dbd5782	0.092452064
187	0xbd3774f1	-0.04478926
188	0x3dc29983	0.09501936
189	0xbb14f02c	-0.0022726161
190	0x3d18d1ec	0.037309572
191	0xbbd697d1	-0.0065488596
192	0xbcb8e902	-0.022572044
193	0x3d14cba4	0.03632702
194	0x3d32162a	0.04347817
195	0x3d2c364d	0.042043973
196	0x3d0233e3	0.031787764
197	0x3dc9f69d	0.09861491
198	0xbdee2f68	-0.11630136
199	0xbd9fab26	-0.07796316
200	0xbdfef3d1	-0.12448848
201	0xbdd03e5a	-0.101681426
202	0xbdb52fc1	-0.08846999
203	0x3ca8a180	0.020584822
204	0x3d148b2b	0.036265533
205	0x3d841228	0.064487755
206	0xbde15fda	-0.1100461
207	0x3d96932e	0.07352291
208	0x3d6acbf5	0.057323415
209	0x3dbf99ef	0.093555324
210	0x3d9a8c62	0.07546307
211	0xbce824ab	-0.028337797
212	0xbde1e678	-0.110302866
213	0xbdd46342	-0.103704944
214	0xbd2ca532	-0.04214973
215	0xbda60d44	-0.08107999
216	0xbb29fa34	-0.0025936486
217	0xbc982c00	-0.018575668
218	0x3ded23d4	0.11579099
219	0xbdefa7b6	-0.1170191
220	0x3d797a60	0.06090772
221	0xbcadeb28	-0.021230295
222	0x3d4dd627	0.05025306
223	0xbdb6e030	-0.08929479
224	0x3cae7f24	0.02130086
225	0xbd307d0a	-0.043087997
226	0xbdbc1b32	-0.091848746
227	0xbd7ab31d	-0.061205972
228	0x3d5078e3	0.050896537
229	0xbd3fe422	-0.046848424
230	0xbdf59415	-0.11991135
231	0x3db075fa	0.08616252
232	0x3df24f8d	0.11831579
233	0x3c8c0f4a	0.017097134
234	0xbcc6047b	-0.024172058
235	0xbd3b81b9	-0.04577801
236	0xbd92b40c	-0.071632475
237	0xbdfc64d0	-0.12323916
238	0xbd6552cf	-0.055987176
239	0xbd9bdbad	-0.07610259
240	0xbd9cffe6	-0.07665996
241	0xbc796057	-0.015220723
242	0xbcc92c2d	-0.024557197
243	0x3dce9f9c	0.10089037
244	0xbcd895a6	-0.026438545
245	0xbdb4982b	-0.08818086
246	0xbda682b3	-0.08130398
247	0xbdc01bfa	-0.09380336
248	0x3d085935	0.0332882
249	0xbdae3d07	-0.08507734
250	0xbc0c6daf	-0.0085710725
251	0x3da996c8	0.08280712
252	0x3d27eb83	0.040996086
253	0xbd233962	-0.039849646
254	0x3cda389f	0.026638327
255	0x3d4199e9	0.04726592

encoder.bias_hh_l0 f4 [256]
0	0xbdb96d4b	-0.09054049
1	0x3ceba143	0.028763419
2	0xbd7c0cc3	-0.061535608
3	0x3dcb77c5	0.099349536
4	0x3cb4ceb1	0.022071214
5	0x3d3a083a	0.045418
6	0x3c4d2162	0.012520166
7	0x3da755bb	0.08170649
8	0x3cd7874a	0.026309628
9	0x3e015d01	0.12633134
10	0x3c14a75c	0.009073105
11	0xb77ae4f2	-1.4954467e-05
12	0xbdbe44c9	-0.092904635
13	0xbd68bbb4	-0.056819633
14	0xbda2c6fb	-0.07948109
15	0x3baab45a	0.005209488
16	0xbd310174	-0.043214276
17	0xbdadb4db	-0.08481761
18	0xbcdab215	-0.026696244
19	0xbd53e2e5	-0.051730055
20	0x3dbf7769	0.093489476
21	0xbd59c2fb	-0.053164463
22	0x3b3ceec4	0.002882884
23	0xbdc24c29	-0.09487183
24	0xbc4ae008	-0.012382515
25	0x3db894da	0.09012766
26	0x3d96f6a7	0.07371264
27	0xbd2e68fb	-0.042580586
28	0xbdb74f4d	-0.08950672
29	0x3de31ca7	0.110894494
30	0xbda2faaf	-0.0795797
31	0x3cdb3637	0.02675925
32	0x3dee6038	0.11639446
33	0x3dd59db9	0.10430474
34	0xbdbf2360	-0.09332919
35	0x3e014854	0.12625247
36	0x3d40093a	0.0468838
37	0xbd0ee1e1	-0.034883384
38	0xbd79934e	-0.060931496
39	0xbdfad4c3	-0.12247612
40	0x3ce0bd1d	0.027433926
41	0xbcdba2ee	-0.02681109
42	0x3dd58ee1	0.104276426
43	0xbdbc1a1c	-0.091846675
44	0x3cb44c7e	0.02200913
45	0x3da033c9	0.07822377
46	0x3bf6c1be	0.00753042
47	0xbb732394	-0.0037100064
48	0xbd50d74f	-0.050986584
49	0x3c3f4c70	0.011675939
50	0x3dbdc85d	0.09266732
51	0xbd73f541	-0.059560064
52	0x3da0603c	0.07830855
53	0x3dfcc5d2	0.12342419
54	0xbd1c3472	-0.038135953
55	0xbd362c63	-0.044475924
56	0x3dd7f3f8	0.1054458
57	0xbd79f35e	-0.06102311
58	0x3d57bc5e	0.052669875
59	0x3c39797c	0.011320468
60	0xbda753a0	-0.08170247
61	0x3d549e30	0.05190867
62	0xbd1fa7cc	-0.038978383
63	0x3d4b5840	0.04964471
64	0xbdf25841	-0.11833239
65	0x3d57d027	0.052688744
66	0x3da3061c	0.0796015
67	0x3e00f882	0.12594798
68	0xbcd57ea1	-0.026061358
69	0x3d9ed338	0.077551305
70	0x3d63cb9e	0.055614106
71	0x3e01e492	0.12684849
72	0xbd450e1d	-0.048109163
73	0xbdcc7f70	-0.09985244
74	0xbcd50658	-0.026004001
75	0xbc92b1f4	-0.01790712
76	0xbdc01bdc	-0.09380314
77	0x3d1d89a2	0.038461335
78	0xbdca258e	-0.09870444
79	0x3d5f112c	0.054459736
80	0xbd07953f	-0.033101317
81	0xbdcb98b8	-0.09941238
82	0xbce69164	-0.0281455
83	0xbd9f6a88	-0.07783991
84	0xbdca4a26	-0.09877424
85	0xbddc4cf3	-0.107568644
86	0x3d16bc1d	0.036800493
87	0x3afa7b47	0.0019110226
88	0x3dddc232	0.108280554
89	0xbd57a0d6	-0.05264362
90	0x3d9d2477	0.07672971
91	0xbbcb342d	-0.006201288
92	0xbd413101	-0.047165874
93	0xbccaec2d	-0.02477082
94	0xbd6ecf93	-0.058303427
95	0x3dc1b5d1	0.09458507
96	0x3cd32461	0.025774183
97	0x3db0c4d1	0.0863129
98	0x3dcd202d	0.10015903
99	0xbdbb05e9	-0.09131987
100	0x3d6c07d5	0.057624657
101	0x3cb06558	0.0215327
102	0xbd4e3c59	-0.05035052
103	0xbd62aab4	-0.055338576
104	0x3dde474a	0.10853441
105	0x3d813cab	0.063103996
106	0x3dc6cc33	0.09706917
107	0xbda89fc4	-0.08233598
108	0x3d4b03c2	0.04956413
109	0xbd3e8dbf	-0.0465219
110	0x3c93bb11	0.018033536
111	0x3b869866	0.004107523
112	0x3d3db0b2	0.046311088
113	0x3d5d23ac	0.053989097
114	0xbc303e73	-0.010757077
115	0xbd81a22a	-0.063297585
116	0x3dc48622	0.09595896
117	0xbc148be7	-0.009066558
118	0xbdeda4d3	-0.11603703
119	0xbc7be387	-0.015374071
120	0xbc0dacc9	-0.008647152
121	0xbc9ac871	-0.018894406
122	0xbc841d0b	-0.01612713
123	0xbdf46a4e	-0.119343385
124	0x3dc95518	0.098306835
125	0xbb454886	-0.0030103042
126	0x3da235d9	0.07920427
127	0x3ddde701	0.10835076
128	0xbdff8cd9	-0.124780364
129	0x3b4e005f	0.0031433327
130	0xbad41616	-0.0016180899
131	0xbcb42ab6	-0.021993022
132	0x3dc3a177	0.09552281
133	0x3afea1f4	0.0019426928
134	0xbdd1ef7d	-0.10250757
135	0xbca4cedb	-0.020118168
136	0x3c68f637	0.014218858
137	0x3da27c24	0.07933834
138	0x3dc5e7d2	0.09663357
139	0xbd251b2b	-0.040309113
140	0xbdc70f59	-0.09719724
141	0xbdccb0c9	-0.099946566
142	0xbe006778	-0.1253947
143	0xbdb933ae	-0.0904306
144	0x3ac83e80	0.0015277416
145	0x3db318ee	0.08744989
146	0x3c64aa71	0.013956652
147	0xbd2f257a	-0.04276035
148	0x3db7f4b4	0.0898222
149	0xbdc79c16	-0.09746568
150	0x3dbf54a9	0.093423195
151	0x3dd328bc	0.10310504
152	0xbba00b7a	-0.0048841806
153	0x3d7485a6	0.05969777
154	0x3dab39c1	0.08360625
155	0x3d2fae05	0.042890567
156	0xba3407a0	-0.00068675913
157	0xbd1efc10	-0.038814604
158	0xbd19bccd	-0.03753357
159	0x3d5762fd	0.052584637
160	0xbd5a4a11	-0.05329329
161	0x3d1c1e95	0.038115103
162	0x3c581832	0.013189362
163	0x3e01c702	0.12673572
164	0x3d813218	0.06308383
165	0xba94436a	-0.0011311595
166	0xbd76731f	-0.06016838
167	0x3db602c6	0.08887248
168	0x3dd60d35	0.10451738
169	0xbc9ac29b	-0.018891623
170	0x3dbd1deb	0.09234222
171	0xbdcc4c69	-0.099755116
172	0x3d1e962c	0.038717434
173	0x3da46ebe	0.08028935
174	0x3dadbc5d	0.08483193
175	0x3c37d218	0.011219524
176	0xbd85749f	-0.06516384
177	0xbdac95f0	-0.08427036
178	0xbdb78c65	-0.08962325
179	0xbced307d	-0.028953785
180	0xbc62a1e5	-0.013832544
181	0x3d5bdb03	0.053675663
182	0xbd32b598	-0.043630213
183	0x3d4bc640	0.049749613
184	0xbcd7bb97	-0.026334567
185	0xbc6f02a9	-0.014588037
186	0x3d672d32	0.056439586
187	0x3da7becf	0.08190691
188	0x3ceef3b2	0.029168937
189	0x3de26c75	0.11055843
190	0xbdd1d737	-0.10246127
191	0x3b93970c	0.00450409
192	0xbdf87bc0	-0.121329784
193	0x3b6c9614	0.0036100196
194	0xbda0e498	-0.07856101
195	0xbdf117fd	-0.117721535
196	0x3ccb7a6e	0.024838652
197	0xbd97d65b	-0.07413932
198	0xbdef9f4a	-0.11700304
199	0xbd89f134	-0.06735459
200	0xbce36968	-0.027760223
201	0xbd8d24d2	-0.068917885
202	0x3db56951	0.08857978
203	0x3de43d49	0.11144502
204	0xbd5cf95d	-0.05394875
205	0x3db592be	0.088658795
206	0x3d59ba7c	0.05315636
207	0x3c033a85	0.008009558
208	0x3c45d716	0.012075206
209	0x3ddbdb67	0.10735207
210	0x3d6d1880	0.057884693
211	0x3d780d88	0.06055978
212	0x3c4c8775	0.012483467
213	0x3d713497	0.058888044
214	0x3dc8f371	0.09812058
215	0xbd24bc2c	-0.040218517
216	0xbd01f618	-0.031728834
217	0x3dd82c36	0.105553076
218	0x3ce9856a	0.028506
219	0x3dc69c96	0.09697835
220	0xbcf7286f	-0.030170647
221	0x3db98d99	0.09060211
222	0xbd0a7ce5	-0.033810515
223	0x3d5ea023	0.054351937
224	0xbdc075b3	-0.09397449
225	0xbce161f2	-0.027512524
226	0x3d9d2224	0.076725274
227	0x3dcc4bfd	0.09975431
228	0x3d1b6d73	0.037946176
229	0x3d338b86	0.04383423
230	0x3ddd2835	0.107986845
231	0x3a32606c	0.0006804529
232	0x3d1b7083	0.037949096
233	0xbd4ced16	-0.05003079
234	0xbde34f4d	-0.1109911
235	0xbb9fafb9	-0.0048732427
236	0xbc7fbbf0	-0.015608773
237	0x3d260038	0.040527552
238	0xbca274d0	-0.019831091
239	0x3ddad559	0.10685224
240	0xbd9e1ba6	-0.07720117
241	0xbdbe82ae	-0.09302269
242	0xbb9d882b	-0.0048074923
243	0xbc676255	-0.014122565
244	0x3d0ce7c0	0.0344007
245	0x3daaeda1	0.08346105
246	0xbdaa2039	-0.08306927
247	0x3dee784c	0.116440386
248	0x3d732191	0.059358183
249	0x3d69d0fe	0.057084076
250	0x3b4f913f	0.0031672267
251	0x3db62c58	0.08895177
252	0xbcadd241	-0.021218421
253	0x3dd6a1c5	0.10480074
254	0x3d1dfca3	0.03857101
255	0xbda7d499	-0.08194847

decoder.weight_ih_l0 f4 [256, 64]
0	0xbd4bc0b0	-0.049744308
1	0x3d55374d	0.052054692
2	0xbd274408	-0.040836364
3	0xbda8bf63	-0.08239629
4	0xbd93d6ec	-0.072187275
5	0x3cace590	0.021105558
6	0x3dc43520	0.09580445
7	0x3db3a472	0.087716
8	0xbd363796	-0.044486605
9	0xbd809ac5	-0.0627952
10	0x3db780df	0.08960127
11	0xbc207a5e	-0.0097948
12	0xbc3b9c30	-0.011450812
13	0xbd1e72a7	-0.03868356
14	0xbdaffd32	-0.08593215
15	0x3d9dd516	0.077066585
16	0x3d7a0b03	0.061045658
17	0xbde7326e	-0.112889156
18	0xbd3e5ed9	-0.046477173
19	0xbdeedfea	-0.11663802
20	0xbda783f3	-0.08179464
21	0x3da1d8b3	0.0790266
22	0xbd9065d7	-0.070506744
23	0xbdc52509	-0.096262045
24	0x3ccb4790	0.024814397
25	0xbd1469b4	-0.03623362
26	0x3d323946	0.04351165
27	0x3a90154b	0.0010992674
28	0xbdd97a86	-0.106190726
29	0xbcc831c5	-0.024437794
30	0xbc647da2	-0.013945969
31	0xbc3d8683	-0.011567715
32	0x3d5c8725	0.05383982
33	0x3c3d5df4	0.011558045
34	0xbd709f73	-0.058745813
35	0xbd815fb7	-0.06317084
36	0xbddf90ae	-0.10916267
37	0x3db769d0	0.08955729
38	0x3dc67891	0.09690965
39	0x3dc781d0	0.09741557
40	0xbcfbecac	-0.030752502
41	0xbd9efd34	-0.077631384
42	0x3dc0d2d7	0.094152145
43	0x3dd6f380	0.10495663
44	0xbd8f20d8	-0.06988686
45	0x3db7325e	0.08945154
46	0xbde86a9d	-0.1134846
47	0xbdf0a24f	-0.11749708
48	0xbd8e86d4	-0.0695931
49	0x3d4d2e8a	0.05009321
50	0xbcb90438	-0.02258502
51	0x3dbd716a	0.09250148
52	0xbdcb4c47	-0.09926658
53	0xbc9aeeb0	-0.018912643
54	0x3d87be36	0.06628077
55	0xbde216cf	-0.11039507
56	0x3da531ae	0.08066116
57	0x3da02a6c	0.07820591
58	0xbdc69d47	-0.09697967
59	0x3d3aea6d	0.045633722
60	0xbcc353e8	-0.02384372
61	0x3df0419e	0.117312655
62	0x3d639cbc	0.055569395
63	0xbdd5927b	-0.104283296
64	0x3ca61b72	0.020276759
65	0xbdaa53bc	-0.08316752
66	0xbdef6638	-0.116894186
67	0xbdab8cc9	-0.08376462
68	0xbc60d062	-0.013721557
69	0x3d81c93a	0.06337209
70	0x3d8004f6	0.06250946
71	0x3d9778b4	0.07396069
72	0x3c82d11d	0.015968854
73	0xbca5184a	-0.020153183
74	0x3d9f0561	0.07764698
75	0x3dd44f6e	0.103667125
76	0x3dd0c602	0.10194017
77	0x3d76572e	0.060141735
78	0xbdfc512c	-0.1232017
79	0x3bb9a00d	0.0056648315
80	0x3ddab2ba	0.10678621
81	0x3caa01b2	0.020752762
82	0xbcc23d84	-0.023710974
83	0x3d1447d0	0.0362013
84	0xbdd4edf2	-0.10396947
85	0x3d413706	0.047171615
86	0xbba72390	-0.005100675
87	0x3dfb79a3	0.1227906
88	0xbdb7f8c2	-0.08982994
89	0x3d08d48c	0.033405825
90	0x3da4a26b	0.08038791
91	0xbd0343bd	-0.032047022
92	0xbd38a1dc	-0.045076236
93	0xbdb8fac8	-0.09032208
94	0xbd925b2c	-0.07146296
95	0x3de8392c	0.1133903
96	0x3da4c405	0.080452
97	0x3db53fbb	0.08850046
98	0x3d41d14c	0.04731874
99	0xbdb69ace	-0.089162454
100	0xbd8f6494	-0.07001606
101	0x3d9425f5	0.07233802
102	0x3df07520	0.1174109
103	0xbdca18d3	-0.09868016
104	0xbdd48fbe	-0.10378979
105	0xbce7e1f0	-0.028305978
106	0x3df5362b	0.11973222
107	0xbd3ea6e0	-0.046545863
108	0xbd3123b3	-0.043246936
109	0xbd97b99e	-0.074084505
110	0x3d9b0399	0.075690456
111	0xbdc0f541	-0.094217785
112	0xbc846098	-0.01615934
113	0xbd8c2407	-0.06842809
114	0x3d305354	0.043048218
115	0xbda9adb6	-0.08285086
116	0xbdc43541	-0.0958047
117	0xbd5b8bed	-0.05360024
118	0x3a9c3ffa	0.0011920922
119	0xbde302a0	-0.11084485
120	0xbda92c24	-0.08260372
121	0x3dacdf74	0.08441058
122	0xbc90c7cd	-0.017673397
123	0x3db37e75	0.08764354
124	0xbdb7889f	-0.08961605
125	0xbd06ef72	-0.032943197
126	0x3d8246bc	0.06361148
127	0x3d8b3273	0.06796732
128	0xbde6ab25	-0.11263112
129	0x3da48837	0.080337934
130	0xbdf22b14	-0.11824623
131	0xbd8caeaf	-0.06869256
132	0xbde92279	-0.11383528
133	0x3d49413c	0.049134478
134	0xbdfc9b14	-0.12334266
135	0x3de99d8c	0.11407003
136	0xbdc221b4	-0.094790846
137	0x3ab039be	0.0013444943
138	0xbae0089c	-0.001709241
139	0xbd824b45	-0.06362013
140	0x3d384910	0.044991553
141	0xbd473a68	-0.048639685
142	0x3d16f8c8	0.03685835
143	0x3cd5ff56	0.02612273
144	0xbdd98df1	-0.10622776
145	0xbcef5d05	-0.02921916
146	0x3cffdb09	0.031232374
147	0xbd0da404	-0.034580246
148	0x3da18bbd	0.07887981
149	0xbd889ece	-0.066709146
150	0xbc4f1054	-0.01263817
151	0xbdb4d1e8	-0.08829099
152	0x3cd1e4a8	0.025621727
153	0xbd9a113e	-0.0752282
154	0x3bb80736	0.005616094
155	0xbc5b65f8	-0.01339101
156	0x3d9fb93c	0.077990025
157	0x3cddc266	0.027070235
158	0x38177941	3.6114132e-05
159	0xbd904486	-0.0704432
160	0x3df56fcd	0.11984215
161	0xbdafdb32	-0.0858673
162	0x3d12ced5	0.03584178
163	0xbe006907	-0.12540065
164	0xbd19b5bc	-0.03752683
165	0xbd4aab34	-0.04947968
166	0x3dcb05c5	0.0991321
167	0x3d920564	0.071299344
168	0x3c958775	0.018253068
169	0x3d13cc00	0.03608322
170	0xbde771c2	-0.113009945
171	0xbc2409a0	-0.01001206
172	0x3dba3f17	0.09094065
173	0x3b9ec280	0.0048449636
174	0xbce5d57d	-0.0280559
175	0x3babe4e9	0.005245794
176	0xbdda44d4	-0.10657659
177	0x3ddda9e0	0.10823417
178	0xbdaa159c	-0.08304903
179	0xbd99aace	-0.075032815
180	0x3df11372	0.11771287
181	0x3d236cb1	0.039898578
182	0x3d8c1244	0.068394214
183	0xbdae7330	-0.08518064
184	0xbde3c7f2	-0.11122121
185	0xbd555200	-0.052080154
186	0xbdee2421	-0.11627985
187	0xbd652105	-0.055939693
188	0xbdd96d26	-0.106165215
189	0x3d55cd52	0.05219776
190	0x3d18205c	0.037140235
191	0x3d3d95b9	0.046285365
192	0x3daf9a33	0.08574333
193	0xbcda6dd7	-0.026663704
194	0x3c8f05d0	0.017458826
195	0x3da4535d	0.08023713
196	0x3de70439	0.11280102
197	0xbcf43528	-0.029810503
198	0x3dd74cde	0.10512708
199	0xbd9e6716	-0.07734506
200	0x3dca1aff	0.0986843
201	0x3d501aca	0.050806798
202	0xbdf3d7aa	-0.11906369
203	0xbdbc3d26	-0.09191351
204	0xbd3aa9c0	-0.045572042
205	0x3cdc32c2	0.026879672
206	0x3d7fd15c	0.06245552
207	0xbce4d1f5	-0.027932147
208	0x3dad9432	0.08475532
209	0xbd7c4a9e	-0.061594598
210	0x3d81dfc9	0.06341512
211	0xbdc1b8d4	-0.09459081
212	0xbde2abb9	-0.1106791
213	0xbd7e9909	-0.062157664
214	0xbdecaef3	-0.115568064
215	0x3dab058c	0.08350667
216	0x3cb5e1f8	0.022202477
217	0xbd89cf41	-0.06728984
218	0x3d73e095	0.05954035
219	0xbdefd5f8	-0.11710733
220	0x3c3ac8e0	0.011400431
221	0xbdb1d36d	-0.086829044
222	0x3c0b74f3	0.00851177
223	0xbdc49050	-0.09597838
224	0xbd812ce6	-0.06307392
225	0xbcecf05f	-0.028923212
226	0xbdcbf37e	-0.09958552
227	0x3d541b1a	0.05178366
228	0xbd1c60c2	-0.038178213
229	0xbc088425	-0.008332287
230	0x3dd02121	0.10162569
231	0xbd1a2aac	-0.03763835
232	0xbdd3b00e	-0.10336314
233	0x3cf0ea18	0.0294085
234	0xbddd25cd	-0.107982256
235	0x3dcb1946	0.0991693
236	0x3b491f50	0.003068883
237	0xbda3ff89	-0.08007724
238	0xbc832f3a	-0.01601373
239	0xbd609687	-0.054831054
240	0xbd99a906	-0.07502942
241	0x3d6a0264	0.057131186
242	0xbda7ef73	-0.08199968
243	0x3cb18ee8	0.021674588
244	0xbcbb003a	-0.022827256
245	0x3c8100c3	0.015747434
246	0xbd701f23	-0.058623444
247	0x3d187478	0.03722045
248	0xbdac0704	-0.083997756
249	0xbd95a06c	-0.07305989
250	0xbdf9016d	-0.12158475
251	0x3decf387	0.11569887
252	0xbd8b9434	-0.06815377
253	0xbdb76111	-0.08954061
254	0x3cfcd6e8	0.030864194
255	0xbda861fa	-0.082218125

decoder.weight_hh_l0 f4 [256, 64]
0	0x3d2edf2e	0.04269331
1	0x3d7dd2a6	0.061968468
2	0xbc093909	-0.008375415
3	0xbdf6c8b9	-0.120500036
4	0xbd45e26a	-0.04831163
5	0x3dfb0973	0.12257662
6	0x3d8e83f5	0.069587626
7	0xbdc748b0	-0.09730661
8	0xbdbb17a9	-0.09135372
9	0xbd4dbc3c	-0.050228342
10	0x3e007038	0.12542808
11	0xbd94ec3c	-0.07271621
12	0x3d8eb426	0.06967954
13	0x3dade917	0.08491724
14	0xbc8be5ca	-0.017077345
15	0xbd34dd29	-0.044156227
16	0xbb890271	-0.0041811992
17	0xbdd24995	-0.10267941
18	0xbddc7ab2	-0.1076559
19	0x3ddb3787	0.107039504
20	0x3c37e607	0.011224276
21	0xbdc74d6f	-0.09731566
22	0xbdd95040	-0.106110096
23	0xbdd8bfc3	-0.10583451
24	0x3d29e0bf	0.0414741
25	0x3d99ceac	0.07510123
26	0x3da8afaf	0.08236634
27	0xbdd549d7	-0.104144745
28	0x3dbb78d8	0.091539085
29	0xbc2e7550	-0.010648087
30	0xbd6f41f3	-0.058412503
31	0x3df71b30	0.120657325
32	0xbde9b039	-0.11410565
33	0x3de8d402	0.11368562
34	0xbdaf0045	-0.08544973
35	0xbdef3886	-0.11680703
36	0x3da02bc2	0.07820846
37	0x3c63272c	0.01386432
38	0x3ddd13e0	0.107948065
39	0xbcf46f2e	-0.02983817
40	0xbcd4ece5	-0.025991866
41	0xbdcd7070	-0.100312114
42	0xbd5fb0dc	-0.054612026
43	0xbd5e6c6e	-0.054302625
44	0x3c256466	0.010094738
45	0x3dc49027	0.095978074
46	0xbd0b7d2f	-0.03405493
47	0x3c87e737	0.016589744
48	0xbca85e7c	-0.020552866
49	0x3d8d7f2b	0.06909021
50	0xbdc00f85	-0.0937796
51	0x3ddaa3d7	0.10675781
52	0xbd68be38	-0.05682203
53	0xbce832c0	-0.028344512
54	0xbd93536b	-0.07193645
55	0xbd1b4106	-0.037903808
56	0xbd818cea	-0.06325705
57	0xbd932ab2	-0.07185878
58	0xbd7681c4	-0.060182348
59	0xbd69ac56	-0.057049118
60	0xbce1377f	-0.027492283
61	0xbdfc5df0	-0.12322605
62	0x3b0ecd21	0.0021789747
63	0x3d7eb0d2	0.062180348
64	0xbdb361c0	-0.08758879
65	0x3decde34	0.115658194
66	0x3bf154d2	0.0073648477
67	0xbc91f76b	-0.017818173
68	0x3cce0a2d	0.025151337
69	0x3d5b50ec	0.05354397
70	0x3d73a2b8	0.059481353
71	0x3d813b4d	0.06310139
72	0x3daa12f8	0.08304399
73	0xbde0bd6a	-0.10973628
74	0x3d8fe2e7	0.070257
75	0xbda8cb6b	-0.08241924
76	0x3deb3351	0.11484397
77	0xbdb5fa77	-0.08885663
78	0x3dd09948	0.10185486
79	0xbd8c59d2	-0.06853069
80	0x3d92af54	0.071623474
81	0xbdfa1456	-0.1221091
82	0x3dcbd9e9	0.099536724
83	0x3d8ba71e	0.068189844
84	0x3ddb7a3e	0.10716675
85	0xbd66fb33	-0.056391906
86	0xbd1fe4f2	-0.0390367
87	0xbbd780c4	-0.0065766294
88	0x3ccd7a2f	0.025082676
89	0xbda6d4b0	-0.08146036
90	0x3e0079c8	0.12546456
91	0xbd3c23cf	-0.045932587
92	0x3dcf887d	0.10133455
93	0xbd5e6637	-0.0542967
94	0xbdef7972	-0.11693086
95	0x3ab1322c	0.0013518981
96	0x3d996977	0.07490819
97	0xbdb59e9b	-0.08868142
98	0xbdf36d01	-0.11886025
99	0x3ca6ff43	0.02038539
100	0xbde79c13	-0.11309066
101	0xba26ee53	-0.00063679105
102	0x3d7c2099	0.061554525
103	0x3d29583b	0.04134391
104	0xbd7233f7	-0.05913159
105	0xbd5fe224	-0.054659024
106	0xbdffc107	-0.12487989
107	0xbb423ce8	-0.0029638354
108	0x3c6d3d1a	0.0144799
109	0x3df37798	0.11888045
110	0x3ac13739	0.0014741189
111	0x3d5e96d7	0.05434307
112	0x3d360b5a	0.04444442
113	0x3e01083b	0.12600796
114	0xbdc8b92f	-0.09800946
115	0xbdaf1b9a	-0.085501865
116	0x3d73312a	0.05937306
117	0xbdbf5ed8	-0.09344262
118	0x3d61e707	0.055151965
119	0xbc98db54	-0.018659271
120	0xbdafeb68	-0.08589822
121	0x3d6604a3	0.056156766
122	0x3d20fa64	0.03930129
123	0x3d5fdd49	0.054654393
124	0xbe0122c4	-0.12610918
125	0xbdd282b2	-0.102788344
126	0x3ced0ab0	0.02893576
127	0xbbb45875	-0.005503709
128	0x3dc24785	0.094862975
129	0xbcf8d4d5	-0.030374924
130	0xbdcc60c1	-0.09979392
131	0x3dc6c92b	0.097063385
132	0xbd833cd6	-0.06408088
133	0x3df0c827	0.11756926
134	0x3db4698c	0.08809194
135	0x3ae8f3cf	0.0017772856
136	0xbd8353dd	-0.0641248
137	0xbd5f79c9	-0.054559503
138	0xbbd5777d	-0.0065144883
139	0xbdb69a5f	-0.08916163
140	0xbd5d519c	-0.054032907
141	0x3ddbd9ab	0.10734876
142	0xbcf656bf	-0.03007066
143	0x3dcdaa30	0.10042226
144	0x3db0b7b2	0.08628787
145	0xbdb5089c	-0.08839533
146	0x3a9d5bd3	0.0012005515
147	0xbd4ecf69	-0.05049077
148	0xbb2c2da2	-0.0026272316
149	0xbd6bdaa7	-0.05758157
150	0x3d9e325c	0.07724449
151	0xbd88f78f	-0.06687843
152	0xbd6819d0	-0.05666524
153	0x3dc59049	0.09646661
154	0xbcc86506	-0.024462234
155	0x3da68c73	0.08132257
156	0x3dd8bd0a	0.10582931
157	0xbcfe503a	-0.031044114
158	0x3cf46ead	0.02983793
159	0x3cebd402	0.028787617
160	0xbd838c6d	-0.064232685
161	0xbdec37f1	-0.115341075
162	0xbd1845eb	-0.037176054
163	0xbcff70ba	-0.031181682
164	0x3d804177	0.062624864
165	0xbd89518d	-0.06705008
166	0xbdea09f0	-0.11427677
167	0x3b81c27d	0.0039599524
168	0xba1d714d	-0.0006005958
169	0x3dfaec25	0.12252072
170	0xbd86f39f	-0.06589436
171	0x3d220f8f	0.03956562
172	0xbd9d7c76	-0.07689755
173	0xbdf8363f	-0.121197216
174	0x3be55b40	0.0069994032
175	0x3d206151	0.03915531
176	0xbdd1009d	-0.10205195
177	0xbde219c0	-0.11040068
178	0x3d9b2af5	0.07576553
179	0xbd2b2e57	-0.04179224
180	0x3d414cd5	0.047192413
181	0x3daf4fa5	0.08560113
182	0xbcdba6d6	-0.026812952
183	0x3a8f0ed3	0.0010914452
184	0x3d1c6d6c	0.03819029
185	0xbcb0942e	-0.021555033
186	0xbc8a0d6d	-0.016852105
187	0x3dd05ecc	0.10174331
188	0x3cf1af7e	0.029502627
189	0xbd9b7816	-0.07591264
190	0xbda7565d	-0.08170769
191	0x3da2b97e	0.07945536
192	0xbd90392a	-0.07042153
193	0xbda44266	-0.08020477
194	0xbd49bba3	-0.04925121
195	0xbd9d3937	-0.076769285
196	0x3daf404e	0.08557187
197	0xbda1d109	-0.079011984
198	0x3de4064f	0.11134016
199	0xbdefce97	-0.11709326
200	0x3d6af964	0.057366744
201	0x3df6d8fd	0.12053106
202	0xbde20d1d	-0.110376574
203	0x3df94505	0.121713676
204	0xbdd063fa	-0.10175319
205	0xbd3350b0	-0.04377812
206	0xbd065d68	-0.032803923
207	0x3db4873d	0.08814857
208	0xbd7ee961	-0.062234286
209	0x3cfead26	0.031088423
210	0x3c98d3c0	0.018655658
211	0x3d5f1a8b	0.054468673
212	0xbdc176fe	-0.09446524
213	0xb8cee212	-9.864954e-05
214	0xbdcf2bc1	-0.10115767
215	0xbcf7c231	-0.030243965
216	0x3d7e679b	0.062110525
217	0xbd7fbb30	-0.062434375
218	0x3d9b1e00	0.075740814
219	0x3d255806	0.04036715
220	0xbdbdf5db	-0.09275409
221	0xbca58d07	-0.020208849
222	0xbd945956	-0.07243602
223	0x3dffb400	0.12485504
224	0xbcf677a7	-0.030086352
225	0xbde3da55	-0.11125628
226	0x3c71ebb0	0.014765665
227	0xbd9825c1	-0.07429076
228	0xbd6b7717	-0.05748662
229	0x3caa9811	0.020824464
230	0x3daf78de	0.085679755
231	0xba4dc376	-0.00078492553
232	0xbd823fb5	-0.063598074
233	0x3d34f35d	0.0441774
234	0xbd5df7b7	-0.054191317
235	0xbc2e46a8	-0.010636963
236	0x3ddde041	0.10833789
237	0x3c5f2f50	0.01362212
238	0x3d746e04	0.05967523
239	0x3bc24ade	0.005929335
240	0x3dbcdced	0.09221826
241	0xbde2c49b	-0.11072656
242	0xbd5d5577	-0.054036584
243	0xbd940cfc	-0.07229039
244	0x3d76d13b	0.06025813
245	0x3d52d134	0.051469043
246	0xbd94a04b	-0.07257136
247	0x3d05bd3d	0.032651175
248	0xbdcb9c25	-0.099418916
249	0xbd39c2ec	-0.045351908
250	0xbdcb84ab	-0.09937414
251	0xbd575a30	-0.052576244
252	0x3d09df97	0.033660498
253	0xbda1fe8f	-0.07909881
254	0x3deca168	0.11554223
255	0x3c0d5b5b	0.008627738

decoder.bias_ih_l0 f4 [256]
0	0xbdc602d9	-0.09668512
1	0x3d684493	0.056706022
2	0x3d2075aa	0.039174713
3	0xbc932e96	-0.01796655
4	0x3db447b3	0.08802738
5	0xbd0c38ff	-0.034234043
6	0x3d7e61ea	0.062105097
7	0xbd86c8f2	-0.06581296
8	0x3d59a01e	0.053131215
9	0x3d3de7de	0.046363704
10	0xbcd6fd26	-0.026243757
11	0x3de2ad3a	0.110681966
12	0x3d047451	0.03233749
13	0xbd55df05	-0.05221464
14	0xbc506887	-0.012720234
15	0xbb851945	-0.0040618503
16	0xbbf273c4	-0.0073990542
17	0x3dab97d4	0.08378568
18	0xbddc054b	-0.10743197
19	0x3dba350a	0.09092148
20	0x3a20b5e4	0.00061306194
21	0x3d6dc88c	0.058052585
22	0xbd808c03	-0.06276705
23	0xbc50ec92	-0.012751715
24	0x3dbfb3e4	0.09360483
25	0xbd9206d0	-0.07130206
26	0x3d4afdf4	0.049558595
27	0x3ca0300d	0.019554162
28	0xbdfa1657	-0.12211292
29	0xbc19f302	-0.0093963165
30	0x3d90ef45	0.07076887
31	0x3df52c15	0.119712986
32	0xbdaaffe0	-0.083495855
33	0xbd262b65	-0.040568728
34	0x3d2bd4ee	0.041951112
35	0x3d2b004e	0.041748337
36	0x3dca3640	0.098736286
37	0x3b6c71e0	0.0036078617
38	0xbdbb09ba	-0.091327146
39	0x3b45d3f9	0.003018616
40	0x3d775135	0.06038018
41	0x3b322da1	0.0027187841
42	0xbd2b290f	-0.041787203
43	0x3d3578f8	0.044304818
44	0x3dab4be1	0.08364082
45	0x3d876dbe	0.066127285
46	0xbd9fbc2c	-0.07799563
47	0x3de90284	0.11377433
48	0x3da5ee3b	0.081020795
49	0xbde3103d	-0.110870816
50	0x3db7752d	0.089578964
51	0xbd9bf055	-0.07614199
52	0xbd8fd151	-0.07022346
53	0x3c24fc7a	0.010069961
54	0x3dfa44c8	0.1222015
55	0xbd0db973	-0.034600686
56	0x3db3849a	0.08765526
57	0xbc518d1c	-0.012789991
58	0x3dde9b7f	0.10869502
59	0x3dfa33de	0.12216924
60	0xbda1db70	-0.079031825
61	0xbd448d65	-0.047986407
62	0x3c6e903f	0.014560758
63	0xbcf6a7d3	-0.030109322
64	0x3dcb870c	0.099378675
65	0x3d27e89b	0.040993314
66	0xbd3b938d	-0.045795012
67	0x3b4ed2be	0.0031558718
68	0xbd874988	-0.06605822
69	0x3dcbfa96	0.09959905
70	0xbcba0da5	-0.022711584
71	0xbd8cc269	-0.06873018
72	0xbda8c034	-0.08239785
73	0xbb795355	-0.0038044055
74	0xbd05eb06	-0.03269484
75	0xbde5f54f	-0.112284295
76	0x3c0ca88e	0.008585108
77	0xbd8d3924	-0.06895664
78	0x3d89f910	0.06736958
79	0xbd9f6bcf	-0.07784235
80	0xbdbf5846	-0.09343009
81	0xbde2614f	-0.110537164
82	0xbbdd3d62	-0.006751702
83	0x3d150c5f	0.03638875
84	0x3d8ca4e0	0.06867385
85	0xbc858b02	-0.016301636
86	0xbdc8d8d7	-0.09806984
87	0x3d63fd6a	0.055661596
88	0xbcefe5da	-0.029284406
89	0x3db52948	0.088457644
90	0xbdceb2e9	-0.10092718
91	0x3d45b1bf	0.048265215
92	0xbdd1d105	-0.102449454
93	0xbdd031a4	-0.10165718
94	0xbdc638db	-0.09678813
95	0x3d9f345b	0.07773658
96	0x3cc68089	0.024231212
97	0x3d1156e1	0.035483245
98	0x3dbb0da2	0.0913346
99	0x3db00fe9	0.085967846
100	0x3de11d05	0.10991863
101	0xbc8c1b36	-0.017102819
102	0xbdd77294	-0.10519901
103	0x3d82a9dc	0.06380054
104	0x3d193723	0.037406098
105	0x3c8830f9	0.016624914
106	0xbd372971	-0.044717256
107	0x3d7172fd	0.058947552
108	0x3dc5cf9d	0.0965874
109	0x3df686a3	0.12037399
110	0x3d061c0a	0.032741584
111	0x3dd86dd0	0.1056782
112	0xbd0d09f6	-0.034433328
113	0x3cffd01c	0.031227164
114	0x3d96b82f	0.07359349
115	0xbd46fdb0	-0.04858178
116	0xbd537fe2	-0.05163563
117	0xbcb6d4f7	-0.022318346
118	0x3d34ff4d	0.044188786
119	0x3d8f6281	0.0700121
120	0x3d92a79e	0.07160877
121	0x3d13eb01	0.03611279
122	0xbdd1cc31	-0.102440245
123	0x3dd2a292	0.10284914
124	0x3af1c551	0.0018445646
125	0x3bf70b88	0.0075392164
126	0x3ddee2d3	0.10883107
127	0xbdf6f5a9	-0.12058575
128	0xbdd2cd93	-0.102931164
129	0xbbdaaec6	-0.0066736666
130	0xbd6a17e7	-0.0571517
131	0x3d0bf291	0.034166876
132	0x3b716a48	0.003683703
133	0x3d29e6e5	0.041479964
134	0xbdec3a92	-0.11534609
135	0x3d98a71f	0.07453751
136	0xbd70b044	-0.05876185
137	0x3d84972a	0.06474145
138	0x3df7792a	0.12083657
139	0xbd928f4b	-0.07156237
140	0x3dafc767	0.08582955
141	0xbd156947	-0.036477353
142	0xbdeaca2c	-0.114643425
143	0x3cd44960	0.025913894
144	0x3d3a58d9	0.045494888
145	0x3cc8f4d0	0.024530798
146	0x3dda49ae	0.106585845
147	0x3c04f731	0.008115576
148	0x3dd2af4f	0.10287344
149	0xbca0a0b7	-0.019607885
150	0xbd42b670	-0.047537267
151	0xbdebb1d1	-0.11508525
152	0xbdafebc3	-0.0858989
153	0xbdd6a668	-0.10480958
154	0x3cf40311	0.029786618
155	0xbb031bdb	-0.0020005617
156	0x3da1eea2	0.07906844
157	0xbdbecead	-0.09316764
158	0x3da83103	0.08212473
159	0x3db340e0	0.08752608
160	0xbdb6449b	-0.08899804
161	0xbcc1d8c4	-0.023662932
162	0xbc423e7a	-0.011855716
163	0x3df73084	0.120698005
164	0xbdebaa38	-0.11507076
165	0xbdaafba4	-0.08348778
166	0x3dc66754	0.09687677
167	0x3c9c766d	0.019099439
168	0xbd6d6429	-0.05795685
169	0xbd4fa710	-0.050696433
170	0x3dd7c21d	0.10535071
171	0xbd853aab	-0.06505331
172	0x3dbcf999	0.092272945
173	0xbbd7bdd6	-0.0065839095
174	0x3dc19df2	0.09453954
175	0x3d6cb424	0.057788983
176	0x3c607dea	0.013701895
177	0xbd5990d5	-0.05311664
178	0x3dc00d9f	0.09377598
179	0x3dbc200e	0.091858014
180	0x3d665341	0.05623174
181	0x3dbe913a	0.093050435
182	0xbd554f3c	-0.052077517
183	0x3dbc85dc	0.09205219
184	0xbda6869c	-0.081311435
185	0x3deeaf1b	0.116544925
186	0x3dced88a	0.10099895
187	0x3cb91b7f	0.022596119
188	0xbab801e9	-0.0014038655
189	0xbd689c31	-0.05678958
190	0x3ce8fabc	0.028439872
191	0x3dd58b11	0.104269154
192	0x3b681e92	0.0035418612
193	0xbca6b872	-0.020351622
194	0xbb591bca	-0.0033128136
195	0x3dabff00	0.08398247
196	0x3b314973	0.0027051836
197	0xbd686365	-0.056735415
198	0x3ca76276	0.020432692
199	0x3d2c506c	0.042068884
200	0xbc94003e	-0.018066522
201	0x3d67d61b	0.05660067
202	0x3d1409c2	0.03614212
203	0xbdd7a8f4	-0.10530272
204	0xbdfc0ee8	-0.12307531
205	0xbdc4e567	-0.096140675
206	0xbd07a703	-0.03311826
207	0x3d903987	0.070422225
208	0xbcceb38b	-0.025232097
209	0x3d8f37c1	0.06993056
210	0x3d17f162	0.037095435
211	0xbdd2f11d	-0.10299895
212	0xbbbb4438	-0.0057149194
213	0xbdf4f530	-0.11960828
214	0xbd80efd6	-0.06295745
215	0xbd71919d	-0.05897676
216	0x3cf4fd7e	0.02990603
217	0x3d5f97ca	0.054588117
218	0xbd34e0a2	-0.04415954
219	0xbd0975c4	-0.033559576
220	0x3dc7d349	0.09757096
221	0xbd8c5d2f	-0.06853711
222	0x3df3b32e	0.1189941
223	0x3d1fbe03	0.03899957
224	0x3cc0be11	0.02352813
225	0x3da0b01c	0.0784609
226	0x3d057540	0.03258252
227	0xbd76f3a5	-0.06029095
228	0x3d2fea89	0.04294828
229	0x3da593e7	0.08084851
230	0x3b1eadc3	0.0024212457
231	0xbdc3d8e1	-0.09562851
232	0x3d1e9cf1	0.03872389
233	0xbbdfd895	-0.0068312385
234	0xbc8d0913	-0.017216241
235	0xbd7d7cd3	-0.06188662
236	0x3cd2e9ff	0.025746344
237	0xbd84bac3	-0.064809345
238	0x3ce4bd8e	0.027922418
239	0x3dab8f34	0.08376923
240	0x3dd99c93	0.10625567
241	0x3db1675d	0.08662293
242	0xbdb30ec2	-0.08743049
243	0x3df3fa0d	0.11912928
244	0x3de2777d	0.11057947
245	0xbc018a75	-0.007906546
246	0xbbd780f6	-0.0065766526
247	0x3d804bdb	0.06264468
248	0xbda9c969	-0.08290369
249	0x3dbf8e9f	0.09353375
250	0xbdf41cc9	-0.11919553
251	0xbda8a1a9	-0.08233959
252	0x3d3076c9	0.043082032
253	0xbd720c55	-0.059093792
254	0xbd9bbbba	-0.076041654
255	0x3b9dd844	0.0048170406
