lstm_ts.pth (torch, 205503 bytes, 9 tensors)

lstm.weight_ih_l0 f4 [256, 1]
00000000: 6af4 6f3d c06b e3bd 1af1 1b3c e4dd 863d
00000010: 7007 b03c ddad 9cbd 8064 04bb 38f8 69bd
00000020: 856d 0f3d 61ef 993d 4e1b 5a3d 4298 943c
00000030: fe6e 583d be7e d13a 0d38 cdbd 9298 1f3d
00000040: d2c9 cfbd 04d9 cfbd 8bf8 693d c832 c2bd
00000050: c1e5 e2bc e80e 9d3c d45f 003c 3919 1e3c
00000060: e965 fabd 8e97 cb3d 4629 f0bc 6f9c d2bd
00000070: 0c8d cebc b83a 6c3d 784e 8e3d 4bb0 e1bc
00000080: cab7 493c 2a3c bb3d 3785 31bd 8df5 963d
00000090: 82d0 ea3d 03e2 493d 0ece c7bd ea93 c0bd
000000a0: 9664 ebbc 5515 8f3d 40cb d139 1e06 cdbd
000000b0: 388f 833d 3a4b f5bd c737 943d abfa a7bd
000000c0: 436e b3bd 74a5 d9bc 9425 713b b94a 80bc
000000d0: 72a3 083c 3dde 6abd 70e9 d7bc aa65 df3d
000000e0: 6094 cabd 7bd8 c43d 3c3b c5bb 15a4 d2bd
000000f0: 2181 babc 1505 93bc 1c33 c4bd d853 2ebc
00000100: 6e37 c23c abb8 14bb 58ba a13c d548 ed3c
00000110: afea 13bc 9549 bbbc c497 bdbd 2c1e 123d
00000120: 376b 86bd 7d9a 18bb e0af f8bc ee81 51bc
00000130: 2570 f0bd ae63 9fbd 2cd1 93bd 0b0e c9bc
00000140: b4a5 cc3c 0022 d6bd f183 a8bd c8ba 97bd
00000150: 19b0 5ebd d2c4 8fbd bb4d 023d ec74 0f3d
00000160: 523b c0bc 74de 3a3d 5c58 88bc 4a21 cd3d
00000170: 740d a0bd 6f9e f8bd 8d3a c7bd 840b b0bc
00000180: 4df3 48bd 29ab 54bc 8102 46bd 4141 053d
00000190: c8e2 ddbd 1e45 273d eeb4 65bd 14e4 f03d
000001a0: 6a18 e5bd 6c79 f53d 5398 9f3d 45f0 743d
000001b0: 4a86 783c e8bd 97bd 75f2 913b 1ee1 d0bd
000001c0: ee9b b5bd 9be9 b7bd 80f1 c93d aa21 e4bd
000001d0: 7953 f93d 9204 30bd 6b61 babd 0acb b63c
000001e0: fbbf a0bb 2aa0 85bd da49 8b3c f9cb a6bd
000001f0: 9bef 443d fe35 bd3d 1446 593d 55fd ef3d
00000200: 13b4 583c 758a d23c 4585 0d3d 09fd ea3d
00000210: 0671 a2bd d632 143d 81b1 2e3d 8209 853d
00000220: c57b 6e3d 66f8 78bc 9b79 53bd 8ad1 a4bd
00000230: 3742 9a3d 1cc8 abbd 4733 ce3d ebb2 f03b
00000240: 7cee eb3d 4733 ad3d 9d47 4dbd 7a12 e73d
00000250: 34db 98bc 1be0 65bc ae38 e83d 278d 413d
00000260: 5d22 bbbd a23b 0fbd 2b27 8ebd 3fca 1f3c
00000270: 3164 f4bd 628a 813d 2ccf 873d 27d7 0e3d
00000280: cd9f 0f3d ea26 cd3c 4eb8 db3d f3a8 203c
00000290: 9766 a23d aa7d ebbc 5532 4a3d f5f7 c8bd
000002a0: 21a3 f63d 54b7 ec3d 549f ad3c 1404 92bb
000002b0: a772 fe3d 6bb5 c33d 498f ed3d 652a f13d
000002c0: 7d46 23bd bf24 f23d c083 9dbc cda8 ce3d
000002d0: 54ab 05bd 57ef bb3d 563b 48bc 2c83 cbbd
000002e0: 57fd 97bd 9358 563d 234b 78bd a86e 183c
000002f0: bd31 efbc 2297 253b a08b c53d 9f06 2f3d
00000300: ff6a b03c c5b6 893d 1ffc 91bc 4d72 843d
00000310: fcdd 93bd db1e 583b 8da9 cb3c 267b 5e3b
00000320: 8e84 debd 3c01 39bc a450 db3d 204c 8a3d
00000330: 195c a03d 87f0 f63d e07d cabd 6c76 fa3c
00000340: 9c41 e4bc 4262 a53d 3d46 d63d 0c5f ebbd
00000350: 0148 863d 0b4c d7bd d598 083c e8f1 913d
00000360: b65a f1bd 848d 1a3d fd98 fdbd c190 f6bd
00000370: 4c7f 48bc e935 b8bd 96e5 3ebb 70cd a63c
00000380: e042 f33c 644d 603c 6a72 b73d f6a4 d4bd
00000390: 8de0 f6bd 23ae dabd 0476 f4bd 3087 c73d
000003a0: ab56 f8bd 7807 743c 15c8 45bc f3fc ca3d
000003b0: 4e16 fc3d cd8b fabd 228a a23c 7fe4 61b9
000003c0: a420 1a3d fdb1 ebbd 8685 b6ba c798 dbbd
000003d0: 96d8 da3d e804 be3d 6c91 ac3d b854 3cba
000003e0: 2d84 4fbc 9ba5 b73b c525 813d 03f1 853c
000003f0: cc21 13bd c52b 193c 6cb2 8abd 46da 1cbd
0.0585827 -0.11104536 0.009517932 0.06585291 0.021487921 -0.07650349 -0.0020201504 -0.057121485
0.035016555 0.07516361 0.053248696 0.018139008 0.052840225 0.0015983207 -0.100204565 0.03896386
-0.10145916 -0.10148814 0.057121795 -0.09482342 -0.027697446 0.019172147 0.007835347 0.009649568
-0.12226469 0.09941016 -0.029316556 -0.102837436 -0.02521374 0.057673186 0.069485605 -0.027549883
0.012311885 0.09142335 -0.043339934 0.07371054 0.11465551 0.049287807 -0.09756099 -0.09403212
-0.028734487 0.06986491 0.0004001502 -0.100109324 0.06423801 -0.11977239 0.07237201 -0.08202108
-0.08761265 -0.026568152 0.003679608 -0.01566063 0.00833975 -0.05734085 -0.026356429 0.10908063
-0.098915815 0.09611603 -0.006019024 -0.102852024 -0.022766652 -0.01794676 -0.09580061 -0.010640107
0.023708072 -0.0022693078 0.019742176 0.028965393 -0.009028121 -0.022862235 -0.092574626 0.035673305
-0.06563418 -0.0023285442 -0.030357301 -0.012787325 -0.1174014 -0.07782684 -0.07217631 -0.024542829
0.024981357 -0.10455704 -0.08228291 -0.074086726 -0.05436716 -0.07019962 0.03181241 0.035023615
-0.023465786 0.045622304 -0.016643696 0.10016115 -0.07815066 -0.12139594 -0.097279646 -0.021489866
-0.049060155 -0.012980261 -0.04834223 0.032532934 -0.10834271 0.0408374 -0.05608075 0.117622524
-0.11186297 0.1198605 0.077927254 0.05979945 0.015168736 -0.074092686 0.004453952 -0.10199188
-0.08867632 -0.089801036 0.098605156 -0.111392334 0.12174124 -0.04297311 -0.09100612 0.022313613
-0.0049056984 -0.065246895 0.017002989 -0.081443734 0.048080068 0.09238814 0.053045347 0.11718241
0.013226527 0.025700787 0.034550924 0.11474044 -0.07931714 0.036181293 0.04264975 0.06495954
0.058223505 -0.015195942 -0.051629644 -0.08047779 0.07532161 -0.08387777 0.10068374 0.0073455474
0.11520097 0.08457046 -0.050117124 0.11282821 -0.018659212 -0.014030482 0.11338936 0.047253754
-0.09137414 -0.03496898 -0.069410644 0.009752809 -0.119331725 0.063252226 0.06631312 0.034873154
0.035064507 0.02504297 0.10728513 0.009805906 0.07929724 -0.028746445 0.049364407 -0.09812919
0.12042833 0.115584046 0.021194138 -0.0044560526 0.12424212 0.09556087 0.11599595 0.11775664
-0.039862145 0.11823415 -0.019227862 0.1009079 -0.032634094 0.0917651 -0.012221178 -0.099371284
-0.074213676 0.052330565 -0.06061853 0.009303726 -0.029198522 0.0025267084 0.09645772 0.042730924
0.021535395 0.06724314 -0.017820416 0.06467114 -0.072200745 0.0032977376 0.024861122 0.0033947914
-0.108651266 -0.011291798 0.1070874 0.06752801 0.07830066 0.12057596 -0.0988729 0.030574046
-0.027863316 0.08075382 0.10462616 -0.11492738 0.065567024 -0.10512551 0.008337219 0.07126218
-0.1178488 0.037732616 -0.12382696 -0.12039328 -0.012237381 -0.089946575 -0.0029128543 0.020361632
0.029694974 0.013690326 0.089573696 -0.10383026 -0.120545484 -0.10677745 -0.11936572 0.09742582
-0.121259056 0.014894359 -0.012071629 0.099115275 0.12308942 -0.12233696 0.019841257 -0.00021542794
0.037628785 -0.11508558 -0.0013925291 -0.10722499 0.10685842 0.092782795 0.084261745 -0.0007184255
-0.0126657905 0.0056044585 0.06306032 0.016350275 -0.035920903 0.009348814 -0.067723125 -0.0382941

lstm.weight_hh_l0 f4 [256, 64]
00000000: 2d2c dd3d 111a bd3d e3d4 e9bd ca62 9a3b
00000010: b604 aabd 26b2 a8bd 6c9e 06bd fa72 913d
00000020: b0b6 4f3d f809 4f3d f28d b83d ed6a b93d
00000030: 9e78 493d fd7c 7abd 2de1 f43d 1363 1cbd
00000040: 1074 b03d 8144 5ebc 35ef b93d 378f de3d
00000050: ddf2 c5bd 56d8 c43c 8c54 323b ec2c 0c3d
00000060: d28d 8e3d 906e 453c 1258 e9bd 4f02 b03d
00000070: 45f1 98bd 3ca4 03ba 93bf f4bd 8642 5ebd
00000080: 93b1 aa3b ca8b b3bd 3ff3 43bd ca11 9cbc
00000090: 49aa fbbd 9b65 b1bd e6a0 98bd 8669 b5bd
000000a0: 9377 ec3d cc67 d8bd 7aa8 80bd e8a8 d2bd
000000b0: 68b7 d1bb c3c8 403d bf60 cd3c a0cf 7e3d
000000c0: 200c ef3c 60a2 963d 55ca 9b3d 099d a23d
000000d0: aedc 14bb 899d ea3d c18e 80bc c939 96bd
000000e0: a395 823d 7d9a ba3d 6d7a f3bd 220e e13d
000000f0: 9ef0 70bd bd9f ce3c 89fb 8bbd 509e cfbd
00000100: 24d0 a03d 0874 83bb f68c 8dbd c6f5 b1bd
00000110: ec54 163c 18c7 873c 5b06 b83d 7436 9cbd
00000120: d31f e8bd ee37 71bd 8023 45bd eac9 4c3d
00000130: 6588 e5bd 5fb1 55bd a987 64bc b3e7 a13a
00000140: 9539 053d 5c3a 003d 407a efbd bb28 6fbd
00000150: b0e2 a63c b269 3ebc cc3f a93d a863 92bd
00000160: 7129 a93d bf74 e2bd 4dc4 ca3d 6268 bcbd
00000170: 7c70 d6bd f4e7 c83d f5e0 ec3d 29f4 e03d
00000180: 5848 b93d 8fd8 f0bd 56e4 2b3d 725d f8bd
00000190: f81e b5ba 71c7 133c 2b22 3e3d d9cc b7bb
000001a0: f183 66bd 4740 a4bd e4af 3ebd 0561 663d
000001b0: 9516 9bbd 3ee0 9f3c 7c07 973d b299 143d
000001c0: 0225 6c3d 4aec 0c3d bbde c53d 66f2 e73c
000001d0: 7cd7 d1bd d7de 55bd 4194 eaba 3bf0 f2bc
000001e0: 617a 703c a9ed eebd 7a52 1f3d b596 59bb
000001f0: 463c f73d 6e1f 1ebd 1456 08bc 36bf f13c
00000200: 88e1 a63d 80b7 483d a2d1 cc3c 51cc cb3d
00000210: 7232 fa3d ae78 abbd 6c5c 27bc b6fd a33d
00000220: bf98 7ebc 5bcf b3bd 0abb 21bd 073d ce3d
00000230: d9d1 363c ef62 2dbb 416e 0dbc 00da 54bd
00000240: 70b1 b8bd acb7 c0bc 7a55 ce3c a464 03bd
00000250: d964 22bc 9acf d83d 0d17 813d 47c0 d83c
00000260: 22e0 0cbb 954f 6dbb e0d5 683d b174 7e3d
00000270: 38e6 c53d 7278 d23d 2b80 113d ab58 bdbc
00000280: 1eb8 823c 77a0 dbba 573d bd3c 92a8 b03d
00000290: e14c f53d 1628 42bd 14e4 07bc cac4 c03d
000002a0: 1cc0 d33d 0eab e4bd 728e f4ba f2c9 e33d
000002b0: b501 8dbd 017d 5fbb 655f ec3d 30a6 9e3c
000002c0: fe27 e83c 4fa1 723d 1f79 b0bc 2ad3 393d
000002d0: a0d3 ebbd 8abd 2c3d 5b53 5b3d 3aae 9c3c
000002e0: a9cd 90bd a49b 84bd 5ca0 96bd d89d e1bd
000002f0: 13a5 02bd ed9f b23d 1ed2 353d 5bed 0b3d
00000300: a103 2abc 302c bf3d 7bff 723d c32d b8bd
00000310: 96f5 ebbd 6c42 84bd 3f54 903c b500 203d
00000320: 170e d93d 4765 c63d 2141 49bd d702 19bd
00000330: c297 28bc 947a d1bd bad6 3fbd 2c77 37bb
00000340: 7794 eabd 8cd4 bdbd 2ad1 c539 2224 3dbd
00000350: 9487 6f3d 62c1 1dbc 118c 043d 4f13 af3a
00000360: f1dd c1bb c62f 333d f4e6 5c3d 65d4 99bd
00000370: 211d f63d 57e5 ba3d 73e5 afbd f24d 57bd
00000380: 906e 9dbc cae7 253d c6a7 f63c 1821 0abd
00000390: 41df e6bb f79b cabb 1c11 88bd 766d 3fbd
000003a0: 4a94 febb 0092 ffbd a6db 8b3d 9a10 a7bd
000003b0: 9d4d 9fbd ae41 95bd 09a5 a63d a6bd 883d
000003c0: 420a 37bd e5b9 96bd 45ac 5ebd 1fdf 39bd
000003d0: 5391 d73d e803 af3c a937 d13d 512f ab3d
000003e0: d949 863c 18c7 923d 436b b6bd cb3f cb3d
000003f0: ba6c f8bc be7d c2bd 159d acbd 165a d83d
0.107994415 0.092334874 -0.11417558 0.0047114836 -0.0830168 -0.08237104 -0.032865927 0.07102008
0.050711334 0.050546616 0.09011449 0.090535976 0.049187295 -0.061154354 0.11957011 -0.038180422
0.08615887 -0.013566137 0.09078828 0.1086716 -0.09665463 0.024028938 0.0027211038 0.03422253
0.06960644 0.012050286 -0.11393751 0.0859419 -0.074678935 -0.0005021726 -0.119506024 -0.05426266
0.005209157 -0.08766897 -0.0478394 -0.019051451 -0.12288339 -0.08661958 -0.07452564 -0.088580176
0.115462445 -0.10566673 -0.06282134 -0.102861226 -0.0064000376 0.04706646 0.025070546 0.062209725
0.029180586 0.07355189 0.07606951 0.07940108 -0.0022714543 0.11455829 -0.01569307 -0.073352404
0.06376197 0.091114976 -0.11888585 0.10989024 -0.05882322 0.025222654 -0.06835086 -0.101376176
0.078522 -0.0040116347 -0.06911652 -0.08689456 0.00917552 0.016574427 0.08985587 -0.076275736
-0.11334195 -0.05889123 -0.04812956 0.049997248 -0.11207656 -0.052171107 -0.0139483595 0.0012352377
0.032525618 0.031305656 -0.11693239 -0.058388453 0.020371765 -0.011621879 0.082641214 -0.07147914
0.082598574 -0.11057424 0.09900723 -0.09199597 -0.104706734 0.098098665 0.11566345 0.1098407
0.090470016 -0.11760055 0.041965805 -0.12127198 -0.0013818434 0.0090197185 0.046419304 -0.0056091365
-0.056278173 -0.080200724 -0.04655446 0.05624487 -0.075726666 0.019516107 0.073744744 0.036279388
0.05765248 0.03440503 0.09661623 0.028313827 -0.102461785 -0.05221447 -0.0017896966 -0.029655566
0.014677615 -0.11666424 0.038897015 -0.00332014 0.12072043 -0.038604192 -0.008321304 0.029510122
0.081484854 0.049003124 0.025002304 0.0995108 0.12216653 -0.08372627 -0.010214906 0.08007376
-0.015539347 -0.08779784 -0.039485015 0.10070234 0.01115843 -0.0026456674 -0.008632244 -0.051965714
-0.090182185 -0.023525082 0.025187243 -0.0320784 -0.009911739 0.10586472 0.06303225 0.026458872
-0.0021495898 -0.0036210765 0.056844592 0.062123004 0.09663051 0.10276879 0.03552262 -0.02311357
0.015956935 -0.0016756196 0.023100538 0.08625902 0.11977554 -0.04740151 -0.008294124 0.094125345
0.10339376 -0.111654386 -0.0018658175 0.111225024 -0.06885091 -0.0034101608 0.115416326 0.019366354
0.028339382 0.059235867 -0.02154213 0.045367397 -0.11514974 0.042172946 0.05354629 0.019126046
-0.070704766 -0.064749986 -0.07354805 -0.110164344 -0.03189571 0.0872191 0.044389836 0.034161907
-0.010376842 0.093346 0.059325676 -0.08993103 -0.11521451 -0.064579815 0.017618297 0.039063174
0.105983905 0.09687286 -0.049134377 -0.037356224 -0.010290088 -0.10228458 -0.04683564 -0.0027994616
-0.11454099 -0.09269056 0.00037730607 -0.046177037 0.058478907 -0.009628626 0.03236014 0.0013357195
-0.00591635 0.043746732 0.05393119 -0.07511214 0.12017275 0.09125774 -0.08588686 -0.05256457
-0.01921776 0.040504254 0.030109297 -0.033722967 -0.007045657 -0.0061831432 -0.06643888 -0.04673525
-0.0077691423 -0.12479019 0.06829004 -0.08157463 -0.077784754 -0.07287918 0.08136947 0.066767976
-0.044687517 -0.07359675 -0.054363508 -0.0453788 0.10525765 0.021364167 0.102156945 0.08358634
0.016392635 0.0716688 -0.08907177 0.09924277 -0.030325282 -0.0949664 -0.084283985 0.105640575

lstm.bias_ih_l0 f4 [256]
00000000: 8b60 63bd 5ff7 a0bd 105e 80bd 947f edbd
00000010: 9c0e a1bd 353c a83d dfb9 8c3b 2271 ddbc
00000020: cf4b f83d ae65 c63d 32b3 a6bc 3e22 dbbd
00000030: fd75 68bd edbe 9fbd bf54 cabc 55a2 ff3c
00000040: a824 1dbc f7a1 35bd f0a5 abbd b1e3 953c
00000050: d23a 15bd 6be2 19bd bdc0 6a3d 81d7 913c
00000060: 0526 403d 5ba8 2e3d f017 9fbd 2b76 1bbd
00000070: 56b7 d7bd 1552 f43c a657 07bd 5574 973c
00000080: 86f1 5fbb c5b0 ffba b3e3 dcbc c4e9 b73c
00000090: dc90 f8bd cc7b c0bd ea0d e9bd 7bb9 bcba
000000a0: 860f a4bd 8d19 c53d 8c06 a4bd cf86 ce3d
000000b0: aa3b 1e3d c4d7 c33d af83 ac3d 778b e43d
000000c0: 1416 ee3d 3109 b83c 8348 f93d 673c bb3d
000000d0: 69bb 49bc 7e2b 643d d560 69bd 5692 0f3d
000000e0: 2656 6f3d 5248 233d aedc efbd c85d a1bc
000000f0: a263 1f3c 12cc e5bc 5854 e43d 2bcc 6c3d
00000100: d689 6f3d e7e5 2a3d 73d7 fe3d 839f c0bd
00000110: 82e7 49ba ac70 bfbd b65c f53c 211b 4bbd
00000120: f090 e63d 3cc3 64bd f43f e53b d675 7dbd
00000130: c0ac af3d c521 d43d 3f3d c4bd 9b44 603c
00000140: 6728 783d 072e 153d d736 c73d 6008 c33d
00000150: 5a48 243d 8020 dfbd 57b8 643d e6b0 37bc
00000160: be76 b0bd 1c62 8c39 9957 8bbc 7afd 0bbc
00000170: 80b9 f8bd 5f11 dbbc 4434 b5bd 3d17 35bd
00000180: c12e d3bd 76ce 913d c276 e7bd 83a0 d3bd
00000190: 2ee4 75bd b938 8f3d 49a0 533d 613c e23d
000001a0: f373 c8bd 84bd b7bb 5c6c 963d aadd c03b
000001b0: 520d fcbc 46d4 963d 235c 123d 4726 dbbd
000001c0: a921 c23d 452d b63d 4d12 b03c a618 c0bd
000001d0: f550 debd 9e72 f5bd 54aa 5fbd 311a d33d
000001e0: 2b53 a1bd 48c6 61bd f975 ca3a feef 333d
000001f0: d915 263c 6a58 27bd 69fc 5fbd fbd9 63bd
00000200: be34 9d3d d00f 73bd 62d1 ba3c 90d2 b83c
00000210: 29fd 65bd d7cd 9c3c a6ac e5bd ada6 5bbc
00000220: cb6e b9bd 26a2 0bbd 44b0 933c 05d3 6a3d
00000230: dfc8 713d cb30 803d a98c c1bd 5800 a43d
00000240: cbf0 86bd 3a71 4b3d 69cb c53d 4a45 863d
00000250: fa25 c33d 336c edbc 6ad6 d1bd adc5 a03a
00000260: 9079 c33d cacd 3dbd b361 df3c 6e7f 8c3c
00000270: b8ed 4fbd f6e1 e23d b515 723c 3d02 39bd
00000280: 38e1 d0bd cc76 c3bb 09b2 af3c 4fbe 2bbd
00000290: 5dad 053d 183e 6fbd 8e59 b4bd 65fd cc3c
000002a0: aae9 e73d 8667 bf3c 834c 93bd d3af 3bbd
000002b0: ac54 65bd 7164 113d fc3b 90bd 9b87 3c3c
000002c0: bac6 63bc 42df 38bc a6ef 173d 51c8 b0bd
000002d0: f7ac 593d 986f e13d f68a 6a3d c542 93bd
000002e0: 297f 2bbc 1edf e3bc 6160 383d be0e 02bb
000002f0: 4298 683b b8c8 cebc 0c5d 99bd 1a0a bbbd
00000300: b442 f3bd fdc2 42bd f5c3 bebc 906b 453d
00000310: 5105 95bd bd0d 04bc 8fc2 3b3d 265c c43d
00000320: 3b25 4a3d 3540 08bd 646a ee3d b106 83bd
00000330: d10b e93d dc89 d5bd d8c4 f23d 9441 e43b
00000340: ca64 90bc 55e7 04bd 34dd cc3c 004c f5bc
00000350: 5459 883d 5583 51bd 59f0 953d f0c4 ecbd
00000360: 0951 da3d be23 773d 4477 693d 50bb e7bd
00000370: 2066 25bd 7b16 c83d 9226 0a3d 0496 00bd
00000380: 0944 d1bd 0fcb 9f3d beac dcbd f447 683c
00000390: 60e9 c73a d7e1 693d 4dae ba3d c251 dc3d
000003a0: 5e58 b23d f09d cdbc 3573 4fbd 95e7 6dbd
000003b0: 31fb ddbd 5807 84bd bdc6 f3bd 7f7a e2bd
000003c0: 7774 b53d f861 ddbd 488c 2b3c 1c63 553c
000003d0: 901d 9a3d ac2a 313d 2490 e0bd 6cdc a33d
000003e0: 92a6 373d e401 8c3b b891 fa3b 3ce8 4a3c
000003f0: 33d7 f63d ed5e d93c 3ab2 c6bd 8aa9 b33d
-0.055511992 -0.07859682 -0.06267941 -0.11596599 -0.07864115 0.082146086 0.0042946185 -0.027031485
0.12123834 0.096873626 -0.020349119 -0.106998906 -0.056753147 -0.07800088 -0.024698613 0.031205336
-0.009591259 -0.044343915 -0.083812594 0.018297048 -0.03643305 -0.037569445 0.057312716 0.017802956
0.04691126 0.042641025 -0.077682376 -0.03795449 -0.105330154 0.029824296 -0.033042572 0.018488089
-0.0034171059 -0.0019507637 -0.026964044 0.022450335 -0.12137005 -0.093986124 -0.11379607 -0.0014398539
-0.08010773 0.09624014 -0.08009061 0.100843064 0.03863112 0.095626384 0.08423554 0.11159413
0.11625305 0.02246532 0.12172034 0.0914238 -0.0123127485 0.05570554 -0.05697711 0.035051666
0.058431767 0.039863892 -0.11712013 -0.019698039 0.009728344 -0.02805141 0.111489 0.057811897
0.05848106 0.04172316 0.124434374 -0.094054244 -0.0007702039 -0.09347662 0.029951435 -0.04958642
0.112581134 -0.055850253 0.006996149 -0.061879955 0.08577871 0.103580035 -0.09581994 0.013688232
0.060585406 0.03642085 0.09727257 0.09523082 0.040108062 -0.10894871 0.055839863 -0.0112116095
-0.08616398 0.00026775978 -0.017009543 -0.00854432 -0.12144756 -0.026741682 -0.088478595 -0.044211615
-0.10311652 0.071194574 -0.11301948 -0.103333496 -0.060032062 0.06993241 0.05166653 0.110466726
-0.097877406 -0.005607309 0.07344887 0.0058857994 -0.03076807 0.07364707 0.0357324 -0.1070066
0.094790764 0.08895353 0.021493101 -0.09379701 -0.10855285 -0.11984752 -0.054605797 0.1030773
-0.07877191 -0.055120736 0.0015446536 0.043930046 0.010137045 -0.040855803 -0.054684076 -0.055627804
0.076760754 -0.05934125 0.02280492 0.022561342 -0.056149635 0.01914112 -0.11214571 -0.013406438
-0.09054335 -0.034090184 0.018028386 0.05733015 0.059029456 0.062593065 -0.09450657 0.08007878
-0.06588896 0.04966853 0.09657938 0.065561846 0.09528728 -0.028982257 -0.10245974 0.0012265943
0.095446706 -0.046338834 0.027268266 0.017150607 -0.050763816 0.11078255 0.014775683 -0.04516815
-0.10199207 -0.0059650894 0.021447198 -0.04192954 0.032636035 -0.058408827 -0.08806144 0.025023172
0.11323865 0.023364794 -0.07192328 -0.045821976 -0.055988953 0.03549618 -0.07042691 0.01150694
-0.013902361 -0.011283698 0.03709378 -0.08631957 0.053143468 0.11007613 0.05726143 -0.0719047
-0.010467329 -0.027816352 0.04501379 -0.0019845213 0.0035491143 -0.025242195 -0.074884504 -0.09132786
-0.11877957 -0.047549237 -0.023286799 0.048198283 -0.07276405 -0.008059916 0.045839842 0.095878884
0.049351912 -0.033264358 0.11641386 -0.06397761 0.11379207 -0.10426685 0.11853951 0.0069658253
-0.017626185 -0.032447178 0.025007822 -0.029943466 0.06657663 -0.05115064 0.07321233 -0.11561
0.106599875 0.06033682 0.056998506 -0.11315024 -0.040380597 0.09769913 0.03372819 -0.031393066
-0.10218055 0.07802402 -0.107751355 0.014177311 0.0015252046 0.057100143 0.091152765 0.107577816
0.08708261 -0.025099725 -0.05064698 -0.058082182 -0.108389266 -0.06446713 -0.11903141 -0.110585205
0.088601045 -0.10809702 0.010470457 0.013024118 0.0752517 0.043253586 -0.10964993 0.080010265
0.04483659 0.0042726863 0.0076467656 0.012384471 0.12052765 0.026534522 -0.09701963 0.087725714

lstm.bias_hh_l0 f4 [256]
00000000: 0694 c43d c715 b43d 5fcd 2b3d 5433 c8bd
00000010: 1035 e3bd 7dba d739 2fc7 9dbd 2b06 acbd
00000020: 29df d9bd 2a62 e0bd 12df 98bc a9c8 a83c
00000030: 1625 d63d 841d 253d c909 a33d f678 c13b
00000040: 851e 473d 3ba5 2dbc 1c84 bb3d 3a06 5abd
00000050: 4f74 9b3d c603 93bd 6107 a5bd 97b5 9fbc
00000060: 8722 5ebd 60ea febd 2fa6 613c 2ea5 82bd
00000070: cadc debd e04e a5bd 0675 513d 603e 64bd
00000080: 78a2 db3a 0db8 c6bd 8f62 25bc 744b b93c
00000090: de8e 883d c24e c23d 94f9 f2bd 062f f0bd
000000a0: 1a47 e03d b8c9 4e3d 3419 c3bd 690b e9bd
000000b0: 86e4 02bd 5ae7 eb3d bc62 54bd b5d9 b53d
000000c0: d509 8e3b 578a 883d 9c5a 5f3d 1fa1 c4bd
000000d0: 92b3 9c3c b19d ee3d 215f 993d 2e86 783d
000000e0: 98dd 723b f2fa 3abd 6855 a23d 6226 023c
000000f0: 6261 8c3c 2295 d93d 10bb a03d 95be 9b3d
00000100: 7e9c 3ebd 4fcd 84bc 9361 c6bb 65a5 93bd
00000110: f836 d4bc fc16 9fbc f6af f03b 6394 693d
00000120: 104c 893d 4cc0 8e3d 269e d1bd b6a0 363d
00000130: ccbf f6bc fd89 9dbd b747 9d3c 7575 a4bc
00000140: 7191 20bd a889 89bd 0d48 893d 146f 703b
00000150: 4fe1 b73d fcfa c93d 6dd2 11bd 29f5 0ebd
00000160: 70ed bbbd 20e6 ef3d e149 793d 2e27 c03c
00000170: e1a6 43bd 5f4a e43d ac2d 4b3c c0bc dbbd
00000180: 0e1d 59bd 2a95 ae3d a4df 8c3d 98f5 2d3d
00000190: c156 d7bd 05b7 dcbd 7716 b53d 5f42 3ebd
000001a0: 27e9 b4bd 085f fabd 292c a9bc af14 0bbd
000001b0: ae8a 32bd f2f2 ba3d 1de2 26bd 19b6 9dbd
000001c0: 73f6 c0bc ed45 f53d c518 ff3c f690 aabd
000001d0: dab7 2a3c 8239 e3bd a00f a93d c7c7 653c
000001e0: e58b efbd 3c76 7a3d c754 61bd 4e29 8f3d
000001f0: 9294 403d f21e 69bd 0607 d5bc ab3e 77bd
00000200: 5c02 8f3d 6af4 cbbd 84cf ecbd 662b 5cbd
00000210: 69f7 06bd be52 45bd 90b5 df3d eee2 48bd
00000220: a6dd 763d ae89 d63d c435 4bbd 5009 fc3d
00000230: 93a6 9a3d 00ce 95bc 2f38 c03d d082 7d3b
00000240: 6d3f aa3d 5a74 1d3d 35e7 95bd 4a5e c6bd
00000250: 4aa8 8bbd af88 f03d 74f3 dcbd 4eaa a5bd
00000260: 5487 ea3d 7e7a 193d 8059 953d 1bba a83d
00000270: f42a 7a3d 8c9d ccbd 748c 66b8 d26b c5bd
00000280: 187e bebd 82ec c5bd 1ea3 cb3d a515 a6bd
00000290: d525 9ebd 50f6 49bd 56f7 f5bd af65 f03d
000002a0: dae1 c7bc 137f e03d 2b80 d73d cf88 eabd
000002b0: f242 dd3c 05ef bd3d 5c8a a53d e584 78bd
000002c0: 3845 18bd 4c04 e93d 16f9 6a3d f42e bcbc
000002d0: 97f2 0b3d c4a9 a0bb de27 8c3d 3b7d c13d
000002e0: b739 7e3c 7be6 32bd 6434 b43d e6ac babd
000002f0: f03c e9bc f901 a4ba 14e9 153d 234b a2bc
00000300: 2173 a7bc 030f 8e3d 7d99 bcbd 910a e5bd
00000310: 3b10 c0bd dfcc 3d3d e120 c73d b0f9 9abd
00000320: fcac b23d b229 febc 666f 4d3d 1fc2 90bc
00000330: 9e30 343d 1954 44bd 02bf a33d a6b7 77bd
00000340: e226 cebc 0b79 fbbd fa9e 1a3d cd2d 0fbd
00000350: 429d 81bd 969d ba3d 6dc5 e63b 22b5 933c
00000360: acd7 43bc ad6d ac3d 8c87 863d 62f7 1b3d
00000370: 08f6 433d e32f 9f3d 8ee9 143d a860 49bd
00000380: 1f72 cfbc 9d86 b73d 387f d03d c535 673d
00000390: b619 4dbd fb50 413d 272f a03c 38e6 b4bc
000003a0: cceb c13d ab1a 55bd b699 953d 0218 af3d
000003b0: fdd4 92bd 586d 49bc 35f0 983d 8dfa a93d
000003c0: 7908 5cbd 4096 003e d0e0 cdbd be1a 9fbd
000003d0: 00d1 453d f9c3 de3d d811 86bd 55e5 0a3d
000003e0: 409e 7abd 961b 91bc ab6e bd3d dfca 82bd
000003f0: d565 24bd e39e 54bd 9bcb 25bd a4e9 98bd
0.09598546 0.08793216 0.041943904 -0.09775415 -0.11094105 0.0004114694 -0.07704007 -0.08399614
-0.106382675 -0.10956223 -0.018661056 0.020603495 0.10456292 0.04031135 0.07960851 0.0059043122
0.04861309 -0.010598476 0.09156057 -0.053228594 0.075905435 -0.07178454 -0.08058048 -0.019495768
-0.054232147 -0.12447047 0.013772531 -0.06379162 -0.10881956 -0.08071685 0.051136993 -0.055723548
0.0016756793 -0.09703074 -0.010094299 0.022618987 0.06667875 0.09487678 -0.118640095 -0.11727719
0.109510615 0.050485343 -0.095262915 -0.113791294 -0.03195622 0.11518736 -0.051851973 0.08879415
0.004334668 0.06667011 0.05452977 -0.09601044 0.019128595 0.11651171 0.074888475 0.06067484
0.003705835 -0.045649476 0.07926446 0.0079437215 0.01713628 0.10624148 0.07848179 0.0760471
-0.04653596 -0.01621118 -0.006054112 -0.07209281 -0.025905117 -0.01942014 0.007345195 0.05702628
0.06703961 0.069702715 -0.102352425 0.04458686 -0.030120753 -0.07692335 0.019199235 -0.02007554
-0.039201204 -0.06715709 0.06703196 0.0036687301 0.08978521 0.098623246 -0.03560107 -0.03490177
-0.09176147 0.11713815 0.060861472 0.023456182 -0.04776657 0.11146998 0.012401026 -0.107293606
-0.053006224 0.085245445 0.068785936 0.042470545 -0.10514594 -0.10777096 0.088421755 -0.046450015
-0.08833533 -0.12225157 -0.02065094 -0.033955272 -0.043589287 0.091283694 -0.040742982 -0.07700748
-0.023555016 0.11976228 0.03113974 -0.0832843 0.01041981 -0.11094953 0.08254933 0.014024681
-0.11696605 0.061147913 -0.05501249 0.069903 0.047016688 -0.056914277 -0.026004326 -0.0603625
0.06982872 -0.09958728 -0.11563018 -0.053752325 -0.032950792 -0.048174612 0.10923302 -0.049044542
0.060269974 0.10475479 -0.04961182 0.12306464 0.07551303 -0.018286705 0.09385716 0.0038682707
0.08312879 0.03844104 -0.0731949 -0.09685953 -0.06819208 0.1174482 -0.107886225 -0.08089124
0.11451593 0.037470333 0.072924614 0.08238622 0.06107612 -0.09990987 -5.496708e-05 -0.09639706
-0.09301394 -0.09664251 0.099432215 -0.08109597 -0.0772206 -0.049307168 -0.12010066 0.117381446
-0.024399687 0.109617375 0.10522493 -0.114518754 0.027009461 0.09274105 0.080830306 -0.060673613
-0.037175387 0.11377773 0.057366453 -0.022971608 0.0341669 -0.00490305 0.068435416 0.09447714
0.01551669 -0.043676835 0.08799055 -0.09115009 -0.02847144 -0.0012512795 0.036599234 -0.019811219
-0.02044064 0.06936457 -0.09208963 -0.11183656 -0.09378096 0.04633796 0.09723068 -0.07567155
0.087244004 -0.031025741 0.050155066 -0.01767069 0.043991677 -0.047931764 0.07995416 -0.060477875
-0.025165025 -0.122789465 0.037749268 -0.03495579 -0.06328823 0.091120884 0.007042578 0.018030707
-0.011953276 0.084193565 0.06568822 0.03807772 0.047842056 0.077728055 0.036355548 -0.049164444
-0.025322972 0.08961222 0.10180515 0.056447763 -0.050073348 0.04719637 0.019553734 -0.022082433
0.09468803 -0.052027386 0.07304709 0.08549501 -0.071695305 -0.012294136 0.07467691 0.08299742
-0.053719018 0.12557316 -0.10052645 -0.077687725 0.04829502 0.108772226 -0.06546372 0.033910114
-0.061186075 -0.01771335 0.09249624 -0.06386351 -0.040136177 -0.05190934 -0.040477376 -0.074664384

lstm.weight_ih_l1 f4 [256, 64]
00000000: 14be 01be a271 15bd da62 dabd dea7 e83d
00000010: 15b1 73bd f491 0a3d e198 8c3d 36e8 ddbd
00000020: 9bc4 823d fdb8 eb3d a6b2 c53d 920a d53d
00000030: 1a73 ba3d ed46 95bd 1d69 33bd 6433 cfbc
00000040: 8455 c5bd 1418 acbd b475 7dbc c856 40bb
00000050: d113 5f3d aba2 15bd 2a34 d13d 1e94 ebbc
00000060: 4755 293b 04b5 973d c305 99bd 853b b43d
00000070: 7253 8fbc 6a0f c4bd cc4b b73c 7896 67bd
00000080: 277e d8bd f6a5 f93d c2c1 57bd ea8a 82bd
00000090: 40ed 093d d25a efbd b6d5 f5bd d6b0 62bd
000000a0: c543 55bd 3f7d a53d 3dbf f23d 397a edbd
000000b0: b7ab 263d b660 4fbd 7a4d 893d 1d00 f0bb
000000c0: 15fe bebc 012d 273d a8f3 153d af24 903d
000000d0: b661 ef3c dd25 e3bd 6156 28bd bfec b83b
000000e0: c7e2 32bd 6d4d 2dbc 2595 2dbd a3b8 103d
000000f0: 765e c43d 0b91 c2bd e0ce bebd d105 2abd
00000100: f12b 29bd f7d1 6f3d f5b7 9cbd 5fe2 1ebc
00000110: f200 4d3d 50a7 2ebd 7473 ee3d 32cc e03d
00000120: d137 913d c0c4 5ebd d72a 863d 779d 0abd
00000130: 87e5 de3d 47a4 d9bd 94fc d7bc 7b42 d13d
00000140: b639 bf3c 8ee9 b6bc 8241 b43d 9f50 933d
00000150: 1d9d b33d ce67 d23c 9e93 123d 6bd5 a93d
00000160: 695a f1bd 1298 09bd 992a afbd 9059 00bd
00000170: 5529 10bc 9fb2 8a3c f2f0 ea3d d648 233d
00000180: 6673 e53d 8a96 96bd a562 933d 2c74 b83d
00000190: bf2f c2bc a3c8 123c c36c 26bb bb31 debd
000001a0: d1e5 9abc 7fce b8bd 3077 e0bd c7f6 6f3d
000001b0: d38d 5a3b 816f 763d 7d35 c2bd 063f a1bd
000001c0: 6fc9 85bb 1caa 533d 43d8 93bd 2dd4 783c
000001d0: 8538 743d a967 0a3c 0da9 643c 6279 a8bd
000001e0: dba5 ecbd c0da 8bbd 07a3 d7bd 9cf2 89bd
000001f0: 5ad7 533c b0e5 b3bc c187 95ba 8533 3ebd
00000200: d169 9cbc 95aa 98bc 23d8 e6bd bc6b d53d
00000210: 9f7b e5bd 72eb 8c3d 0850 da3d 5036 bf3d
00000220: 434b a5bd 0d20 acbc fb94 09bd 09b2 5e3d
00000230: 1c56 02bc 7bd2 9fbd b8d0 813a 485d 6a3d
00000240: a439 083c f361 a5bd 7edf c0bd 259b 9d3d
00000250: 7ff3 d7bc 200a b5bc 7aca e9bc 7a72 00bd
00000260: ee9a 483d 0094 4d3b 6851 46bd b02d fa3c
00000270: 04f8 b3bd 5723 b83d dcc3 9ebd 7ad8 ea3d
00000280: 8128 e33d 241f f23d db54 523d 1b62 953d
00000290: bcc9 a3bd aafd 4f3c 2eae 7f3c c068 153d
000002a0: 6426 dabd 63c7 b0bd d090 c5bd 2c8e 75bc
000002b0: 07d6 d03c 5e6d 82bd 71dd aa3d c2c0 343d
000002c0: c200 033d e7af f3bd 1c90 173d 3706 44bc
000002d0: 98a1 f0bd 3f69 a7bd d8e1 9c3d c22f f83d
000002e0: 52bb f0bb 366d c1bc 664a ae3c d5a8 d2bc
000002f0: bc2f e9bd dec1 b3bb 0c66 d33d a5f7 1c3d
00000300: 4b5f f73d f8b8 213d 922b 9ebd 2eda 85bd
00000310: ef89 22bd 61ae 46bd ef93 fd3d 767f 943d
00000320: f27c f83d ffae 573d 9326 943d 6f53 303d
00000330: b1f4 f03d a150 3cbd 9843 25bc fae7 f23d
00000340: 85d9 a7bd df70 45bd c224 4b3d b45f cdbd
00000350: 2315 963d 0f2d 80bd 8098 3abd 0444 f13b
00000360: 606e 603d 7dc0 ac3d f795 083d e55b ad3d
00000370: ced3 7c3c a3de a4bd bae5 8f3a 97e9 8d3d
00000380: b3f2 ba3d 4695 99bd 6a77 afbd d9d3 e63c
00000390: 130d 7ebd 48ee 4ebd 9155 023d e76b 883c
000003a0: 72d5 9dbc d35b d33d 83c5 9e3d 1efd 633d
000003b0: 76c3 12bd b0c7 853d 3062 a5bb 0755 e1bd
000003c0: d73d edbd 3d03 6e3d 03ed f2bc bcd4 e53d
000003d0: e924 98bd d41b 983d 92dd 723d 8a14 183d
000003e0: be4f b53d 282b 883d fde8 d33d b4c4 dcbd
000003f0: fdd6 aabc fb90 60bc 53c7 b9bb 8b5a 6e3d
-0.12670165 -0.03648532 -0.10663386 0.11360143 -0.05949505 0.033830598 0.06865097 -0.10835306
0.06385156 0.11509893 0.09653215 0.10402407 0.09103985 -0.07288919 -0.043801416 -0.02529306
-0.096354514 -0.0840303 -0.015469957 -0.00293486 0.054462258 -0.036532085 0.10215028 -0.028757151
0.0025838183 0.07407573 -0.07471802 0.08800415 -0.017495845 -0.095732525 0.02237501 -0.056539983
-0.10570937 0.12189858 -0.052675016 -0.06374152 0.033673525 -0.116872445 -0.12003653 -0.055344425
-0.052066583 0.080805294 0.11852882 -0.11595578 0.040691104 -0.05062934 0.067042306 -0.0073242323
-0.023314515 0.040814403 0.03660932 0.07038247 0.029221397 -0.11091206 -0.041098002 0.0056434567
-0.043673303 -0.010577542 -0.042378563 0.035332333 0.095883295 -0.09500321 -0.09316802 -0.041509453
-0.04130167 0.058549847 -0.076522745 -0.009697526 0.05004973 -0.04264003 0.11643115 0.10976447
0.07090724 -0.054386854 0.0655114 -0.033841576 0.108836226 -0.106270365 -0.026365556 0.10217758
0.023342948 -0.022328164 0.08801557 0.07193112 0.08770201 0.025684264 0.03578531 0.08292659
-0.117848225 -0.03359229 -0.08553047 -0.031335413 -0.008798917 0.016930876 0.11471738 0.039864384
0.11203651 -0.07352932 0.07196549 0.09006533 -0.023704408 0.008958968 -0.0025394417 -0.10849329
-0.018908413 -0.09023761 -0.10960233 0.058584955 0.0033348694 0.060164932 -0.09482858 -0.07873349
-0.0040828506 0.0516759 -0.07218983 0.015187305 0.059624214 0.008447566 0.0139563205 -0.08226277
-0.11555072 -0.068288326 -0.10529142 -0.06735727 0.012929762 -0.02196011 -0.0011408256 -0.04643585
-0.019093426 -0.018636027 -0.112716936 0.10420939 -0.112052195 0.06880845 0.10659796 0.09336531
-0.08070996 -0.021011377 -0.033589344 0.054369006 -0.0079551 -0.07803818 0.0009904122 0.057217866
0.008314524 -0.08075323 -0.09417628 0.07695607 -0.026361225 -0.022099555 -0.028538931 -0.031359173
0.048975877 0.0031368732 -0.04841748 0.030539364 -0.087875396 0.089911155 -0.07752201 0.11467071
0.1109171 0.11822346 0.051350456 0.07294103 -0.07997462 0.012694756 0.0156054925 0.03647685
-0.10651854 -0.0863178 -0.096467614 -0.01498751 0.025492681 -0.063685164 0.08343018 0.04412914
0.031983145 -0.11898785 0.037002668 -0.011964372 -0.117495716 -0.08174371 0.07660264 0.12118484
-0.007346549 -0.023611646 0.02127571 -0.025715271 -0.11386058 -0.0054857573 0.10322198 0.03832211
0.120787226 0.03948304 -0.07723154 -0.06535755 -0.039682325 -0.048506144 0.12381732 0.07250874
0.121332064 0.052657124 0.0723392 0.04304832 0.11765421 -0.04597533 -0.010086916 0.11860652
-0.081957854 -0.048203345 0.0495956 -0.100280195 0.0732825 -0.06258594 -0.04555559 0.0073628444
0.05479276 0.08435152 0.033346143 0.08464793 0.015431358 -0.08050277 0.0010978498 0.06929319
0.091283225 -0.07499175 -0.08567698 0.028177189 -0.062024187 -0.05052021 0.031819884 0.016653014
-0.019266818 0.103202485 0.07752516 0.055661313 -0.035830937 0.06532228 -0.0050471053 -0.11002546
-0.11584061 0.058108557 -0.029654032 0.112222165 -0.07428915 0.07427183 0.059293337 0.037128963
0.088531 0.066488564 0.10347173 -0.10779706 -0.020854468 -0.013706441 -0.0056695133 0.058191817

lstm.weight_hh_l1 f4 [256, 64]
00000000: 52d7 8f3d 3385 ee3c a058 af3d 96de a63b
00000010: b5e6 753d 0e41 ec3d c0cd d13d 4871 e1bd
00000020: 4389 0e3d bf8e f13d 6eae c23d 675b e7bd
00000030: fea0 f03d 8b37 1cbd 9c98 bdba ce3f a43d
00000040: f772 433d 05ea c13d 0b2f b73d a560 133d
00000050: 5303 033d 0b85 d6bc 5800 a2bc 8155 033d
00000060: 5e68 55bd 0259 8f3d 8b33 d9bd 7bdc bebd
00000070: 1a44 f63d 3297 05bc ef64 cb3c 230c c53d
00000080: 21b0 ffbd d138 b3bd 296a 56bd d452 a0bd
00000090: 5503 f93d f636 9f3c 1a42 743d 0c09 923d
000000a0: 8f57 53bd c507 943d 99a4 e53d 6865 32bd
000000b0: e086 b63d 3990 3abd 1fb6 d9bd ca90 6d3b
000000c0: a0b1 a83d 4c06 e638 3650 403d dc2e 74bd
000000d0: 3c3e dd3d 15e7 e2bd f1a2 bdbd 98cf ba3b
000000e0: 87bb c2bc 2cdc e43c ac24 ffbd 8686 7dbd
000000f0: 1514 46bd c5e3 e4bd dac2 b03a def1 af3d
00000100: 270d d63d 001a 653d 7c86 703c 26d6 213d
00000110: e2fd 443d 3867 debd b22b 0a3c 5fd9 083a
00000120: c74e b6bb 6a49 e83d 88a1 633d 786f e4bc
00000130: 4145 3f3d c7cb b3bb 041b 80bb 43a6 99bb
00000140: b9ba 9a3c 2021 9e3c 9b52 d5bd 1a47 e2bc
00000150: 26f5 ddbd 34eb d1bd d40a 80bd a519 193d
00000160: 6cc1 a6bd 24f5 d3bd 6b21 bc3d 2f26 b63d
00000170: 64b3 923d 0699 e33d 4b2f a7bd 90ad 97bc
00000180: a805 a2bd 451c b9bb 8e3c 1b3d 7115 a2bd
00000190: b535 f93d 8903 143d 5d54 ffbc 4f93 44bd
000001a0: 0979 f7bd e8e4 dabc 4492 cc3d 018f 68bd
000001b0: 0081 e13d 33a0 563c 4427 3f3d 3e39 15bc
000001c0: d3ed 0a3b 9a41 05bd dbca 6e3d 8057 623d
000001d0: 88d3 93bc 86bb 6d3d db0c b9bc 4d30 fe3d
000001e0: 825f c7bd 6893 f93d 509b edbc 9e4d 773d
000001f0: ec02 49bd 53fd 97bc 5f11 0bbd c21e d03d
00000200: 571b 253c c54f 873d 171c acbd 9dec c2bc
00000210: 32c2 6c3d 2e56 4ebb e3fd d43d bccb adbd
00000220: 4eb9 343c 90fa d73d 6810 803d 6282 b13c
00000230: 656b 9b3d 67d3 edbd 45ec 893b 5417 023d
00000240: 8223 62bd 639f 2f3d c283 423d 24b6 ab3d
00000250: 667d 523d 45ab 24bd 6f30 a53c 2061 fa3d
00000260: 9208 fc3d 7b19 eb3c af3d 2fbd 4428 8e3d
00000270: d1d0 07bc 0524 a93c ba9b 6d3c 3a31 c0bd
00000280: 9ad2 e03d 0336 a23d 2cf9 25bd e8c8 db3d
00000290: 9273 4ebd 200a d7bd d7b6 45bc f1c6 e53d
000002a0: e5ec 25bd c087 ebbd 2149 02bd 5c79 09bc
000002b0: 9adb 2c3d 0caf 933d 9947 04bd 9107 d4bd
000002c0: ebc9 863d 5729 febd 880d 2cbc 7a04 803c
000002d0: 396f acbd a277 f5bc 2425 83bd a42a 3e3d
000002e0: 3f2c d8bb 8e1b af3d bb63 643c 2dbe c63d
000002f0: 0b62 8b3d 79a9 ac3d 7ec5 9cbc d082 973d
00000300: 5472 d6bd 609b 283d 2ba0 66bd bb04 cf3d
00000310: 9801 f8bd 2a29 a0bb 0113 1abd 77b1 40bb
00000320: bd24 c6ba a573 a73c 99e9 87bc 30b1 23bd
00000330: 1ba1 6d3d 19e0 82bd ebf3 533d a9d4 a23d
00000340: d4fc ef3d e703 9c3d 2966 39bd 4f48 f13d
00000350: ce40 eb3c 7aea 56bd 7f44 a9bd a3de 933b
00000360: 07c8 4dbd e35e 50bc 5522 c83c 2bd3 1dbd
00000370: b79f d0bd f592 64bd ac85 da3d b343 a6bd
00000380: ac30 ae3d 42e8 073c c878 fdbd d590 b0bc
00000390: 94de b23d 913f 53bc 1ded febd f7fc c53b
000003a0: 0c3c 52bd 0925 a3bd 8b2d 973d 052e 493d
000003b0: fed5 1b3d 1c47 e1bd cfa9 a8bc 2e2e e13d
000003c0: 69c1 53bd 7d73 803d 3fe9 e3bd 31c8 553d
000003d0: 83a5 cf3d 39d6 f5bd cc70 9f3c defc abbc
000003e0: 9634 57bd a23d e2bb 6476 813d 66c3 a43d
000003f0: 88f2 5f3d 4879 74bd 74c9 5b3d c0f2 713d
0.07023491 0.029116249 0.08561826 0.0050924523 0.060034472 0.11535846 0.10244322 -0.11007935
0.03479887 0.11794805 0.09505926 -0.112967305 0.11749457 -0.038138907 -0.0014465037 0.08019982
0.04771706 0.09468464 0.089445196 0.03598084 0.031985592 -0.026186487 -0.019775555 0.032063965
-0.052101485 0.06999399 -0.10605534 -0.09319397 0.12024708 -0.008153724 0.024828402 0.096214555
-0.12484766 -0.08751071 -0.052347336 -0.07828298 0.12158839 0.019435387 0.05963335 0.07130632
-0.051597174 0.072280444 0.11213035 -0.04355374 0.08912444 -0.045547698 -0.1063044 0.003624963
0.08237004 0.000109684275 0.046951495 -0.059615 0.10802886 -0.11079232 -0.09259594 0.0057010166
-0.02377106 0.027937017 -0.124581665 -0.06189587 -0.048358995 -0.11176256 0.0013485805 0.085910544
0.10451727 0.055933 0.014680501 0.03951087 0.048093684 -0.10859531 0.008433269 0.0005220379
-0.00556359 0.113421276 0.05557397 -0.027885184 0.046696905 -0.0054869386 -0.0039094705 -0.0046890094
0.018887864 0.019302905 -0.10416146 -0.027621794 -0.10837774 -0.102499396 -0.06252065 0.037377972
-0.08142361 -0.10349491 0.091860615 0.08894002 0.07163122 0.11113171 -0.08163317 -0.018515378
-0.07911235 -0.005649122 0.037899546 -0.07914246 0.12168447 0.036136184 -0.031168157 -0.047992047
-0.120836325 -0.02672048 0.099888355 -0.056777004 0.11010933 0.013099718 0.046668306 -0.009107886
0.0021198883 -0.032533266 0.058298927 0.055259228 -0.018045202 0.058040164 -0.022589138 0.124115564
-0.097350135 0.12186319 -0.029004723 0.060376756 -0.049075052 -0.018553412 -0.033952113 0.101621166
0.010077319 0.06607012 -0.08403795 -0.023794467 0.057802387 -0.0031484473 0.103999875 -0.08486125
0.011030508 0.10545838 0.06253129 0.021668617 0.07588843 -0.116125874 0.0042090737 0.03176053
-0.055209644 0.042876612 0.047488935 0.0838435 0.05138912 -0.040202398 0.020164696 0.122255564
0.12306322 0.028698673 -0.042783435 0.06941274 -0.008289532 0.020647058 0.01450246 -0.09384389
0.10977669 0.07920458 -0.040520832 0.10731679 -0.050403185 -0.10499978 -0.012067518 0.11219586
-0.040509123 -0.11500502 -0.031808022 -0.008390751 0.042201616 0.07211122 -0.032294843 -0.10353006
0.065814815 -0.12410229 -0.010501273 0.015627135 -0.084196515 -0.029964272 -0.064035684 0.046427384
-0.0065970714 0.085501775 0.013939793 0.09704242 0.068058096 0.08430762 -0.01913714 0.073979974
-0.10471025 0.041163802 -0.05630509 0.10108324 -0.12109679 -0.0048877196 -0.03761578 -0.0029402652
-0.001511715 0.020440886 -0.01659088 -0.0399639 0.05801497 -0.063903995 0.05174629 0.07950718
0.11718145 0.07617932 -0.045263443 0.1178137 0.028717425 -0.052469708 -0.08265018 0.0045126243
-0.05023959 -0.012717935 0.024430433 -0.038531464 -0.10186713 -0.05580421 0.10670027 -0.08118381
0.08505377 0.008295121 -0.12376553 -0.021553436 0.0873386 -0.012893573 -0.124475695 0.0060421186
-0.051326796 -0.07966048 0.073817335 0.049116153 0.038045876 -0.10999891 -0.020588784 0.10995136
-0.051698122 0.06272028 -0.111284725 0.05219287 0.10138991 -0.1200375 0.019462965 -0.0209946
-0.052540384 -0.00690432 0.06321409 0.08045082 0.054674655 -0.059685975 0.053658918 0.059069395

lstm.bias_ih_l1 f4 [256]
00000000: 85e0 863d 21f6 ad3d 3bcf 54bc 63e9 003d
00000010: 6e17 b1bd 9f63 b1bc 9f00 dfbd efa6 c4bd
00000020: 29d4 ab3b e7ab d1bd 824a e73d acff 8f3c
00000030: b8d1 07bd 8185 b5bc 7cb9 f7bd af69 ed3d
00000040: f3ed adbd 1d82 31bd be6b ed3d f21d 85bd
00000050: bde8 87bd 9ce8 15bd bdad 363c bdeb 4cbd
00000060: a216 f23c e0db 343b 44b6 de3d deda 563d
00000070: 1dda 47bd df2e 993d beee 5e3d a77a 843d
00000080: 5302 d5bd 73f4 23bd 2e2e b4bd fbe6 d8bd
00000090: 215e e0bc d62d 88bc ebc5 debd b572 91bd
000000a0: 7ffb b53d e86c 1bbc b1c7 66bd f9bb c53d
000000b0: 5b4d b53d 43d4 873d bd1b 693d 798b 95bd
000000c0: b0c0 5b3d f382 bdbd df72 e63b 3973 f2bd
000000d0: 797d f53d 53ad b5bc 05fe 96bd b838 1e3d
000000e0: ae13 943c 2ca4 393b abf4 99bd b04a 09bb
000000f0: 724c e63d 4616 9fbd f2dc 9e3d 0b1f 2b3c
00000100: c48b f63d bde9 523d 3459 35bd 0210 e8bd
00000110: e87d 103d a5f0 f63c 5447 98bd e7c6 783c
00000120: 4551 f63d feed 873d 2e0b 593c c85a 27bd
00000130: 1fa8 8b3d eb26 c5bd 7274 9a3d 5329 703d
00000140: 3bf8 513c 1b3d 42bd 5c0e 1d3d 0aea ff3c
00000150: cd37 763d bae0 a7bd ed37 b63d 6e0a 623d
00000160: 86a6 0cbd 91c9 06bd 711b c53d 65a6 a5bc
00000170: c3cc 8abc 7af1 87bd 7df1 27bd 691c e43d
00000180: 3065 293d f2e9 5e3d ce4e 223d e355 80bc
00000190: 198e c63c f94d bcbd 348f 463d d525 d93d
000001a0: eec0 eebd 98fa 70bc de8d b5bd 3909 a8bd
000001b0: 8625 ac3d a103 aebd 8566 bc3d 677b f1bd
000001c0: 4d8a 9abd b875 1a3d 50cf afbd a43d d43d
000001d0: 5f28 bbbd 325c a33d 4f3d 35bd 12e8 b3bd
000001e0: a376 4bbd 90a1 4bbc 350b d33d 5223 febd
000001f0: e577 813c 70b8 a33c 3770 93bd d77c f23d
00000200: d886 9cbc 58e8 623c fbb8 fdbd 4a31 ccbd
00000210: 2cc3 c1bd d208 c33d 41d8 ba3a 12f3 8fbd
00000220: 40ea c6bd 3c0f b33d 98e6 b0bd 8ca0 5a3c
00000230: 1aa5 c63d 3cbc 40bd be09 40bd 45af 8cbb
00000240: 31fa ba3d ea3d 17bd 87c1 2a3d 9a90 3bbd
00000250: 1512 fdbd 0c6f 76bd b57b f53d 3793 e03d
00000260: 2404 1dbd fa8f 7cbd 16ea 9ebc 07cf 043d
00000270: fe04 21bd 9924 9b3d 08f9 37bd 93f1 babd
00000280: 6a47 653d 8e24 29bd 957d ee3d 6a14 f33d
00000290: 78fc 70bd 7eef b33c 9aff 923d afd2 8cbc
000002a0: 86f8 fd3d 7d0a cabd 3bf5 41bd b8b8 3fbd
000002b0: ba66 d13d f6a0 853d 3956 9b3d 6a13 b13d
000002c0: a3ff 3abd 96ad ccbd 72e7 973d c1d4 fc3d
000002d0: 784d f03d a8ba 293c 1e60 29bd 2ffa 703d
000002e0: 6424 8dbd 6f73 b0bd 14d6 173d 3b97 123d
000002f0: 39bf 153d 400c db3c b609 993b 23ac 8abd
00000300: ad81 0cbd 93cd a83b 302f c2bb 6da0 903d
00000310: 1604 c8bd 544e f4bd 7c1f 153d 488b d2bc
00000320: e06c b33c a108 003e faea 3d3d 2e69 e23d
00000330: 7f3b c2bd 7e29 843d 564b 5b3d 2e37 3ebd
00000340: 16ba 6ebd dfa5 ab3c 7700 243c 0a7a 5b3d
00000350: f75b dabd de9d f6bd 7710 2dbd fefd a53a
00000360: 0fcd fcbc 92cd 15bd bd13 30bd 00d9 8ebd
00000370: 05fd 633d 4caa dc3d 3bdd 0a3c 8e16 013d
00000380: 2651 123d 742a 243d 91f6 f0bd e1a1 42bc
00000390: 1f73 42bd 60a9 ea3d e8d1 db3d f705 34bd
000003a0: 12f2 103d fa51 963d 0df3 83bd 6e79 86bd
000003b0: 44ac 1ebd 5cdb dabd ab53 acbd 0b3f a3bd
000003c0: 9b52 143b 1ca0 193d 2140 a33c b1ad 953d
000003d0: 358c 4cbd 9809 a4bd 7eae 37bd 084f b63b
000003e0: fc6b 1bbd 3a04 3c3d 6e83 ebbd a19b d23d
000003f0: d52d 73bd dc9b c93c ddc1 a5bc 644b d2bd
0.065857925 0.08494211 -0.012988861 0.031472575 -0.08647047 -0.021653948 -0.1088879 -0.096021526
0.0052437973 -0.10237866 0.11293508 0.017577969 -0.033158988 -0.022158386 -0.12095925 0.11592423
-0.08492651 -0.043336976 0.11592816 -0.06499852 -0.06636188 -0.036598787 0.011149821 -0.050029505
0.029551808 0.0027596876 0.10874608 0.05245482 -0.048791993 0.07479643 0.0544269 0.064687066
-0.10400834 -0.040028047 -0.087978706 -0.10590931 -0.027388634 -0.016623419 -0.108775936 -0.07101957
0.0888586 -0.0094864145 -0.056342784 0.096549936 0.08852645 0.066322826 0.05691122 -0.07301993
0.053650558 -0.09253492 0.0070327367 -0.11838383 0.11986823 -0.022177374 -0.07372669 0.03862831
0.01807579 0.0028326614 -0.0751737 -0.0020949058 0.112450495 -0.0776792 0.07756986 0.010444413
0.12038377 0.05149244 -0.044274524 -0.11331178 0.035276324 0.030144045 -0.0743548 0.015184141
0.1202722 0.0663719 0.013247294 -0.04085806 0.06819176 -0.09626564 0.075417414 0.05863316
0.01281553 -0.047421556 0.038343772 0.031239528 0.06011181 -0.0819716 0.08897386 0.055185728
-0.034338497 -0.032907072 0.09624375 -0.020220945 -0.016943341 -0.06637855 -0.041001786 0.11138231
0.041356266 0.054422326 0.039625935 -0.015665954 0.02423768 -0.091945596 0.048476413 0.10602919
-0.11657892 -0.014708184 -0.0886495 -0.08204884 0.084055945 -0.08496786 0.091992415 -0.11791115
-0.0754591 0.03770992 -0.085844636 0.103633195 -0.091385596 0.07976569 -0.04424792 -0.08784498
-0.049673688 -0.012428656 0.10304872 -0.124090806 0.01580424 0.019985408 -0.07199138 0.118402176
-0.019107267 0.01384934 -0.12388798 -0.09970339 -0.09461054 0.09523167 0.0014255123 -0.07028784
-0.097126484 0.0874314 -0.08637732 0.013343941 0.096994594 -0.047054514 -0.04688429 -0.0042933547
0.091297515 -0.03692428 0.04168847 -0.0457922 -0.123569645 -0.060164496 0.11986486 0.10965579
-0.038334027 -0.061660744 -0.01939873 0.032424 -0.0393114 0.0757534 -0.04491523 -0.09128108
0.05597631 -0.041294627 0.116450466 0.11869128 -0.058834523 0.021964785 0.071776584 -0.017190306
0.12400918 -0.09865282 -0.04735301 -0.04680702 0.10224672 0.065248415 0.07584805 0.08646281
-0.04565395 -0.099940464 0.074171916 0.12345267 0.11733526 0.010359444 -0.04135143 0.058832344
-0.068917066 -0.08615767 0.037069395 0.035788756 0.036559317 0.02673924 0.004670347 -0.06771114
-0.034303356 0.0051514595 -0.0059260353 0.07061849 -0.09766404 -0.119290024 0.03640698 -0.02570118
0.021902502 0.12503292 0.04636667 0.11055218 -0.09484004 0.064532265 0.053538643 -0.046439342
-0.058282934 0.020953117 0.010009876 0.053583182 -0.10662072 -0.120418295 -0.04225203 0.0012664197
-0.030859498 -0.036573 -0.042987574 -0.06974983 0.05566122 0.10774669 0.008475597 0.03151565
0.03572192 0.04007955 -0.11765779 -0.011879415 -0.04747307 0.11458087 0.10733396 -0.043951
0.035387106 0.073398545 -0.06442843 -0.065661296 -0.038738504 -0.10686371 -0.08414396 -0.07971009
0.0022632245 0.037506208 0.01992804 0.0730852 -0.0499384 -0.08009642 -0.044844143 0.0055636205
-0.03794478 0.04590247 -0.114996776 0.1028359 -0.05936988 0.024610452 -0.020234043 -0.10268286
