lstm_ts.pth (torch, 72479 bytes, 6 tensors)

lstm.weight_ih_l0 f4 [256, 2]
000000 13 5a b2 3b 39 6e 23 3e ed 7d d1 bd 1f 7e f0 bc
       0.0054428666 0.15960015 -0.102290966 -0.029357014
000010 e2 7c 93 bd 92 8b 9d bd 8c b4 d3 bc 62 61 57 bc
       -0.07201554 -0.076926365 -0.025842927 -0.013145776
000020 21 04 6b 3d c2 21 55 3d a4 b8 d0 3d 1c 98 f9 3d
       0.057376985 0.052034147 0.101914674 0.12187216
000030 26 6e c7 bc bc 9f 7b 3d ca 47 ee 3d 4c a7 d9 3d
       -0.024344515 0.06143163 0.116347864 0.106276125
000040 fb 07 94 bd a0 45 d4 bd ad 3c 02 be 48 c8 ad 3d
       -0.07228085 -0.103648424 -0.12718458 0.08485466
000050 30 10 1b 3d da cf 62 bd 2f c3 51 bd 06 5f 66 3d
       0.037857234 -0.055374004 -0.051211532 0.056242965
000060 54 08 99 3c 84 dd d2 3c 6d cc 45 bd 30 3d b0 bd
       0.018680729 0.025740393 -0.04829066 -0.086054206
000070 2f 7e 19 be be 64 04 be d6 e8 8b 3d ed d5 df 3a
       -0.14989541 -0.12929055 0.06831519 0.0017077305
000080 4b 46 99 3d dc 32 88 bb 56 a7 8c 3c ca 71 c8 bd
       0.074841104 -0.0041564535 0.017169636 -0.097873285
000090 09 1d 83 bc 92 da 35 3d 00 80 00 bd 46 3b 5f 3d
       -0.016005056 0.044397898 -0.03137207 0.054499887
0000a0 ed b7 46 bd ea 8a bf 3b 00 fe f9 bb 2d f8 8f 3d
       -0.04851525 0.0058454173 -0.007629156 0.07029758
0000b0 7d 5a a5 bd 94 3d f2 bd 89 23 bb bd a5 b8 c7 3c
       -0.080739 -0.11828151 -0.09137637 0.024380038
0000c0 91 fe 8b bd 25 59 4c bd 76 06 65 bd 6b 8e 64 3d
       -0.06835664 -0.049889702 -0.055914365 0.055799883
0000d0 9c 55 27 bc 3c bd ec 3d 47 8f 2d bd 72 46 03 3e
       -0.010213282 0.11559531 -0.042372968 0.12819842
0000e0 2c 5c 17 3d af 64 89 bd 4c db 62 3d 37 be 8f bd
       0.036953136 -0.06708657 0.05538492 -0.070187025
0000f0 e3 47 83 3c eb 54 b4 3d d7 65 0d 3d b2 35 85 bc
       0.01602549 0.08805259 0.03452095 -0.016260955
000100 cb de 8e 3d 44 fb f6 bb e4 7e 9d 3d 35 62 0f be
       0.06976088 -0.0075372774 0.07690218 -0.14002307
000110 fc 60 bd 3d 71 64 95 3d f5 c1 36 3d c8 a3 17 bd
       0.09247014 0.07294548 0.044618566 -0.03702143
000120 3f 7a 70 bd 75 84 0a 3e 76 88 ef 3d f2 e1 a4 bd
       -0.058710333 0.13527091 0.1169595 -0.08050908
000130 31 58 bb bd 03 81 ce 39 00 80 4b 3d 4e 32 ac 3b
       -0.091476806 0.00039387503 0.049682617 0.00525502
000140 36 ca e5 3d 20 16 22 bd 08 79 c8 3d 06 12 8d 3d
       0.11220209 -0.03957188 0.0978871 0.06888203
000150 04 ce cb 3c 0d 8e 4a 3d 73 89 e0 3d 48 9d 60 bc
       0.02487851 0.049451876 0.10963716 -0.013709374
000160 48 ae e8 bd 87 82 a2 bd cc 5b 8b bd aa ea 0a 3e
       -0.113613665 -0.07935052 -0.06804618 0.1356608
000170 d1 29 9c 3d e8 cf 0f bd ab 67 10 3e 66 d0 fb 3c
       0.07625163 -0.035110384 0.14102046 0.03073902
000180 93 ab 81 bd b1 e4 a2 bb 93 42 1d be 10 fa 2d 3d
       -0.06331553 -0.00497111 -0.15357427 0.042474806
000190 51 2b 14 3d 32 bb 1c 3d 51 e1 83 3d a9 2c fc 3d
       0.036174122 0.03826446 0.0643946 0.12313206
0001a0 0c 3b 91 bd d8 21 3e 3d 01 a3 d4 3d f2 7c cf bd
       -0.070913404 0.046418995 0.10382653 -0.10131253
0001b0 74 c6 ad 3d 70 3d 05 3e ea d3 a4 3d de 8c dd 3d
       0.084851176 0.13011718 0.08048232 0.10817884
0001c0 72 fc 90 3d d2 24 a9 3d 5d 1d 4a bd 19 52 68 3c
       0.070794 0.08258976 -0.04934441 0.01417973
0001d0 ac ed d6 3c 84 47 05 3e 8b ec ce bd 1e db d4 bb
       0.026236378 0.13015562 -0.10103711 -0.0064958474
0001e0 d9 6f 04 bb 1d 96 8f bd e0 8b 79 bc 5c e6 ae 3c
       -0.0020208268 -0.07011054 -0.015231103 0.021350078
0001f0 41 cf 80 bd 9e a0 a8 bd 6c e3 83 3d 1e af 26 be
       -0.062895305 -0.0823376 0.06439862 -0.1627774
000200 23 b0 29 3e 6d d0 29 3e 11 ec f0 3d 56 78 9a bd
       0.16571097 0.16583414 0.11763776 -0.075424835
000210 4f 18 c5 bd fb 66 ca bd e6 a8 f9 3c 82 4c a5 3c
       -0.09623777 -0.09882923 0.030476045 0.020178083
000220 0a 78 f2 bd 2e d8 ba bd e5 85 7c 3c bb 70 0a 3e
       -0.11839302 -0.09123264 0.015412782 0.13519566
000230 df 15 b1 bd f0 81 95 bd b3 fa 0a bd 57 ef 8d 3d
       -0.0864675 -0.07300174 -0.03393049 0.06930416
000240 5c 88 61 bd 2b 6a ea 3d db 64 cb bc 4e 93 73 3c
       -0.055061683 0.11446031 -0.024828365 0.014866663
000250 4d 2d 42 3c cf e9 e3 bc a3 c1 60 bd 11 bc 02 3d
       0.011851621 -0.02782145 -0.054872166 0.031917635
000260 51 4f dc 3d 6e 17 45 3c 3f 7a 0a 3e b3 b2 6c bd
       0.10757316 0.012029512 0.13523196 -0.05778761
000270 9e da a5 3d 07 ed 56 3d 59 1d 28 3b c3 13 81 bd
       0.080983385 0.05247214 0.0025652258 -0.063025974
000280 37 c4 94 3d f8 92 82 bd c3 a7 f3 bd 0f 42 9f bd
       0.072639875 -0.06375688 -0.118972324 -0.077762716
000290 a8 91 f9 bc 24 0a cf 3d ee f1 14 be 78 44 13 be
       -0.030464962 0.10109356 -0.14545414 -0.14381588
0002a0 e1 12 9e 3b 49 76 8a bc ab 1d c8 bc 97 eb f8 bb
       0.004824028 -0.016902106 -0.02442821 -0.007596444
0002b0 76 3e 00 be d9 60 52 3d d6 20 82 3d 01 6c 68 3d
       -0.12523827 0.051361892 0.06353919 0.056743626
0002c0 9d c5 65 3d 4b e6 c1 3c 37 5e 57 3c 81 0b 91 bd
       0.05609666 0.023669383 0.013145021 -0.07082272
0002d0 52 cb f3 bc 2d 91 9a bd c9 11 5b 3d b8 1d dc 3d
       -0.029760037 -0.07547221 0.053483758 0.10747856
0002e0 3f 00 ef bb ff 23 e8 bd ad d6 06 bd e7 8c ba 3d
       -0.0072937305 -0.11334991 -0.032919575 0.09108906
0002f0 9d 5e b3 3c 07 ec a7 bd e7 30 d3 3d d0 95 e0 3d
       0.021895701 -0.081993155 0.10312062 0.109660745
000300 fa 4b 22 bd d4 7d 91 3d 8f 5b 87 3d 35 0b 12 3d
       -0.03962324 0.07104078 0.0660926 0.03565522
000310 a9 74 28 3d 41 38 17 3c ed 28 ee 3c b6 c0 4c 3c
       0.04112688 0.009229721 0.02907225 0.012497118
000320 b4 4c 5c 3d 0d 51 10 3e 75 a9 a8 bc 5e 7b 02 be
       0.053784087 0.14093418 -0.020588616 -0.12742373
000330 03 36 91 3d b5 20 b8 bb 6d f0 74 bd 2b c6 6f 3d
       0.0709038 -0.0056191334 -0.0597996 0.058538597
000340 b3 08 64 bd a9 79 c3 3d fd ec 0d 3e a1 ec bf bd
       -0.05567236 0.09544689 0.13859935 -0.09371305
000350 dc 5a a7 3d e5 d4 2b bd 45 8e 8a bc 04 bb fe bc
       0.08171627 -0.04195108 -0.016913543 -0.031095035
000360 50 98 21 bd 2d 1f fa 3d c2 34 de 3d 0f 52 0b bb
       -0.039451897 0.122129776 0.108499065 -0.0021258628
000370 c3 ba 09 3d d7 f4 9d 3c bb 25 2d 3a b2 9f 19 3e
       0.033625375 0.019281788 0.00066050485 0.15002325
000380 9b da e8 bc ef 8a e0 bc e2 f7 94 3d a6 2e 4b 3c
       -0.028424552 -0.027409999 0.072738424 0.012401259
000390 76 3c 8c bd e3 2e 32 3d d9 bf 74 3c 55 f3 16 3e
       -0.068474695 0.043501746 0.014938318 0.14741261
0003a0 d1 a8 32 bc a0 ff b5 3d 42 08 eb bd 14 78 b7 bc
       -0.010904507 0.08886647 -0.114761844 -0.022396125
0003b0 b7 bf 79 3d bb 91 79 3d 0e 04 6e 3d 96 5a ed 3d
       0.06097385 0.060929995 0.058109336 0.115895435
0003c0 9d 91 be 3d 54 bc b3 bc ce 71 39 3d ef fa 7d 3d
       0.09305117 -0.021940388 0.04527455 0.062006887
0003d0 ff cb b8 3d 3a 6d 84 3d 47 c3 ca 3d 2b 6c c1 bd
       0.09023284 0.06466146 0.099005274 -0.094444595
0003e0 54 e8 e5 3d fe ff 05 bd 66 9a a1 3d 0b 58 6b bd
       0.11225954 -0.032714836 0.07890777 -0.05745701
0003f0 a0 c5 7b bd 6c 38 56 3d 90 4f 6a bc ea 76 13 bd
       -0.061467767 0.0522999 -0.014301196 -0.036002077

lstm.weight_hh_l0 f4 [256, 64]
000000 4d 01 0d 3c 3a 72 02 3e 04 22 ca bd 02 ef 3f bc
       0.008606267 0.12738886 -0.09869769 -0.011714699
000010 ff 6e 7b 3d 38 11 a2 bc bf ec 31 bd a6 e9 97 3d
       0.06138515 -0.019783601 -0.04343867 0.07417612
000020 39 a4 69 3c 7a 63 f4 3c ae 68 87 bd b4 88 33 bd
       0.014260345 0.02983259 -0.06611763 -0.043831542
000030 d8 75 d7 3d f2 58 bf 38 38 96 10 bd 40 20 fd 3d
       0.10520524 9.124157e-05 -0.03529951 0.12359667
000040 55 22 db 3b f2 78 9b bd a0 ae 3d bd dd bf b7 bc
       0.0066874423 -0.07591428 -0.046309114 -0.022430355
000050 51 52 00 be fc 62 8b bd 64 79 2b 3d 63 44 61 bd
       -0.12531401 -0.06805989 0.041863814 -0.05499686
000060 2b fd 28 bd 1b 1c 3a bd 23 ea e8 bd 8e 28 83 bd
       -0.041257065 -0.04543696 -0.11372783 -0.064042196
000070 42 36 d3 3d 5e 61 10 be 8b dd 09 3e 20 f0 f1 3c
       0.10313083 -0.14099643 0.13463418 0.029533446
000080 93 22 42 bd bd 89 11 3d a9 13 77 3d f0 bb 3a bd
       -0.047396254 0.035531748 0.060321484 -0.045589387
000090 df a1 a1 3d 9b 84 83 3d 5d a0 11 3d a8 1d 26 39
       0.078922026 0.06421777 0.035553325 0.00015842041
0000a0 55 7c 0f 3c 00 9b 2f 3d 07 a2 12 be 50 e1 23 bd
       0.00875767 0.04287243 -0.14319621 -0.040009797
0000b0 c3 3e d9 bc 12 2b 52 3c 7c c4 d5 bc 6a 2b e7 3d
       -0.026519185 0.012827652 -0.026094668 0.112875775
0000c0 51 9b b2 bc 72 db ef 3d 61 96 0a be c0 08 f3 bc
       -0.021802576 0.11711778 -0.13533928 -0.029667258
0000d0 aa ab 67 3d 0a a1 6d bd 5a bb 0d 3e ba ac ff bc
       0.056560196 -0.058014907 0.13841 -0.031210292
0000e0 1f e7 92 bd cd 66 f5 3d f7 8e 96 3d d3 e2 da 3c
       -0.07172989 0.11982498 0.07351487 0.026719486
0000f0 11 c0 63 bd 77 ae 46 3d d9 31 14 39 9c dd b5 3d
       -0.05560309 0.048506226 0.0001413295 0.08880159
000100 bc 6e 19 bd 6e 95 0a 3c 71 dc d3 3c 63 76 1f bd
       -0.03745912 0.008458478 0.02586195 -0.03893126
000110 d9 36 b1 bc 1a 6f 5f 3b 1c 52 1a 3d 9a bf d3 bd
       -0.021632599 0.0034093321 0.03767596 -0.103392795
000120 7b 91 15 bd 02 f3 45 3d f2 b9 a5 3d 6e 1b e8 3c
       -0.036515694 0.048327453 0.08092107 0.028333392
000130 66 6f f1 bd b5 b1 4b 3d 9c a6 00 bd 22 b1 3a 3d
       -0.11788826 0.04973002 -0.03140889 0.045579083
000140 2a ef 0c 3d c6 e2 e5 bc 2e 5b ea 3d 3c 59 d9 bc
       0.034407772 -0.028062236 0.114431724 -0.026531808
000150 ef 74 05 be 4a 4b b2 bd 9b c0 29 bd 50 30 11 3e
       -0.13032888 -0.087057665 -0.04144345 0.14178586
000160 ba f6 ad bd b4 2d 2f 3d 51 40 59 bd 58 43 17 3d
       -0.08494325 0.042768195 -0.053039853 0.03692946
000170 ed 8a 5c bd 08 3d 26 3d cf de b2 bd a3 ab 69 bd
       -0.053843427 0.040585548 -0.087339036 -0.05704845
000180 11 76 95 3d 2d 3c d3 bd 9d ee 53 bd b6 ef ac bb
       0.0729791 -0.10314212 -0.05174123 -0.005277599
000190 79 a8 33 bd b9 23 17 bd f1 0f d7 3d 64 67 e1 bd
       -0.04386184 -0.036899302 0.105010875 -0.11006048
0001a0 4f 6f 89 3d 4b 00 c2 bd ca 9e 8e bc 30 44 cb 3d
       0.067106836 -0.09472712 -0.0174097 0.09925115
0001b0 e4 2c cf bd 40 43 e7 bb ae 65 3c bd d9 f9 43 bd
       -0.10115984 -0.0070575774 -0.045995407 -0.047845695
0001c0 81 72 ca bd 2c 37 0b 3d 59 2e 62 3d 12 9b 59 3d
       -0.09885121 0.033988163 0.05521998 0.053126402
0001d0 99 71 95 bd 76 52 0f 3e 33 ee d7 3d 6b 7f a3 3d
       -0.07297058 0.139963 0.1054348 0.079832874
0001e0 89 de 62 bb 57 dd bf 3d bc 8a a4 3d b2 33 e2 bd
       -0.0034617505 0.09368389 0.08034274 -0.11045016
0001f0 d2 05 19 bd cd d6 b7 bc 57 9b a7 bb 6d e9 1e bd
       -0.037359066 -0.022441292 -0.0051149535 -0.03879683
000200 47 5a dc bd 74 de da 3c 2e f9 8d 3c 9b fe be 3b
       -0.107594065 0.026717402 0.017330732 0.005828691
000210 33 b0 f9 3d 37 36 eb bd 16 54 5b 3a 37 25 7a bd
       0.121918105 -0.1148495 0.0008366717 -0.061070647
000220 98 9e 6e 3d df 4d 7d 3d 4a b8 72 bb 04 d4 05 bb
       0.058256716 0.06184184 -0.0037036114 -0.002042056
000230 de d6 d1 3c 12 3c 08 3e fc fe 95 bd 4a f6 85 3d
       0.025615152 0.13304165 -0.07324025 0.065411165
000240 33 b6 c4 3d 3c ba e0 3d 55 d6 31 bd 53 97 cd 3d
       0.09605064 0.109730214 -0.043417294 0.100386284
000250 96 4d 38 3d 08 e9 9f bd f6 5d 87 3d 1f 2e 0a 3e
       0.044995867 -0.07808119 0.066097185 0.13494156
000260 d4 07 98 bc 0c 09 f6 bd 3a 48 fc bb 8c e6 03 be
       -0.01855842 -0.12013444 -0.0076990398 -0.12880915
000270 17 02 02 3e c8 68 8c bd 44 4f c2 bb 8b e6 28 3d
       0.1269611 -0.06855923 -0.0059298594 0.041235488
000280 76 a3 fe 3c 5d 30 28 bd 6e 6c db bc 6d 70 bd 3a
       0.031083804 -0.041061748 -0.026785102 0.0014453061
000290 f9 53 81 3a b7 99 bd 3d 3f 03 a8 bd 68 3a 06 bd
       0.0009866945 0.092578344 -0.08203744 -0.032770544
0002a0 8d fe 89 bd 03 ea 5c bd 63 a4 e0 bd f5 49 33 3e
       -0.06738005 -0.05393411 -0.10968854 0.17508681
0002b0 72 b5 d7 bd 0c 00 b3 bd 32 b3 92 bd aa 58 58 3c
       -0.10532655 -0.08740243 -0.07163085 0.013204733
0002c0 f2 94 2d bc 6f ec 76 3d 73 ca 28 3d 5f 87 7e 3d
       -0.010594593 0.060284074 0.041208696 0.06214082
0002d0 3c 0a bd bc 12 1a 99 3d e0 07 c0 3d 00 b4 50 bc
       -0.02307617 0.07475676 0.09376502 -0.012738228
0002e0 f1 ca 62 3b 3f 56 74 3d da 0c 38 bc d5 45 71 3d
       0.0034605826 0.059652563 -0.011233533 0.058904488
0002f0 04 26 83 bc c9 fa b8 bd 84 36 f3 bd db 1b 18 be
       -0.016009338 -0.090322085 -0.118756324 -0.14854376
000300 ec 58 16 bd 99 64 eb bd a6 d3 04 3c fa c9 de bc
       -0.036705896 -0.11493797 0.008107102 -0.02719592
000310 9a 56 8c 3d 40 79 ab 3d 08 c6 a7 bd 65 f7 b9 3d
       0.068524554 0.08372736 -0.08192068 0.0908039
000320 ad b6 09 ba e3 61 bc bc 2c 97 2d 3d c3 93 5b bd
       -0.0005253356 -0.022995895 0.042380497 -0.053607713
000330 1e 01 08 be 96 2d df bd e6 a0 84 3d 40 66 34 3d
       -0.13281676 -0.10897367 0.064760014 0.044042826
000340 8d 8f 1a 3e 33 8e 4a bd 82 c3 88 3c 0d 5b d3 3d
       0.15093823 -0.049452018 0.016694788 0.10320101
000350 23 9f 3a 3c b1 20 69 bd 50 53 1d be da 10 74 3d
       0.01139048 -0.056915943 -0.15363812 0.059586383
000360 d4 0e 9b bd 0c 90 05 be 05 b2 b2 3d 7e e2 a1 3d
       -0.075711876 -0.13043231 0.08725361 0.07904528
000370 db cb 10 3d 67 87 81 bd 28 cd 4c bd 39 ae 8f 3d
       0.03535066 -0.06324654 -0.05000034 0.07015652
000380 0d 8b 84 3b 11 e8 80 bc 48 e6 1e 3d e5 af 96 3d
       0.0040448965 -0.015735658 0.038793832 0.07357768
000390 30 48 0e bd 5c 98 0f be 88 40 92 3d e7 a0 1f 3c
       -0.034736812 -0.14022964 0.071412146 0.009742952
0003a0 54 d8 c9 3d 6c b2 8a bd 97 fc bd bd c8 29 a6 3d
       0.098557144 -0.067723125 -0.09276693 0.08113438
0003b0 b6 37 45 bc f7 4c 05 3e 54 0e 47 bd 60 01 ab 3d
       -0.012037208 0.13017641 -0.04859765 0.08349872
0003c0 ad c8 0e be ca 39 ae bd c2 d0 fb bd 7c 27 00 3e
       -0.13943739 -0.08507116 -0.12295677 0.12515062
0003d0 8b fa df bd 5c d3 ce bb f9 c9 39 3b 2c 5f c5 3b
       -0.10936459 -0.006311817 0.0028349145 0.0060233083
0003e0 43 bb 6e bc a1 db 07 be 52 a6 9b 3d 0b 22 b7 bd
       -0.014571014 -0.13267376 0.076000825 -0.0894204
0003f0 60 0f ed 3d c9 49 8a 3c 40 bb 86 bd 27 58 42 bc
       0.11575198 0.016880887 -0.06578684 -0.0118618375

lstm.bias_ih_l0 f4 [256]
000000 e2 8c 91 bc e8 d6 1c 3e 39 5f 8d 3d 40 06 bb bd
       -0.017767373 0.15316355 0.06902928 -0.091320515
000010 1f 22 15 3e 3f 92 2b bd 24 8a 93 bc 17 b6 03 3e
       0.14563797 -0.041887518 -0.018010207 0.1286243
000020 48 e5 49 bd be b4 32 bd b7 2d f2 bc 3b 01 e0 bc
       -0.049290925 -0.0436294 -0.029562814 -0.027344337
000030 83 f9 83 bd 91 83 fb 3a 5b 92 2e bd 02 3e 46 3d
       -0.06444075 0.001918899 -0.042620044 0.04839898
000040 92 71 0b 3e c1 f6 0d 3d 8a 9b f0 3c b4 6d ce bc
       0.13617542 0.03465915 0.029371042 -0.025198795
000050 36 cb 87 3d 2b c5 26 3e 5e 73 fd 3d 92 05 05 3e
       0.06630556 0.16286151 0.1237552 0.12990406
000060 fe 4f 2d 3d 7b a5 64 3d 2d f5 04 bd 6c 48 e5 3d
       0.042312615 0.055821877 -0.03246038 0.11195454
000070 2d a4 87 bd 14 dc da 3d 98 2f 98 3c 88 f5 40 3d
       -0.06623111 0.10686508 0.018577382 0.047109157
000080 86 7b 7e bd ce 2a 31 3e fc a0 b8 3b 0e d0 a2 bb
       -0.06212952 0.17301485 0.005634425 -0.0049686497
000090 95 cb 26 bd a7 0a ec bb 18 5d 26 bd 14 11 3a 3d
       -0.040721495 -0.0072034183 -0.040616125 0.045426443
0000a0 4a 91 fb 3b 9c 81 8c bd 95 94 61 3d f0 26 66 3d
       0.007677232 -0.068606585 0.05507334 0.056189477
0000b0 e0 32 5c 3d 24 5a 9f bd 1f a4 da 3d 13 a0 ae 3d
       0.053759456 -0.07780865 0.10675835 0.085266255
0000c0 64 46 0e bd 80 67 75 3d 99 f7 87 3d 0d 6e bb 3c
       -0.0347351 0.05991316 0.066390224 0.022879625
0000d0 34 33 4e bc f4 07 1a 3b ec 9b 8d bd 9b e7 ac 3d
       -0.01258545 0.0023503276 -0.06914505 0.08442613
0000e0 0d 7f 89 bc 0d fa 16 3e 7e 97 11 3d c8 43 05 3e
       -0.016784215 0.14743824 0.035544865 0.13014138
0000f0 62 e2 fa 3d c3 64 ce 3d 96 b4 c5 3d 2e c0 44 3d
       0.1225021 0.100778125 0.09653585 0.04803484
000100 69 23 c3 bd 97 af b5 3d 2e 22 0e 3e 3f 85 08 bd
       -0.09528238 0.08871382 0.13880226 -0.0333302
000110 9d 91 02 bd 63 d8 17 bd 61 0b 33 3d df 00 cd 3d
       -0.03187715 -0.037071597 0.043712024 0.10009932
000120 95 d0 10 3d ab 87 86 3d d3 08 7a bd 9d ed fb bc
       0.03535517 0.06568845 -0.06104357 -0.030752951
000130 5b 9c 6b 3c 5b 94 d8 bc 3a 00 25 bd ec 2f 25 3e
       0.01438054 -0.026437929 -0.04028342 0.16131562
000140 80 38 24 3e 58 fd d3 3b d7 25 43 bd ac 64 ae bd
       0.16037178 0.00646941 -0.04764351 -0.085152954
000150 a8 b3 0a 3e c4 0d e3 3c e5 6a df 3d 86 d8 35 bc
       0.13545096 0.027716525 0.109090604 -0.0110989865
000160 70 78 f6 3b ee 73 45 3d df c2 cc 3c db ed ab bd
       0.0075216815 0.048206262 0.024995266 -0.08394977
000170 d7 19 07 bd ed 50 e0 3d 90 64 81 ba ee 9e 6c 3d
       -0.032983627 0.10952935 -0.0009871889 0.057768755
000180 df 43 34 bd c2 3f 00 3e 66 c7 a2 3d c4 34 cc bd
       -0.04401004 0.12524322 0.079481885 -0.09971002
000190 b0 f4 47 bd a4 66 9c bd aa 79 e8 3d bc 1b e4 bd
       -0.048817337 -0.07636765 0.113513306 -0.111381024
0001a0 e8 ca f5 bb b4 5d a2 3d 93 df 9e bd ed b5 1a 3e
       -0.007500995 0.07928029 -0.07757487 0.15108462
0001b0 bf d7 f7 3d bd db a1 bd 16 ec fd 3d 9e 02 01 3d
       0.12101697 -0.0790324 0.123985454 0.031496637
0001c0 de c6 71 3c 52 39 e5 3d 98 c8 6d bc d1 a3 64 3c
       0.014756886 0.111925736 -0.014513157 0.0139550725
0001d0 dc d7 01 3e 1e 2e 06 3e 89 9f 0c 3b cd 97 bc 3d
       0.1268 0.1310353 0.0021457395 0.09208641
0001e0 9f 11 d6 3d 26 1c 79 3d d0 57 63 bd ca b2 16 3e
       0.1045258 0.06081786 -0.055503666 0.1471664
0001f0 6c 21 ac bd ea c5 94 bd ec e7 89 bd 91 05 10 3e
       -0.08404812 -0.072643116 -0.06733689 0.14064623
000200 c6 a4 b4 bd 9e b1 a1 3b a4 a7 33 bd ff 79 cf bd
       -0.088204905 0.0049345037 -0.043861046 -0.10130691
000210 bb ac 81 3c e9 3d d9 3d ef 98 b4 bc 7e 7b e5 bb
       0.015829435 0.106075116 -0.02204558 -0.007003247
000220 4c 50 b6 3d e1 ce fd 3d b1 77 a6 bd a9 3a 6c bd
       0.08902034 0.12392975 -0.08128298 -0.05767313
000230 de fa ae bd 7e 65 76 bc bd 44 1d 3d 3f 86 bf bc
       -0.08543943 -0.015038846 0.038395632 -0.023379443
000240 27 a7 cb 3d e3 61 c2 bd 05 d0 fa 3c c9 53 31 3d
       0.09943991 -0.09491327 0.03061677 0.043292794
000250 bb 80 b9 bd e0 46 93 bd d5 a5 b5 bc a0 7c c8 bc
       -0.090577565 -0.07191253 -0.022173801 -0.024473488
000260 d7 5f 58 3d 4f e6 2e 3d 12 b7 46 bd 88 f7 b8 bd
       0.052825775 0.04270011 -0.048514433 -0.09031588
000270 b8 3e 46 bd 4a 17 3c ba 22 4c d4 3c 88 24 e2 3d
       -0.048399657 -0.0007175101 0.02591521 0.11042124
000280 33 c3 ff bc e5 a1 dd 3b 14 a2 ba 3d bb 9e 65 3c
       -0.031221008 0.006763684 0.09112945 0.014014895
000290 e7 00 ba 3c 32 f4 98 3c 1c c2 04 bc ba e2 3d 3d
       0.022705508 0.018671129 -0.00810292 0.0463588
0002a0 29 84 2c bd 81 36 06 3d dc b4 65 bc c5 1e 34 3d
       -0.042118225 0.032766823 -0.014020171 0.043974657
0002b0 3a ed 1a 3d 2d 51 7b 3c 33 db 6f 3d eb 2d 67 3a
       0.037823893 0.015339178 0.058558654 0.0008818793
0002c0 c4 1a bd bd 4c 47 87 3d 9e 46 e0 bd 38 1b ca bd
       -0.09233621 0.06605396 -0.10950969 -0.09868473
0002d0 e1 7e 7c bd e5 39 c0 3d a9 b8 ed 3a 0c 09 f7 bd
       -0.06164444 0.093860425 0.0018136698 -0.120622724
0002e0 71 cb 04 3e 05 f8 c5 bd b8 c4 c8 3d 02 7d db 3d
       0.12968232 -0.096664466 0.09803146 0.10717203
0002f0 bf 8a 35 3d 36 c8 b6 ba 85 e3 eb 3d 99 21 c3 bd
       0.04432177 -0.0013945166 0.11518005 -0.095278926
000300 05 47 06 3b 38 bc 93 3c f5 1e dd 3d 25 4c cf 3d
       0.0020489108 0.018034086 0.1079692 0.10121945
000310 a0 4a d1 3c 73 45 9f bd 04 b9 f6 bc b7 9a c6 bc
       0.02554828 -0.07776918 -0.03011752 -0.024243696
000320 63 d3 b4 3d a9 98 1a bd a8 c0 87 3d bd 38 12 3e
       0.08829381 -0.037743244 0.06628543 0.14279456
000330 d5 c9 0a 3e e6 45 49 3d 36 bf be bd c8 a6 9e 3c
       0.13553555 0.049138926 -0.09313814 0.019366637
000340 4a 0b cf bc 96 0a 55 bd 68 63 7e 3d 88 d0 de 3c
       -0.025273938 -0.05201205 0.06210652 0.027199045
000350 63 9c 19 3e 02 d5 1a 3d 44 a3 35 3d 16 8b d9 bb
       0.15001063 0.037800796 0.044345155 -0.006638895
000360 79 e5 14 3e ce ed 4a bd be 08 0d 3d 24 f2 5a 3d
       0.14540662 -0.049543194 0.034432165 0.05345358
000370 0e 4a 0b bd 7e 5e 54 3d 5f 40 87 3d ab f0 58 bd
       -0.03400617 0.051847927 0.06604075 -0.052963894
000380 16 f1 fa 3c 59 1b 06 3d 2f 07 c0 bc 58 6a 90 bd
       0.030632537 0.032740925 -0.023440925 -0.070515335
000390 78 e4 97 bd 2a 7b 58 bd 88 54 2b 3e 1e 7b 8e bd
       -0.07416624 -0.052851833 0.16731465 -0.069570765
0003a0 bc 52 da 3d e0 89 c8 3d dc c2 94 bd 96 22 65 3d
       0.106603116 0.097919226 -0.07263729 0.055941187
0003b0 6a 17 32 bd a3 8c 1c 3e f3 98 e3 bc e2 02 47 bd
       -0.04347936 0.15288024 -0.027782893 -0.048586734
0003c0 87 b9 68 3d a1 0e 62 3c a6 93 79 3c 46 51 27 3e
       0.056817558 0.013797433 0.015232956 0.16339597
0003d0 6f 43 9f bd 28 bf 52 3d 55 f4 41 bd 02 a5 5b bd
       -0.07776534 0.051451832 -0.047352154 -0.05362416
0003e0 64 1b 0f 3e 14 2f a5 3d 32 ce 33 3c 12 a7 47 3d
       0.13975292 0.0806562 0.010974454 0.048743315
0003f0 71 26 8d 3d 70 25 e6 3c 90 f6 32 bc 8f 6e 9f 3d
       0.06892098 0.028094023 -0.010923043 0.07784759

lstm.bias_hh_l0 f4 [256]
000000 5a 13 1b 3e be 15 3f bd c1 92 94 bd ea 77 e6 3d
       0.15144101 -0.046651594 -0.072545536 0.112533405
000010 ec 4a 1a 3d 65 ea 2c 3d 3d a2 bd 3c ae 10 85 bd
       0.037669107 0.042215724 0.02314865 -0.06497322
000020 13 b6 8f bd 87 3a ab 3d 5d 4d bd bd 29 6f cf bc
       -0.0701715 0.083607726 -0.092432715 -0.02532156
000030 77 7b d9 3b ae fc 98 3d 85 8c f7 3d ae 3f 10 3e
       0.0066370326 0.0747007 0.12087349 0.14086792
000040 73 2a 95 3d 16 5f ee bc 3d 42 00 bd 66 7e 83 3d
       0.07283487 -0.029098075 -0.03131317 0.06420593
000050 60 fd 9d bd cd f2 4a 3d 53 2d bd 3c b6 83 3a bc
       -0.07714343 0.04954796 0.023092901 -0.011383941
000060 20 a9 a9 b9 1e bd 63 3d e4 6a bb 3d 00 f4 40 3d
       -0.000323602 0.055600278 0.09151247 0.047107697
000070 22 ab ff bc 14 4c ad 3d 7f b0 25 3d 75 78 ff 3d
       -0.031209532 0.084617764 0.040451523 0.12474147
000080 35 6b 22 3e 9b b8 95 3d c7 8b 43 3c 45 ee 99 3d
       0.15861209 0.07310601 0.011935181 0.075161494
000090 be 6e 1e bd 76 85 80 3a d2 25 b3 bc ef fc 35 3d
       -0.03867983 0.00098054 -0.02186862 0.04443067
0000a0 dd 78 f5 3d f0 d9 de bd ab 0b e8 3c 9f 54 2e bc
       0.119859435 -0.10881412 0.028325876 -0.010640292
0000b0 ac 79 a0 bd 30 c4 13 bc 1b 35 0b 3e f1 32 82 3d
       -0.07835707 -0.009018943 0.13594477 0.063573726
0000c0 6d d9 b0 bc 1f cb de 3c 87 71 4b bd 60 ce ff bc
       -0.021588052 0.027196465 -0.049668815 -0.031226337
0000d0 cf f1 6c 3c 8d b2 84 3d de 20 fc 3d ce a4 bc ba
       0.014461949 0.06479368 0.123109564 -0.0014392377
0000e0 7c 5c 87 3c d6 0a a5 bd d0 30 32 bb 42 ca db 3c
       0.016523592 -0.080587074 -0.002718974 0.026829842
0000f0 da c8 ad 3d c6 3d 2d 3e de f7 46 3d 64 7d bc 3d
       0.08485575 0.16918096 0.04857623 0.09203604
000100 60 9b 38 3d bb 86 b3 bd 25 62 a4 3d df 62 1d bd
       0.045070052 -0.08765932 0.08026532 -0.03842437
000110 57 25 26 bd 6a 90 ed 3d 17 9d 81 bd 43 c4 63 bd
       -0.040562954 0.115998104 -0.06328791 -0.05560709
000120 88 1a c4 bc 98 a0 f9 3c df 31 57 bd d8 f9 46 bd
       -0.023938432 0.030472085 -0.052537795 -0.048578113
000130 28 28 21 3e cb 3b bc 3d 1d 6b 64 bd ad 2b 1e 3e
       0.15737975 0.09191092 -0.055766214 0.15446348
000140 8c 3f dc bc 11 eb 18 3e 2c 71 83 bc ec cb 30 3d
       -0.02688577 0.1493342 -0.016045175 0.043163225
000150 e5 dd 1c 3d e8 e4 f5 3d b5 d6 ac bd 1a da 07 3e
       0.038297553 0.12006551 -0.084393896 0.13266793
000160 06 c7 c8 3d 39 19 3a bd cf 12 26 bd 35 e0 1a 3e
       0.09803586 -0.04543421 -0.04054528 0.1512459
000170 3a dc 2e 3b 36 3a 7a 3d d3 e9 9b 3d f2 d0 d5 bc
       0.0026681558 0.06109067 0.07612958 -0.02610061
000180 c3 be 2d 3d 46 b3 d8 3c 00 5a a1 bd 17 65 25 3d
       0.042418253 0.026452672 -0.07878494 0.04037961
000190 69 49 c8 bd d3 e2 84 ba e6 be 16 3e 4d c1 50 bd
       -0.09779627 -0.00101384 0.1472126 -0.050965596
0001a0 86 5d 0a 3e 67 04 6a 3d dd e2 0d bd d9 37 bf bc
       0.13512239 0.057133105 -0.03464018 -0.02334206
0001b0 27 40 fc 3d 44 ae 8c 3d bf af 90 bd d1 f4 c9 3d
       0.123169236 0.06869176 -0.07064771 0.09861148
0001c0 81 11 12 3e d2 a8 b1 3c a7 e5 18 bd ee 93 c5 3d
       0.1426449 0.021686945 -0.03732839 0.09647356
0001d0 de db a0 3d 75 b9 a6 bc 02 20 c9 3d c7 61 0b bc
       0.07854436 -0.020352105 0.09820558 -0.008507199
0001e0 c0 03 4e bd a9 d6 65 3d 51 3a 7c 3d 23 0b 1f 3c
       -0.050296545 0.05611292 0.061579052 0.009707245
0001f0 b2 38 0a 3d a1 6f a8 3d 53 59 78 3d 92 57 12 3d
       0.033745475 0.082244165 0.06063206 0.035728045
000200 47 b2 8b bd d6 e0 1a 3d 73 30 9d bd 61 91 03 3c
       -0.06821113 0.037812077 -0.076752566 0.0080302665
000210 1e 9b d3 3c 9e 3a 12 3c 22 bc 04 3e aa 94 a2 bd
       0.025830802 0.008925108 0.12962392 -0.07938512
000220 40 4d 3b 3d b0 31 ce 3d 23 c3 e2 bd 71 34 f8 bd
       0.04572797 0.10068071 -0.110723756 -0.121193774
000230 28 f6 d0 bc 8e 2f 10 3e 93 34 50 3c 3e 7b a6 3d
       -0.025508001 0.1408064 0.012707847 0.08128975
000240 3b 2d c1 3d 4e 28 e3 3d b6 94 77 3d dd 54 0e 3d
       0.09432455 0.11091672 0.060444556 0.0347489
000250 95 60 cd bd 13 1c 3e 3d bd 79 6d 3d d3 ed 95 3d
       -0.10028187 0.046413492 0.057977427 0.07320752
000260 99 9c d1 bd ba ba f2 bd d6 d8 02 3d 02 bc 12 3d
       -0.10234947 -0.118520215 0.031945072 0.03582383
000270 78 54 c8 3d 7f b7 ff bb 36 57 af bd f7 f2 ae bd
       0.09781736 -0.007803857 -0.08561556 -0.085424356
000280 02 19 cf bd 6f a0 7d bc 23 44 ab bd dd b8 7e 3d
       -0.10112192 -0.015480145 -0.083626054 0.062188018
000290 9b 3f 68 3d 26 fd 92 3c 40 a4 08 bd ea 97 ce bd
       0.056701284 0.017942976 -0.033359766 -0.10087569
0002a0 17 33 f6 3c eb 00 51 3d 99 2a d4 bd f4 07 b1 3a
       0.030053658 0.051026266 -0.10359687 0.0013506399
0002b0 7b 2e b3 3c ee 3f 7d bd bf 9f 36 bb 7f 22 04 3e
       0.02187275 -0.061828546 -0.0027866212 0.12903784
0002c0 da 35 c4 bd 47 7f df 3d 18 7a ff bd 84 3f af 3d
       -0.09580584 0.10912948 -0.124744594 0.085570365
0002d0 ab 15 ce 3d 69 51 30 3d a4 6e b6 3c 85 b9 c0 3d
       0.100627266 0.04304639 0.022269554 0.09410385
0002e0 5e 14 b6 bd d3 00 90 3d e8 54 65 bd b5 0a 02 bd
       -0.088906035 0.07031407 -0.055989176 -0.031748492
0002f0 46 c2 04 be 73 ec 23 bd b0 d1 c6 bd 19 d2 a2 bd
       -0.12964734 -0.040020417 -0.097079635 -0.07950229
000300 fb 68 00 3e 24 12 0b 3e b6 a6 51 3d 25 f2 eb 3d
       0.12540047 0.13581139 0.05118438 0.11520795
000310 c2 ae 69 bc ef 0f cd 3d d2 49 61 3d 08 7c 19 3e
       -0.014262857 0.10012805 0.05500204 0.1498872
000320 2a 99 a7 bc 53 33 27 3c 0c 27 f3 bc fa 54 21 3d
       -0.020458777 0.010205108 -0.029681705 0.03938768
000330 d6 0a 1e 3e b6 76 86 3d 2d 07 70 3b 57 a4 16 3d
       0.15433821 0.06565611 0.003662537 0.03677782
000340 06 39 8b bc 1d c3 08 bc 27 0a be 3d c5 2e 1a 3c
       -0.016994964 -0.0083473 0.0927928 0.009410565
000350 af 80 b3 3d 51 9d 54 3d a7 b7 81 bd f8 7b b1 3d
       0.08764779 0.05190784 -0.06333857 0.08666223
000360 34 03 18 3e 63 e7 cf 3d 80 7c d9 3b dc ac 91 3d
       0.14844972 0.101515554 0.006637156 0.071130484
000370 37 41 22 3c 7d 75 69 3d e8 c4 f5 bc 4e b5 2e 3e
       0.009903244 0.05699681 -0.030001119 0.1706135
000380 7a b6 ee 3d 76 0f 20 3e 90 50 a9 3d 8a 3a 3c 3d
       0.116558984 0.15630898 0.08267319 0.045954265
000390 7c 05 e3 3d 2e ff aa 3d da c1 10 3e 23 90 d2 bd
       0.110850304 0.08349453 0.14136449 -0.10281398
0003a0 ea 18 83 3d b2 97 ca 3d 8e e7 18 bd e4 2e a9 bc
       0.06401236 0.09892215 -0.037330203 -0.020652242
0003b0 cc af 8c 3d c2 4d e8 3d 0f d5 6c 3d 03 d2 82 3d
       0.06869468 0.11342956 0.057820376 0.06387713
0003c0 c0 a7 11 bc b5 b6 3d 3d 24 b9 ec bc c7 63 88 bd
       -0.008890092 0.04631682 -0.028896876 -0.06659656
0003d0 a3 e8 08 3e 7b 6b d3 3c 73 33 16 3e 8f 86 43 bd
       0.13369994 0.025808087 0.14668064 -0.047735747
0003e0 2e 56 35 bd b8 78 0f 3e a6 0c 0b 3e a9 45 8a bd
       -0.04427164 0.14010894 0.13579044 -0.06751568
0003f0 5f 6c 30 3e bc 34 1f 3e f2 07 8f 3c cc 8e 06 bd
       0.1722884 0.1554746 0.017459843 -0.032851025

linear.weight f4 [2, 64]
000000 f4 ce 01 be f7 cc 10 bd c0 45 ca 3d 77 31 60 3d
       -0.12676603 -0.03535172 0.09876585 0.054734673
000010 23 90 aa bb 0d 3c 5a 3d 10 31 ec bd a1 9c cc bd
       -0.0052051707 0.053279925 -0.115327954 -0.09990812
000020 f1 0b fc 3c 04 ba ff bd 41 d8 15 3e c4 e9 a7 bc
       0.030767413 -0.124866515 0.14633276 -0.02049721
000030 dd e6 11 3e ab e8 cc 3d 82 02 07 be a0 84 d7 3d
       0.14248224 0.100053154 -0.1318455 0.10523343
000040 62 37 42 3d fa 2f 13 be 3c 5e ea 3d c1 0f dc bd
       0.0474161 -0.1437377 0.11443755 -0.10745192
000050 eb ea 9d bd 23 d0 19 3e 8e 2a ec 3d df 55 93 3d
       -0.07710823 0.15020804 0.11531554 0.07194113
000060 d2 6e cf 3d 03 d1 eb 3d 5a b6 82 bd 9a 19 9e b9
       0.10128559 0.11514475 -0.06382437 -0.00030155183
000070 5b d5 57 bd af 20 0c be 3f b5 06 3e 4e 26 3f 3c
       -0.052693706 -0.13684343 0.13155077 0.011666847
000080 e2 22 8c bd 52 c5 50 bd ec 38 8e bc 12 f0 ab 3d
       -0.06842591 -0.05096943 -0.017361127 0.08395399
000090 b1 dc e7 bc e6 2c c7 3d 88 fa e0 bd 18 3a 35 3d
       -0.028303476 0.097253606 -0.10985285 0.044244856
0000a0 cc 87 1d bd 3b fc 55 bd d0 34 a7 bc fc c7 8a 3d
       -0.038459584 -0.0522425 -0.020410925 0.06776425
0000b0 ea 00 25 3e a9 db ec bc cc 47 97 bd 83 f0 dc 3d
       0.1611363 -0.028913336 -0.07386741 0.107880615
0000c0 bf da ff 3d 15 5d 08 be 66 2a c1 3d 0a 0a e7 bd
       0.124928944 -0.13316758 0.09431915 -0.11281212
0000d0 8d 46 06 bd 98 77 f4 bc 66 37 ad 39 71 be 1c be
       -0.032782126 -0.029842183 0.00033038406 -0.15307023
0000e0 e7 5d b6 3d b2 1e d4 3d d5 1a bd 3d 76 5f 32 3b
       0.08904629 0.10357417 0.092336334 0.0027217544
0000f0 d8 f1 24 be db 22 51 3c 39 74 10 3d 94 d8 fc 3c
       -0.16107881 0.012764658 0.03526709 0.030864991
000100 07 9b be bd 95 47 0a 3e e1 62 ca 3c fa 8a ed 3d
       -0.09306913 0.13503869 0.024705352 0.11598773
000110 1c 9e f6 bd 43 bc cc 3d 95 ef 8c bd 2e 46 8b 3d
       -0.12041876 0.099968456 -0.06881634 0.06800495
000120 3e 6c 05 bd d7 27 f5 bd f9 4f 57 bd 45 9d 13 3e
       -0.03257393 -0.119704895 -0.052566502 0.14415462
000130 2f 81 29 3e 2f 82 d6 bc 2e 80 3f bb 2e 16 93 3d
       0.16553186 -0.026185123 -0.0029220688 0.07181965
000140 5c 32 45 3d d7 ee 0b bd 63 ed fb 3d 45 62 3a 3d
       0.04814373 -0.034163322 0.12301137 0.045503873
000150 4e 1f 67 bd c2 57 db 3a 4a 3c 17 3e 17 17 08 3e
       -0.05642634 0.0016734528 0.14769092 0.13290058
000160 a8 75 f4 3d 65 38 bb 3c bc ec 83 bd 3f 27 f7 bd
       0.11936504 0.02285404 -0.06441638 -0.120680325
000170 d6 08 cb bd 8d fa 3c bd 5f 95 cc 3c fa 03 f7 bd
       -0.09913795 -0.04613738 0.02497357 -0.12061305
000180 1f 10 eb 3d 81 7d 25 bd 6f 3c d9 bd ce 9c e9 bd
       0.11477684 -0.040402893 -0.1060723 -0.11406861
000190 cd 48 27 3e d7 2e bf 3c e6 f8 ac bd c7 e1 1a ba
       0.16336365 0.023337765 -0.08445911 -0.0005908277
0001a0 c0 a2 d7 bd 4e 2b 19 3e f0 15 b6 bd 11 d0 04 3d
       -0.10529089 0.14957926 -0.08890903 0.03242499
0001b0 73 87 dc 3d a0 ef 1d be 42 97 ec 3d 80 19 ec 3d
       0.107680224 -0.15423441 0.11552288 0.11528301
0001c0 8a e3 d7 3d e7 00 f0 bd 68 47 e4 3d 2d 4f f5 3b
       0.105414465 -0.11718922 0.11146432 0.007486245
0001d0 53 fc 9c 3d 31 e0 db bd 90 0c 1f 3e b6 fb ad bd
       0.076653145 -0.107361205 0.15532136 -0.08495276
0001e0 ca 24 66 bd ac e0 91 3d db 2c 35 3b 34 37 fd 3d
       -0.05618743 0.07122931 0.0027645144 0.12364045
0001f0 0b 50 0e 3d cf 8b 1c be 21 8a da 3c 84 04 bb 3d
       0.034744304 -0.15287708 0.026677193 0.09131721

linear.bias f4 [2]
000000 d4 e2 1c bc 23 88 c5 3d
       -0.009575564 0.09645107
