lstm_ts.pth (torch, 205503 bytes, 9 tensors)

lstm.weight_ih_l0 f4 [256, 1]
-0.0022750644 0.034731723 -0.061861124 0.058209874 -0.023345273 -0.02771251 -0.062607184 -0.0842103
-0.1211117 0.062369596 -0.077456735 -0.01379802 -0.016899135 -0.00016503583 -0.124665305 -0.11937913
0.06178026 0.09231374 0.05134207 0.0031842678 -0.072187476 -0.08152969 0.10322238 -0.084340885
-0.11046665 0.013772896 -0.053376477 -0.123825796 -0.041952334 0.06902674 -0.023180079 0.080139466
-0.122085094 -0.123070225 0.032086458 -0.10211714 0.024433859 -0.058894936 0.052211013 0.11844511
-0.11822923 0.02972228 -0.07697963 -0.012265294 0.10409965 0.052469194 -0.033414967 0.032623686
0.04998878 0.10836572 -0.06318475 -0.029917791 -0.09939919 0.082802214 0.05772747 0.059629325
-0.10816623 0.014932877 0.015625564 -0.026809918 -0.06366363 0.04372341 0.02552152 -0.09454832
-0.08278573 -0.10518586 0.00222869 -0.093174644 -0.0077719702 0.035430115 -0.06326566 0.045388836
-0.08280934 -0.078628376 -0.0008316933 0.058596868 0.09374229 0.07161192 0.08043123 0.09548005
0.073205054 -0.046878852 -0.012652951 -0.06377583 0.101217836 -0.04467189 0.010222851 0.04040406
-0.0022229557 0.11667467 -0.12037301 -0.03744044 0.040707685 -0.072362006 0.10905491 0.069699615
-0.10854344 -0.040708367 -0.08690171 -0.050891254 -0.0121502485 -0.044146087 -0.11704923 -0.088630676
-0.020483157 -0.11301456 0.03044814 0.1048401 0.09178595 -0.093647525 0.0026329537 -0.013572266
0.07277921 -0.0027382944 -0.120311536 -0.06395318 -0.06417587 0.017939633 0.048587587 0.0077271205
-0.058327343 0.015920699 0.051979113 0.122718655 0.032170072 0.026163528 -0.06651672 0.02479963
-0.112596564 -0.026317138 0.035129666 0.04943515 -0.06566639 0.06820828 -0.11411588 -0.0020744014
-0.010972649 -0.09365204 -0.039165873 -0.020772656 -0.116030455 0.07735682 -0.05715814 0.07178576
0.120022684 0.0031250084 -0.018057358 0.00024491845 0.09665167 -0.048387818 -0.015978456 0.015051599
-0.10736399 -0.051727325 0.013521248 0.04707842 -0.11251382 0.07011303 -0.005046468 0.055699814
-0.06359533 0.065235 0.030233832 0.0074909837 0.02172135 0.094778195 -0.025659226 0.10819542
-0.10413753 0.07397972 -0.058923107 0.07870656 0.10500074 0.0007204396 0.12524885 0.07206838
0.096806705 -0.01797377 0.0020102833 0.111240715 0.0063716047 -0.03767583 0.09910269 -0.09020539
0.037127905 -0.023265637 0.02974539 0.016091758 -0.10234753 0.114169545 -0.07271552 0.037672594
0.08191094 -0.08428245 0.05370094 -0.056880347 0.085256815 -0.034215197 -0.09570651 0.049596496
-0.04791075 0.01496374 0.088531636 -0.09655239 -0.074658856 -0.10685602 -0.051114075 0.11820043
-0.024472626 0.109638005 -0.07169904 0.049485084 0.025538165 -0.10333656 -0.063961975 0.101240404
0.11377327 0.10650241 -0.0031034437 -0.11686878 -0.1042594 -0.06481294 0.082743265 0.120098956
-0.03909138 4.0648592e-07 0.11515993 -0.05438365 -0.103699856 -0.06726364 -0.06899179 0.12237394
0.048745718 -0.09272615 -0.009659613 0.07173056 -0.033697598 0.09542179 -0.048892554 0.071386114
-0.10619866 -0.07345495 -0.020981247 -0.016848562 0.072243564 -0.11735427 0.10277827 -0.0053001875
-0.0802612 -0.09109003 -0.014533571 -0.07109772 0.08716426 0.045482367 -0.08103572 -0.06769971
00000000: 3f19 15bb da42 0e3d 1762 7dbd 7a6d 6e3d
00000010: 963e bfbc 5905 e3bc 3238 80bd 7376 acbd
00000020: 6909 f8bd 4377 7f3d a3a1 9ebd 1711 62bc
00000030: 0e70 8abc 780d 2db9 8650 ffbd 0c7d f4bd
00000040: 4c0d 7d3d fc0e bd3d 104c 523d 26af 503b
00000050: 07d7 93bd 0af9 a6bd 4166 d33d eaba acbd
00000060: 573c e2bd b6a7 613c 4ba1 5abd 6198 fdbd
00000070: 36d6 2bbd e45d 8d3d 26e4 bdbc 2920 a43d
00000080: c007 fabd 3e0c fcbd 176d 033d cb22 d1bd
00000090: 8429 c83c d13b 71bd 37db 553d 5a93 f23d
000000a0: 2b22 f2bd 247c f33c 7fa7 9dbd 5ff4 48bc
000000b0: 3332 d53d f0e9 563d 22de 08bd 6aa0 053d
000000c0: 09c1 4c3d d9ee dd3d 0267 81bd 2816 f5bc
000000d0: cd91 cbbd 3594 a93d a473 6c3d e13d 743d
000000e0: 4286 ddbd 07a9 743c 2f01 803c 79a0 dbbc
000000f0: 1462 82bd 5217 333d 8212 d13c 8da2 c1bd
00000100: 918b a9bd af6b d7bd 370f 123b 59d2 bebd
00000110: 03ac febb 2b1f 113d 6d91 81bd a5e9 393d
00000120: f197 a9bd ea07 a1bd fe05 5aba 4503 703d
00000130: f5fb bf3d 45a9 923d 21b9 a43d 0b8b c33d
00000140: 88ec 953d 0a04 40bd 534e 4fbc e79c 82bd
00000150: 4c4b cf3d dff9 36bd bf7d 273c ba7e 253d
00000160: 02af 11bb 21f3 ee3d 2086 f6bd 265b 19bd
00000170: 1abd 263d 8832 94bd 2e58 df3d acbe 8e3d
00000180: 064c debd d1bd 26bd 86f9 b1bd 5973 50bd
00000190: d611 47bc 87d2 34bd 82b7 efbd 0084 b5bd
000001a0: 4bcc a7bc 2d74 e7bd 616e f93c 68b6 d63d
000001b0: 46fa bb3d 46ca bfbd a28d 2c3b 365e 5ebc
000001c0: 440d 953d f574 33bb e565 f6bd e3f9 82bd
000001d0: a36e 83bd 23f6 923c c703 473d c933 fd3b
000001e0: a7e8 6ebd 206c 823c 0de8 543d eb53 fb3d
000001f0: c4c4 033d e554 d63c eb39 88bd 9828 cb3c
00000200: 0799 e6bd 0a97 d7bc 20e4 0f3d 837c 4a3d
00000210: 1a7c 86bd c8b0 8b3d 96b5 e9bd aef2 07bb
00000220: a0c6 33bc a4cc bfbd 656c 20bd 6b2b aabc
00000230: 60a1 edbd 416d 9e3d a71e 6abd 6a04 933d
00000240: 74ce f53d f1cc 4c3b 06ed 93bc 6668 8039
00000250: 50f1 c53d 4e32 46bd 40e5 82bc fb9a 763c
00000260: a7e1 dbbd 08e0 53bd 3988 5d3c 4dd5 403d
00000270: a56d e6bd 6c97 8f3d d85c a5bb 7d25 643d
00000280: 453e 82bd ed99 853d f1ac f73c ed76 f53b
00000290: f9f0 b13c 121b c23d 4c33 d2bc 8f95 dd3d
000002a0: 0f46 d5bd ae82 973d 5b59 71bd e830 a13d
000002b0: a10a d73d e2db 3c3a 3c41 003e 9698 933d
000002c0: 9842 c63d ba3d 93bc f5be 033b 2cd2 e33d
000002d0: e5c8 d03b f951 1abd 5af6 ca3d 9abd b8bd
000002e0: 6e13 183d 9497 bebc 9bac f33c ddd2 833c
000002f0: 959b d1bd b9d1 e93d e0eb 94bd 944e 1a3d
00000300: ecc0 a73d 479c acbd 84f5 5b3d 5efb 68bd
00000310: 209b ae3d 3c25 0cbd c601 c4bd b225 4b3d
00000320: 103e 44bd 792a 753c 1350 b53d 42bd c5bd
00000330: bee6 98bd 54d7 dabd fe5c 51bd 1113 f23d
00000340: d17a c8bc e489 e03d f2d6 92bd dfb0 4a3d
00000350: 6a35 d13c 1ea2 d3bd 7ffe 82bd 2157 cf3d
00000360: f601 e93d ef1d da3d 2563 4bbb e658 efbd
00000370: f485 d5bd a6bc 84bd 4d75 a93d 71f6 f53d
00000380: 481e 20bd 003b da34 f8d8 eb3d 64c1 5ebd
00000390: 9760 d4bd 85c1 89bd 914b 8dbd 309f fa3d
000003a0: 97a9 473d 35e7 bdbd 5a43 1ebc 79e7 923d
000003b0: 7e06 0abd 806c c33d 8f43 48bd e232 923d
000003c0: af7e d9bd 8c6f 96bd dde0 abbc ff05 8abc
000003d0: 6ff4 933d 6f57 f0bd 6a7d d23d 32ad adbb
000003e0: fc5f a4bd 698d babd 371e 6ebc ae9b 91bd
000003f0: 2d83 b23d b84b 3a3d 0ef6 a5bd 25a6 8abd

lstm.weight_hh_l0 f4 [256, 64]
-0.021356009 0.09426088 0.025723413 0.10961516 0.11287579 0.09583849 0.002722468 -0.010085919
-0.02057832 -0.062985025 0.006722733 -0.09367784 -0.084540315 0.11148751 0.107241526 0.050111562
-0.12272586 -0.076243185 -0.07865223 0.00042028172 0.041008923 -0.0063639614 0.11794145 -0.11804826
0.11703052 -0.0017132339 -0.0019069609 -0.03531526 0.0009994226 0.013708914 -0.05859981 0.0037951781
-0.021041969 0.117403254 -0.0017591278 0.018031867 -0.103993066 0.014666828 -0.039027877 -0.04992275
-0.048458878 -0.086633205 -0.0052130753 0.008182233 -0.02355633 -0.034190312 0.10793454 0.11788149
0.09806691 0.08266353 0.117499135 -0.047154523 0.043296784 -0.0145335365 0.123619966 0.02860189
0.063820496 0.04709199 0.056979846 0.024519857 0.07865641 0.09624936 0.0124925645 0.022726785
-0.0892057 -0.024459152 -0.0064235087 -0.011602803 0.053418126 -0.10948637 0.057695545 -0.0557815
0.016061518 0.09696813 -0.05086219 -0.081463575 0.09482456 0.1140867 -0.09728832 -0.12330497
-0.058652543 0.1005846 -0.047170877 0.060324293 0.11972121 -0.013225009 -0.02643327 -0.0643771
-0.110119134 -0.09476902 -0.092464395 -0.09033118 0.10398783 -0.05051761 -0.04156936 -0.039903216
-0.07515274 0.011755245 -0.07277679 0.05197321 0.07430792 -0.12337194 -0.066795096 -0.012018459
-0.04268959 0.026144978 -0.07163163 0.09122377 0.014324528 -0.12389204 -0.01039738 0.10597121
-0.101221785 0.07011431 0.011232763 -0.01318308 -0.010694272 -0.045681287 0.05875525 -0.04693475
0.085416816 -0.08502466 0.025794817 0.09591081 -0.06840375 -0.008478501 0.053929128 0.10007316
-0.059725907 0.0037316824 0.11499823 -0.0134828575 -0.12065342 0.09169082 -0.065016255 0.033981804
-0.09805942 0.027868636 -0.072115414 0.0011314616 0.051541656 0.052930064 -0.052129973 0.11911508
-0.012667925 0.12415033 0.063691586 -0.010243043 -0.0071383836 0.023091678 -0.00081586 -0.100869566
-0.008328484 0.021406936 -0.09932802 -0.037532113 0.06306549 0.044241056 0.04847081 -0.06438296
-0.08936874 0.048757594 -0.07742921 0.059764974 -0.031978168 0.043282215 0.021004435 0.026986804
0.010683434 0.008306168 -0.09192552 0.039834294 -0.036761496 0.01942432 -0.122149296 -0.123244695
0.10571562 -0.0069401218 -0.07428027 0.0050300793 0.008335956 -0.045680348 0.025950894 -0.04664428
-0.025789 0.009944042 -0.09489558 0.080124564 -0.085497946 -0.09952059 0.055810556 0.07067333
-0.033881146 0.115283206 0.05659726 0.12585588 0.10981694 -0.08194026 0.116839744 0.061376322
0.100539364 -0.0017594183 -0.068262465 -0.12649031 -0.08883559 0.0548973 -0.05849485 0.052179337
0.021152362 -0.043192398 -0.110513136 -0.09746655 0.019266885 -0.034245566 -0.10760897 -0.10409425
-0.08661207 0.015724996 0.11456787 0.11585413 -0.04674982 -0.10290291 -0.11263665 -0.03230647
-0.10976031 -0.09917026 0.06006542 -0.0031968877 0.11695878 0.07402473 -0.031430244 0.0654046
0.09162967 0.093577825 0.05815596 -0.04988307 -0.027183637 -0.004843779 0.08812136 -0.004549692
0.07514818 -0.015960554 0.06761859 0.086056 0.012776806 0.09740259 -0.0650682 0.047077954
0.0075210095 -0.09322429 -0.054590233 -0.09001595 0.089230165 0.039824933 -0.041115817 0.108151436
00000000: ccf2 aebc d90b c13d e8b9 d23c ea7d e03d
00000010: 6c2b e73d f846 c43d 6f6b 323b 693f 25bc
00000020: dd93 a8bc 4bfe 80bd 5f4a dc3b 2bda bfbd
00000030: 7923 adbd 9053 e43d 72a1 db3d c841 4d3d
00000040: b257 fbbd 6325 9cbd 6c14 a1bd 4259 dc39
00000050: f9f8 273d c788 d0bb 498b f13d 49c3 f1bd
00000060: b3ad ef3d 978e e0ba fdf2 f9ba bca6 10bd
00000070: 0fff 823a 5a9b 603c 5b06 70bd 86b8 783b
00000080: 3560 acbc 1e71 f03d 8992 e6ba 91b7 933c
00000090: 51fa d4bd 234d 703c b2db 1fbd cc7b 4cbd
000000a0: d17c 46bd c06c b1bd 72d2 aabb c60e 063c
000000b0: 34f9 c0bc 240b 0cbd c90c dd3d da6b f13d
000000c0: 4ed7 c83d 7f4b a93d 63a3 f03d 1a25 41bd
000000d0: f857 313d 121e 6ebc 772c fd3d 834e ea3c
000000e0: 52b4 823d 88e3 403d b363 693d dedd c83c
000000f0: 9d16 a13d 621e c53d 9dad 4c3c 862d ba3c
00000100: 7ab1 b6bd 8f5e c8bc 4c7c d2bb af19 3ebc
00000110: f7cc 5a3d 643a e0bd 2a52 6c3d 247b 64bd
00000120: 7293 833c 3a97 c63d df54 50bd 60d6 a6bd
00000130: 6133 c23d 4aa6 e93d 193f c7bd 5187 fcbd
00000140: a63d 70bd 4cff cd3d 4036 41bd 9b16 773d
00000150: 6530 f53d b5ad 58bc 968a d8bc 24d8 83bd
00000160: 2486 e1bd 4316 c2bd f95d bdbd 8eff b8bd
00000170: 92f7 d43d 8eeb 4ebd a244 2abd 8e71 23bd
00000180: aee9 99bd 1299 403c ff0b 95bd dce1 543d
00000190: c02e 983d 6daa fcbd decb 88bd 12e9 44bc
000001a0: 48db 2ebd fe2d d63c 9bb3 92bd 87d3 ba3d
000001b0: 6db1 6a3c 1cbb fdbd c659 2abc 6f07 d93d
000001c0: 5e4d cfbd 1798 8f3d 9f09 383c d8fd 57bc
000001d0: 0737 2fbc 4d1c 3bbd 58a9 703d a73e 40bd
000001e0: 03ef ae3d 6921 aebd a74f d33c e36c c43d
000001f0: 4417 8cbd 69e9 0abc cae4 5c3d 28f3 cc3d
00000200: 27a3 74bd 3e8f 743b 3184 eb3d 34e7 5cbc
00000210: 2419 f7bd 66c8 bb3d 3e27 85bd 8130 0b3d
00000220: 61d3 c8bd c44c e43c 3fb1 93bd 8d4d 943a
00000230: 581d 533d 32cd 583d 3d86 55bd 9bf2 f33d
00000240: 218d 4fbc 8742 fe3d bc70 823d 70d2 27bc
00000250: 1ae9 e9bb c22a bd3c 70df 55ba b494 cebd
00000260: 3274 08bc 995d af3c 7d6c cbbd 46bb 19bd
00000270: 7b28 813d 1c36 353d 5489 463d 37db 83bd
00000280: f506 b7bd 0bb6 473d 3593 9ebd 1ecc 743d
00000290: 8afb 02bd b148 313d 7e11 ac3c 6e13 dd3c
000002a0: 9209 2f3c 9816 083c 7243 bcbd 4929 233d
000002b0: 3993 16bd c01f 9f3c 6929 fabd b767 fcbd
000002c0: 6e81 d83d f669 e3bb 4120 98bd 5dd3 a43b
000002d0: 8993 083c 511b 3bbd f896 d43c 130e 3fbd
000002e0: 7443 d3bc 56ec 223c 9d58 c2bd 5918 a43d
000002f0: 8c19 afbd 73d1 cbbd 9c99 643d 2ebd 903d
00000300: f5c6 0abd 9a19 ec3d 87d2 673d 5de0 003e
00000310: b4e7 e03d 4cd0 a7bd ad49 ef3d bd65 7b3d
00000320: 95e7 cd3d 489c e6ba 31cd 8bbd ad86 01be
00000330: 6fef b5bd fedb 603d 4c98 6fbd 00ba 553d
00000340: b847 ad3c 83ea 30bd b654 e2bd 8b9c c7bd
00000350: 96d5 9d3c 1445 0cbd 1762 dcbd 5e2f d5bd
00000360: ab61 b1bd b5d1 803c 8fa2 ea3d ee44 ed3d
00000370: bd7c 3fbd c3be d2bd 0bae e6bd ca53 04bd
00000380: 03ca e0bd c719 cbbd 2807 763d e082 51bb
00000390: 1688 ef3d 479a 973d 00bd 00bd d9f2 853d
000003a0: 56a8 bb3d bba5 bf3d f234 6e3d 3152 4cbd
000003b0: 38b0 debc 90b8 9ebb f978 b43d 9515 95bb
000003c0: 4ae7 993d b5bf 82bc 9e7b 8a3d 213e b03d
000003d0: cf55 513c 027b c73d 7a42 85bd d0d4 403d
000003e0: cd72 f63b 60ec bebd 029a 5fbd 485a b8bd
000003f0: 4ebe b63d 781f 233d 0f69 28bd 807e dd3d

lstm.bias_ih_l0 f4 [256]
-0.12134678 -0.071633205 -0.02633416 -0.10991151 -0.0672971 -0.067632906 -0.06670809 0.0023996406
0.09764342 0.027835488 0.12085827 0.09379044 -0.024913942 0.027302612 0.012586982 -0.05775149
-0.0059358017 -0.0687975 -0.03607329 0.10996044 -0.04077652 0.025074368 0.04917565 0.032176785
0.044006124 -0.09788815 0.016805219 -0.11035753 0.043828327 0.014578762 -0.0060757073 -0.072251886
0.10146883 -0.025550695 -0.0036779745 0.03973172 -0.10400014 -0.012592835 -0.09960857 -0.11341894
0.10008567 0.0023929996 0.016564693 0.02682986 -0.084017895 0.08846018 -0.07245412 -0.07288219
-0.10462688 0.09523169 0.018200455 -0.103251316 0.07783767 0.06746034 0.061911695 0.0009284971
-0.1133139 0.05733436 -0.043288846 0.012654111 -0.092608094 -0.08800006 0.0276073 0.0795073
0.04906501 -0.07888182 0.012785614 0.12563318 0.02785311 0.03269239 0.11317116 -0.1090745
0.12293241 0.07681439 0.1100592 0.013021068 -0.010849824 0.008346784 0.111519456 0.059958782
-0.016892668 0.052627034 0.08356376 0.06328351 0.040320653 0.05497761 0.010923202 0.11746902
-0.047101617 -0.035137802 -0.054567233 -0.093785316 -0.016859343 0.068795785 -0.120668076 0.008869154
0.091161795 0.02096725 -0.08097163 0.11364692 0.04443047 -0.041416608 0.056187958 0.11526882
-0.025557334 -0.021603592 -0.016985044 0.065373726 0.015010441 -0.016802311 0.022720503 0.08381209
-0.10973388 -0.07058667 0.07952181 0.06983295 0.072475284 -0.052764285 -0.03776787 0.011823001
0.056274712 -0.10193237 -0.09731353 -0.073148325 0.05281008 0.12442425 0.0044031925 0.08269766
0.04945614 0.10063796 0.06421754 0.098708645 0.11247355 -0.019088788 -0.0802662 -0.11200168
0.04337496 -0.0710761 -0.07496541 -0.10292561 0.10902135 -0.04822313 -0.034575205 -0.12155905
-0.024298687 0.073975965 -0.0998848 -0.0144513 -0.00462352 -0.123932675 -0.006249785 0.027113512
0.06289265 -0.096373454 -0.021785157 0.058346536 0.043817848 0.029409463 0.05222606 -0.10128048
-0.11162443 0.10457084 0.0069260057 0.05569481 -0.010465443 -0.08518677 0.08416067 -0.03048715
0.10185237 -0.057922162 0.00045058536 0.009185443 -0.06668293 0.07874931 -0.012834782 -0.09028552
-0.111363634 0.037110142 0.10726955 -0.08035413 -0.09180047 -0.07068029 -0.109124064 -0.06429337
-0.035984196 0.005316803 -0.079380564 -0.060792845 -0.073810376 0.08179704 -0.09418671 -0.10624772
0.07799407 0.09910699 -0.09184579 0.022651127 -0.06508116 -0.097073264 0.07802931 -0.02931412
0.031532876 -0.08239992 -0.029015979 0.11149068 -0.12521167 -0.053470444 -0.08969093 -0.061870787
0.02968005 0.100099824 -0.09971623 -0.028441481 0.11431257 -0.043201603 -0.050153673 0.083081685
-0.080608435 0.10138502 -0.1092058 -0.049553532 0.021639485 -0.011796861 -0.099717595 0.04011009
-0.11517921 -0.021135287 -0.0023999019 0.019759635 -0.08248126 0.10162108 0.11669017 0.09120042
0.10402894 -0.014317976 0.06009706 0.06598433 0.046597444 0.051348083 0.0958452 0.07462639
-0.067078754 -0.026970895 0.03692665 -0.031616878 0.09232645 0.053799685 -0.12128549 0.11822436
0.046132807 0.07433075 -0.04751605 -0.060075056 -0.12173249 -0.11535082 0.03317447 0.00667503
00000000: a984 f8bd 6eb4 92bd bcba d7bc 4919 e1bd
00000010: 10d3 89bd 1f83 8abd 409e 88bd 4a43 1d3b
00000020: 46f9 c73d 4007 e43c 8a84 f73d 3415 c03d
00000030: 5318 ccbc baa9 df3c a139 4e3c d48c 6cbd
00000040: 1d81 c2bb b4e5 8cbd 96c1 13bd f032 e13d
00000050: 4805 27bd c368 cd3c 686c 493d cecb 033d
00000060: c43f 343d 9579 c8bd 19ab 893c 2103 e2bd
00000070: 5585 333d c3db 6e3c ba16 c7bb ccf8 93bd
00000080: e4ce cf3d b14f d1bc 2c0a 71bb babd 223d
00000090: 07fe d4bd 2e52 4ebc 94ff cbbd 3048 e8bd
000000a0: b7f9 cc3d dfd3 1c3b aeb2 873c 4bca db3c
000000b0: 9311 acbd 9c2a b53d d362 94bd 4243 95bd
000000c0: 9e46 d6bd d508 c33d 1f19 953c 6d75 d3bd
000000d0: 5b69 9f3d a628 8a3d 1e97 7d3d 6366 733a
000000e0: 1e11 e8bd 6fd7 6a3d a54f 31bd 3053 4f3c
000000f0: 50a9 bdbd 6039 b4bd b428 e23c b9d4 a23d
00000100: 64f8 483d cb8c a1bd c07a 513c fca5 003e
00000110: 352c e43c 75e8 053d 48c6 e73d 7462 dfbd
00000120: fdc3 fb3d dd50 9d3d b866 e13d 5156 553c
00000130: 76c3 31bc f3c0 083c 5064 e43d 5797 753d
00000140: 7e62 8abc 728f 573d 7a23 ab3d c99a 813d
00000150: 4527 253d 3430 613d 3bf7 323c 9993 f03d
00000160: a0ed 40bd a8ec 0fbd e481 5fbd 8412 c0bd
00000170: 9b1c 8abc cee4 8c3d d320 f7bd ee4f 113c
00000180: 09b3 ba3d 83c3 ab3c 74d4 a5bd b7bf e83d
00000190: b9fc 353d 76a4 29bd 5825 663d 0f12 ec3d
000001a0: 9d5d d1bc 04fa b0bc 3824 8bbc a9e2 853d
000001b0: 5aee 753c 00a5 89bc 5920 ba3c aca5 ab3d
000001c0: 28bc e0bd be8f 90bd 55dc a23d 9404 8f3d
000001d0: ec6d 943d 5d1f 58bd 7bb2 1abd 43b5 413c
000001e0: 5080 663d ebc1 d0bd 514c c7bd cace 95bd
000001f0: 624f 583d 24d2 fe3d a848 903b 645d a93d
00000200: 8592 4a3d 461b ce3d 7c84 833d c227 ca3d
00000210: 8858 e63d 1760 9cbc 9b62 a4bd 2361 e5bd
00000220: f1a9 313d 5990 91bd 7787 99bd aaca d2bd
00000230: 9646 df3d 9e85 45bd bb9e 0dbd f4f3 f8bd
00000240: 0a0e c7bc b680 973d 6790 ccbd 25c5 6cbc
00000250: e680 97bb 6ad0 fdbd ffca ccbb 281d de3c
00000260: ddcd 803d 725f c5bd c976 b2bc c7fc 6e3d
00000270: 587a 333d 1dec f03c feea 553d 246c cfbd
00000280: 599b e4bd 3d29 d63d 8cf3 e23b 3e20 643d
00000290: 4077 2bbc 6776 aebd 6e5c ac3d 30c0 f9bc
000002a0: fa97 d03d ca3f 6dbd 8b3c ec39 8a7e 163c
000002b0: 0f91 88bd 5147 a13d fa48 52bc 9de7 b8bd
000002c0: 9e12 e4bd ce00 183d 23b0 db3d b590 a4bd
000002d0: e301 bcbd d4c0 90bd 707c dfbd 3eac 83bd
000002e0: 2a64 13bd 9438 ae3b 4792 a2bd eb01 79bd
000002f0: e529 97bd 3585 a73d f6e4 c0bd 6898 d9bd
00000300: 5bbb 9f3d 9bf8 ca3d a519 bcbd db8e b93c
00000310: 4549 85bd 59ce c6bd d5cd 9f3d 2a24 f0bc
00000320: 9e28 013d 4ac1 a8bd ebb2 edbc 3a55 e43d
00000330: 7d37 00be d303 5bbd e1af b7bd 396c 7dbd
00000340: 9423 f33c 2301 cd3d 0638 ccbd 1cfe e8bc
00000350: b51c ea3d 2af4 30bd f06d 4dbd bb26 aa3d
00000360: 0916 a5bd f3a2 cf3d 4aa7 dfbd a5f8 4abd
00000370: 4a45 b13c 9f47 41bc bd38 ccbd 7a4a 243d
00000380: 14e3 ebbd e923 adbc ac47 1dbb f5de a13c
00000390: efeb a8bd b61e d03d 41fb ee3d 49c7 ba3d
000003a0: 200d d53d f295 6abc 5628 763d cb22 873d
000003b0: f6dc 3e3d 5e52 523d 7d4a c43d b9d5 983d
000003c0: 9660 89bd 11f2 dcbc 6640 173d b380 01bd
000003d0: a615 bd3d 0f5d 5c3d 8764 f8bd 9d1f f23d
000003e0: c1f5 3c3d b83a 983d 31a0 42bd 4311 76bd
000003f0: e24e f9bd 0d3d ecbd f4e1 073d 36ba da3b

lstm.bias_hh_l0 f4 [256]
0.071278654 -0.11874305 0.12099224 -0.07748442 0.018439816 0.038950946 -0.034221813 -0.036083598
-0.052171662 0.10987556 -0.113882154 0.084561735 0.06568758 -0.014550271 0.09170214 0.013203049
-0.039913595 -0.024547327 -0.07644362 0.032008227 -0.04946117 0.09335997 -0.0031821635 0.06500683
0.042292506 0.092612974 0.08100224 -0.07317922 0.0374433 0.082794644 0.052077252 0.007977209
-0.042246718 0.08945708 0.0626826 0.068015404 -0.08897402 -0.089929536 0.07957381 0.05870701
-0.10728138 0.06482356 0.10172221 -0.026651124 0.07519398 0.0762281 -0.06059822 0.09337436
0.035908252 -0.0037450178 0.0068271235 -0.044083178 -0.113750644 0.11852729 -0.0070955213 0.015422663
-0.018567188 0.0370378 -0.033117343 -0.123558246 0.0057987417 0.020290999 0.120365575 0.11375523
-0.108526714 -0.08140958 0.07766056 -0.06806997 0.12002388 0.030298138 -0.0904233 0.10738145
0.09472788 -0.037499342 0.08649966 -0.11837049 -0.110500626 -0.09516148 0.035395026 -0.04656813
0.1115321 -0.028829208 -0.066906214 -0.020833949 -0.11572683 -0.06359418 0.05878023 -0.08815128
-0.09095773 0.014573761 -0.08588643 -0.014857087 -0.04350329 -0.032876458 -0.00076926156 0.12425317
-0.06316495 -0.039940413 -0.04309541 0.072977535 -0.00737645 -0.07675651 0.040855065 -0.077591404
-0.028114343 -0.093533635 0.0067772167 0.12016744 -0.025678566 0.09049827 -0.056451634 0.11801121
0.11333196 -0.0072154934 0.09977355 -0.08923541 0.08896832 0.11752494 0.05935796 -0.11238943
0.022474129 -0.047485262 0.03162308 0.10899831 0.013875833 -0.0043942602 -0.044869512 -0.08127406
-0.07955612 -0.0126374485 -0.06922145 -0.041956924 -0.023130963 -0.1019447 -0.080479644 0.014365674
0.039614044 0.02014241 -0.08528518 -0.018009322 0.09551841 -0.063332155 0.048872743 -0.03699676
-0.10773263 -0.056912094 -0.021225188 -0.108234555 -0.051640965 -0.09568949 -0.09504198 0.083104104
0.10062245 -0.07275525 0.08491634 0.053937193 0.11440062 0.043978266 -0.09579396 -0.076984346
0.04417948 -0.08687257 0.07898934 -0.086907975 0.061984632 0.0035205882 0.008943036 0.049935024
0.053416274 -0.084181696 -0.11545455 0.117093846 0.059656426 -0.04335352 0.06749171 -0.06003826
0.038588136 -0.018588748 -0.10414406 -0.07787692 -0.028992623 -0.05215968 0.124142006 -0.0019435487
-0.025413541 0.11479486 0.020018844 0.10509388 0.099721946 -0.011993934 0.09938231 0.049998708
-0.062096655 0.009031121 0.053662486 -0.10263199 -0.03796591 -0.11463367 -0.044074442 0.12010154
0.05086174 -0.020063655 -0.011271945 -0.010734858 0.115626656 0.028665137 0.12564565 -0.0007135245
-0.02632869 -0.101274736 0.06439008 0.035256136 0.037596177 0.025643265 -0.08149594 0.00013611944
-0.08873511 -0.06494313 -0.00089544477 -0.066036046 0.049393207 -0.06745177 -0.02686426 -0.116259545
0.016551035 -0.050525997 0.010346311 -0.02530328 -0.1006128 -0.07599686 -0.11756321 0.029913122
-0.005334064 0.027816731 0.08036551 0.10603919 0.064161114 -0.052659877 -0.03254781 0.099387266
0.09620981 -0.06906955 0.010974726 0.003593178 -0.06636335 0.021217868 0.0626568 -0.062562466
-0.10955541 -0.08739942 -0.109597676 -0.056021716 0.08634853 -0.10881267 -0.016974848 -0.011614297
00000000: 8bfa 913d 8e2f f3bd c8ca f73d 27b0 9ebd
00000010: 190f 973c 078b 1f3d 2c2c 0cbd 65cc 13bd
00000020: f4b1 55bd 7006 e13d 0c3b e9bd b42e ad3d
00000030: 3687 863d 4364 6ebc 55ce bb3d 9a51 583c
00000040: 707c 23bd 7a17 c9bc 798e 9cbd 0f1b 033d
00000050: cc97 4abd 8333 bf3d d88b 50bb 4d22 853d
00000060: e83a 2d3d dfab bd3d 81e4 a53d fdde 95bd
00000070: 255e 193d 3d90 a93d f54e 553d d7b2 023c
00000080: e50a 2dbd 4635 b73d bc5f 803d a94b 8b3d
00000090: 0338 b6bd fa2c b8bd 98f7 a23d c376 703d
000000a0: 57b6 dbbd 37c2 843d bc53 d03d 7553 dabc
000000b0: 4dff 993d 7a1d 9c3d d735 78bd 0e3b bf3d
000000c0: 8814 133d f96e 75bb 10b6 df3b 9090 34bd
000000d0: 19f6 e8bd 70be f23d 8c81 e8bb 56af 7c3c
000000e0: 371a 98bc f3b4 173d 0da6 07bd 1b0c fdbd
000000f0: 5f03 be3b 4f39 a63c 3a82 f63d 81f8 e83d
00000100: 4143 debd 11ba a6bd 800c 9f3d 4568 8bbd
00000110: 14cf f53d cd33 f83c da2f b9bd ceea db3d
00000120: b100 c23d e998 19bd bc26 b13d 3a6c f2bd
00000130: 274e e2bd 06e4 c2bd 60fa 103d 39be 3ebd
00000140: f16a e43d 3b2b ecbc 2006 89bd f5ab aabc
00000150: 3002 edbd aa3d 82bd 8ac3 703d a988 b4bd
00000160: 0c48 babd c9c6 6e3c 3ae5 afbd 246b 73bc
00000170: 8130 32bd 77a9 06bd 45a8 49ba 7278 fe3d
00000180: a05c 81bd 8f98 23bd d084 30bd 3f75 953d
00000190: 26b6 f1bb 8432 9dbd a457 273d 3ee8 9ebd
000001a0: 0d50 e6bc 908e bfbd 6a13 de3b 591a f63d
000001b0: db5b d2bc 2857 b93d d439 67bd dcaf f13d
000001c0: 961a e83d f26f ecbb 1356 cc3d 0ec1 b6bd
000001d0: 0635 b63d eab0 f03d 5521 733d 6e2c e6bd
000001e0: aa1b b83c e87f 42bd 3487 013d 823a df3d
000001f0: 7657 633c bafd 8fbb 18c9 37bd 0473 a6bd
00000200: 52ee a2bd 4d0d 4fbc fac3 8dbd 06db 2bbd
00000210: 257d bdbc 62c8 d0bd 83d2 a4bd 015e 6b3c
00000220: 5642 223d b201 a53c ffa9 aebd 4988 93bc
00000230: 289f c33d 4ab4 81bd c92e 483d ea89 17bd
00000240: eda2 dcbd a81c 69bd 72e0 adbc 14aa ddbd
00000250: 7a85 53bd daf8 c3bd 5fa5 c2bd 7c32 aa3d
00000260: 2513 ce3d b400 95bd 9ee8 ad3d 3fed 5c3d
00000270: df4a ea3d 8e22 343d a02f c4bd f8a9 9dbd
00000280: 8bf5 343d 3fea b1bd 2ac5 a13d cffc b1bd
00000290: 99e3 7d3d abb9 663b d085 123c ab88 4c3d
000002a0: 06cb 5a3d 7467 acbd 6f73 ecbd e6ce ef3d
000002b0: 4c5a 743d 7693 31bd 1839 8a3d aeea 75bd
000002c0: 980e 1e3d 6e47 98bc 7b49 d5bd ef7d 9fbd
000002d0: f081 edbc 63a5 55bd 2a3e fe3d acbe feba
000002e0: 0f30 d0bc 9119 eb3d 8ffe a33c 763b d73d
000002f0: 053b cc3d 3582 44bc f488 cb3d 72cb 4c3d
00000300: 1059 7ebd 44f7 133c 32cd 5b3d b930 d2bd
00000310: 2482 1bbd 0fc5 eabd 6787 34bd ccf7 f53d
00000320: 6654 503d 895c a4bc f7ad 38bc 42e1 2fbc
00000330: abcd ec3d 26d3 ea3c 41a9 003e d20b 3bba
00000340: 44af d7bc 2169 cfbd f2de 833d bd68 103d
00000350: 73fe 193d d311 d23c 58e7 a6bd 49bb 0e39
00000360: c1ba b5bd e700 85bd 48bc 6aba e83d 87bd
00000370: 8850 4a3d 2724 8abd 7012 dcbc 7c19 eebd
00000380: 0996 873c 59f4 4ebd 9383 293c d348 cfbc
00000390: 150e cebd 3ea4 9bbd fbc4 f0bd 5d0c f53c
000003a0: 5fc9 aebb eadf e33c ac96 a43d 132b d93d
000003b0: e766 833d e2b1 57bd da50 05bd 8d8b cb3d
000003c0: a609 c53d 5674 8dbd 56cf 333c 867b 6b3b
000003d0: 82e9 87bd 18d1 ad3c 3552 803d c020 80bd
000003e0: 965e e0bd 78fe b2bd bf74 e0bd 0777 65bd
000003f0: 80d7 b03d 2dd9 debd d60e 8bbc e449 3ebc

lstm.weight_ih_l1 f4 [256, 64]
-0.053974338 0.10166906 -0.055549633 -0.0733468 0.124959245 0.006815453 0.057262324 0.05347907
0.08316568 0.06580757 0.07099241 0.120626606 0.023653334 -0.010341704 0.0012063694 0.07054
-0.06909397 0.0318279 0.093142964 -0.0981633 0.03410281 -0.005583757 -0.10031707 -0.09126779
-0.11315995 -0.114448816 0.039403852 0.050753154 -0.05966039 0.11139384 -0.0057354714 0.121783674
-0.008706906 0.05298854 -0.06891337 -0.035783637 -0.029661285 0.055699296 0.08444949 -0.054605555
-0.035832264 -0.04201654 0.007314963 -0.10079998 0.10432022 0.008332137 0.0055393768 0.11686884
0.026688084 -0.10357402 0.09232061 0.0012017268 0.063256 -0.07319494 -0.1047522 -0.08292081
0.12289581 0.04742149 -0.080786094 0.03694053 -0.111463144 0.009526308 -0.020905579 -0.024701076
-0.072021134 0.0054717194 0.0020466112 0.038463984 0.04488465 -0.054625835 0.06665523 0.10879898
0.09294105 -0.010297257 -0.014462909 0.054187793 -0.10351774 -0.01393448 0.05192765 0.028029382
-0.022343425 0.0042813015 0.0030454672 0.10093182 0.013016453 -0.06418909 -0.07457278 -0.06561685
-0.08658713 -0.12342857 0.12377156 -0.06808935 0.106935106 -0.05875276 0.12247912 0.115492076
-0.07565803 -0.012154249 0.04483475 0.09428711 -0.037728295 -0.012488024 0.067436665 0.09013487
-0.1102193 -0.07989933 0.09483248 0.06982053 0.10760483 -0.014224206 -0.072655134 0.024625963
-0.10581171 -0.04136209 0.107641324 0.10134926 -0.097677834 0.03114622 -0.008625705 -0.04749019
0.10404533 -0.021083683 0.10332418 0.009996296 0.04565259 0.12203602 -0.048605777 -0.119642064
0.0651369 0.05523094 -0.03153777 0.08617385 0.019972242 -0.069841 0.03186925 -0.07240041
-0.09728196 0.035858285 0.091916904 -0.049166113 -0.042727556 -0.017323636 -0.051609665 -0.031695988
-0.10970491 0.11452506 -0.101156205 0.04591991 0.07278882 -0.027080588 -0.025841795 -0.03079959
-0.06671904 -0.08768857 0.1045847 -0.05616872 -0.021501703 -0.10792499 0.0012103841 0.084600545
-0.039635 0.11611393 -0.10879995 -0.083088554 -0.046642754 -0.007842319 0.05284462 -0.08298731
-0.08391912 -0.07371008 0.013425476 0.07273895 0.08537227 -0.075644076 0.09111586 0.05764548
-0.0008663386 -0.07043153 0.04324132 0.03368513 -0.12524395 -0.034589823 -0.029471597 0.10350859
-0.08552609 -0.05431823 0.07974485 -0.117776036 0.11533641 0.11154253 0.1205845 -0.05077941
0.10306813 -0.09833888 -0.0052821827 0.08308481 -0.060734745 0.08015452 0.022953106 -0.06044645
0.038612682 -0.0068705054 -0.039368447 0.08812539 -0.11679746 0.12139983 0.10186427 -0.0016108147
0.0087954225 -0.10165444 0.12369805 0.07459762 -0.047150802 -0.019788962 0.05920132 -0.05392995
0.09253557 -0.062295273 -0.032820344 -0.035443425 0.006627748 0.09401374 0.11174689 0.010048221
-0.0003019406 -0.003911397 0.091135405 0.012954998 -0.037625905 0.06493011 -0.09387056 0.043100603
0.047728594 -0.011693794 0.1106281 0.075849466 -0.07977087 0.023672685 0.105224274 -0.093969226
0.086917385 0.0956113 0.091969326 -0.117604695 0.04408528 -0.12035625 -0.05755388 0.002100941
-0.09643674 -0.08562467 -0.05247098 -0.047613397 -0.030585868 -0.0626212 0.06847853 -0.037658814
00000000: 3214 5dbd de37 d03d 0388 63bd d936 96bd
00000010: a2ea ff3d 2a54 df3b e68b 6a3d df0c 5b3d
00000020: c552 aa3d 1fc6 863d 7864 913d 150b f73d
00000030: a3c4 c13c 4070 29bc 0a1f 9e3a 4777 903d
00000040: 2481 8dbd f95d 023d bdc1 be3d d709 c9bd
00000050: 63af 0b3d f3f7 b6bb 0973 cdbd 9bea babd
00000060: 67c0 e7bd 2464 eabd ef65 213d 8ae2 4f3d
00000070: 745e 74bd 7422 e43d 9ff0 bbbb b869 f93d
00000080: 69a7 0ebc 830a 593d 7422 8dbd dd91 12bd
00000090: 39fc f2bc f224 643d dbf3 ac3d 13aa 5fbd
000000a0: dac4 12bd 8919 2cbd 5bb2 ef3b 3870 cebd
000000b0: d7a5 d53d 8483 083c a983 b53b ee58 ef3d
000000c0: f8a0 da3c 9e1e d4bd 9712 bd3d 4383 9d3a
000000d0: 5d8c 813d 3be7 95bd 5288 d6bd 63d2 a9bd
000000e0: ccb0 fb3d 093d 423d 2e73 a5bd f44e 173d
000000f0: ca46 e4bd 3b14 1c3c 2d42 abbc e959 cabc
00000100: d17f 93bd 1c4c b33b 7020 063b 698c 1d3d
00000110: f7d8 373d 57bf 5fbd 8a82 883d 00d2 de3d
00000120: e157 be3d d4b5 28bc d6f5 6cbc 05f4 5d3d
00000130: 1c01 d4bd 724d 64bc 16b2 543d e09d e53c
00000140: 8f09 b7bc 294a 8c3b 7696 473b 58b5 ce3d
00000150: f642 553c 9275 83bd 9db9 98bd 2162 86bd
00000160: 9854 b1bd 1ec8 fcbd f27b fd3d 6e72 8bbd
00000170: cb00 db3d bca6 70bd 55d6 fa3d 1c87 ec3d
00000180: 99f2 9abd 9d22 47bc a5a4 373d 9a19 c13d
00000190: fc88 1abd 929a 4cbc 3c1c 8a3d a198 b83d
000001a0: a8ba e1bd 43a2 a3bd 8837 c23d 11fe 8e3d
000001b0: ec5f dc3d a50c 69bc 37cc 94bd 63bc c93c
000001c0: cfb3 d8bd 4b6b 29bd 0e73 dc3d 3390 cf3d
000001d0: 510b c8bd 5c26 ff3c d452 0dbc 1385 42bd
000001e0: b815 d53d b0b7 acbc a19b d33d 81c7 233c
000001f0: 36fe 3a3d 05ee f93d da16 47bd e606 f5bd
00000200: 7f66 853d d739 623d c02d 01bd ea7b b03d
00000210: d49c a33c cc08 8fbd 5589 023d ab46 94bd
00000220: c43b c7bd 23e0 123d ee3e bc3d 6862 49bd
00000230: 1703 2fbd 4cea 8dbc a864 53bd a7d3 01bd
00000240: f8ac e0bd 1d8c ea3d fc2a cfbd 8416 3c3d
00000250: 4e12 953d 1cd8 ddbc 2cb2 d3bc 6c4f fcbc
00000260: fea3 88bd 1196 b3bd 8130 d63d 2c11 66bd
00000270: 5724 b0bc c707 ddbd c0a5 9e3a 0d43 ad3d
00000280: 4f58 22bd 24cd ed3d 82d2 debd 552a aabd
00000290: 790c 3fbd 127d 00bc 9a73 583d 40f5 a9bd
000002a0: cadd abbd 4ff5 96bd 87f6 5b3c 29f8 943d
000002b0: a8d7 ae3d 48eb 9abd f49a ba3d ab1d 6c3d
000002c0: 001b 63ba 683e 90bd cf1d 313d 6bf9 093d
000002d0: f33f 00be 0fae 0dbd 6b6e f1bc 50fc d33d
000002e0: 4d28 afbd cb7c 5ebd 4551 a33d 9034 f1bd
000002f0: 7f35 ec3d 6970 e43d 02f5 f63d 12fe 4fbd
00000300: 6215 d33d e565 c9bd 2916 adbb 5e28 aa3d
00000310: ffc4 78bd 0e28 a43d 2708 bc3c b296 77bd
00000320: 5528 1e3d fa21 e1bb cf40 21bd 167b b43d
00000330: 8233 efbd 79a0 f83d 379e d03d f921 d3ba
00000340: ad1a 103c 3430 d0bd 6755 fd3d a3c6 983d
00000350: 3321 41bd 761c a2bc 157d 723d a7e5 5cbd
00000360: 4a83 bd3d 5429 7fbd a06e 06bd 202d 11bd
00000370: 942d d93b 478a c03d 8edb e43d 4ba1 243c
00000380: c84d 9eb9 2d2b 80bb 33a5 ba3d 3341 543c
00000390: 9f1d 1abd 14fa 843d 353f c0bd 428a 303d
000003a0: 0f7f 433d 5497 3fbc fc90 e23d f756 9b3d
000003b0: e95e a3bd 38ed c13c d37f d73d f072 c0bd
000003c0: be01 b23d dbcf c33d 6a5a bc3d bbda f0bd
000003d0: c492 343d 567d f6bd 9ebd 6bbd f1af 093b
000003e0: a080 c5bd fd5b afbd cfeb 56bd 4406 43bd
000003f0: 378f fabc 8b3f 80bd 793e 8c3d 2140 1abd

lstm.weight_hh_l1 f4 [256, 64]
-0.045486536 -0.1167829 0.09470679 -0.0006580603 -0.06710148 0.0018409123 0.10733982 0.083705425
0.09566197 -0.057488117 -0.037872866 0.106596775 0.09600228 0.041848417 -0.0014549564 -0.08663866
0.05137237 -0.013733738 -0.027674522 -0.035375133 -0.020184442 -0.04991351 0.04560874 -0.008089784
-0.024696305 0.10164819 0.029189078 -0.0017125766 0.04742709 -0.08084561 0.036140837 0.07185661
0.062046126 0.12132093 -0.10607384 -0.06169533 0.06846741 0.013611439 -0.06457529 -0.08548433
0.09954263 0.0032052784 0.10583598 0.034071103 -0.038426213 -0.10193217 -0.048211258 -0.064616404
-0.07553526 -0.050448008 0.049841 0.028275134 -0.005579979 0.100385174 -0.008067497 -0.08995633
-0.074172385 -0.0031630138 -0.08720135 -0.04950746 -0.029417235 0.01449099 0.010318586 0.023804313
-0.09881043 0.10689653 -0.09372436 -0.05049383 0.053038906 -0.12378594 0.025799407 -0.08598036
-0.08218712 0.02364481 -0.03079433 -0.0419611 0.057117008 -0.06217338 -0.06172329 0.0010304174
0.037393324 -0.020637918 0.003345628 0.093371965 -0.053495485 0.013045053 -0.029881338 0.08358717
-0.10146415 -0.017846033 -0.07720419 0.056231078 0.043382928 0.06792958 0.052169308 -0.09122188
0.010226519 -0.031230079 -0.024649434 -0.074634686 -0.094138205 0.11495835 1.4245669e-05 -0.08517342
-0.1145996 0.030428609 -0.09621052 -0.013837625 -0.089553535 -0.06438011 -0.104090914 0.08647667
-0.016120417 0.06569432 0.045719482 0.024892068 0.0337831 -0.09698226 -0.123562925 0.02523609
-0.066093795 0.022660153 -0.09254703 0.027002111 -0.06976113 -0.11438141 -0.07895016 -0.11778863
-0.09519715 -0.068675086 0.059448387 -0.071486615 -0.024112402 -0.08471632 -0.0775856 -0.08002379
-0.01114247 -0.017817978 -0.026498243 -0.048296843 0.022440607 -0.05372981 -0.078983665 0.04039472
0.12574434 0.06723719 0.03341561 -0.015736654 -0.107832536 -0.11914841 -0.110064454 -0.030100962
0.110790975 -0.053979225 -0.023686452 -0.11610082 -0.1137088 -0.08056577 -0.109725125 0.06393734
-0.035062548 0.070999555 -0.09889987 -0.069220625 -0.07167192 -0.032987066 0.09652535 -0.03564682
-0.09476651 -0.09310186 -0.015971664 0.059370473 -0.052645385 0.07916865 -0.05436392 0.057682104
-0.06370832 -0.023322834 -0.080351874 -0.121851794 -0.011681397 -0.07388476 0.087391794 0.06698229
-0.015700271 0.06348743 -0.07441809 0.04308893 0.05280326 -0.015974164 0.021724679 0.048205353
0.082397036 0.053357307 0.023292407 0.09110749 0.12003236 0.1095614 0.010569663 -0.05422782
-0.025673157 -0.105732545 0.015127313 -0.060075343 0.01476468 0.026214195 -0.09777469 0.09789247
-0.070680015 -0.08855417 0.050487515 -0.11225462 -0.08382827 -0.062543705 -0.017324265 -0.113851905
0.10253017 -0.043199454 0.02350404 0.038571246 0.031101832 -0.055176664 -0.029532183 0.0780758
0.05276405 -0.059213407 -0.015995929 0.07688011 -0.12397715 -0.058550805 0.04719723 -0.089068614
0.028495155 -0.017218344 0.107440636 -0.08621456 0.011445002 -0.052431513 0.015715525 -0.040608995
-0.10261074 -0.006591016 0.037020635 -0.010251131 0.07638751 0.10495904 -0.031068329 -0.06629151
-0.06499108 0.037416454 -0.041615263 0.029161058 0.08995216 0.09083554 0.12426996 0.057256196
00000000: 1750 3abd e02b efbd a2f5 c13d ae81 2cba
00000010: 806c 89bd c44a f13a fbd4 db3d c06d ab3d
00000020: 6cea c33d a978 6bbd 9420 1bbd 694f da3d
00000030: d89c c43d 3f69 2b3d 3cb4 beba 9c6f b1bd
00000040: d66b 523d 7903 61bc aeb5 e2bc 84e5 10bd
00000050: d859 a5bc 1c72 4cbd 3bd0 3a3d 038b 04bc
00000060: e84f cabc ed2c d03d ef1d ef3c 8978 e0ba
00000070: e942 423d 6292 a5bd 6a08 143d 8f29 933d
00000080: 1424 7e3d 1c77 f83d 3e3d d9bd 3eb4 7cbd
00000090: a438 8c3d 8302 5f3c 0d40 84bd 6912 afbd
000000a0: 02dd cb3d a60f 523b 89c0 d83d 248e 0b3d
000000b0: ce64 1dbd d0c1 d0bd 2b79 45bd 9b55 84bd
000000c0: 3bb2 9abd 92a2 4ebd 1426 4c3d 41a1 e73c
000000d0: 42d8 b6bb be96 cd3d 892d 04bc 063b b8bd
000000e0: b1e7 97bd 914a 4fbb 9f96 b2bd 56c8 4abd
000000f0: 6afc f0bc 9e6b 6d3c 490f 293c 4301 c33c
00000100: 1f5d cabd 91ec da3d 8ff2 bfbd 9ed2 4ebd
00000110: 533f 593d 7c83 fdbd 4759 d33c 7916 b0bd
00000120: b951 a8bd c3b2 c13c 6444 fcbc 67df 2bbd
00000130: 86f3 693d 84a9 7ebd 8fd1 7cbd 120f 873a
00000140: be29 193d da10 a9bc 5342 5b3b cd39 bf3d
00000150: 151e 5bbd ebba 553c b5c9 f4bc c02f ab3d
00000160: 70cc cfbd d831 92bc 3b1d 9ebd 8f52 663d
00000170: 4cb2 313d aa1e 8b3d 7caf 553d 89d2 babd
00000180: 218d 273c 39d6 ffbc 9ced c9bc 12da 98bd
00000190: 88cb c0bd 496f eb3d af00 6f37 676f aebd
000001a0: 32b3 eabd 6b45 f93c 050a c5bd 35b7 62bc
000001b0: d867 b7bd b8d9 83bd 9e2d d5bd ae1a b13d
000001c0: f70e 84bc be8a 863d 5a44 3b3d 73ea cb3c
000001d0: 2660 0a3d a39e c6bd 8f0e fdbd ebbb ce3c
000001e0: 2f5c 87bd c9a1 b93c 4c89 bdbd 8833 dd3c
000001f0: ecde 8ebd cd40 eabd 9fb0 a1bd 2a3b f1bd
00000200: b9f6 c2bd 86a5 8cbd 2780 733d 9367 92bd
00000210: 5f87 c5bc c07f adbd 33e5 9ebd 83e3 a3bd
00000220: e88e 36bc 02f7 91bc d812 d9bc e9d2 45bd
00000230: 5dd5 b73c ca13 5cbd 30c2 a1bd ef74 253d
00000240: 20c3 003e a7b3 893d cfde 083d 28ea 80bc
00000250: 4ed7 dcbd 1504 f4bd 7969 e1bd 4b96 f6bc
00000260: 61e6 e23d 5219 5dbd 170a c2bc 44c6 edbd
00000270: 29e0 e8bd abff a4bd 91b7 e0bd 95f1 823d
00000280: bf9d 0fbd 3768 913d 048c cabd 8bc3 8dbd
00000290: bac8 92bd 721d 07bd 15af c53d 6602 12bd
000002a0: f214 c2bd 30ac bebd 02d7 82bc 742e 733d
000002b0: b0a2 57bd 2c23 a23d b4ac 5ebd 1244 6c3d
000002c0: 8279 82bd 870f bfbc 868f a4bd 6f8d f9bd
000002d0: 5563 3fbc e550 97bd 78fa b23d 032e 893d
000002e0: db9d 80bc b305 823d 8368 98bd 057e 303d
000002f0: 3b48 583d 40dc 82bc f4f7 b13c fa72 453d
00000300: c7bf a83d 318d 5a3d b8cf be3c 9096 ba3d
00000310: 87d3 f53d ba61 e03d 612c 2d3c fe1d 5ebd
00000320: 8350 d2bc 4e8a d8bd 8dd8 773c 9011 76bd
00000330: 8ee7 713c 27bf d63c 193e c8bd d97b c83d
00000340: afc0 90bd e45b b5bd ffcb 4e3d c0e5 e5bd
00000350: 28ae abbd ea16 80bd 9eeb 8dbc 302b e9bd
00000360: 56fb d13d e9f1 30bd 8b8b c03c e2fc 1d3d
00000370: 45c9 fe3c ed00 62bd 7aed f1bc 34e6 9f3d
00000380: 1e1f 583d c289 72bd e509 83bc 5273 9d3d
00000390: bbe7 fdbd f8d2 6fbd e251 413d 9b69 b6bd
000003a0: ac6e e93c 7c0d 8dbc d609 dc3d 4291 b0bd
000003b0: d183 3b3c 6dc2 56bd d8bd 803c 9e55 26bd
000003c0: 9425 d2bd 73f9 d7bb f3a2 173d 5cf4 27bc
000003d0: 0e71 9c3d c4f4 d63d 0283 febc d8c3 87bd
000003e0: 0b1a 85bd ff41 193d c474 2abd 2ce3 ee3c
000003f0: d738 b83d fc07 ba3d 4081 fe3d 7985 6a3d

lstm.bias_ih_l1 f4 [256]
-0.09449916 0.029630236 0.099640906 0.06516853 -0.04342881 -0.059821226 -0.10975284 -0.049352605
-0.0043646568 -0.0635375 0.0067248517 0.124363646 -0.014805256 -0.057590276 0.07436219 0.06558314
0.017529113 -0.020649647 0.06697638 -0.028428148 -0.032301523 0.09886381 -0.015268707 0.07664474
0.06463189 -0.111412056 -0.046445012 -0.00892402 -0.009217872 -0.09300861 -0.11660908 -0.05629573
0.11746805 -0.027081259 -0.013179234 0.11207342 -0.042240538 0.08226257 0.11906599 0.10173861
-0.110122725 -0.05840292 -0.1184547 -0.08236985 0.032138504 0.07496072 -0.01887575 -0.097630754
-0.054892387 -0.06577584 -0.060192112 0.006879506 -0.098695666 0.11515753 -0.115590096 0.040653948
0.08461377 -0.090761214 0.06667239 -0.007227617 -0.01931263 -0.1100383 -0.07058645 0.033041213
-0.0040711192 0.123789996 -0.009134324 -0.032296717 -0.04656068 0.03555656 -0.12314029 0.10140691
0.016029267 -0.013088974 0.03359341 0.100768946 0.06415446 0.087294735 -0.074903615 -0.0999023
0.01789421 -0.016817683 -0.101169765 -0.105708025 -0.02736277 0.10588419 -0.11944356 -0.019545307
-0.052320153 -0.11501869 -0.08838539 0.07652446 0.11600881 0.0028171798 -0.015315639 0.078790866
-0.040238917 -0.09076911 0.031942148 0.036223914 -0.09779958 -0.101092264 0.043867998 -0.054797314
-0.017831044 0.056317873 -0.037345383 -0.019341657 0.08054137 0.081905864 0.08927358 0.028856503
0.10898732 -0.023719477 0.04431084 -0.0067902445 -0.11677248 0.0831492 0.009657302 -0.09740328
-0.009390173 -0.10774889 -0.10825745 0.08477021 0.07982196 0.08857348 0.10403967 0.1099081
-0.021341525 0.090854876 -0.07077292 -0.09859808 0.009746964 0.09563318 -0.06472118 0.050435573
-0.032490134 0.09206286 -0.048290443 -0.10626436 -0.021882078 0.018317409 0.099778056 -0.12531945
0.0824724 0.08218005 0.07652359 0.035916787 -0.112748496 0.11015038 0.094411805 0.087551646
-0.02782972 -0.0053869663 -0.10540225 0.0038429878 0.003844837 0.004273585 0.09624693 -0.0004128695
0.07169425 -0.0025994997 0.058454838 -0.09847428 0.051923256 -0.12138285 0.09597961 -0.06483391
-0.0037635472 0.06568523 -0.117401086 -0.124213 0.09071124 0.060923725 0.07472141 0.08714612
-0.07307127 -0.06177621 0.039083038 -0.08363734 0.10048639 -0.10402157 -0.018066578 0.12136143
-0.12378091 0.07543925 0.0893604 0.0075398576 -0.046034697 -0.02979964 0.06425208 -0.042540155
-0.11036091 -0.09386654 0.06667145 0.0455279 -0.03735649 -0.07120557 -0.106352895 -0.08650001
-0.058202438 -0.08766067 0.0062721614 -0.048410345 -0.063070044 0.06286769 0.09397157 0.118143804
-0.07334618 0.01878198 -0.0014895673 0.110208 0.008020593 -0.02880039 -0.041096363 -0.054436922
-0.019907204 -0.037164744 -0.111536875 -0.03392806 -0.123279504 0.10169994 -0.101352684 -0.053313605
0.053013016 -0.11219108 -0.010496641 0.019469349 0.09289767 -0.065413 0.10313636 0.031908963
0.11953292 0.08507837 -0.09715335 -0.0194234 -0.027954726 0.123808965 -0.01156515 0.0056999163
0.122596145 0.043169837 -0.06390719 -0.04803908 0.06911705 0.028368015 0.013590091 0.011203058
-0.08835505 0.12241787 0.11147773 0.083048046 0.12267883 0.102860495 -0.02546422 -0.061527703
00000000: c788 c1bd 1cbb f23c 8810 cc3d 1477 853d
00000010: 68e2 31bd 1a07 75bd 19c6 e0bd f525 4abd
00000020: 6505 8fbb f31f 82bd 255c dc3b 5eb2 fe3d
00000030: bf91 72bc c8e3 6bbd 344b 983d 7450 863d
00000040: 3799 8f3c 7329 a9bc ea2a 893d 26e2 e8bc
00000050: 9a4e 04bd 1c79 ca3d 9929 7abc ebf7 9c3d
00000060: b95d 843d 012c e4bd 203d 3ebd 0e36 12bc
00000070: 8f06 17bc 4c7b bebd bed0 eebd 5a96 66bd
00000080: 1793 f03d 84d9 ddbc b7ed 57bc c086 e53d
00000090: 6a04 2dbd 4779 a83d dfd8 f33d 555c d03d
000000a0: 0688 e1bd e637 6fbd 6198 f2bd 86b1 a8bd
000000b0: aaa3 033d 0285 993d 51a1 9abc a2f2 c7bd
000000c0: d7d6 60bd 7cb5 86bd 018c 76bd 7b6d e13b
000000d0: f420 cabd b6d7 eb3d 80ba ecbd c184 263d
000000e0: fc49 ad3d 04e1 b9bd 898b 883d a5d5 ecbb
000000f0: 8535 9ebc c35b e1bd a18f 90bd 3956 073d
00000100: 0667 85bb 9c85 fd3d 22a8 15bc 9049 04bd
00000110: 69b6 3ebd c1a3 113d fa30 fcbd 6dae cf3d
00000120: cf4f 833c 2373 56bc 3e99 093d f35f ce3d
00000130: 6a63 833d 95c7 b23d 1167 99bd 9499 ccbd
00000140: e196 923c 3dc5 89bc 1832 cfbd 737d d8bd
00000150: e327 e0bc cfd9 d83d d39e f4bd 7b1d a0bc
00000160: a84d 56bd eb8e ebbd 6603 b5bd dbb8 9c3d
00000170: 0796 ed3d 6fa0 383b 72ee 7abc 1b5d a13d
00000180: 90d1 24bd 28e5 b9bd c5d5 023d 875f 143d
00000190: 254b c8bd 7609 cfbd eeae 333d 2673 60bd
000001a0: 6912 92bc 92ad 663d 79f7 18bd 6572 9ebc
000001b0: e0f2 a43d 43be a73d 11d5 b63d 7964 ec3c
000001c0: be34 df3d 594f c2bc 497f 353d b380 debb
000001d0: 6926 efbd 214a aa3d a939 1e3c 5f7b c7bd
000001e0: 3dd9 19bc 73ab dcbd 15b6 ddbd 019c ad3d
000001f0: b279 a33d 0366 b53d c012 d53d 7f17 e13d
00000200: 6cd4 aebc 1f12 ba3d 65f1 90bd caed c9bd
00000210: bbb1 1f3c 54db c33d 8a8c 84bd 8895 4e3d
00000220: 6014 05bd 748b bc3d 33cc 45bd 21a1 d9bd
00000230: 0b42 b3bc 640e 963c 7058 cc3d be53 00be
00000240: 4ae7 a83d 044e a83d 66b8 9c3d 7b1d 133d
00000250: afe8 e6bd 8696 e13d fa5a c13d 474e b33d
00000260: 27fb e3bc 2685 b0bb 23dd d7bd a3da 7b3b
00000270: a9f9 7b3b 6e09 8c3b 1c1d c53d 6876 d8b9
00000280: 6fd4 923d 5e5c 2abb 576e 6f3d e2ac c9bd
00000290: 7bad 543d 9297 f8bd f590 c43d a4c7 84bd
000002a0: d8a5 76bb fa85 863d fb6f f0bd 6363 febd
000002b0: d1c6 b93d 288b 793d 8a07 993d aa79 b23d
000002c0: 64a6 95bd 0d09 7dbd 8915 203d 0e4a abbd
000002d0: cfcb cd3d 4309 d5bd 5c00 94bc 578c f83d
000002e0: d980 fdbd e57f 9a3d 9602 b73d e910 f73b
000002f0: e18e 3cbd 601e f4bc 9896 833d 963e 2ebd
00000300: e704 e2bd 1a3d c0bd 0b8b 883d 777b 3a3d
00000310: 1e03 19bd 3ad4 91bd 8ccf d9bd eb26 b1bd
00000320: ae65 6ebd 7087 b3bd b486 cd3b ed49 46bd
00000330: de2a 81bd c7c0 803d 2b74 c03d 61f5 f13d
00000340: 8636 96bd abdc 993c 963d c3ba bbb4 e13d
00000350: ce68 033c ccee ebbc a954 28bd 40f9 5ebd
00000360: 6f14 a3bc 0f3a 18bd 726d e4bd 26f8 0abd
00000370: f779 fcbd 0f48 d03d ff91 cfbd 5e5f 5abd
00000380: 2d24 593d 70c4 e5bd 1afa 2bbc 2f7e 9f3c
00000390: 2241 be3d 40f7 85bd 2839 d33d f9b2 023d
000003a0: adcd f43d 923d ae3d 56f8 c6bd d21d 9fbc
000003b0: 4f01 e5bc 8e8f fd3d c17b 3dbc 5dc6 ba3b
000003c0: b013 fb3d dbd2 303d c6e1 82bd a0c4 44bd
000003d0: 3d8d 8d3d 0a64 e83c f9a8 5e3c 088d 373c
000003e0: 7ef3 b4bd 38b6 fa3d 704e e43d 1815 aa3d
000003f0: 0a3f fb3d 86a8 d23d 579a d0bc 7904 7cbd
