lstm_ts.pth (torch, 72479 bytes, 6 tensors)

lstm.weight_ih_l0 f4 [256, 2]
0.10426899 0.05907605 -0.076093614 0.028162744 -0.048617594 0.037823495 0.04348117 -0.017755874
-0.025002476 -0.034485977 -0.06528378 -0.12698986 0.024186434 0.026754748 -0.0886039 0.012881129
-0.119731426 -0.090611294 0.012806136 -0.06753107 -0.11020513 0.0074250177 0.07878706 -0.1253478
0.12377293 -0.02991649 -0.026712792 0.06594242 -0.070856065 0.12755673 -0.052235726 -0.069409706
0.09934483 -0.09346633 0.080979764 -0.075788215 -0.019942714 0.034987163 -0.107425146 0.050039485
-0.019022265 -0.13773327 0.023438286 0.13315934 -0.0878599 -0.01922959 0.007158992 -0.05584551
-0.00051271374 0.008640644 0.06553801 0.061410226 0.01854949 -0.07282759 0.097151354 0.03669019
-0.10751209 0.039943233 0.07545929 -0.011140869 -0.08140044 0.08467278 0.09155207 -0.06194052
-0.04837565 -0.12450069 -0.13344824 -0.065682866 -0.075120606 -0.017718092 0.094591625 -0.07282608
-0.10133416 -0.0017475393 0.029218469 0.01592641 -0.023823699 -0.061638225 -0.072537385 -0.13138953
-0.08770327 -0.14009292 0.09937031 0.092385836 -0.06594375 -0.038165808 0.07275126 0.00983424
-0.09671195 -0.0581824 0.06424462 -0.06546697 0.025523506 0.058271874 -0.026131961 0.11643963
-0.06993019 0.0005075073 0.05304925 -0.0704853 -0.005166886 0.012588818 -0.05188118 -0.0034971188
-0.07663475 -0.09684846 -0.07418951 0.039636906 0.028349075 -0.01687169 -0.05614601 -0.008059354
-0.019502321 -0.10066401 0.058084596 0.065721646 0.05324387 0.03874168 0.091254115 0.02834358
-0.040351856 -0.0037900803 -0.03987379 0.08420309 0.07353231 0.100553215 -0.029584814 0.050468672
-0.017738214 -0.07096323 -0.0117410105 0.035847608 0.028624495 -0.09683657 0.08074121 -0.0420035
0.0438694 -0.017208533 0.07505343 -0.048436753 0.114846006 0.073085666 -0.04284234 0.052202646
-0.08182428 0.07262691 0.11925712 -0.01451395 -0.0444294 -0.09625302 -0.0841455 0.0007439543
-0.03580843 0.113123715 0.03977218 -0.11549481 -0.10723746 0.0921417 0.022152485 0.0003333466
-0.10241892 0.016901597 0.022173882 0.09642706 0.06868866 -0.07378887 0.015885886 -0.017000336
-0.05073796 -0.086061 0.10984836 0.0034565055 -0.110469535 -0.04100626 0.0005718141 -0.018360527
-0.034231763 0.035926245 0.09764559 -0.049483765 -0.062225655 -0.018414304 -0.07591472 -0.045845266
-0.09998753 0.023029141 -0.11299152 -0.09252773 0.052831106 0.019881552 0.05218096 0.06015294
0.06373048 -0.09480315 -0.122188196 0.009145808 -0.075488254 -0.055808596 -0.011216909 -0.01934441
0.040617265 0.07625371 0.0063236835 0.09502522 0.07851278 0.052155953 -0.13893843 0.08803914
-0.052848984 0.06363729 0.10194505 0.03919278 -0.012219208 -0.06540461 0.12885314 -0.038913675
0.03703343 0.04025218 -0.06832883 0.059043534 -0.12639874 -0.080924444 0.109100744 0.09008008
0.10669883 0.09528388 -0.047753587 0.077705316 0.088632286 -0.0145254955 0.049709506 -0.121785715
0.0350493 -0.10863954 -0.06278203 0.0038063384 0.074470036 -0.011133854 0.14021702 0.10149177
-0.069867805 0.09573707 -0.015023827 0.10870073 0.11845711 0.0035530597 0.08866957 0.05649254
0.10689215 0.02198613 -0.069758765 -0.03381388 -0.055900004 -0.05460935 -0.0007838858 0.12826596
00000000: fb8a d53d baf9 713d f8d6 9bbd 8eb5 e63c
00000010: 3e23 47bd cfec 1a3d 5019 323d c474 91bc
00000020: fed1 ccbc 2b41 0dbd 81b3 85bd a109 02be
00000030: a122 c63c c62c db3c f675 b5bd 5f0b 533c
00000040: c035 f5bd 6a92 b9bd d4d0 513c bb4d 8abd
00000050: 3ab3 e1bd 904d f33b 1c5b a13d 2c5b 00be
00000060: a97c fd3d 6d13 f5bc c9d4 dabc d20c 873d
00000070: fc1c 91bd 3b9e 023e 21f5 55bd ad26 8ebd
00000080: 4d75 cb3d 466b bfbd b8d8 a53d da36 9bbd
00000090: e75e a3bc b34e 0f3d b701 dcbd 34f6 4c3d
000000a0: 95d4 9bbc f309 0dbe a601 c03c ec5a 083e
000000b0: e4ef b3bd 6087 9dbc fa95 ea3b 43be 64bd
000000c0: a367 06ba 7d91 0d3c cb38 863d 4a89 7b3d
000000d0: 1af5 973c a226 95bd 4af7 c63d 7448 163d
000000e0: 4c2f dcbd 849b 233d 668a 9a3d 3188 36bc
000000f0: 46b5 a6bd ec68 ad3d a77f bb3d 58b5 7dbd
00000100: 8c25 46bd 38fa febd a8a6 08be bd84 86bd
00000110: d5d8 99bd 8825 91bc 41b9 c13d d725 95bd
00000120: 4988 cfbd b00d e5ba 925b ef3c 1a78 823c
00000130: eb29 c3bc 5d78 7cbd 7b8e 94bd fa8a 06be
00000140: c69d b3bd 8574 0fbe a982 cb3d c934 bd3d
00000150: 840d 87bd c053 1cbd 9dfe 943d cb1f 213c
00000160: ea10 c6bd ab50 6ebd af92 833d 8c13 86bd
00000170: ac16 d13c 7dae 6e3d b212 d6bc e777 ee3d
00000180: 8f37 8fbd 3d0a 053a 2c4a 593d 995a 90bd
00000190: fb4e a9bb 5441 4e3c 5c81 54bd eb2f 65bb
000001a0: aef2 9cbd 7c58 c6bd abf0 97bd 4f5a 223d
000001b0: 523c e83c 8036 8abc 5cf9 65bd 610b 04bc
000001c0: 55c3 9fbc ef28 cebd 1dea 6d3d 1299 863d
000001d0: 3f16 5a3d 99af 1e3d 70e3 ba3d cc30 e83c
000001e0: fd47 25bd ff62 78bb b352 23bd ab72 ac3d
000001f0: 1c98 963d d8ee cd3d da5b f2bc 3db8 4e3d
00000200: bb4f 91bc 2c55 91bd 5e5d 40bc f1d4 123d
00000210: eb7d ea3c 4052 c6bd a65b a53d dd0b 2cbd
00000220: 66b0 333d e9f8 8cbc 9db5 993d 9e65 46bd
00000230: 6234 eb3d f0ad 953d 737b 2fbd 71d2 553d
00000240: 7d93 a7bd 6bbd 943d 143d f43d ebcb 6dbc
00000250: 9afb 35bd 4e20 c5bd 7a54 acbd ee05 433a
00000260: dcab 12bd 68ad e73d 27e8 223d 8b88 ecbd
00000270: 509f dbbd cab4 bc3d 2179 b53c 06c5 ae39
00000280: 03c1 d1bd 3875 8a3c 00a6 b53c 8d7b c53d
00000290: a4ac 8c3d 9e1e 97bd 1e23 823c 4a44 8bbc
000002a0: 9bd2 4fbd c040 b0bd 2df8 e03d 8a86 623b
000002b0: da3d e2bd 2ef6 27bd cbe5 153a d168 96bc
000002c0: 9b36 0cbd 6627 133d 69fa c73d 7daf 4abd
000002d0: 54e0 7ebd 98d9 96bc 2d79 9bbd 3fc8 3bbd
000002e0: 43c6 ccbd 9ca7 bc3c 1968 e7bd 2e7f bdbd
000002f0: 6e65 583d a3de a23c b4bb 553d ee62 763d
00000300: 2085 823d 2728 c2bd ce3d fabd 4dd8 153c
00000310: 9699 9abd 8e97 64bd 20c7 37bc 2b78 9ebc
00000320: 4a5e 263d e82a 9c3d e736 cf3b 959c c23d
00000330: 4fcb a03d 7ba1 553d e045 0ebe dd4d b43d
00000340: 2d78 58bd 4454 823d 91c8 d03d 9c88 203d
00000350: 1333 48bc daf2 85bd 14f2 033e f263 1fbd
00000360: 5eb0 173d 78df 243d fcef 8bbd a2d7 713d
00000370: ac6e 01be b7bb a5bd 3670 df3d e87b b83d
00000380: eb84 da3d 3224 c33d 4499 43bd f723 9f3d
00000390: d884 b53d 58fc 6dbc 329c 4b3d ca6a f9bd
000003a0: db8f 0f3d 687e debd dd93 80bd c373 793b
000003b0: bf83 983d c56a 36bc 0d95 0f3e ebda cf3d
000003c0: da16 8fbd cc11 c43d 7f26 76bc 7d9e de3d
000003d0: a499 f23d 73da 683b 6498 b53d b964 673d
000003e0: 46ea da3d 421c b43c afdd 8ebd 6c80 0abd
000003f0: 67f7 64bd 0eae 5fbd af7d 4dba 2758 033e

lstm.weight_hh_l0 f4 [256, 64]
0.1415825 0.13631545 0.04705403 -0.04255241 0.031552006 0.07090748 0.012871077 -0.110998765
-0.06597653 -0.09922931 -0.11435117 0.12035344 0.0034011242 -0.022176016 -0.108093135 0.14506222
-0.0066911657 0.06884951 0.06930087 0.054185912 -0.09795244 0.11297815 -0.007923215 0.015583942
0.0032692654 0.057068102 0.030647019 -0.0155918645 -0.029019812 0.10002184 0.088044025 -0.005034098
-0.09920732 -0.031112103 0.040852692 0.11579133 0.08173281 -0.10420812 -0.0478437 -0.0700833
0.030336736 0.10777815 0.022166496 -0.13286774 0.09650588 0.015899276 -0.039502796 -0.07920084
0.034340363 0.046605684 0.09365278 0.023603847 0.10777019 0.113725826 -0.021675084 -0.040743444
0.105817415 -0.039184973 0.026081521 0.10958247 0.015585014 -0.13877177 -0.040406678 0.08885475
0.003796016 0.007977039 0.092383444 0.03375981 -0.011656523 0.024252601 0.02934675 -0.0006007522
0.082076855 -0.13135737 -0.02576675 0.10782234 -0.014984752 0.03108396 -0.104385264 0.12052775
0.041189775 -0.12230696 -0.08289276 -0.060347166 -0.14731221 0.10291401 -0.14379874 -0.04420789
0.021080252 0.025633262 -0.023476042 -0.0011088387 0.059529066 -0.11900833 0.13439716 -0.08125585
-0.13637441 -0.12109619 -0.086487696 -0.08216878 -0.03957162 -0.025657494 0.069407195 -0.08112534
-0.09221555 -0.090919696 0.051209494 0.06618393 0.008509377 -0.052789632 -0.08110135 -0.12632838
0.03767898 -0.085466176 0.020251669 -0.011672039 -0.044022564 -0.05458625 0.037723217 0.006403119
-0.08146894 -0.008897071 0.112505876 0.06482468 0.08568899 -0.05098662 0.034888644 0.039957132
0.059788212 -0.071133845 0.07522004 0.041033294 0.008527515 -0.0071934136 0.09306297 0.0025985637
0.08568608 -0.027969608 -0.048474364 0.046448886 -0.07628734 0.06827578 -0.065096565 0.05923953
0.036955107 -0.05345221 0.097975045 0.03162759 0.018031437 0.07749674 -0.07428093 -0.0854922
-0.043400757 0.021490736 -0.012350681 -0.021810409 -0.0351271 0.09782416 0.14731613 -0.13793303
-0.08459334 0.01899654 -0.032251436 -0.062009774 0.11065985 0.075534396 -0.010621854 -0.035395052
0.027455099 -0.058687903 -0.065296866 -0.026726024 -0.063768946 0.14192374 0.14090037 -0.07322212
0.074286215 0.006372254 -0.00083727663 0.0023569996 -0.0054574953 0.03893485 0.081219114 0.07647021
-0.008078662 -0.025682515 0.09990399 -0.028580736 -0.08068022 0.062422473 0.055906784 0.06587675
-0.024626354 0.0223745 0.059120137 -0.048153818 -0.06100738 -0.055888966 -0.1436018 0.026164979
-0.07562113 -0.08711308 -0.037110813 0.093395546 -0.06846638 0.13005379 -0.071288645 0.0019375259
0.020838503 0.014081383 0.15631677 -0.06199385 -0.0020948334 -0.029770367 0.07413613 -0.02671719
-0.050221596 -0.09222747 -0.12013734 0.0375341 -0.053646725 0.08816465 0.08466175 -0.0641782
0.11316403 -0.074140206 -0.05709944 -0.015404893 -0.02275548 -0.092108406 -0.054873116 0.05210706
0.048320927 -0.025984105 -0.03418368 0.10716606 -0.072150014 -0.02958687 0.017044164 -0.025666213
-0.10944841 -0.088850856 -0.10918925 -0.08262524 -0.09942977 0.07100377 0.110598505 -0.0061937235
0.021028692 -0.08777673 0.01001059 -0.05582922 -0.04018648 -0.0909906 0.1015934 0.08379337
00000000: 01fb 103e 4796 0b3e babb 403d 704b 2ebd
00000010: ad3c 013d f137 913d 36e1 523c 5253 e3bd
00000020: b41e 87bd bd38 cbbd f230 eabd dd7b f63d
00000030: 65e5 5e3b 7aaa b5bc ef5f ddbd 318b 143e
00000040: 9141 dbbb f900 8d3d 9ded 8d3d 0cf2 5d3d
00000050: 4a9b c8bd 1761 e73d 5fd0 01bc ca53 7f3c
00000060: 2c41 563b 3ec0 693d 750f fb3c 0575 7fbc
00000070: f5ba edbc 40d8 cc3d 6d50 b43d 13f5 a4bb
00000080: 352d cbbd cfde febc 2755 273d 0124 ed3d
00000090: 8863 a73d 116b d5bd c1f7 43bd d587 8fbd
000000a0: bf84 f83c caba dc3d 8396 b53c 7b0e 08be
000000b0: e0a4 c53d 333f 823c afcd 21bd 0d34 a2bd
000000c0: 7ba8 0c3d 9ae5 3e3d 07cd bf3d db5c c13c
000000d0: 9eb6 dc3d 16e9 e83d f28f b1bc 99e2 26bd
000000e0: cdb6 d83d 6c80 20bd eaa8 d53c c66c e03d
000000f0: 4958 7f3c 301a 0ebe 7981 25bd 7bf9 b53d
00000100: 95c6 783b 20b2 023c 8833 bd3d ba47 0a3d
00000110: 00fb 3ebc 64ad c63c 9868 f03c cc7b 1dba
00000120: e917 a83d 8c82 06be cb14 d3bc f6d1 dc3d
00000130: 9b82 75bc caa3 fe3c f1c7 d5bd 41d7 f63d
00000140: 9cb6 283d 127c fabd aec3 a9bd 972e 77bd
00000150: 03d9 16be 95c4 d23d fa3f 13be 5513 35bd
00000160: 7eb0 ac3c d9fc d13c d450 c0bc 7456 91ba
00000170: c0d4 733d a4ba f3bd 699f 093e 7869 a6bd
00000180: bca5 0bbe 4701 f8bd 7620 b1bd 1b48 a8bd
00000190: da15 22bd aa2f d2bc 5c25 8e3d 0b25 a6bd
000001a0: 82db bcbd 1b34 babd 0cc1 513d 718b 873d
000001b0: ea6a 0b3c f139 58bd 7718 a6bd 3a5c 01be
000001c0: 4655 1a3d e408 afbd d4e6 a53c 143c 3fbc
000001d0: 0151 34bd d595 5fbd a983 1a3d 41d1 d13b
000001e0: 30d9 a6bd 05c5 11bc 7b69 e63d cdc2 843d
000001f0: b67d af3d 59d7 50bd 65e7 0e3d 17aa 233d
00000200: 7ce4 743d 9fae 91bd f70c 9a3d 8712 283d
00000210: feb6 0b3c bab6 ebbb cc97 be3d aa4c 2a3b
00000220: 2f7c af3d 8520 e5bc 0e8d 46bd 3041 3e3d
00000230: 893c 9cbd 2cd4 8b3d 5951 85bd 26a5 723d
00000240: 3d5e 173d b4f0 5abd 24a7 c83d ef8b 013d
00000250: aab6 933c 9cb6 9e3d 9a20 98bd 8916 afbd
00000260: fec4 31bd 570d b03c 835a 4abc beab b2bc
00000270: 6fe1 0fbd 0858 c83d 0ada 163e 513e 0dbe
00000280: 463f adbd a29e 9b3c 151a 04bd f6fd 7dbd
00000290: a2a1 e23d c7b1 9a3d 4907 2ebc 67fa 10bd
000002a0: 84e9 e03c ba62 70bd 5dba 85bd 89f0 dabc
000002b0: 4b99 82bd 7554 113e 3048 103e 7bf5 95bd
000002c0: 5f23 983d 57ce d03b af7c 5bba e477 1a3b
000002d0: cad4 b2bb 267a 1f3d 3556 a63d 6a9c 9c3d
000002e0: 5d5c 04bc 2364 d2bc 779a cc3d 2622 eabc
000002f0: ac3b a5bd b5ae 7f3d 83fe 643d 64ea 863d
00000300: 35bd c9bc ba4a b73c f527 723d f03c 45bd
00000310: e0e2 79bd d4eb 64bd 5a0c 13be f057 d63c
00000320: 40df 9abd 5868 b2bd 8201 18bd 2a46 bf3d
00000330: 1a38 8cbd d22c 053e c8ff 91bd 95f4 fd3a
00000340: 82b5 aa3c 9ab5 663c 8111 203e 43ed 7dbd
00000350: 7949 09bb fce0 f3bc afd4 973d 02de dabc
00000360: 29b5 4dbd c1e1 bcbd 910a f6bd 5bbd 193d
00000370: abbc 5bbd ab8f b43d 2463 ad3d dc6f 83bd
00000380: 8bc2 e73d d2d6 97bd 1ae1 69bd ce64 7cbc
00000390: b369 babc 55a3 bcbd a2c2 60bd 366e 553d
000003a0: 2aec 453d 9edc d4bc 3004 0cbd e179 db3d
000003b0: 63c3 93bd 2a60 f2bc 34a0 8b3c f341 d2bc
000003c0: 7d26 e0bd 70f7 b5bd 9d9e dfbd 6c37 a9bd
000003d0: d6a1 cbbd 6d6a 913d 7881 e23d b8f4 cabb
000003e0: 5d44 ac3c 49c4 b3bd 7503 243c 2ead 64bd
000003f0: 949a 24bd 4859 babd 3310 d03d dc9b ab3d

lstm.bias_ih_l0 f4 [256]
0.12694736 0.11986275 0.09004408 -0.08725243 0.10448719 0.0043186126 -0.0076661026 0.050558154
-0.044612564 -0.041009475 0.07575038 0.090451 0.07898041 0.047947817 0.10288009 0.11221372
0.042513166 0.09854126 0.06538154 -0.036972027 0.046060678 -0.021772651 -0.081100985 -0.087309994
-0.10425318 -0.10579006 -0.08522444 -0.081038706 0.06459324 0.13225608 0.014886096 -0.09652514
0.0037834484 0.0009938583 0.0705 0.07361444 -0.10104363 -0.030972397 0.006403167 0.13198254
-0.08784639 0.11022957 -0.11463609 -0.02903993 0.087632544 0.014799258 -0.030138964 0.08570957
-0.0759121 0.1524794 0.049015246 -0.047484364 -0.09084565 -0.090675935 0.060960922 -0.047788832
0.12805039 0.023547636 -0.085856356 0.04779791 -0.11989574 0.002848982 0.07918947 0.11383025
-0.008329411 -0.08654863 -0.04382455 0.11660173 -0.03989356 -0.02504286 -0.067323916 -0.02763081
0.13033459 -0.054513954 0.03761188 -0.04273952 0.11309152 -0.014793827 0.106023416 0.14419092
0.11207735 0.04029488 0.055196956 0.03759829 0.022675592 0.13095552 -0.0017346414 -0.03880476
-0.023983475 -0.08896137 -0.025988858 0.08375824 -0.07098797 0.011533322 0.09047298 0.08145993
-0.0067025437 0.015852071 -0.08882372 0.07854298 0.027684731 -0.061913885 -0.03308195 -0.025340416
-0.053572048 0.0739296 0.03267232 0.050374653 0.0831847 0.050188575 -0.037485596 -0.050618693
-0.029450528 0.09546665 0.11962197 0.05527086 0.09733397 -0.052891854 -0.09137656 0.137646
-0.004107358 0.13300796 0.013386803 -0.08025708 -0.074579805 0.04802454 0.06795252 0.03728524
0.1209106 0.115899906 0.05958096 0.008296884 0.022520958 0.061559256 -0.07695307 0.094313875
-0.06113821 -0.06790415 -0.117795356 0.06491268 0.10046866 0.106773116 -0.070564345 -0.032406803
-0.10994139 -0.07198766 0.07218721 -0.054815408 0.08458846 0.017551923 0.068875715 -0.09935098
-0.09641023 0.12687455 0.113174975 0.02612503 -0.018013995 -0.10651752 0.07079557 0.018465577
-0.11988624 -0.12447346 -0.0514004 0.050887525 -0.021754736 0.0491629 0.0041467445 3.9102633e-05
0.10412537 -0.038882222 -0.04596332 -0.04618777 -0.039876953 0.0011512154 0.026734453 0.11459267
-0.11263039 0.120567225 -0.11191696 0.06454537 -0.021475844 0.12705894 0.0664679 -0.12752199
-0.10080217 0.09960403 0.109712265 0.051154293 0.09318284 0.0719285 0.01372117 0.040064152
0.03208233 -0.06293333 0.037303224 0.044582423 -0.061778147 0.106696814 0.089120574 0.09359348
0.10822457 0.024847904 -0.027376013 0.056395795 0.06127467 -0.009659896 0.05403133 0.01278952
-0.06913024 0.061494954 0.108047165 -0.06083356 -0.08312063 0.04510405 0.09361381 0.07838177
0.02293231 0.10249665 0.002300058 -0.033131156 -0.038255148 -0.083521836 0.06731674 0.039480023
-0.08730329 0.073556855 -0.06870294 -0.09470465 0.054876477 0.067635134 -0.056246705 0.104878925
0.091796 0.107013665 0.11978903 0.07071334 0.012758097 0.017370477 -0.002908946 -0.046394657
-0.040454414 0.000496978 -0.0010044365 -0.01526135 0.06397644 0.033260472 -0.12820512 -0.03440672
0.12244413 0.06730019 -0.12480594 -0.052432526 0.064702734 0.029795792 0.08539275 0.061368324
00000000: 7dfe 013e 9a7a f53d 0869 b83d 67b1 b2bd
00000010: 61fd d53d 2683 8d3b ee33 fbbb 1116 4f3d
00000020: aabb 36bd 8df9 27bd 0423 9b3d 603e b93d
00000030: 7bc0 a13d ee64 443d ccb2 d23d 4fd0 e53d
00000040: 4922 2e3d 00d0 c93d c2e6 853d fb6f 17bd
00000050: 1faa 3c3d 8f5c b2bc 4618 a6bd 95cf b2bd
00000060: b182 d5bd 75a8 d8bd 278a aebd 9ff7 a5bd
00000070: 7649 843d 236e 073e d0e4 733c f9ae c5bd
00000080: bbf3 773b 5a44 823a 4e62 903d 2bc3 963d
00000090: f6ef cebd d3b9 fdbc a8d1 d13b 6e26 073e
000000a0: cfe8 b3bd 0ac0 e13d 54c6 eabd 26e5 edbc
000000b0: b178 b33d 9678 723c fde5 f6bc 8088 af3d
000000c0: ce77 9bbd 8f23 1c3e 36c4 483d f77e 42bd
000000d0: 490d babd 4eb4 b9bd 29b2 793d 39be 43bd
000000e0: a41f 033e f9e6 c03c 75d5 afbd bec7 433d
000000f0: e68b f5bd fdb5 3a3b 172e a23d d61f e93d
00000100: 1578 08bc 6840 b1bd 5f81 33bd e3cc ee3d
00000110: 6e67 23bd af26 cdbc 1fe1 89bd 025a e2bc
00000120: 6e76 053e 064a 5fbd ea0e 1a3d a30f 2fbd
00000130: 879c e73d cf61 72bc ce22 d93d c9a6 133e
00000140: cf88 e53d 3e0c 253d 3416 623d aa00 1a3d
00000150: 2ac2 b93c 3419 063e e85c e3ba bdf1 1ebd
00000160: fe78 c4bc 6131 b6bd 96e6 d4bc 7189 ab3d
00000170: 2462 91bd 42f6 3c3c e649 b93d 77d4 a63d
00000180: 03a1 dbbb 34dc 813c 36e9 b5bd 24db a03d
00000190: 17cb e23c 6a99 7dbd f080 07bd b496 cfbc
000001a0: 5d6e 5bbd 6768 973d 69d3 053d a755 4e3d
000001b0: bd5c aa3d 8992 4d3d 7f8a 19bd 8c55 4fbd
000001c0: 3c42 f1bc 0584 c33d 5dfc f43d b363 623d
000001d0: 0857 c73d 21a5 58bd a223 bbbd 13f3 0c3e
000001e0: 0497 86bb 3d33 083e 5254 5b3c d35d a4bd
000001f0: 4cbd 98bd 61b5 443d b12a 8b3d 68b8 183d
00000200: fa9f f73d ee5c ed3d 2a0b 743d a7ef 073c
00000210: df7d b83c 8f25 7c3d 9299 9dbd a227 c13d
00000220: 0f6c 7abd 5511 8bbd b13e f1bd f0f0 843d
00000230: 83c2 cd3d ddab da3d 0a84 90bd ffbc 04bd
00000240: f428 e1bd 446e 93bd e3d6 933d 1f86 60bd
00000250: b73c ad3d 0dc9 8f3c b60e 8d3d 8778 cbbd
00000260: ba72 c5bd 67eb 013e 48c8 e73d 2904 d63c
00000270: 1692 93bc dc25 dabd 45fd 903d 1f45 973c
00000280: eb86 f5bd f1eb febd 3a89 52bd 706f 503d
00000290: fd36 b2bc 095f 493d 6ae1 873b 2202 2438
000002a0: af3f d53d f742 1fbd 0944 3cbd 632f 3dbd
000002b0: 0456 23bd 61e4 963a 3602 db3c 90af ea3d
000002c0: c3aa e6bd f3eb f63d b834 e5bd 5d30 843d
000002d0: 1cee afbc bd1b 023e 5320 883d 2095 02be
000002e0: 5e71 cebd 33fd cb3d d3b0 e03d 2a87 513d
000002f0: a5d6 be3d 404f 933d c2ce 603c 4f1a 243d
00000300: c368 033d 31e3 80bd 44cb 183d 0f9c 363d
00000310: 150b 7dbd dc83 da3d d984 b63d f0ad bf3d
00000320: d8a4 dd3d d58d cb3c a943 e0bc 47ff 663d
00000330: 26fb 7a3d 8a44 1ebc f54f 5d3d 238b 513c
00000340: 2894 8dbd 22e2 7b3d d547 dd3d 9c2c 79bd
00000350: 263b aabd 06bf 383d 99b8 bf3d 9f86 a03d
00000360: 8adc bb3c c3e9 d13d 92bc 163b 89b4 07bd
00000370: 6eb1 1cbd 7f0d abbd 5cdd 893d ceb5 213d
00000380: 11cc b2bd faa4 963d 21b4 8cbd 83f4 c1bd
00000390: 28c6 603d 4a84 8a3d f262 66bd c3ca d63d
000003a0: 8bff bb3d fb29 db3d f353 f53d 28d2 903d
000003b0: 5607 513c 884c 8e3c 04a4 3ebb 5308 3ebd
000003c0: 87b3 25bd a147 023a 4ca7 83ba be0a 7abc
000003d0: 1406 833d 223c 083d 3448 03be 10ee 0cbd
000003e0: fdc3 fa3d afd4 893d 429a ffbd 7dc3 56bd
000003f0: de82 843d 4e16 f43c 65e2 ae3d 5a5d 7b3d

lstm.bias_hh_l0 f4 [256]
0.060623452 -0.06724484 0.0146113485 0.08099505 -0.053077944 -0.009286985 -0.010880408 -0.08277392
0.13350432 0.10186465 -0.073467895 0.047281902 -0.070629165 0.051937334 0.103587046 0.078052655
-0.1022629 0.043897 0.0898308 -0.084448874 -0.085723765 0.040652383 0.13225017 0.038996726
0.09220252 -0.0034250142 0.14888099 -0.017960755 -0.06191316 0.09034033 0.12299655 0.08037728
-0.07520381 0.06042283 0.13809036 0.06309109 0.0825435 0.07979599 0.0717271 -0.0626679
0.116045885 -0.06432639 0.04563731 0.05368952 0.10087625 -0.07475717 0.07589341 -0.08005814
-0.070380315 0.15797737 0.09265362 0.10324677 -0.02368423 0.09884484 0.065592185 -0.051273193
-0.10154871 0.097714394 -0.044830088 0.059201874 0.090431705 0.13866875 -0.105452545 -0.011519243
0.03926928 0.039052837 0.09035377 -0.018510858 -0.014136294 -0.0790832 0.016114414 0.10726301
0.023287045 -0.0009566617 -0.104148336 -0.08992277 0.12619211 0.072216064 0.08547287 0.08151267
0.09999224 -0.060898665 -0.09878976 0.04603165 0.11485887 0.030030817 -0.06262399 -0.07376467
0.10528865 -0.09054343 0.05815559 0.1297263 -0.10579699 -0.022512117 0.09027204 -0.046213225
-0.01938948 0.039765712 -0.0385828 0.0779607 -0.0017699873 0.07604479 -0.054727964 0.07008967
0.08405078 -0.073882036 0.103396945 0.00013390821 -0.09611348 -0.030535934 -0.0018598706 0.019339327
-0.08141235 0.014993832 -0.03983149 0.031899165 -0.016829744 0.0393023 -0.08510372 0.039530132
0.017752612 -0.08960498 -0.07954363 0.01098345 -0.076655805 0.036284495 0.12416891 0.10759208
0.11710034 0.12884852 0.118442714 0.078624114 -0.047148537 0.10566884 0.0475705 -0.0968824
-0.070822865 0.13069877 -0.062216617 -0.09009607 -0.07627156 -0.09404912 0.104305595 0.035014667
-0.004217001 0.03577951 0.12689155 0.06475997 -0.07208464 -0.06831435 -0.061232176 -0.014101873
-0.09950024 -0.089381516 -0.09564322 0.109040625 -0.06884891 -0.1334372 -0.06786164 0.03745897
0.11137944 0.07062917 -0.10412577 -0.0360935 -0.054795656 0.07133193 -0.08858614 -0.11492719
0.10072436 0.08306783 0.022913469 0.06490832 0.0699085 0.07171051 0.088858105 -0.014131031
0.036343038 -0.12126676 0.07116999 0.10632328 0.052027415 -0.057188414 -0.069550276 -0.024259947
-0.012618069 0.10339124 0.025780013 -0.08760422 -0.08924439 0.09379664 -0.027367812 0.08212009
-0.03306242 0.10921234 0.06090913 0.031702172 0.13129936 0.053627808 -0.03675134 0.14029495
-0.068080306 0.09374907 0.01717402 -0.047612604 -0.000644101 0.006316924 0.13210048 0.07782265
-0.03699226 0.058956414 0.09206503 0.11381162 -0.035076987 0.063479856 -0.10388282 0.09056976
0.07855881 -0.0044377595 0.109144896 -0.07159476 -0.10720214 0.07363688 -0.009144172 0.004104996
0.0043509793 0.0018496298 0.06601031 -0.0906503 0.12132271 -0.042679973 0.04149679 0.11057074
-0.008284808 0.02967519 0.1084534 0.02502449 -0.018846674 0.041653756 0.045715455 -0.046707865
-0.070672855 0.06329532 0.014697366 -0.03286498 -0.02643676 0.010412047 -0.00020146527 0.12505655
-0.086574234 0.06826394 0.07226523 -0.09639813 0.01896061 -0.02563702 -0.06765545 -0.06599347
00000000: 4c50 783d aab7 89bd 7064 6f3c bce0 a53d
00000010: 4268 59bd 7028 18bc bd43 32bc 5f85 a9bd
00000020: 5bb5 083e 6a9e d03d 5676 96bd abaa 413d
00000030: 06a6 90bd 3ebc 543d 7225 d43d 12da 9f3d
00000040: 366f d1bd 57cd 333d 36f9 b73d 88f3 acbd
00000050: f18f afbd 1d83 263d 976c 073e 08bb 1f3d
00000060: add4 bc3d 3476 60bb 4274 183e 6f22 93bc
00000070: a798 7dbd 5a04 b93d 9de5 fb3d d89c a43d
00000080: 7504 9abd ee7d 773d 8f67 0d3e e735 813d
00000090: 910c a93d 146c a33d a8e5 923d 0758 80bd
000000a0: 77a9 ed3d 8ebd 83bd 30ee 3a3d 8be9 5b3d
000000b0: 3598 ce3d 4a1a 99bd 016e 9b3d 86f5 a3bd
000000c0: 8e23 90bd d2c4 213e 2ec1 bd3d 0b73 d33d
000000d0: 6e05 c2bc 2a6f ca3d 3255 863d d703 52bd
000000e0: c5f8 cfbd 7c1e c83d c19f 37bd aa7d 723d
000000f0: 4234 b93d 2eff 0d3e 81f7 d7bd 35bb 3cbc
00000100: d3d8 203d def5 1f3d 660b b93d 15a4 97bc
00000110: ea9b 67bc 5ff6 a1bd 6002 843c b6ac db3d
00000120: 79c4 be3c 7bc8 7aba b94b d5bd 6e29 b8bd
00000130: 8138 013e 04e6 933d 660c af3d 1df0 a63d
00000140: bbc8 cc3d e170 79bd 4952 cabd af8b 3c3d
00000150: 213b eb3d 3003 f63c 0241 80bd ee11 97bd
00000160: 93a1 d73d d56e b9bd 8e34 6e3d f9d6 043e
00000170: 18ac d8bd 556b b8bc 8ce0 b83d 144a 3dbd
00000180: b0d6 9ebc 5fe1 223d 0009 1ebd dca9 9f3d
00000190: ebfe e7ba 5fbd 9b3d 6e2a 60bd 2c8b 8f3d
000001a0: d122 ac3d 774f 97bd c7c1 d33d b669 0c39
000001b0: 25d7 c4bd 7f26 fabc e7c6 f3ba 826d 9e3c
000001c0: 85bb a6bd b1a8 753c 5826 23bd b3a8 023d
000001d0: 88de 89bc 73fb 203d dc4a aebd 59ea 213d
000001e0: ed6d 913c d182 b7bd c5e7 a2bd eef3 333c
000001f0: b8fd 9cbd 0d9f 143d 454c fe3d 3d59 dc3d
00000200: 4ed2 ef3d def0 033e 1892 f23d ae05 a13d
00000210: d31e 41bd e868 d83d 49d9 423d 486a c6bd
00000220: 940b 91bd e6d5 053e dad6 7ebd 4a84 b8bd
00000230: 4334 9cbd d39c c0bd 2c9e d53d 8a6b 0f3d
00000240: c52e 8abb 898d 123d dcef 013e e0a0 843d
00000250: 1da1 93bd 65e8 8bbd 97ce 7abd 8b0b 67bc
00000260: c8c6 cbbd a80d b7bd 98e0 c3bd b150 df3d
00000270: a800 8dbd c3a3 08be 0bfb 8abd 946e 193d
00000280: e71a e43d 07a6 903d e43f d5bd c7d6 13bd
00000290: 6971 60bd 7a16 923d a66c b5bd f25e ebbd
000002a0: 9348 ce3d 771f aa3d 07b5 bb3c a7ee 843d
000002b0: 302c 8f3d f6dc 923d 3dfb b53d d785 67bc
000002c0: 70dc 143d b55a f8bd 92c1 913d 05c0 d93d
000002d0: b31a 553d 663e 6abd 6070 8ebd ccbc c6bc
000002e0: 04bc 4ebc c9be d33d 9b30 d33c d769 b3bd
000002f0: c3c5 b6bd 7418 c03d 7632 e0bc 942e a83d
00000300: 766c 07bd b8aa df3d da7b 793d 23da 013d
00000310: 5773 063e d5a8 5b3d 9388 16bd 7ba9 0f3e
00000320: b06d 8bbd 83ff bf3d 88b0 8c3c 6f05 43bd
00000330: e3d8 28ba 33fe ce3b 5945 073e 7b61 9f3d
00000340: 3285 17bd 487c 713d 978c bc3d 1116 e93d
00000350: e3ac 0fbd ba01 823d 84c0 d4bd a37c b93d
00000360: 71e3 a03d a06a 91bb 5c87 df3d 46a0 92bd
00000370: cc8c dbbd efce 963d 70d1 15bc 3483 863b
00000380: a992 8e3b 476f f23a 6a30 873d dda6 b9bd
00000390: 0a78 f83d 32d1 2ebd 8af8 293d ea72 e23d
000003a0: 01bd 07bc 6219 f33c d11c de3d 2900 cd3c
000003b0: 5764 9abc 219d 2a3d 2140 3b3d bf50 3fbd
000003c0: eebc 90bd faa0 813d 39cd 703c 6e9d 06bd
000003d0: e791 d8bc 4a97 2a3c 6c40 53b9 d30e 003e
000003e0: d54d b1bd f7cd 8b3d cbff 933d 626c c5bd
000003f0: 4853 9b3c ba04 d2bc f18e 8abd 9627 87bd

linear.weight f4 [2, 64]
-0.10380577 0.02166201 -0.035659913 0.05505833 -0.07620734 -0.06264163 -0.12396042 0.030836845
0.034520727 -0.00032641605 0.071706824 -0.10800028 -0.06949364 0.02928876 0.052564703 -0.072644606
0.100880854 0.091077805 0.11800811 0.057940595 0.062755145 -0.027201744 0.03712094 -0.037140463
0.10673075 0.091822915 -0.014799258 -0.12633884 0.11885864 -0.11195213 0.07557705 0.11893323
0.13407402 -0.03902207 0.081588 -0.0858167 -0.089176744 0.07433914 -0.02501268 0.05941905
-0.086316116 -0.018708622 0.062830396 -0.04262843 0.023425674 -0.07691735 -0.07345096 0.06412231
-0.06352481 -0.09795588 -0.03704178 -0.12626942 0.11107433 -0.0037490968 0.052969523 -0.093550496
0.11963905 0.040737495 0.084042765 0.04097741 0.0392372 0.006735125 0.0120317815 0.112068966
-0.069987066 -0.060361534 -0.13511366 -0.018769283 -0.13373017 0.0046723587 -0.13409583 0.13387431
0.1285866 -0.074459635 0.10662284 -0.10322386 0.114549495 0.09657687 0.03825656 0.03190866
-0.0700591 0.062907904 -0.089795984 -0.033221148 0.074068196 0.017438825 -0.015439755 -0.11213095
-0.006250484 -0.02465967 0.066337265 0.041753177 0.025478585 0.036979165 -0.11278155 0.12570201
0.07007594 0.09656349 0.0077641285 -0.011431483 -0.050424162 -0.039290316 -0.065102525 0.12216023
-0.018305708 -0.13114087 -0.08388375 0.13558571 -0.09500541 -0.06898692 -0.1283321 -0.05927041
-0.06155069 -0.042035416 0.12683408 0.01902595 0.11252526 -0.028469836 0.011265403 -0.09179564
-0.0874665 -0.0001580854 0.01276886 -0.106687255 0.023387825 0.13999504 0.040961646 0.12650259
00000000: 1f98 d4bd 8774 b13c 2110 12bd d884 613d
00000010: 9812 9cbd 414a 80bd f6de fdbd 8d9d fc3c
00000020: 9b65 0d3d d222 abb9 07db 923d 402f ddbd
00000030: ae52 8ebd fbee ef3c 164e 573d b2c6 94bd
00000040: 9f9a ce3d 0087 ba3d 3cae f13d 1e53 6d3d
00000050: c585 803d 31d6 debc 200c 183d 9920 18bd
00000060: a795 da3d a70d bc3d 9678 72bc f85e 01be
00000070: 296c f33d 2947 e5bd 24c8 9a3d 4493 f33d
00000080: b34a 093e 9bd5 1fbd 9c17 a73d aac0 afbd
00000090: 4ca2 b6bd 1e3f 983d 64e7 ccbc 6461 733d
000000a0: 81c6 b0bd d342 99bc 39ad 803d 269b 2ebd
000000b0: 33e7 bf3c d886 9dbd 756d 96bd 8f52 833d
000000c0: 4c19 82bd 189d c8bd 1fb9 17bd c54c 01be
000000d0: f07a e33d 68b3 75bb 92f6 583d 6797 bfbd
000000e0: 5105 f53d 5cdc 263d 9d1e ac3d eed7 273d
000000f0: 30b7 203d 53b2 dc3b f320 453c 6a84 e53d
00000100: 6155 8fbd a83d 77bd 3c5b 0abe 0ac2 99bc
00000110: 90f0 08be 961a 993b 6b50 09be 5916 093e
00000120: 35ac 033e 4b7e 98bd 135d da3d 0867 d3bd
00000130: ed98 ea3d 18ca c53d e9b2 1c3d a8b2 023d
00000140: 257b 8fbd dcd5 803d f5e6 b7bd e612 08bd
00000150: 11b1 973d dedb 8e3c 07f7 7cbc e9a4 e5bd
00000160: dcd0 ccbb 1403 cabc d5db 873d 6105 2b3d
00000170: 77b8 d03c 7777 173d 03fa e6bd 07b8 003e
00000180: f983 8f3d 14c3 c53d 3b6a fe3b 1d4b 3bbc
00000190: 9189 4ebd e2ee 20bd 7954 85bd 252f fa3d
000001a0: daf5 95bc cb49 06be 3ecb abbd fbd6 0a3e
000001b0: 3292 c2bd 0449 8dbd 7d69 03be 88c5 72bd
000001c0: 941c 7cbd 542d 2cbd cbe0 013e 4fdc 9b3c
000001d0: a573 e63d 9339 e9bc 8692 383c 5aff bbbd
000001e0: a321 b3bd bac3 25b9 7b34 513c d97e dabd
000001f0: d397 bf3c dc5a 0f3e 66c7 273d e589 013e

linear.bias f4 [2]
-0.10988841 0.047632642
00000000: 2d0d e1bd 721a 433d
