lstm_ts.pth (torch, 205503 bytes, 9 tensors)

lstm.weight_ih_l0 f4 [256, 1]
0	0x3dc96621	0.09833933
1	0xbdf20b0b	-0.118185125
2	0x3c99465b	0.018710306
3	0xbd2f42d6	-0.04278835
4	0x3b20d1f2	0.00245392
5	0xbccecf33	-0.025245285
6	0xbcd46d11	-0.025930913
7	0x3dc7c584	0.0975447
8	0x3da5a8dd	0.08088849
9	0xbc83e409	-0.016099947
10	0x3db1f5ce	0.08689462
11	0xbdec5d81	-0.11541272
12	0xbd618341	-0.055056814
13	0x3ca3758d	0.019953514
14	0x3d81d407	0.06339269
15	0x3d52643a	0.051365115
16	0xbc0e1a28	-0.008673228
17	0x3e12d39c	0.14338535
18	0xbe042176	-0.1290339
19	0x3d9ee9cd	0.07759438
20	0xbb94dbb0	-0.0045427904
21	0x3d0224a6	0.031773232
22	0xbd664901	-0.056221966
23	0x3d873525	0.066019334
24	0xbcef91e7	-0.029244376
25	0x38b1e53d	8.482717e-05
26	0x3d87ab5e	0.066244826
27	0xbd6d70d0	-0.057968915
28	0x3e0d41e7	0.13794671
29	0xbc0f7775	-0.008756508
30	0x3dddf0c3	0.10836937
31	0xbbdfc22b	-0.0068285665
32	0x3dd550e3	0.104158185
33	0xbdb413fb	-0.087928735
34	0xbde683b0	-0.11255586
35	0xbd856a7f	-0.06514453
36	0x3d3660df	0.044525977
37	0x3ddf7bf6	0.109123155
38	0x3d0c255c	0.034215316
39	0xbd9270a0	-0.07150388
40	0xbdd1b62c	-0.10239825
41	0x3c8bd606	0.017069828
42	0x3da96cac	0.08272681
43	0x3cca7074	0.024711825
44	0xbd76e50e	-0.060277037
45	0x3d06f561	0.032948855
46	0x3cc9de8a	0.024642248
47	0xbd8b2f4a	-0.06796129
48	0x3ddc20cf	0.10748445
49	0xbe13a48a	-0.14418235
50	0xbc94ff5d	-0.018188173
51	0x3ddc8bfa	0.10768886
52	0x3d0e3d83	0.03472663
53	0x3db0445c	0.086067885
54	0xbd9c5393	-0.07633128
55	0xbcbf4b31	-0.023351284
56	0x3de36213	0.111026905
57	0xbd67d690	-0.056601107
58	0x3dad1825	0.08451871
59	0x3c21179a	0.009832287
60	0xbe16aabb	-0.14713566
61	0xbc1d421e	-0.009598283
62	0x3d6e57fb	0.058189373
63	0x3d74c42a	0.05975739
64	0xbd564eab	-0.052321117
65	0xbd77139d	-0.06032144
66	0x3d0cdf20	0.034392476
67	0x3da73799	0.08164901
68	0x3e11c824	0.14236504
69	0xbe10dc16	-0.14146456
70	0xbdb8525c	-0.09000084
71	0xbc28750c	-0.010281812
72	0x3bdf8ec1	0.0068224375
73	0x3d7ee624	0.062231198
74	0xbc259f3f	-0.010108768
75	0xbcc6e442	-0.024278764
76	0xbd2e2320	-0.042513967
77	0xbd828d64	-0.06374624
78	0x3dd8c498	0.10584372
79	0x3d254297	0.04034671
80	0xbd8448f9	-0.06459231
81	0x3c828120	0.015930712
82	0xbd92a664	-0.07160643
83	0x3dd36211	0.10321439
84	0x3d53c7ae	0.0517041
85	0x3c09c89b	0.0084096445
86	0x3cced94b	0.025250098
87	0x3d39dcbe	0.04537653
88	0xbdba8ead	-0.091092445
89	0x3dcdf83b	0.10057112
90	0x3dfae2de	0.12250303
91	0xbd8736b9	-0.066022344
92	0xbc5db9dc	-0.013533082
93	0x3cfc89b3	0.030827379
94	0x3d97f1a5	0.07419137
95	0xbdc7c141	-0.09753657
96	0xbd9e5229	-0.077305146
97	0x3c84e145	0.016220698
98	0xbb6b2754	-0.0035881596
99	0x3d2606a0	0.04053366
100	0x3d253b9e	0.04034006
101	0x3dda68da	0.1066453
102	0x3d5e601d	0.05429088
103	0x3daf06bc	0.08546206
104	0x3c6795a0	0.0141347945
105	0x3d05ec86	0.03269627
106	0xbdabfb3e	-0.0839753
107	0xbca62e74	-0.020285822
108	0x3d98d3d0	0.07462275
109	0x3d8fd379	0.07022757
110	0xbd7aace9	-0.061200056
111	0xbcc88386	-0.024476778
112	0xbd11a97b	-0.03556202
113	0xbdb878da	-0.090074256
114	0xbd09dfde	-0.033660762
115	0x3d4f226f	0.050569948
116	0x3d339b27	0.043849137
117	0x3c3ffbcf	0.011717751
118	0x3b387edc	0.0028151786
119	0xbdce6b9a	-0.10079117
120	0xba470618	-0.00075921556
121	0xbbeed56b	-0.007288625
122	0x3dc0c7c9	0.09413106
123	0x3e264fd8	0.16241395
124	0x3b00fbc5	0.0019681316
125	0xbd1dbc11	-0.038509432
126	0x3d6710da	0.056412555
127	0x3d546f01	0.051863674
128	0x3da6b035	0.081390776
129	0x3db06b63	0.086142324
130	0xbe036c87	-0.12834369
131	0x3dd2c9fe	0.10292433
132	0x3d90859c	0.07056734
133	0xbded8803	-0.11598208
134	0x3dd84fcf	0.10562097
135	0xbdf91076	-0.12161343
136	0xbe015ade	-0.1263232
137	0x3def5f3f	0.116880886
138	0x3da535e4	0.080669194
139	0xbe2a954b	-0.16658513
140	0xbe06e4bc	-0.13173193
141	0xbe2664da	-0.1624941
142	0xbd05b133	-0.032639693
143	0xbde26c8b	-0.11055859
144	0xbd79421f	-0.060854074
145	0xbd750e42	-0.05982805
146	0x3bd8e1ac	0.006618699
147	0x3e212bbf	0.15739344
148	0x3d10aeaf	0.03532284
149	0xbde1469d	-0.109997965
150	0x3da36243	0.07977726
151	0x3cb23161	0.021752061
152	0x3e10492e	0.14090416
153	0x3d94777a	0.07249351
154	0xbe130636	-0.14357838
155	0xbd8818c5	-0.066453494
156	0x3d8697e9	0.06571943
157	0x3dc2aabe	0.09505223
158	0x3e0084ab	0.12550609
159	0xbd38751c	-0.04503356
160	0x3deca80b	0.11555489
161	0x3e350c98	0.17680585
162	0xbd49eef8	-0.049300164
163	0x3c6a7b6f	0.014311655
164	0x3d96997b	0.07353493
165	0xbd007a87	-0.03136685
166	0xbd83bfcc	-0.06433067
167	0x3deed66c	0.116619915
168	0xbd9574ee	-0.07297693
169	0xbd86d43e	-0.06583451
170	0xbe0089a4	-0.12552506
171	0x3da475c9	0.08030278
172	0xbd733419	-0.059375856
173	0xbe062a49	-0.13102068
174	0x3d2f403c	0.042785868
175	0x3cc10b99	0.0235651
176	0x3e1e1263	0.15436701
177	0xbde0387f	-0.10948276
178	0xbdef2605	-0.116771735
179	0xbd21e8c5	-0.039528627
180	0x3e08dc38	0.13365257
181	0x3e2d3f8d	0.16918774
182	0x3deef4de	0.116677985
183	0xbd9605b6	-0.07325308
184	0xbe1db253	-0.15400057
185	0xbd9df9a8	-0.07713634
186	0xbe026019	-0.12731971
187	0xbe1b1d7f	-0.1514797
188	0xbd99f34a	-0.07517107
189	0x3e0136c1	0.12618543
190	0x3c468199	0.012115859
191	0xbe26adf5	-0.16277297
192	0xbd8925c0	-0.06696653
193	0xbce4e3b1	-0.027940603
194	0x3dba2f45	0.09091047
195	0x3e067203	0.1312943
196	0xbcbb66fc	-0.022876255
197	0xbe162430	-0.14662242
198	0xbd5dbe65	-0.054136652
199	0x3d0e71f2	0.034776635
200	0x3db09ee9	0.0862406
201	0xbda7152c	-0.08158335
202	0xbc9350ea	-0.017982919
203	0xbd9930c8	-0.074800074
204	0xbd1ff084	-0.039047733
205	0xbdf517a0	-0.11967397
206	0xbd44fe9a	-0.04809437
207	0xbdd5d6da	-0.1044137
208	0x3e059910	0.1304667
209	0x3e1ea983	0.15494351
210	0xbcc87962	-0.024471942
211	0x3df2ac38	0.11849254
212	0xbd8a6968	-0.06758386
213	0xbc910414	-0.01770214
214	0x3b549a80	0.0032440722
215	0xbdd387a7	-0.10328608
216	0x3d1b969a	0.03798542
217	0x3d77ed89	0.060529266
218	0x3d5c0d39	0.053723548
219	0xbddff53e	-0.10935448
220	0x3c087d6c	0.008330684
221	0x3d8e3242	0.0694318
222	0x3dabbdcb	0.083858095
223	0xbd888298	-0.06665534
224	0xbc9b2f08	-0.018943325
225	0xbdf1a5ef	-0.117992274
226	0xbda4f0f7	-0.08053773
227	0x3da1de71	0.079037555
228	0xbd9c5b56	-0.076346084
229	0x3b42d639	0.0029729737
230	0x3c43816f	0.011932715
231	0x3d6b03c1	0.057376627
232	0xbc09de9b	-0.00841489
233	0xbd15bd8f	-0.03655773
234	0xbd9dd377	-0.07706349
235	0x3c82f8f3	0.015987849
236	0x3d7c7482	0.061634548
237	0x3db8b166	0.09018211
238	0x3dc56446	0.09638266
239	0xbce426bb	-0.0278505
240	0xbdb05064	-0.08609083
241	0xbd3ffed6	-0.04687389
242	0x3c18741e	0.009305028
243	0x3d9012a3	0.07034805
244	0xbd998c8a	-0.07497509
245	0xbd8b7e08	-0.06811148
246	0x3c21ffbb	0.009887631
247	0xbd378191	-0.0448013
248	0x3dc43c04	0.095817596
249	0x3d072536	0.03299447
250	0x3d956124	0.07293919
251	0x3c80bf52	0.015716229
252	0xbe18602e	-0.1488044
253	0x3de8a845	0.1136022
254	0x3e14441d	0.14479108
255	0xbe08f87b	-0.13376038

lstm.weight_hh_l0 f4 [256, 64]
0	0xbdac56e5	-0.08415011
1	0x3dce95f8	0.10087198
2	0xbd138752	-0.036017723
3	0xbdb7797d	-0.08958719
4	0x3dae0a59	0.084980674
5	0x3d40eebd	0.04710268
6	0x3cae7634	0.021296598
7	0xbb1d4081	-0.0023994746
8	0x3dc2b838	0.09507793
9	0xbd063144	-0.032761827
10	0x3debf4f2	0.11521329
11	0x3c1ec6d4	0.009690959
12	0x3ca65e09	0.020308511
13	0xbd40d542	-0.04707838
14	0xbd87ce25	-0.06631116
15	0xbd8d4ab1	-0.06899012
16	0x3db1a8dd	0.08674786
17	0x3d0273c0	0.03184867
18	0x3df95fae	0.121764526
19	0x3dde1ae1	0.108449705
20	0x3c80e654	0.015734829
21	0xbdf688ff	-0.12037849
22	0x3c1b872f	0.0094926795
23	0xbddb66b9	-0.10712952
24	0x3e01ba0b	0.12668626
25	0x3dddb81c	0.10826132
26	0x3daddd77	0.08489507
27	0xbd2bb296	-0.04191836
28	0x3bb48fd4	0.0055103097
29	0x3da1f920	0.07908845
30	0x3d67453c	0.05646251
31	0x3cb974f2	0.022638772
32	0x3dce7dce	0.10082589
33	0x3c9e623d	0.019333953
34	0x3dde5f74	0.1085805
35	0x3d9f47e2	0.077773824
36	0x3d8b44ea	0.06800254
37	0x3cc64899	0.02420454
38	0xbd5351c1	-0.05159164
39	0x3dd4e187	0.103945784
40	0x3e297622	0.1654897
41	0xbd513741	-0.051078085
42	0x3d5817d2	0.05275709
43	0xbdb64f97	-0.08901899
44	0xbd971e59	-0.07378835
45	0x3d03bd80	0.032163143
46	0xbd1967be	-0.037452452
47	0x3db6696f	0.089068286
48	0x3d90fdf1	0.070796855
49	0xbd3de134	-0.04635735
50	0xbdafca55	-0.08583514
51	0x3c15e029	0.009147682
52	0x3c45d9e3	0.012075874
53	0x3dd3746b	0.10324939
54	0xbe020a4d	-0.12699242
55	0xbdc9edbc	-0.09859797
56	0xbdf00e13	-0.117214344
57	0xbce1789a	-0.027523328
58	0x3d4debb7	0.050273623
59	0xbcaf7875	-0.021419743
60	0x3e12200c	0.14270037
61	0x3d91d088	0.07119852
62	0x3dc3b7a2	0.095565096
63	0x3d2a3295	0.041552145
64	0x3df33da8	0.11876994
65	0x3c739d46	0.01486904
66	0x3dd8a64e	0.10578595
67	0x3c0cdef2	0.008598076
68	0xbd9092f6	-0.070592806
69	0x3dbe8b2f	0.09303891
70	0xbe0f1e52	-0.1397641
71	0x3d186daf	0.037213977
72	0x3c9355be	0.017985221
73	0xbd7eafbf	-0.062179323
74	0x3de30cd6	0.11086433
75	0x3df09121	0.11746431
76	0x3d6085e9	0.054815207
77	0x3e0406a3	0.12893157
78	0x3de9fd56	0.11425273
79	0xbd5021e6	-0.050813578
80	0xbcfcfdc3	-0.030882722
81	0xbdb216f9	-0.08695788
82	0x3c0042b7	0.007828406
83	0x3d6d50a3	0.05793823
84	0x3dc1fb60	0.09471774
85	0x3dc4085a	0.095719054
86	0x3db7cf0d	0.08975039
87	0xbe1b3022	-0.1515508
88	0x3d880292	0.06641115
89	0x3c057232	0.008144902
90	0x3d95374f	0.0728594
91	0x3d8dbf6f	0.06921279
92	0xbc9f28b0	-0.019428581
93	0x3e0e3bc5	0.13889988
94	0x3d466913	0.04844005
95	0xbe026c3b	-0.12736599
96	0xbd8609a3	-0.06544807
97	0x3d6319e9	0.05544463
98	0x3d965943	0.07341244
99	0xbdc78229	-0.09741623
100	0x3d96d836	0.07365458
101	0xbe0a2444	-0.13490397
102	0xbd8f82c2	-0.07007362
103	0xbd63ee3a	-0.055647112
104	0xbd9b500c	-0.07583627
105	0x3d9cc13b	0.07654043
106	0xbdc29c6c	-0.09502491
107	0xbdafd269	-0.085850544
108	0x3d54681b	0.051857095
109	0x3dd2621d	0.1027262
110	0xbd7aad41	-0.061200384
111	0x3d03fb59	0.032222126
112	0xbd816c0c	-0.063194364
113	0x3e1d554b	0.15364568
114	0xbdea2c36	-0.11434214
115	0xbd825f2e	-0.0636581
116	0x3c15c18f	0.009140386
117	0xbdaeb026	-0.085296914
118	0xbda55355	-0.08072535
119	0xbc54576c	-0.012960296
120	0x3daf59ce	0.08562051
121	0xba0244ce	-0.0004969359
122	0xbd60745e	-0.054798476
123	0xbe1346aa	-0.14382425
124	0x3a524032	0.000802043
125	0xbd609ee4	-0.05483903
126	0xbd401336	-0.04689332
127	0xbca62d16	-0.02028517
128	0x3de1ae3f	0.11019563
129	0x3c3ae592	0.011407273
130	0xbce8d0f5	-0.028419951
131	0xbc1b7486	-0.009488231
132	0xbd92abfd	-0.071617104
133	0xbda88c86	-0.08229928
134	0xbd055d29	-0.032559548
135	0x3d079cc3	0.033108484
136	0x3dbd0452	0.0922934
137	0xbdd7d03b	-0.10537764
138	0xbb364f64	-0.0027818317
139	0x3d897c69	0.067131825
140	0xbdad499e	-0.08461307
141	0xbde6d56c	-0.11271176
142	0xbdb8aa99	-0.09016914
143	0x3dbedabb	0.09319063
144	0xbd9a7c33	-0.0754322
145	0x3dc82bf5	0.09774009
146	0xbd3950a3	-0.045242917
147	0xbd160d1b	-0.036633592
148	0x3cd777bd	0.026302213
149	0x3d9dbee8	0.07702428
150	0x3c7b028a	0.01532043
151	0x3c659552	0.0140126515
152	0xbdd4cd2d	-0.10390697
153	0xbbb81e2d	-0.0056188316
154	0xbd0079dd	-0.031366218
155	0xbdfcc4d0	-0.123422265
156	0x3da6ee5f	0.081509344
157	0xbca40749	-0.020023005
158	0xbd73009a	-0.059326746
159	0xbbb7159f	-0.005587294
160	0x3d86cb66	0.06581764
161	0xbe0628f1	-0.13101555
162	0x3de9b478	0.11411375
163	0x3ce99d67	0.028517438
164	0x3cefc7bd	0.029270047
165	0x3d7135db	0.05888925
166	0xbdbcd6a0	-0.09220624
167	0xbdb039b4	-0.08604756
168	0xbc751cb3	-0.014960456
169	0xbd9052ff	-0.0704708
170	0x3d6dde18	0.058073133
171	0xbd3c8cb0	-0.046032608
172	0x3d52658b	0.05136637
173	0xbd340d2f	-0.043957885
174	0x3cfb16c6	0.030650508
175	0x3e1a06fc	0.15041727
176	0xbdb15752	-0.08659233
177	0xbd63e036	-0.055633746
178	0x3d7e6716	0.06211003
179	0xbdee8702	-0.116468444
180	0xbdd04e04	-0.1017113
181	0x3db26609	0.08710868
182	0xbc33f9ad	-0.01098482
183	0xbde273bc	-0.11057231
184	0x3d6dc3be	0.058048002
185	0x3db8115a	0.089876845
186	0x3d6a575b	0.057212215
187	0x3d0c6d82	0.034284122
188	0x3c1f4138	0.009720139
189	0x3d1a4d0d	0.037671138
190	0xbd1dee09	-0.038557086
191	0x3d88f1e0	0.06686759
192	0xba2c25b9	-0.00065669004
193	0x3dff4c9f	0.12465786
194	0x3dad9af4	0.084768206
195	0xbc093bde	-0.00837609
196	0x3c755b96	0.014975449
197	0xbdf045a1	-0.11732031
198	0xbd4a3ea4	-0.049376145
199	0xbe1524fb	-0.14564888
200	0x3bcfe3f5	0.0063443133
201	0x3dc8bc86	0.09801583
202	0xbc13cdbe	-0.009021221
203	0x3d6f0fcf	0.058364686
204	0xbcd3ebd0	-0.02586928
205	0xbb75f56f	-0.0037530323
206	0xbdc8c993	-0.09804072
207	0x3ce891d1	0.028389843
208	0xbdc1f304	-0.0947018
209	0xbc9520ab	-0.018204054
210	0x3e0c5671	0.1370485
211	0xbd962e77	-0.07333081
212	0xbd624bc4	-0.055248037
213	0xbde1d00b	-0.11026009
214	0x3d8b124b	0.067905985
215	0xbb7b632e	-0.0038358676
216	0xbdc9f963	-0.0986202
217	0x3de5e316	0.11224954
218	0x3d0cd1ae	0.034379654
219	0x3ced1f73	0.02894566
220	0x3da92cee	0.08260523
221	0xbd89ee25	-0.067348756
222	0x3e0a19b4	0.13486367
223	0x3c7fa101	0.015602351
224	0x3dd162bb	0.102239095
225	0x3d6f9303	0.05848981
226	0x3e21300e	0.15740988
227	0x3e0d6b54	0.13810474
228	0xbde523aa	-0.11188443
229	0xbe16cb80	-0.14726067
230	0xbbc5e7cf	-0.0060395966
231	0x3c74f28d	0.014950407
232	0x3dc065e3	0.09394433
233	0xbdddbf47	-0.10827499
234	0xbd077ca3	-0.033077847
235	0x3d2f6f71	0.04283089
236	0xbdfce336	-0.123480245
237	0x3d6a0a21	0.057138566
238	0x3d932964	0.07185629
239	0x3d244495	0.040104467
240	0xbd4e7bfe	-0.050411217
241	0x3d800522	0.06250979
242	0xbdd6e8f8	-0.10493654
243	0x3d013fa4	0.031554833
244	0x3d80cde2	0.06289269
245	0x3cf2022b	0.02954205
246	0xbccc59c3	-0.024945145
247	0xbd0c5d73	-0.034268808
248	0xbd56348a	-0.0522962
249	0x3d5c8bc1	0.053844217
250	0x3d65220f	0.055940684
251	0xbb990e64	-0.004670905
252	0x3e163354	0.14668018
253	0x3c63b2b6	0.0138975885
254	0x3e02a630	0.12758708
255	0xbdb09f7f	-0.086241715

lstm.bias_ih_l0 f4 [256]
0	0x3d040afa	0.03223703
1	0x3d4980c3	0.049195062
2	0x3d9e790b	0.07737931
3	0x3c40a7e7	0.011758781
4	0x3dd2cdb8	0.10293144
5	0x3d24a1b8	0.04019329
6	0x3e1088db	0.14114706
7	0xbd96a5ac	-0.07355818
8	0xbdab3318	-0.08359355
9	0x3d4d06a8	0.050055176
10	0x3dcfb1af	0.10141312
11	0x3d3905e2	0.045171626
12	0x3c90ab67	0.017659856
13	0x3e236954	0.15958148
14	0x3e098f0f	0.13433479
15	0xbc2cdac3	-0.010550204
16	0x3d97c4db	0.07410594
17	0xbc769e3b	-0.0150523735
18	0xbd841170	-0.064486384
19	0x3cb658cc	0.022259139
20	0x3d44481c	0.04792033
21	0x3de89fc0	0.11358595
22	0x3d3b62de	0.045748584
23	0x3dc6e507	0.09711652
24	0x3d9707b6	0.073745176
25	0xbc848a8a	-0.016179342
26	0x3e1362e4	0.14393193
27	0xbcf78e02	-0.030219082
28	0xbc0f6442	-0.008751931
29	0xbd9ba9ad	-0.076007225
30	0xbcfb30b9	-0.030662881
31	0x3d92aae5	0.07161502
32	0x3d69b015	0.05705269
33	0x3def7065	0.116913594
34	0xbdb22358	-0.086981475
35	0xbd9d4115	-0.07678429
36	0xbd4b8343	-0.049685728
37	0x3e03afce	0.12860033
38	0x3d54ae2d	0.05192392
39	0xbd775b6c	-0.06038992
40	0xbc64eff0	-0.013973221
41	0x3cc1a0d9	0.023636268
42	0x3d84c2d2	0.064824715
43	0xbd9b230e	-0.075750455
44	0xbbd1123d	-0.006380348
45	0x3d8e3b90	0.069449544
46	0x3e041673	0.12899189
47	0xbc0ce647	-0.008599824
48	0x3e119444	0.14216715
49	0x3d8a56ee	0.06754862
50	0xbbeb0b84	-0.0071730036
51	0x3b4bd0f9	0.00310999
52	0xbd589dd9	-0.05288491
53	0xbd374b14	-0.044749334
54	0x3d1c7e54	0.038206413
55	0x3e12f9af	0.14353059
56	0xbdb5c4ba	-0.08875413
57	0x3bfa4ad8	0.0076383166
58	0x3ca44dbe	0.020056602
59	0x3deb551d	0.114908434
60	0xbd6a93b5	-0.05726977
61	0xbaf4562c	-0.0018641404
62	0x3d908b56	0.07057826
63	0xbd069e59	-0.032865856
64	0x3cd7df26	0.026351523
65	0x3c79c75b	0.015245284
66	0x3dc6fdec	0.097164005
67	0x3d4e76c5	0.050406236
68	0x3d351bbe	0.04421591
69	0x3e0d9044	0.13824564
70	0xbd000710	-0.031256735
71	0x3cbc3aae	0.0229772
72	0xbd3a8041	-0.04553247
73	0xbcee624f	-0.029099612
74	0xbd6f3243	-0.058397543
75	0xbd04d911	-0.032433573
76	0xbd0aac3f	-0.033855673
77	0x3de2b2d4	0.11069265
78	0xbd0254ea	-0.03181926
79	0xbcc85a84	-0.024457224
80	0x3d8a7417	0.06760424
81	0x3d304ad8	0.043040127
82	0x3d8a4b4d	0.06752644
83	0x3da7309c	0.081635684
84	0x3e0e66a7	0.13906346
85	0x3db750d4	0.089509636
86	0xba862ebc	-0.0010237317
87	0xbc5cee12	-0.013484495
88	0x3d52eeb8	0.05149719
89	0x3db8028e	0.08984862
90	0xbdae95d0	-0.08524668
91	0xbda6a59f	-0.081370585
92	0xbcfa8929	-0.030582981
93	0xbd98382e	-0.074325904
94	0xbd2c5498	-0.042072862
95	0xbc995a54	-0.01871983
96	0x3d8347d6	0.06410186
97	0xbc6c983c	-0.014440592
98	0x3de2b660	0.110699415
99	0xbd9e9790	-0.07743752
100	0xbd1157e6	-0.035484217
101	0xbced7691	-0.0289872
102	0xbd46eae9	-0.04856387
103	0xbdcdd9aa	-0.10051282
104	0xbcaced6e	-0.021109309
105	0x3d80f255	0.06296221
106	0xbcfcfe8d	-0.030883098
107	0x3e09c1a8	0.1345278
108	0xbd6c2bb6	-0.057658873
109	0x3e0cd0c5	0.13751514
110	0xbd190294	-0.037355974
111	0x3e14baf8	0.14524448
112	0x3c27cb5f	0.010241359
113	0xbd3b1352	-0.045672722
114	0xbd8fa209	-0.07013328
115	0x3cb61540	0.02222693
116	0x3ba1600e	0.0049247807
117	0xbd58041c	-0.052738294
118	0xbd8b2825	-0.06794766
119	0xbc1a7d2f	-0.00942926
120	0x3d49290f	0.049111422
121	0x3dbde804	0.09272769
122	0x3dc30324	0.095220834
123	0xbdb7a440	-0.08966875
124	0x3d7bbd19	0.061459634
125	0xbd0c27e0	-0.034217715
126	0xbcb69b31	-0.022290798
127	0x3df36098	0.11883658
128	0x3e0119c4	0.12607485
129	0x3d36c394	0.04462011
130	0x3d591250	0.05299598
131	0xbdad642e	-0.084663734
132	0x3df683ec	0.12036881
133	0x3da806d6	0.08204429
134	0xbd7d97d5	-0.061912376
135	0x3d01e663	0.031713855
136	0x3de5d9bf	0.112231724
137	0xbda401ec	-0.08008179
138	0x3d773a9e	0.060358636
139	0x3d0feaf2	0.03513617
140	0x3d302a99	0.043009374
141	0x3d7a322d	0.061083008
142	0x3d828b71	0.063742526
143	0x3ddf1de7	0.10894375
144	0xbd9da9c1	-0.076983936
145	0xbdea233f	-0.11432504
146	0x3dd79976	0.10527317
147	0x3d84cfbc	0.06484935
148	0x3dbc86ca	0.092053965
149	0xbd10e6c4	-0.035376325
150	0x3d0b2f73	0.033980798
151	0xbb3bec45	-0.0028674763
152	0x3d055c00	0.03255844
153	0xbba39845	-0.004992517
154	0x3d5b3580	0.05351782
155	0xbb3ef759	-0.002913913
156	0x3cd9161c	0.0264998
157	0x3cc69873	0.024242615
158	0xbbe353db	-0.0069374866
159	0x3d01450b	0.031559985
160	0x3d156ce5	0.036480803
161	0xbd4f01ac	-0.050538704
162	0x3d93fe02	0.072261825
163	0x3d308d2b	0.04310338
164	0x3cdc8df9	0.026923167
165	0xbe00bd56	-0.12572226
166	0x3a3c9fef	0.0007195463
167	0xbda7a6ef	-0.08186137
168	0x3dec7ab4	0.11546841
169	0xbdadc242	-0.08484317
170	0x3d87bb1a	0.06627484
171	0xbcbf8de6	-0.023383092
172	0xbdf4b483	-0.119484924
173	0x3d0d77db	0.03453813
174	0x3d823dbe	0.06359433
175	0x3cadd667	0.021220399
176	0xbcc17795	-0.023616591
177	0xbcf070cf	-0.029350666
178	0x3d87d2c3	0.066319965
179	0xbdc34274	-0.09534159
180	0xbdbbf5e8	-0.09177762
181	0x3bd556bc	0.0065105837
182	0xbe01dc3c	-0.12681669
183	0x3d42ce04	0.047559753
184	0xbdcc5544	-0.099772006
185	0xbd9c10d8	-0.076204
186	0x3d8510e2	0.06497361
187	0xbda8f2b3	-0.08249416
188	0x3d9a6739	0.075392194
189	0x3dca986c	0.098923534
190	0x3c86314b	0.016380927
191	0x3c12fc59	0.008971297
192	0x3d4f98d5	0.05068286
193	0x3e26f2de	0.16303584
194	0x3d6e283d	0.058143843
195	0xbd13ff08	-0.03613189
196	0x3def4939	0.11683888
197	0xbd41430b	-0.047183078
198	0xbd334969	-0.04377118
199	0xbc7e66c5	-0.015527432
200	0x3db60089	0.08886821
201	0x3de64ac7	0.112447314
202	0xbd7f919b	-0.06239472
203	0x3da17867	0.07884293
204	0x3cda27bd	0.026630277
205	0x3e003bf9	0.12522878
206	0x3da93309	0.08261687
207	0xbcdef5c1	-0.027216794
208	0x3d9b250d	0.07575426
209	0xbc99c4ef	-0.018770663
210	0xbc68f7c9	-0.014219233
211	0x3d978623	0.073986314
212	0x3e103bbe	0.1408529
213	0xbd961715	-0.07328621
214	0xbd2ba156	-0.04190191
215	0xba010f74	-0.0004923262
216	0xbd3a2a9f	-0.045450803
217	0xbcff760f	-0.031184224
218	0x3e123445	0.14277752
219	0x3c93274e	0.017963078
220	0x3d1517c1	0.036399607
221	0xbda99f9c	-0.08282396
222	0x3dd38087	0.10327249
223	0x3da45db0	0.08025682
224	0xbd087f7a	-0.033324696
225	0xbbb6c34f	-0.005577482
226	0x3d37b345	0.0448487
227	0x3d32c44d	0.04364424
228	0x3dde33d2	0.10849728
229	0xbdc3eea2	-0.09567
230	0x3df9d7a1	0.12199331
231	0x3dfd41da	0.12366076
232	0x3dbb310b	0.091402136
233	0x3ca348e3	0.019932216
234	0xbc7e29b3	-0.015512872
235	0x3ddd0981	0.10792828
236	0xbd89d080	-0.06729221
237	0x3d198a31	0.037485305
238	0xbdb047c5	-0.08607439
239	0x3c1e410e	0.009659065
240	0x3d4e6e44	0.050398126
241	0xbdb3a0d8	-0.08770913
242	0xbc0bd619	-0.008534932
243	0xbb294d4e	-0.002583343
244	0x3d2be3fa	0.041965462
245	0x3db785f7	0.08961099
246	0x3e15117d	0.14557452
247	0xbd07bfba	-0.03314183
248	0x3deba1e9	0.11505491
249	0x3d5e7f03	0.054320347
250	0xbb293acc	-0.00258224
251	0x3bf3d66f	0.007441334
252	0x3b4c9e40	0.0031222254
253	0x3dffbb05	0.12486843
254	0xbd15009e	-0.03637754
255	0x3e09ce52	0.13457611

lstm.bias_hh_l0 f4 [256]
0	0x3c9f1043	0.019416934
1	0x3e1b82af	0.1518657
2	0xbcc3ff15	-0.023925344
3	0x3d871009	0.06594855
4	0xbd824d1c	-0.06362364
5	0x3d894f6d	0.067046024
6	0xbd13dcd8	-0.036099285
7	0x3e15553d	0.14583297
8	0x3d9e7708	0.07737547
9	0x3dd34572	0.1031598
10	0xbd6f022f	-0.05835169
11	0x3d89964b	0.06718119
12	0x3e26bf9e	0.16284034
13	0x3dda7325	0.10666493
14	0xbd42caf6	-0.04755684
15	0xbd3f790e	-0.046746306
16	0x3ca58bc3	0.020208245
17	0x3d8e6b10	0.06954014
18	0xbd8dea75	-0.06929485
19	0x3de8588f	0.11345016
20	0x3b00fdf1	0.001968261
21	0x3df5b819	0.119980045
22	0xbdaf1007	-0.08547979
23	0x3d0943a1	0.03351176
24	0x3cb60b01	0.022222044
25	0x3d596fc6	0.05308511
26	0x3def3ab7	0.11681121
27	0xbd90152e	-0.0703529
28	0xbdb846a3	-0.08997848
29	0x3e154783	0.14578061
30	0xbd8edd7f	-0.06975841
31	0xbd030f75	-0.031997163
32	0xbc919d7b	-0.017775288
33	0x3e0cf6da	0.13766041
34	0x3e0920f2	0.13391474
35	0x3d91ff54	0.07128778
36	0xbd0b84ff	-0.03406238
37	0x3db38384	0.08765319
38	0x3df2acdc	0.118493766
39	0x3dcc7c57	0.099846534
40	0x3e10ed07	0.14152919
41	0x3df16624	0.1178706
42	0x3d01ac17	0.03165826
43	0x3db69ec4	0.08917001
44	0x3e10ad0a	0.14128509
45	0x3d3c021f	0.04590046
46	0xbd810e91	-0.063016064
47	0x3dfed854	0.12443605
48	0xbd7f1f09	-0.062285457
49	0x3dc030fa	0.093843415
50	0x3ddbd740	0.10734415
51	0x3d8ecfe3	0.06973245
52	0x3cf22595	0.029558936
53	0x3df847ac	0.12123045
54	0x3d8913c0	0.0669322
55	0x3d1ea23a	0.03872893
56	0xbbd01971	-0.006350689
57	0x3de06137	0.10956042
58	0x3b9554e8	0.0045572408
59	0x3d90e903	0.070756935
60	0xbc088b75	-0.00833403
61	0xbd1db7a1	-0.0385052
62	0x3e08cd61	0.13359596
63	0x3cd5db9e	0.026105698
64	0x3dedf2bb	0.11618563
65	0xbd1e477e	-0.0386424
66	0x3d8516a2	0.064984575
67	0x3dc136e4	0.09434298
68	0x3d287a95	0.04113253
69	0xbd888613	-0.06666198
70	0x3d33c136	0.043885432
71	0xbdcb7ad4	-0.09935537
72	0x3ce4c961	0.027928056
73	0xbdafe5e8	-0.08588773
74	0x3e10928c	0.14118403
75	0xbd175775	-0.03694864
76	0xbd9add3d	-0.07561729
77	0x3df0f604	0.11765674
78	0x3d5c173e	0.053733103
79	0xbd2d14b4	-0.042256072
80	0x3d16472a	0.03668896
81	0x3db66d70	0.08907592
82	0x3d99e14d	0.07513676
83	0xbdb2670f	-0.08711063
84	0x3cad80d1	0.021179589
85	0xbcd2606e	-0.025680747
86	0xbdae9ae7	-0.08525639
87	0x3cec007f	0.02880883
88	0x3de9a251	0.114079125
89	0xbdb0dea7	-0.086362176
90	0x3d4d8a7e	0.050180905
91	0xbda0bead	-0.078488685
92	0xbdc81ee0	-0.09771514
93	0x3cb2da17	0.021832509
94	0xbd27cf2e	-0.040969066
95	0x3cd957a5	0.02653105
96	0x3dcb2e09	0.0992089
97	0x3d5b0b5b	0.053477626
98	0xbd99a7f2	-0.07502736
99	0xbddb0c86	-0.10695748
100	0xbd9b7bfb	-0.07592007
101	0x3e048a49	0.12943377
102	0x3e027c88	0.12742817
103	0xbd3ba0ee	-0.04580777
104	0x3d9d6eec	0.07687172
105	0x3cd4f83e	0.025997277
106	0x3d01cf70	0.03169197
107	0x3d996188	0.07489306
108	0xbd80066e	-0.06251226
109	0x3d8e82eb	0.06958564
110	0xbdaa76cc	-0.0832344
111	0x3bda0fb4	0.006654704
112	0xbc9f7581	-0.01946521
113	0xb9564aed	-0.00020436542
114	0x3d2f8354	0.042849854
115	0x3da636ee	0.08115946
116	0x3d84b434	0.064796835
117	0xbd1fcec0	-0.03901553
118	0xbd4a2cb9	-0.049359057
119	0x3e1224bd	0.14271827
120	0x3b4a6eb5	0.003088874
121	0x3c363e35	0.01112323
122	0x3d1e1b06	0.03859999
123	0xbd4091de	-0.04701411
124	0x3da84368	0.08215982
125	0x3ce058c5	0.027386079
126	0xbdcb207d	-0.09918306
127	0xbdbe809a	-0.093018726
128	0x3d402127	0.046906617
129	0xbda50717	-0.08057993
130	0xbce41f78	-0.027847037
131	0x3dd3ad28	0.10335761
132	0x3c23ecdd	0.010005203
133	0xbd2928e3	-0.04129876
134	0xbdd30ea0	-0.10305524
135	0xbdc09b69	-0.09404642
136	0xbdf4ad7e	-0.119471535
137	0x3dd7a8f5	0.10530273
138	0x3da1e8fb	0.079057656
139	0x3d079252	0.033098526
140	0xbd40105e	-0.04689061
141	0xbdbd642b	-0.09247621
142	0xbdc8de3a	-0.09808011
143	0xbcf8b233	-0.03035841
144	0x3c046ba0	0.0080823
145	0xbd98d1e1	-0.07461906
146	0x3b970ec3	0.004609914
147	0xbc91cf6c	-0.017799102
148	0xbd47a953	-0.048745465
149	0x3d7cae08	0.061689407
150	0x3e020eea	0.12701002
151	0xbd1a5164	-0.037675276
152	0xbdd1cc72	-0.10244073
153	0x3dfd00f4	0.123536974
154	0xbde010d2	-0.10940708
155	0x3d5ad08e	0.05342155
156	0x3c316988	0.010828383
157	0x3d7954ee	0.06087201
158	0x3d7e6c03	0.062114727
159	0xbdc3d7b7	-0.09562629
160	0xbdd7a03d	-0.1052861
161	0xbdc41b9f	-0.09575581
162	0x3e141322	0.14460424
163	0xbd0d29ae	-0.034463577
164	0xbdf2e34c	-0.1185976
165	0xbdd22743	-0.10261395
166	0xbc1a9378	-0.009434573
167	0x3ce1a054	0.02754227
168	0x3d098a2c	0.033579037
169	0x3db52874	0.088456064
170	0x3d53ba2a	0.05169121
171	0xbdcf46f2	-0.101209536
172	0xbcbe4712	-0.023227248
173	0x3b539476	0.0032284535
174	0xbd89ba26	-0.06724958
175	0x3e18e654	0.14931613
176	0x3dde0ed5	0.10842673
177	0x3dd64887	0.10463052
178	0xbdc541a5	-0.09631661
179	0x3d25bb0d	0.04046159
180	0x3d8e816d	0.0695828
181	0xbcb95143	-0.022621756
182	0xbdf7e673	-0.121045016
183	0xbdb3d119	-0.087801166
184	0xbdcfafca	-0.10140951
185	0xbe000ef7	-0.12505709
186	0xbd8cdc07	-0.068779044
187	0xbded4465	-0.11585311
188	0x3d96a243	0.07355168
189	0x3c9300ea	0.017944772
190	0x3de844cf	0.11341249
191	0x3deff14d	0.11715946
192	0x3d1a077a	0.037604786
193	0x3debf0bc	0.11520526
194	0x3d6344a4	0.055485383
195	0x3df4c778	0.11952108
196	0x3e00c2ae	0.12574264
197	0x3d8649d0	0.06557047
198	0xbd7de1f6	-0.06198307
199	0x3e1f2ed3	0.15545206
200	0x3de3495d	0.11097977
201	0x3d27dcee	0.04098218
202	0xbbb08b47	-0.005387697
203	0x3dba9b20	0.09111619
204	0xbd204d85	-0.03913643
205	0x3d2d3c76	0.04229399
206	0x3de58df0	0.11208713
207	0xbd12ba0f	-0.03582197
208	0x3de60f2b	0.11233362
209	0xbca1eeb0	-0.019767135
210	0x3e32766f	0.17427991
211	0x3d69f2ac	0.057116196
212	0x3e063497	0.13105999
213	0xbd13bebf	-0.03607058
214	0xbc90b716	-0.017665427
215	0xbc68c293	-0.014206546
216	0xbd39be95	-0.04534777
217	0xbda656cb	-0.08122023
218	0xbd5a058d	-0.05322795
219	0x3dae5427	0.085121445
220	0xbd30d0b2	-0.043167777
221	0x3e19580f	0.14974998
222	0x3dbdfa1c	0.0927622
223	0xbcb5cc81	-0.022192242
224	0x3cb850c8	0.022499457
225	0x3d830659	0.06397695
226	0xbd5851a2	-0.052812226
227	0x3df0f733	0.117658995
228	0x3e15f6c2	0.14644912
229	0xbdb27f5e	-0.087156996
230	0x3ae2b608	0.0017296681
231	0x3dd08fa7	0.101836495
232	0xbd0cd7f9	-0.034385655
233	0x3c8ddf4a	0.017318387
234	0x3dddd609	0.108318396
235	0x3d1af9f6	0.037836038
236	0x3b4d66dc	0.0031341827
237	0xbd905216	-0.07046907
238	0x3ae8fa9c	0.0017774883
239	0x3c981bdd	0.018567974
240	0x3e03960c	0.12850207
241	0xbdca352c	-0.09873423
242	0xbbae1809	-0.005312924
243	0x3cfc5b1d	0.030805165
244	0xbdb08335	-0.08618776
245	0x3da50320	0.08057237
246	0x3c120f2d	0.008914751
247	0xbd48ba62	-0.049005874
248	0x3e06661c	0.13124889
249	0x3e069aa1	0.13144924
250	0x3d2165a0	0.039403558
251	0x3dc1b216	0.09457795
252	0xbd092231	-0.033479873
253	0x3e1f81cd	0.15576859
254	0x3cc3dac1	0.02390802
255	0xbd6ab1c7	-0.057298448

lstm.weight_ih_l1 f4 [256, 64]
0	0x3e0ebd34	0.13939363
1	0xbd890432	-0.06690253
2	0xbc600c1b	-0.013674761
3	0xbd517e6e	-0.051145963
4	0xbd8ab20f	-0.06772243
5	0xbdf9c7d9	-0.12196321
6	0x3df915ba	0.12162347
7	0x3d95018e	0.07275687
8	0xbdc3b97a	-0.09556861
9	0xbd4a44b4	-0.049381927
10	0x3df33867	0.11875992
11	0xbcc5dc9f	-0.024153052
12	0xbc900f56	-0.017585438
13	0xbe02ff69	-0.12792744
14	0x3c824563	0.015902227
15	0x3d1ec4c0	0.038761854
16	0x3dcaffee	0.09912096
17	0x3d86f6f5	0.06590072
18	0xbd312301	-0.043246273
19	0xbd1fe008	-0.039032012
20	0xbc66f1c6	-0.014095729
21	0xbe1993d3	-0.14997797
22	0xbcb0bf77	-0.021575673
23	0xbd3ab3db	-0.04558168
24	0x3cfc68cf	0.030811695
25	0x3c9ca48f	0.019121436
26	0xbaaa4288	-0.0012989799
27	0x3d056aed	0.032572675
28	0x3c24e8ec	0.0100652985
29	0x3cfcdd2a	0.030867178
30	0xbc86ce85	-0.016455898
31	0x3cb803bb	0.022462716
32	0xbdb8a08e	-0.090149984
33	0xbc14b772	-0.00907694
34	0xbd368cb0	-0.044567764
35	0x3cb9e40a	0.022691745
36	0xbddcb30b	-0.10776337
37	0x3c99cdd6	0.018774908
38	0xbca2f60e	-0.019892719
39	0x3df10be6	0.117698476
40	0x3d158c05	0.036510486
41	0x3cd9ab73	0.026571011
42	0xbd2c6bb0	-0.042094886
43	0xbdc5055b	-0.09620162
44	0x3c7ca9f4	0.015421379
45	0xbe129d5f	-0.14317845
46	0x3daeb51b	0.08530637
47	0x3dd5653b	0.10419699
48	0x3df4f628	0.11961013
49	0xbdb40926	-0.087908074
50	0xbe152989	-0.14566626
51	0xbd93d950	-0.072191834
52	0x3d421790	0.047385752
53	0xbda1934c	-0.07889423
54	0x3ce81c8c	0.028333925
55	0xbd31422b	-0.043275993
56	0x3d278c06	0.04090502
57	0xbe02b1c1	-0.1276312
58	0xbdd7957b	-0.10526558
59	0x3c9f561c	0.01945024
60	0x3d1ecb33	0.038768005
61	0x3d8f83d0	0.07007563
62	0x3d779034	0.060440257
63	0xbdceb52e	-0.10093151
64	0xbcabfbe3	-0.020994132
65	0x3c665a9b	0.014059688
66	0x3e1c2236	0.15247425
67	0x3c056490	0.008141652
68	0x3ca74ebb	0.020423284
69	0x3deb6176	0.114931986
70	0xbc8f2594	-0.017473973
71	0x3e1d6a3c	0.15372556
72	0x3e2dd907	0.1697732
73	0x3d9968c5	0.07490686
74	0x3d31f7d8	0.043449253
75	0xbd22de9c	-0.039763078
76	0x3db14b21	0.08656908
77	0x3e237b36	0.1596497
78	0x3dd0d628	0.10197097
79	0x3ddb1a28	0.10698348
80	0xbd7ef669	-0.062246714
81	0xbd7e57aa	-0.06209532
82	0x3dd1b1ed	0.10239015
83	0xbe2f2b90	-0.17106462
84	0xbcfe518f	-0.03104475
85	0xbd800647	-0.06251197
86	0xbddce3ee	-0.10785662
87	0xbce2b73c	-0.027675264
88	0xbd9abf2c	-0.075559944
89	0x3cf5547e	0.029947516
90	0x3d7ab10c	0.061204
91	0xbd471bdf	-0.048610564
92	0xbd9ac942	-0.07557918
93	0xbdf2f7f5	-0.118637
94	0x3d412708	0.047156364
95	0x3c0bf343	0.008541885
96	0xbc9492ae	-0.018136349
97	0x3d755cb4	0.05990286
98	0xbd8daed5	-0.06918112
99	0xbd1dff50	-0.038573563
100	0xbe16f5c8	-0.14742196
101	0xbd1962a7	-0.037447598
102	0xbd80cda5	-0.062892236
103	0xbd6592c2	-0.056048162
104	0x3e1c3ab8	0.15256774
105	0x3e241498	0.16023481
106	0x3dd5ed54	0.10445657
107	0x3d258d16	0.040417753
108	0x3d7d625b	0.061861377
109	0xbd4413cc	-0.047870442
110	0xbde88977	-0.11354344
111	0x3df2e389	0.11859805
112	0xbd9942db	-0.07483455
113	0xbd1536f3	-0.036429357
114	0x3da57873	0.080796145
115	0x3e13cc8f	0.14433502
116	0xbd7eb715	-0.06218632
117	0xbe0dc9fd	-0.13846584
118	0xbe1e51f1	-0.15460946
119	0x3e05153b	0.1299638
120	0x3db9c806	0.090713546
121	0x3e075963	0.13217692
122	0xbd1c80ea	-0.03820888
123	0x3dce7ecd	0.10082779
124	0x3e0771ac	0.13226956
125	0xbdb6b6e4	-0.08921602
126	0xbdad67a7	-0.08467036
127	0xbce01719	-0.027354764
128	0xbdd577e9	-0.10423262
129	0xbd23212e	-0.039826564
130	0xbc411b55	-0.011786302
131	0xbd8734f3	-0.06601896
132	0xbd27f725	-0.04100718
133	0x3cf103f2	0.029420827
134	0xbda30d0a	-0.079614714
135	0x3cc337d2	0.023830328
136	0xbda7c679	-0.081921525
137	0x3d52644f	0.051365193
138	0xbce88aa7	-0.028386427
139	0xbcfd0e0b	-0.030890485
140	0x3d2b8584	0.041875377
141	0x3cd089eb	0.02545639
142	0xbd9eaa86	-0.077473685
143	0xbdc15940	-0.09440851
144	0x3da057f3	0.07829275
145	0xbdf103d8	-0.11768311
146	0x3d8ab74c	0.06773242
147	0xbddd9f16	-0.10821359
148	0xbc5a5345	-0.013325517
149	0x3d97b3e6	0.0740736
150	0x3d264a2c	0.04059808
151	0x3d0ea91a	0.034829237
152	0xbdfdf630	-0.12400472
153	0x3d2c78f1	0.042107526
154	0xbd6597b2	-0.05605287
155	0x3d67a4eb	0.056553762
156	0x3de853fc	0.11344144
157	0xbd54a59b	-0.051915746
158	0x3d0e2154	0.034699753
159	0xbdd25acc	-0.102712244
160	0x3cfe5eb6	0.031051021
161	0x3d38fe73	0.045164537
162	0x3ddfd910	0.10930073
163	0xbc902a47	-0.017598284
164	0xbdcfe9d7	-0.10152023
165	0x3d8a34aa	0.06748326
166	0xbd214ce8	-0.039379984
167	0xbd1045b0	-0.03522271
168	0xbcd750ab	-0.026283583
169	0x3db4ee06	0.08834462
170	0x3d59d0b5	0.053177554
171	0x3bb77ce6	0.005599606
172	0x3d4577b2	0.048209853
173	0xbcbf87c8	-0.023380175
174	0x3bebe676	0.007199104
175	0xbc86bb12	-0.016446624
176	0x3da70fd3	0.08157315
177	0x3d3d6bc3	0.046245348
178	0xbce4c986	-0.027928125
179	0xbd50d998	-0.050988764
180	0xbdaec809	-0.085342474
181	0x3cb6eb5e	0.022329029
182	0x3dbdd222	0.09268595
183	0x3d1a404e	0.037658982
184	0xbd3e57d8	-0.046470493
185	0xbe16aead	-0.14715071
186	0xbd326399	-0.043552015
187	0xbd03e1c9	-0.032197747
188	0x3cfa9488	0.030588403
189	0x3e0854ac	0.1331355
190	0x3d88df54	0.066832215
191	0x3d3e0ff2	0.046401925
192	0xbd93f5f6	-0.07224648
193	0x3db6af8e	0.08920203
194	0x3d126739	0.035742972
195	0x3d43e177	0.047822442
196	0x3d71d700	0.05904293
197	0xbd26e943	-0.0407498
198	0xbdacac93	-0.084313534
199	0xbdd80f39	-0.105497785
200	0xbd28a36d	-0.04117148
201	0xbd684e6b	-0.05671541
202	0x3d0f248a	0.034946956
203	0xbb46a273	-0.003030923
204	0x3dc19440	0.094521046
205	0x3df18cb6	0.117944166
206	0xbc8512f6	-0.016244393
207	0x3d4d73ed	0.050159384
208	0xbd848335	-0.06470338
209	0xbd8147c7	-0.063125186
210	0xba9061a7	-0.0011015431
211	0xbdaf811d	-0.08569548
212	0xbca42601	-0.020037653
213	0x3d7c5357	0.061602917
214	0xbd04d460	-0.0324291
215	0x3dad7b90	0.08470833
216	0xbd52fa61	-0.05150831
217	0x3db17cf3	0.0866641
218	0xbdec8d9e	-0.11550449
219	0x3d8b8bea	0.06813796
220	0x3e11f92b	0.14255206
221	0x3d3a845d	0.045536388
222	0xbd5dfbc7	-0.05419519
223	0x3da859b4	0.082202345
224	0x3d12fc75	0.035885293
225	0xbd895de4	-0.06707361
226	0xbb33f31b	-0.0027458135
227	0xbc3280f8	-0.010895006
228	0xbd02e837	-0.03195974
229	0xbd511c75	-0.05105253
230	0xbdfaa143	-0.122377895
231	0x3c0d96f9	0.008641952
232	0xbd413ae6	-0.04717531
233	0x3d991520	0.074747324
234	0x3dbe1574	0.092814356
235	0x3d1f8023	0.03894056
236	0x3d55a1d8	0.0521563
237	0xbda259fd	-0.0792732
238	0x3e068c3a	0.1313943
239	0x3da217bf	0.079146855
240	0x3d81fbc4	0.063468486
241	0x3d4cd8e9	0.05001155
242	0x3d89c2f1	0.06726635
243	0xbe115ccf	-0.1419556
244	0xbc5675fd	-0.013089654
245	0xbccf9584	-0.02533985
246	0xbaaeb075	-0.0013327735
247	0xbdfd801d	-0.12377951
248	0xbdc15dfc	-0.09441754
249	0xbd424a83	-0.04743434
250	0x3de3aab3	0.11116543
251	0xbd9aafa0	-0.07553029
252	0x3d485eb8	0.048918456
253	0x3dc812e2	0.097692266
254	0xbd1eb5a7	-0.038747456
255	0xbd9e539e	-0.077307925

lstm.weight_hh_l1 f4 [256, 64]
0	0xbdd20d99	-0.102565
1	0x3e02c336	0.1276978
2	0xbd84c104	-0.06482127
3	0x3de465f0	0.111522555
4	0x3da2d4a1	0.07950712
5	0xbd642071	-0.055695
6	0xbd87894d	-0.06617985
7	0x3c166a48	0.009180613
8	0xbd33b1d3	-0.04387076
9	0x3dc7d268	0.09756929
10	0xbde1bb46	-0.11022048
11	0x3c52f398	0.01287546
12	0xbca64ece	-0.020301249
13	0xbc701846	-0.014654225
14	0x3d64703e	0.055771105
15	0xbd1bb266	-0.03801193
16	0xbd8452e0	-0.0646112
17	0xbd78fd8a	-0.06078867
18	0x3cb9aafe	0.022664543
19	0xbcaefe8f	-0.021361617
20	0x3dd967a7	0.10615473
21	0x3d88feff	0.06689262
22	0xbd8f4a3f	-0.06996583
23	0xbd753385	-0.059863586
24	0x3d6f80b8	0.058472365
25	0xbd6ecb57	-0.05829939
26	0xbd8ab7a7	-0.0677331
27	0xbcc4b1e5	-0.024010608
28	0x3e0ad25c	0.13556808
29	0x3dbb16bf	0.09135198
30	0xbd980b73	-0.07424059
31	0x3cb11c65	0.021619985
32	0x3e070f76	0.13189492
33	0x3d9c5f85	0.076354064
34	0xbd814b50	-0.06313193
35	0x3d3b92bb	0.04579423
36	0x3d9890e0	0.07449508
37	0x3dc1d94e	0.09465276
38	0x3d384cc8	0.0449951
39	0xbc6af084	-0.01433957
40	0xbd11ca8a	-0.035593547
41	0x3def809c	0.11694452
42	0xbdde907e	-0.108674034
43	0x3d52a81d	0.051429857
44	0xbd2256f4	-0.039633706
45	0x3d4a605c	0.0494083
46	0xbd9ca216	-0.07648103
47	0xbdfe38c2	-0.124131694
48	0x3e0e1bf8	0.13877857
49	0xbda583de	-0.08081792
50	0xbde7ba47	-0.113148265
51	0x3d3c533c	0.045977816
52	0xbdb487e7	-0.08814984
53	0xbdbf31e6	-0.09335689
54	0xbd80c978	-0.06288427
55	0xbd8b1951	-0.06791938
56	0x3da1ac97	0.07894247
57	0xbda773ab	-0.08176359
58	0x3d75b08c	0.05998282
59	0xbc9c7e55	-0.019103209
60	0x3bb5323e	0.005529671
61	0x3d9862c7	0.07440715
62	0x3dd9c134	0.10632554
63	0x3d003adb	0.03130613
64	0x3c76028f	0.015015258
65	0x3de76998	0.11299437
66	0x3c86f172	0.016472552
67	0x3abf72f3	0.0014606401
68	0xbd4f8aaa	-0.05066935
69	0xbd2630c4	-0.04057385
70	0x3daadca8	0.08342868
71	0x3ca1f1f2	0.019768689
72	0x3e060a35	0.13089831
73	0x3c92abeb	0.017904243
74	0xbd64a578	-0.055821866
75	0xbcf8c84f	-0.030368952
76	0x3d5a0433	0.05322666
77	0xbc0395c2	-0.0080313105
78	0x3d991989	0.074755736
79	0xbd75b165	-0.05998363
80	0xbd949e14	-0.072567135
81	0xbd2c58ce	-0.04207688
82	0x3d3a3fc9	0.045470987
83	0x3df215b8	0.11820549
84	0x3af6416c	0.0018787808
85	0xbddc956d	-0.10770688
86	0x3d21b2d5	0.03947719
87	0xbd475db8	-0.04867336
88	0x3c9ab8c1	0.018886926
89	0x3d4120af	0.04715031
90	0xbd05daa6	-0.032679223
91	0xbce60c70	-0.028082103
92	0x3d82163c	0.06351897
93	0xbdb7a0aa	-0.08966191
94	0xbd2ce0c1	-0.04220653
95	0x3e0bc884	0.1365071
96	0x3da5ff07	0.08105283
97	0x3ca0bd57	0.019621534
98	0xbdb0fdc0	-0.08642149
99	0xbd62fd45	-0.055417318
100	0xbd1b14bf	-0.037861582
101	0xbd1f8590	-0.038945735
102	0xbdbcf496	-0.092263386
103	0xbe0aee91	-0.13567568
104	0xbe010358	-0.12598932
105	0xbdf1788f	-0.11790573
106	0x3d9bfcdb	0.07616588
107	0x3cb693f1	0.02228734
108	0x3df8c29f	0.12146496
109	0x3bc50a76	0.00601321
110	0xbdcf3d73	-0.101191424
111	0x3b84c51e	0.0040518185
112	0x3e0b5c08	0.13609326
113	0xbd0c01fd	-0.034181584
114	0x3c90e5dd	0.017687732
115	0xbd637a38	-0.05553648
116	0xbcecc560	-0.02890271
117	0xbda94a21	-0.08266092
118	0xbc425b95	-0.011862655
119	0x3c807218	0.015679404
120	0xbb13cc05	-0.0022552025
121	0xbda88594	-0.08228603
122	0xbce12ecd	-0.027488137
123	0x3dbc55de	0.09196065
124	0x3d2c0728	0.041999012
125	0x3dc3758e	0.09543906
126	0xbc0461df	-0.008079975
127	0x3da1bf56	0.078978226
128	0x3dc35213	0.09537139
129	0x3db72ded	0.089443065
130	0x3c968dcc	0.01837816
131	0xbd90773b	-0.070539914
132	0x3e33a690	0.17544007
133	0x3c2f8495	0.010712762
134	0xbcdc1748	-0.02686657
135	0xbd054ff5	-0.032546956
136	0x3da914e1	0.082559355
137	0x3bda9ed8	0.0066717677
138	0xbe019fdd	-0.12658639
139	0x3d86c3a7	0.065802865
140	0xbc804136	-0.015656095
141	0x3c3be578	0.011468284
142	0xbdf7ca1f	-0.120990984
143	0x3e30fd18	0.17284048
144	0xbb916966	-0.0044376133
145	0xbccf423b	-0.025300136
146	0xbc2c2cc7	-0.010508723
147	0xbdbb1efa	-0.09136768
148	0x3e14d3f7	0.14533983
149	0xbce0ad10	-0.027426273
150	0x3ba80688	0.0051277317
151	0xbd50563a	-0.050863482
152	0xbafce4a4	-0.0019294214
153	0xbc525663	-0.012837979
154	0x3d2fdfdc	0.0429381
155	0x3d90ce90	0.07070649
156	0xbd0cf085	-0.034409065
157	0xbe0f9ff2	-0.14025858
158	0xbd68d78a	-0.05684618
159	0xbd6bcd43	-0.0575688
160	0x3d8529af	0.06502091
161	0xbdbc9aff	-0.09209251
162	0x3d765f04	0.060149208
163	0x3d771dfd	0.060331333
164	0xbc34f29c	-0.011044171
165	0x3e2f3d42	0.17113212
166	0x3c40232a	0.011727134
167	0xbc99c9b1	-0.018772932
168	0xbd45151e	-0.048115842
169	0x3e307901	0.1723366
170	0x3ce374fa	0.02776574
171	0x3ddd8533	0.10816421
172	0x3c089a81	0.008337618
173	0x3d2088dd	0.039193023
174	0xbd9c2707	-0.076246314
175	0xbda99d01	-0.08281899
176	0xbdba6c99	-0.091027446
177	0x3d650b9c	0.055919275
178	0x3de7333b	0.11289068
179	0xbde5e09e	-0.11224483
180	0xbda3117c	-0.07962319
181	0xbdcab2a9	-0.09897358
182	0xbcc3099f	-0.023808299
183	0x3d9edc81	0.077569015
184	0xbd7b7e22	-0.061399586
185	0xbe3d1461	-0.18464805
186	0xbd9531fd	-0.07284925
187	0xbd70b936	-0.05877038
188	0xbc8c57de	-0.017131742
189	0x3d0c1f75	0.034209687
190	0xbd16a0b2	-0.036774345
191	0x3dba33c9	0.090919085
192	0x3df18780	0.11793423
193	0x3da89441	0.08231402
194	0xbb0b76a1	-0.0021280425
195	0xbd035239	-0.032060836
196	0xbcabcba6	-0.02097113
197	0xbdfeb0bb	-0.124360524
198	0x3d0c6d6d	0.034284044
199	0xbe045e12	-0.1292651
200	0xbda7e8a0	-0.081986666
201	0xbd6761c8	-0.056489736
202	0x3b29e008	0.0025920887
203	0x3d339350	0.04384166
204	0xbd7184eb	-0.05896465
205	0xbb14c401	-0.0022699835
206	0x3d11b631	0.035574142
207	0xbbd5faac	-0.0065301266
208	0x3deac451	0.11463226
209	0xbdbb5016	-0.091461346
210	0xbd07a553	-0.03311665
211	0x3dd3649f	0.10321926
212	0x3e02baef	0.12766622
213	0xbdca286d	-0.09870992
214	0x3d286c71	0.041119043
215	0xbb8c8b6e	-0.0042890823
216	0xbd1d2a4e	-0.038370423
217	0x3db57002	0.088592544
218	0xbcef3683	-0.029200798
219	0x3dfb4f57	0.12270992
220	0x3cacf209	0.021111505
221	0x3dd70077	0.104981355
222	0xbe03d60d	-0.12874623
223	0x3e16bd4d	0.1472065
224	0xbd372a8e	-0.044718318
225	0x3d2c1df9	0.04202077
226	0x3d92be61	0.07165218
227	0xbdb7b779	-0.089705415
228	0xbd491194	-0.04908903
229	0x3da4b9f9	0.08043284
230	0xbd7191a9	-0.058976803
231	0x3d87dc16	0.06633775
232	0xbe1fd94f	-0.1561024
233	0x3cadef81	0.021232368
234	0x3d0c8547	0.03430679
235	0x3b5e8cc8	0.0033958424
236	0xbc6d432f	-0.01448135
237	0xbdb7fc41	-0.089836605
238	0x3dd595b1	0.10428942
239	0xbdac5eb4	-0.08416501
240	0x3da161e9	0.07880003
241	0x3d5ef451	0.054432217
242	0x3d9287b3	0.07154789
243	0x3b8c538e	0.0042824214
244	0x3bfa8d32	0.0076462263
245	0xbcb4366d	-0.021998608
246	0x3c7cae35	0.015422394
247	0xbc78e71b	-0.015191819
248	0x3daf75f4	0.0856742
249	0x3d5eb4c9	0.05437163
250	0xbcbfd897	-0.023418708
251	0xbc32c63f	-0.010911523
252	0xbd6a8e48	-0.057264596
253	0x3d95803a	0.07299848
254	0x3d07bf31	0.03314132
255	0x3da6c5a4	0.08143166

lstm.bias_ih_l1 f4 [256]
0	0x3e0212d2	0.12702492
1	0x3dde2727	0.108473115
2	0x3d239197	0.039933767
3	0x3d8faaad	0.07014976
4	0xbcf7c865	-0.030246923
5	0x3e0f9757	0.14022575
6	0x3ca06add	0.019582206
7	0xbc560ba7	-0.013064302
8	0x3d909438	0.070595205
9	0x3d860d18	0.06545466
10	0x3de14815	0.11000077
11	0xbd3d9db0	-0.04629296
12	0xbc2b72ba	-0.010464365
13	0x3dc5c29d	0.0965626
14	0x3c211c2f	0.00983338
15	0x3dd2469f	0.10267376
16	0x3cabb75a	0.020961452
17	0x3d938e58	0.07204884
18	0xbd78c78e	-0.060737185
19	0x3e097cd8	0.1342653
20	0xbc1bfc19	-0.009520554
21	0x3c9454a5	0.018106768
22	0x3b9b3417	0.004736434
23	0xbd34cddb	-0.04414163
24	0x3dcc9e2e	0.09991108
25	0xbd38abc5	-0.045085687
26	0xbdcc1cc0	-0.09966421
27	0x3ce93535	0.028467754
28	0x3e185893	0.14877538
29	0x3d859818	0.0652315
30	0x3e03b414	0.12861663
31	0x3d5d5445	0.054035444
32	0x3cdb370e	0.02675965
33	0x3dc55cfb	0.09636875
34	0xbd523386	-0.051318668
35	0x3d370047	0.044678
36	0x3dd9c7ed	0.10633836
37	0xbc651883	-0.013982895
38	0xbda4b9b5	-0.08043233
39	0xbb302473	-0.0026877194
40	0x3de4476b	0.111464344
41	0xbc36ca75	-0.011156668
42	0x3c3deb44	0.011591736
43	0xbd8ae1e2	-0.06781365
44	0x3e02fe8a	0.12792411
45	0xbccf4ed5	-0.025306145
46	0x3d4204a9	0.047367726
47	0x3df1d053	0.11807313
48	0x3d1d0594	0.038335398
49	0x3df2c0a5	0.1185315
50	0x3dac15f2	0.08402623
51	0x3dbaece5	0.09127215
52	0xbd61aba8	-0.055095345
53	0xbbb75951	-0.005595364
54	0x3e0bfa57	0.13669716
55	0x3d8e0078	0.06933683
56	0xbdb94849	-0.090469904
57	0xbbe2fb86	-0.0069269566
58	0x3d9c9bb6	0.07646887
59	0x3c47b2f6	0.012188664
60	0x3def28ae	0.11677681
61	0xbd4ae4a1	-0.049534444
62	0xbd53ab37	-0.051676955
63	0x3c69cf9a	0.0142706875
64	0x3dc911ef	0.09817874
65	0x3d88c1e0	0.06677604
66	0xbc32511e	-0.010883598
67	0x3e0b1be8	0.13584864
68	0xbd9dd811	-0.07707227
69	0xbdce02e3	-0.10059144
70	0xbd8d1e4c	-0.06890544
71	0xbd76f52f	-0.06029242
72	0x3d7abe97	0.061216917
73	0x3cae63de	0.021287855
74	0x3e094ea6	0.13408908
75	0xbc2c6606	-0.010522371
76	0x3de07887	0.10960489
77	0x3a6cff98	0.0009040772
78	0x3cba4a61	0.022740545
79	0xbd8ef325	-0.0697997
80	0x3bbfccc2	0.0058532665
81	0x3deef279	0.11667342
82	0xbde17ab8	-0.11009735
83	0x3da63c58	0.081169784
84	0x3c3cd5fe	0.011525629
85	0x3cdd93be	0.027047988
86	0x3d401aba	0.04690049
87	0x3bc5108c	0.0060139354
88	0x3cd43f69	0.025909143
89	0x3df02f5a	0.117277816
90	0x3d05c227	0.03265586
91	0x3de53d6f	0.11193358
92	0xbd389b2c	-0.04506986
93	0x3d203923	0.03911699
94	0x3dd2bdd0	0.1029011
95	0xbd84714e	-0.06466924
96	0xbdcee0e8	-0.10101491
97	0x3df8f3a9	0.121558495
98	0x3dc45c33	0.09587898
99	0xbdb53d0b	-0.08849534
100	0x3dc02eab	0.09383901
101	0xbd818bad	-0.06325469
102	0xbd781c8b	-0.060574096
103	0xbbbf3bbf	-0.0058359797
104	0x3d2c52cb	0.042071145
105	0x3c9c7416	0.019098323
106	0xbd21ac94	-0.039471224
107	0x3e104ae9	0.14091076
108	0x3d7670ef	0.060166296
109	0x3cc09ff7	0.023513777
110	0xbcac6ea7	-0.021048857
111	0xbd6b967a	-0.057516553
112	0x3d5e9fca	0.054351605
113	0xbdc506ce	-0.096204385
114	0x3cafc868	0.021457866
115	0xbdbedbfe	-0.09319304
116	0x3d23fe45	0.040037412
117	0x3d877600	0.066143036
118	0x3dc91f01	0.09820367
119	0x3dd0ba55	0.1019179
120	0xbd125f62	-0.035735495
121	0xbc4921af	-0.012276097
122	0x3e07b543	0.1325274
123	0x3e02216a	0.12708059
124	0x3d084076	0.0332646
125	0x3d40a995	0.047036726
126	0x3da479dc	0.08031055
127	0x3dd2a737	0.102858
128	0x3dbe9275	0.09305278
129	0xbdc0b6b7	-0.0940985
130	0xbd89cee5	-0.06728915
131	0xbd2346ac	-0.03986232
132	0x3e0aee2f	0.13567422
133	0xbd04c227	-0.03241172
134	0x3d84af1e	0.064787135
135	0xbd0e3fcf	-0.03472882
136	0x3b810dee	0.003938428
137	0x3d23d59a	0.03999863
138	0xbdc4b7aa	-0.09605344
139	0x3d14dfd4	0.03634627
140	0xbded28bf	-0.11580037
141	0x3c925e6b	0.017867288
142	0xbde3f4a1	-0.11130644
143	0x3c2bfb9c	0.010497
144	0xbdc12712	-0.0943128
145	0xbda0d0f8	-0.078523576
146	0xbdb99977	-0.09062474
147	0xbdc34f4a	-0.095366076
148	0xbdd1667d	-0.10224626
149	0xbe0cb884	-0.13742262
150	0x3d7cbe2b	0.061704796
151	0xbd2883f6	-0.041141473
152	0x3d2b182b	0.041771095
153	0xbdad2c9f	-0.084557764
154	0x3d0300e3	0.031983268
155	0x3df9bab7	0.12193816
156	0x3d87f92c	0.06639323
157	0xbcfbc130	-0.030731767
158	0xbd70585a	-0.05867801
159	0x3d8a1dae	0.06743942
160	0x3e0e9060	0.13922262
161	0x3d886c9e	0.06661342
162	0xbcba5bcd	-0.022748852
163	0x3de6b6cc	0.112653345
164	0x3da0fc2a	0.078605965
165	0x3d142ef5	0.036177594
166	0x3d32f0df	0.043686744
167	0xbc1ce61d	-0.009576348
168	0xbdaf4127	-0.08557349
169	0x3c185e5f	0.009299844
170	0xbd635ec9	-0.055510316
171	0xbd930982	-0.07179548
172	0xbd158f45	-0.036513586
173	0x3d6ca4fb	0.057774525
174	0xbd15a870	-0.036537588
175	0xbdea2d1e	-0.11434387
176	0x3cc66603	0.024218565
177	0x3bfa38c0	0.0076361597
178	0xbc26c9f6	-0.010179987
179	0xbe006dc0	-0.12541866
180	0x3bab7cc6	0.00523338
181	0xbc8891f9	-0.016671168
182	0xbe0506f5	-0.12990935
183	0x3e02e86b	0.12783973
184	0x3cf99cc1	0.030470254
185	0xbd8b6747	-0.06806808
186	0xbdfd7e01	-0.12377549
187	0xbdd08b48	-0.10182816
188	0x3dc63d70	0.09679687
189	0xbd239218	-0.039934248
190	0x3bdf991d	0.0068236724
191	0x3cbb2732	0.022845838
192	0x3d1774e8	0.036976725
193	0xbd8f317d	-0.06991861
194	0x3dd164b9	0.102242894
195	0xbd35b34b	-0.04436044
196	0x3e0348d1	0.12820746
197	0x3e146f2c	0.14495534
198	0xbd91f09f	-0.07125973
199	0x3db81e22	0.089901224
200	0x3dc7f1e4	0.09762934
201	0x3daed773	0.085371874
202	0xbcdc374d	-0.026881838
203	0x3d5b8652	0.053594895
204	0x3daed365	0.08536414
205	0x3dd47629	0.103741
206	0x3d2d146f	0.042255815
207	0xbd3b4cb8	-0.04572746
208	0x3dcf66dc	0.10127041
209	0x3e173060	0.14764547
210	0xbd86bc34	-0.06578866
211	0x3e25ae35	0.16179736
212	0x3dbea6e6	0.09309177
213	0xbdc72c5b	-0.09725257
214	0x3da2fd41	0.079584606
215	0x38bba2a3	8.947148e-05
216	0x3d9da26e	0.07696997
217	0x3ddf1049	0.10891778
218	0xbd8a3a83	-0.067494415
219	0xbdb37707	-0.08762937
220	0x3e16ad15	0.14714463
221	0x3d8b01c3	0.067874454
222	0x3cd50f74	0.026008345
223	0xbdae6430	-0.08515203
224	0xbc943d8b	-0.018095752
225	0x3d2dd530	0.04243964
226	0x3c34fd84	0.011046771
227	0x3d680e80	0.056654453
228	0x3d82f7c5	0.063949145
229	0xbd4d66d9	-0.05014691
230	0x3d0a37bb	0.033744555
231	0x3d52093f	0.05127835
232	0x3ba20e7e	0.0049455753
233	0xbd70fb7e	-0.05883359
234	0xbd8ac6c4	-0.06776193
235	0x3bd80e67	0.006593514
236	0x3d834ebc	0.06411502
237	0xbd331c30	-0.043728054
238	0x3dc317f7	0.09526055
239	0xbd48fe5e	-0.04907071
240	0x3e15fd4f	0.14647411
241	0x3ba41613	0.0050075143
242	0xbca8d771	-0.020610543
243	0xbc58866c	-0.013215642
244	0xbd2d8b37	-0.042369094
245	0xbdb4e4d0	-0.08832705
246	0xbd858a23	-0.06520488
247	0xbd7272fe	-0.059191696
248	0x3dbea5f0	0.09308994
249	0xbd8337d9	-0.064071365
250	0x3df7778a	0.12083347
251	0x3dfe1f80	0.12408352
252	0x3db348f3	0.08754148
253	0x3dbf9696	0.09354894
254	0xbdae31d8	-0.08505601
255	0xbdb7f3cf	-0.0898205
