lstm_ts.pth (torch, 470015 bytes, 9 tensors)

encoder.weight_ih_l0 f4 [256, 1]
000000 7c 70 e3 bd d0 4a 20 bd ab 27 01 bd 1a 5b d6 bd
       -0.11105439 -0.039133847 -0.03153197 -0.10466595
000010 60 71 93 3b e3 07 61 3d 2a 3f d8 3d 9e d3 b0 bd
       0.0044995993 0.054939162 0.105589226 -0.08634113
000020 02 95 99 3d b7 3f 7a bd 8e 1c ce bd 8b b0 27 bd
       0.07499124 -0.06109592 -0.1006404 -0.04093985
000030 9e ce a1 3d 1b f9 98 bd 89 6b 9f ba 74 6f b5 3b
       0.07900737 -0.07469388 -0.0012162785 0.005536968
000040 18 11 da bd 0d 6e 8f 3d fc e7 29 bd 24 3f 6a 3d
       -0.106477916 0.070034124 -0.041481003 0.05718912
000050 dd 41 07 bd e4 b4 8f bc 28 a5 e5 bc a1 de ae bd
       -0.033021796 -0.01754231 -0.028032854 -0.08538557
000060 ce 8c ea bd 49 bb 49 bd f2 33 ed 3d 7a 12 b7 bd
       -0.114526376 -0.049250875 0.115821734 -0.08939071
000070 b3 48 ea 3c e6 58 04 3d 7b e1 71 3b 45 75 80 3d
       0.028599119 0.032311343 0.0036908078 0.062723674
000080 57 c9 d4 3d ac 44 57 bd 21 f7 95 3d 58 3c 90 3c
       0.10389965 -0.052555725 0.07322527 0.0176069
000090 58 74 a7 3d 06 b9 fc 3d e3 f1 c4 bd 76 f5 e3 bd
       0.08176488 0.12339978 -0.09616449 -0.11130802
0000a0 7b 59 e7 bd 99 98 f7 3c d7 a8 97 bc d1 e9 d9 3c
       -0.11296364 0.030224131 -0.018513126 0.02660075
0000b0 33 b0 d9 bd 22 9a 7c bd 80 a2 9a 3d 20 f6 be bd
       -0.106293105 -0.06167043 0.07550526 -0.09324288
0000c0 c1 50 88 bd a9 96 95 bd f8 d1 c2 bd 6c 3f 16 bd
       -0.066560276 -0.07304127 -0.095127046 -0.036681578
0000d0 e8 bd 86 3d b4 4d 8a 3d 77 a2 6c 3d 27 de 5d 3d
       0.065791905 0.06753102 0.057772126 0.05416694
0000e0 25 0e 9f bd 1e a8 8f bd a5 72 ca bd 02 d3 a2 3d
       -0.0776637 -0.07014488 -0.09885148 0.07950403
0000f0 d0 37 cd bd 29 92 8f bd f1 16 bb 3d 2d 7f 08 3d
       -0.10020411 -0.070103 0.09135235 0.03332441
000100 ef 22 0f 3d e6 48 81 3b a6 9e bf 3d 5f d7 c6 3d
       0.034945425 0.0039454577 0.09356432 0.097090475
000110 7d 2f 9d 3d 5f d5 b3 bd 9e a2 51 bd 36 f8 b1 3d
       0.07675073 -0.08780932 -0.051180474 0.086899206
000120 4f 96 02 3e 89 3d d2 bd 34 75 e6 3d c5 49 cc 3d
       0.1275265 -0.10265643 0.112528235 0.09975008
000130 54 d7 9a 3d cb b9 0b bd 01 6f c2 bd e7 1b 2d bd
       0.07560602 -0.034112733 -0.094938286 -0.042262938
000140 a1 97 af bd 58 4b fc 3d 81 b8 29 3c e4 9a da 3d
       -0.08573843 0.12319058 0.010358931 0.10674074
000150 a3 10 97 bd d2 02 bb bd 81 f4 a0 3d 12 83 c7 3d
       -0.0737622 -0.09131397 0.078591354 0.097417966
000160 e2 5e 0e bc 75 47 a8 3c 50 78 e6 3d aa 71 d3 bd
       -0.008689614 0.020541886 0.112534165 -0.10324414
000170 c8 af b1 3d d4 3b 8f 3d 5f e5 90 3d 12 10 e3 3d
       0.08676106 0.06993833 0.07074999 0.110870495
000180 05 de 8b 3d 35 70 b3 bd bd 4e f5 3c 61 45 9c 3d
       0.06829456 -0.08761636 0.029944772 0.076304205
000190 9d fc 91 bd 8d f3 80 3d c8 33 ee bd dd 17 40 ba
       -0.0712826 0.062964536 -0.1163097 -0.00073277747
0001a0 fd f6 e7 bd e2 62 d6 3d 04 3b ff 3c a0 63 cd bd
       -0.11326406 0.10468079 0.03115607 -0.100287676
0001b0 23 28 6b bd a2 b2 ce bc 0f d4 87 bd 55 86 dc 3d
       -0.057411324 -0.025231663 -0.06632244 0.10767809
0001c0 d4 27 3d 3d a5 ee 5a 3d 1c 4b e5 3d fe 5a b2 3d
       0.04618056 0.053450245 0.111959666 0.08708762
0001d0 ab 5a 30 3d 5b 25 85 bd 08 9a 46 3d 1b ee db 3d
       0.043055218 -0.065012656 0.04848674 0.107387744
0001e0 c4 34 c9 bd c9 57 02 3e 09 c5 c9 3d 62 93 a3 3d
       -0.09824517 0.127288 0.098520346 0.079870954
0001f0 07 98 5a bd b5 21 5a bc 59 cd d4 bd 31 44 d3 bb
       -0.05336764 -0.0133137 -0.103907295 -0.006447338
000200 f0 f8 00 be 69 c3 a7 3d 8a d7 c5 3d b8 a0 62 bd
       -0.12594962 0.081915684 0.096602514 -0.055329055
000210 fe f7 bc bd b4 5f d5 3c c3 d4 07 3e cf 80 05 be
       -0.09226988 0.026046611 0.13264756 -0.13037418
000220 31 27 0b 3e 81 13 e4 3d 4e 01 ab 3d b3 79 db 3d
       0.13589169 0.111365326 0.08349858 0.10716572
000230 8b fc d3 bd a0 0a 09 be 97 4c a5 bd 6f e6 c0 3b
       -0.10350903 -0.1338296 -0.08071249 0.005886845
000240 6c 9f 08 bd 4a 4a fb 3d bf 02 5e 3d b5 36 d5 3d
       -0.03335516 0.12270029 0.054201838 0.10410825
000250 a7 9e 70 3d 23 95 9d bd 48 ce e4 3c 25 cd 8a 3d
       0.058745053 -0.07694461 0.027930394 0.067774095
000260 7a 4a eb bc 6e 42 9a 3d a7 98 3a 3c 28 a4 58 3c
       -0.028722037 0.07532202 0.011388934 0.013222732
000270 06 a3 56 3c 06 7c 8f bc ad b2 9c bd 88 95 be 3d
       0.013100391 -0.017515194 -0.07651267 0.093058646
000280 6a 9c e5 3d 88 b2 ba bd ba e9 b1 3d dd 57 9b 3c
       0.11211474 -0.091160834 0.08687158 0.018962795
000290 35 6c a2 3d 55 f0 c6 3d b2 12 47 3d b8 e1 e9 3c
       0.07930795 0.097138084 0.048601814 0.028550014
0002a0 bb a7 f5 3d 52 4f c9 bd 84 75 ed bc e5 3b 05 3e
       0.11994883 -0.09829582 -0.0289867 0.13011129
0002b0 55 02 e5 bd e5 e3 aa bd 42 e6 db bd c2 d2 e8 3d
       -0.111820854 -0.08344249 -0.107372776 0.11368324
0002c0 66 2f 5d bd 29 90 6c 3d 6c 80 aa 3d b1 eb 0c be
       -0.05400028 0.05775467 0.08325276 -0.13761784
0002d0 6e 45 3e bb e8 07 e6 bd a6 a7 27 3d 3d 42 f6 3d
       -0.0029033083 -0.11231977 0.040931366 0.12024353
0002e0 86 74 14 3d 24 9e ab 3d 0a b6 00 3e 28 5d 53 3d
       0.036243938 0.08379772 0.12569442 0.051602513
0002f0 aa 69 cb bc f9 e8 93 3d d5 59 0b 3d d9 7c c4 3d
       -0.024830658 0.072221704 0.034021217 0.09594125
000300 21 da c3 3d 26 7b d5 bc ce 0e af 3c 33 e5 e4 3d
       0.09563089 -0.026059698 0.021369364 0.11176529
000310 03 15 0b bd bf 2d fa 3d ba a1 05 bd 6e fb c6 3c
       -0.033955585 0.122157566 -0.032624938 0.024289813
000320 af 83 8b 3d c4 9a d8 bc 9d 17 86 bd 4b 39 d3 3d
       0.06812226 -0.026440986 -0.065474726 0.10313662
000330 5d 8f f4 3b f4 61 e9 3d 16 62 f9 bd c6 ea 74 3d
       0.0074633793 0.11395636 -0.121769115 0.05979421
000340 26 2f 27 3d 4f 34 86 bc 32 15 03 3e d1 45 a8 bc
       0.04081645 -0.016382365 0.12801054 -0.020541104
000350 79 0d 76 3d 18 5f ec 3d 75 ca 9b bd 13 e0 67 3d
       0.060071442 0.11541575 -0.07606975 0.05661018
000360 b1 5e 48 bb 42 b1 27 bc 81 9f 8d 3d aa eb fc bc
       -0.0030574019 -0.010235133 0.069151886 -0.030874092
000370 ca df de bc 6f d8 ac 3d de 60 cf 3b 15 26 15 3d
       -0.02720632 0.08439719 0.006328686 0.03641327
000380 f4 57 c6 bd a8 ea bb 3d 54 21 f4 3d ac 74 d5 bd
       -0.096847445 0.091756165 0.11920419 -0.10422644
000390 96 97 37 3d 7f 1f 51 bd 6d a0 66 bd e0 79 a4 3d
       0.044822298 -0.051055428 -0.056305338 0.08031058
0003a0 d8 64 98 3d 74 0a 4b bb 24 fe 83 bd 2f cd b1 bd
       0.074411094 -0.0030981572 -0.06444958 -0.08681714
0003b0 12 b6 e7 bd 27 34 13 3d 4a d9 4e 3c 6b c4 ab 3d
       -0.11314024 0.03593841 0.012625048 0.08387073
0003c0 86 ba 0d 3e b5 b4 e2 bd 5a 56 76 bd 49 bd cf 3d
       0.13840684 -0.110696234 -0.060140945 0.10143525
0003d0 18 bd 39 ba 3d 56 46 bd 97 64 cc bd c4 4e 5a bc
       -0.0007085367 -0.048422087 -0.099801235 -0.013324443
0003e0 94 47 8b bd e0 25 69 bd a3 3b 0a 3e c8 86 93 3d
       -0.06800762 -0.056920886 0.13499312 0.07203442
0003f0 8a a0 18 bd 5c 31 b6 bc 54 3d 8c 3b 71 c3 c1 3d
       -0.037262477 -0.022240333 0.004279772 0.094611056

encoder.weight_hh_l0 f4 [256, 64]
000000 2c 07 fd bb b6 d7 f5 3d ec 15 bc bc 46 d8 b2 3d
       -0.007721802 0.12004034 -0.022959672 0.08732657
000010 7e b1 b6 3c 25 26 1f bd b0 61 11 3d 01 59 01 bb
       0.022301432 -0.038854737 0.035493553 -0.0019736888
000020 b0 70 d3 bd f8 51 0e bd 48 4f cf bd cf 76 e1 bd
       -0.10324228 -0.03474614 -0.101225436 -0.11008989
000030 55 41 ce 3d 8b 01 bf 3c 3d 02 8d 3d ea 51 88 bc
       0.10071055 0.023316165 0.068851925 -0.016640622
000040 a8 55 52 3c e6 9c 45 3d ce a0 08 bd 22 66 86 3d
       0.012837805 0.048245333 -0.03335648 0.06562449
000050 55 96 56 3d ed 34 a4 3c 8e 35 de 3d 8d e6 85 bd
       0.05238946 0.020044768 0.108500585 -0.06538115
000060 9e 41 03 bd f3 bf 9f ba 1c fd 02 3d 0d 1f ba bd
       -0.032045 -0.0012187943 0.031979665 -0.09087954
000070 9d 97 6c 3d 8a 64 06 bd de 93 a6 bd db 02 99 bd
       0.057761777 -0.032810725 -0.08133672 -0.07471248
000080 ea 50 26 3d 69 34 dc bc 31 32 ee 3b fb 0e 8a bd
       0.04060451 -0.02688046 0.007269167 -0.067411385
000090 95 33 82 3d 36 1e ef bc ad f7 87 bd 5a 15 f0 bd
       0.06357495 -0.02918921 -0.06639037 -0.117228225
0000a0 fe 6a 2b bd db e6 c2 3d 1a 49 cf 3c 44 12 a2 bc
       -0.041850083 0.095166884 0.025303412 -0.0197841
0000b0 a3 27 69 3c 46 a8 de bc f0 5a f3 bb 62 55 fe 3d
       0.014230642 -0.027179848 -0.007426612 0.12418629
0000c0 3c 96 6b bc 4c aa af 3d c5 a5 ac 3d b5 94 9f 3d
       -0.01437908 0.085774034 0.084300555 0.077920355
0000d0 63 4a ea bd 0a a0 a5 3d b2 1f 89 bd 93 29 d6 3d
       -0.114399694 0.08087166 -0.066954985 0.104571484
0000e0 71 80 85 3d 3c 82 c0 bd f7 7b 52 3d 24 ca 0d 3d
       0.06518639 -0.0939984 0.051387753 0.034616604
0000f0 4d 9d ee 3d 30 85 fc 3d ea e7 f1 3d ce 35 db bb
       0.116510965 0.12330091 0.11811812 -0.0066897636
000100 2b 65 85 bd 74 0a e9 bc ce 1a c0 bd 3a 5a ac 3d
       -0.06513437 -0.028447367 -0.093801126 0.08415647
000110 a6 da c0 bd 7d 3e 05 3e 50 6e e1 3d 43 31 a5 bd
       -0.09416704 0.13012119 0.110073686 -0.080660366
000120 c5 7a 97 3d 9c 2d 7c bd 87 08 35 3d 20 ed ca 3d
       0.07396463 -0.061566934 0.044197585 0.09908509
000130 02 64 de 3d 60 33 8c bd 9a 8f ec 3d 8c 49 e3 3d
       0.10858919 -0.068457365 0.11550827 0.11098012
000140 1e 14 24 3d b3 97 20 3c ba 43 06 3e 11 5e 20 3d
       0.040058248 0.009801793 0.13111773 0.03915221
000150 d0 90 ce 3c 84 3d 51 3d e1 5c 8d bd 8f 56 f8 bc
       0.025215536 0.051084056 -0.06902481 -0.030314712
000160 35 b1 d0 bd 3d a5 29 3d 39 a7 7d 3d 04 00 f5 bd
       -0.101900496 0.04141735 0.061927054 -0.119628936
000170 5f 07 53 3d a1 c4 ad ba 8a 23 04 3d 3f b9 fe 3d
       0.0515207 -0.0013257453 0.032260455 0.12437677
000180 ee 98 d2 3c 0a 53 42 3d 5d 4d d5 bd b9 97 35 3b
       0.025707688 0.047442473 -0.104151465 0.0027708842
000190 a9 9f 4c bd 0b 1b bb bd be 87 f0 3d f7 4c bb bc
       -0.04995695 -0.091360174 0.11744641 -0.022863848
0001a0 9c cf bc b8 90 ba ca 3d 7d 47 56 bd a0 71 87 bd
       -9.003209e-05 0.09898865 -0.05231427 -0.06613469
0001b0 4c 81 53 3d 8c 3f a5 bd 41 b1 a6 bc 36 e6 39 3d
       0.05163698 -0.08068761 -0.020348193 0.045385562
0001c0 86 63 4f 3b 71 df 3d 3d 62 58 e8 bd 6b a4 25 3d
       0.0031645014 0.04635567 -0.11344983 0.040440004
0001d0 96 94 c7 bb 00 76 2f 3c ad a7 fe 3d 64 ad 68 bb
       -0.006090711 0.010709286 0.12434325 -0.003550374
0001e0 18 81 21 bd a4 a7 4c 3c 5d 4b 57 bc 36 52 c2 bd
       -0.039429754 0.0124911405 -0.013140527 -0.09488337
0001f0 6f d2 b7 bd 14 32 cb bd f5 69 84 bd dd 7f fe bd
       -0.08975684 -0.09921661 -0.06465522 -0.12426732
000200 d8 c6 84 bd 99 e1 89 3d a9 36 aa bc b6 fa ef bb
       -0.06483239 0.067324825 -0.020778017 -0.0073235882
000210 96 47 32 3d f0 d6 08 3e f0 df 0d bd 39 3b 24 3d
       0.0435253 0.13363242 -0.03463739 0.04009554
000220 58 3b 22 bd 90 b3 b1 3d a3 7e b7 3d b7 70 03 bc
       -0.039607376 0.08676827 0.08959701 -0.008022479
000230 90 b4 91 bd d7 2a 10 3c df 97 07 be 03 21 20 3c
       -0.07114518 0.008799276 -0.13241528 0.009773496
000240 2a c6 0c be 80 fe d0 3d 6d 3c 77 3d 67 f1 b7 bb
       -0.13747469 0.10204792 0.06036036 -0.005613494
000250 ed b8 f1 3d a5 33 a4 bd e0 34 80 3b 59 1d b2 bd
       0.1180285 -0.08017663 0.003912553 -0.08697004
000260 50 4a b3 3c 36 d8 b9 bd 78 ce d3 3d cc f5 d7 3c
       0.02188602 -0.09074442 0.10342115 0.026362322
000270 c2 f5 21 3c 4d 3a 84 bb e3 c9 9e bd 73 fe 8d bd
       0.009885253 -0.0040352703 -0.077533506 -0.06933298
000280 83 1b 06 bc a7 09 b5 3c 4a 52 21 bd 07 c7 c5 bc
       -0.00818527 0.02209933 -0.039385118 -0.024142755
000290 45 3f bb bd fe cd bb 3d 98 fd 5d 3c 5c f4 df 3c
       -0.09142927 0.09170149 0.013549231 0.0273382
0002a0 6e 98 f0 3d 22 fd 97 3d 0a e7 f3 bd 82 ea c1 3d
       0.11747824 0.07421328 -0.119093016 0.09468557
0002b0 de b2 32 3d 58 75 81 bd ae ee cb bd b5 d8 ce 3d
       0.043627612 -0.0632121 -0.09957634 0.10099927
0002c0 d1 e8 d3 bd 5b 25 d3 bd 42 da a8 3c 25 28 9e bd
       -0.103471406 -0.10309859 0.020611886 -0.07722501
0002d0 30 f3 a2 3d c2 96 3e 3d a7 76 18 3d 9b 86 4b bd
       0.079565406 0.046530493 0.03722253 -0.049688917
0002e0 61 a2 9a 3d 72 37 d7 bd 28 f5 8a 3d 90 91 eb 3b
       0.075505026 -0.10508622 0.06785041 0.0071889833
0002f0 80 45 22 bd 43 74 77 3d 10 b4 b3 bd 6e 31 99 3d
       -0.03961706 0.06041361 -0.087745786 0.07480131
000300 c5 72 b4 bc 53 79 c7 3d 24 f9 06 bd fc 5d 05 be
       -0.022027383 0.09739938 -0.032952443 -0.13024133
000310 ad ee 05 bc a4 34 e7 3d 85 54 8f bd 8d 9a f1 bd
       -0.0081745805 0.11289337 -0.06998543 -0.11797056
000320 be b9 0b 3d 8d 8b 8f bd 0e 7a 59 bd 2e c2 c6 bc
       0.034112684 -0.07009039 -0.053094916 -0.024262514
000330 41 47 0c be 9e e3 91 3d b0 10 cc 3a 9d c3 07 bd
       -0.13699056 0.07123493 0.0015568938 -0.033145536
000340 4d f7 9c 3d eb 9f 4e 3d a5 27 9f 3d 6b a7 9d 3d
       0.076643564 0.05044548 0.077712335 0.07697948
000350 94 3e 6f bd 28 02 6e bd db 81 8e 3c 60 02 83 bd
       -0.05840929 -0.058107525 0.017395904 -0.06396937
000360 da bc 58 3d 72 af 78 bd 56 20 41 3d f7 e0 d0 bd
       0.052914478 -0.060714193 0.04714998 -0.10199159
000370 f0 23 ff 3d 0c c5 92 bc 33 b5 a8 bd e6 f3 e3 3d
       0.124580264 -0.017916225 -0.08237686 0.11130504
000380 70 08 77 3d 00 f5 a1 bd 44 a4 a5 3d 11 58 d3 bb
       0.06031078 -0.07908058 0.08087972 -0.0064497073
000390 a4 d1 51 bd 88 64 e7 3d be 4d b3 bd dc ae b0 3d
       -0.05122532 0.11298472 -0.087550625 0.08627102
0003a0 d1 bf 05 3e 67 16 e1 bc e9 86 50 3d 26 e6 8d 3d
       0.13061453 -0.027476503 0.05090991 0.06928663
0003b0 1d 35 a5 bd 68 d1 88 bc 96 fa 60 bd 8e 91 d4 3d
       -0.08066771 -0.016701415 -0.054926477 0.10379325
0003c0 d1 4b a8 bd 09 53 32 3b d1 6e 3f bd aa ad 49 bd
       -0.08217586 0.0027210137 -0.046736542 -0.049237885
0003d0 bf 3c d3 bd 0d 46 f5 bc 68 35 a9 bd 04 16 b1 bd
       -0.10314321 -0.02994063 -0.082621396 -0.08646777
0003e0 6d 4f 4e bd 3e 23 49 3d 2a ae 48 bd cd e3 97 3d
       -0.050368715 0.049105875 -0.04899422 0.074164964
0003f0 74 af 43 3d e8 f9 6d 3d fa c5 c8 38 bb 3d f8 bd
       0.047774747 0.058099657 9.573619e-05 -0.12121149

encoder.bias_ih_l0 f4 [256]
000000 cd 3e c5 3d 46 de f7 3b 79 87 da 3c 42 45 ae 3d
       0.09631119 0.007564339 0.026675927 0.08509304
000010 97 2d f7 3c a6 cb 03 3e e4 c0 0a 3e 45 cd b9 bb
       0.030173106 0.12870654 0.13550144 -0.005670222
000020 ab b0 95 3c 68 03 b6 bd ae c5 05 3e 4f de b4 3d
       0.018272718 -0.088873684 0.1306369 0.088314645
000030 e4 8e 90 bd 2d 83 21 bb 50 89 93 3d f9 6c b0 3d
       -0.07058504 -0.0024644837 0.07203925 0.08614535
000040 d5 ed a6 bd 3e 96 15 3e f6 82 c0 bd 3a b0 31 bd
       -0.081508316 0.14608094 -0.09399979 -0.043380953
000050 2b 64 e9 3d 34 7e 2a bc dc 61 06 bd 8d 85 0f 3d
       0.11396059 -0.010406066 -0.03280817 0.035039473
000060 ec 53 c6 bd 4b 98 07 3d 0b 01 aa bc c1 7b cb 3c
       -0.096839756 0.033104222 -0.02075245 0.024839284
000070 25 7a 47 3d ad a6 87 3a a6 79 2f 3d 12 91 44 bd
       0.04870047 0.0010349356 0.042840622 -0.047989912
000080 9e cb 56 3d a3 d4 11 3e 27 cf cb 3c 7e 4a 4d 3d
       0.05244028 0.1424127 0.024879051 0.05011987
000090 97 cc c8 bd bb 5c c0 bd 09 d9 e3 3d e1 4e df bb
       -0.098046474 -0.09392687 0.111253805 -0.006814823
0000a0 a9 ad ce bd 3f 6f 80 3c cc 56 5d bd 1c 44 ba bd
       -0.10091717 0.015678046 -0.054037854 -0.09095022
0000b0 a4 bc cb 3d d2 fe cc bd 20 90 22 3c 23 09 0a 3e
       0.0994809 -0.100095406 0.009922057 0.13480048
0000c0 b4 3c aa 3d 53 b7 63 bd 8a 62 9a bc 79 a0 c3 3d
       0.083123595 -0.055594753 -0.018845815 0.09552092
0000d0 25 50 a2 3d 7c 06 c2 bd d2 d2 39 3c 98 37 a6 3d
       0.079254426 -0.09473893 0.011341767 0.081160724
0000e0 ac d4 05 3e 0f e8 aa 3d 9b f4 d5 bd 43 fd f8 bd
       0.13069409 0.08345043 -0.104470454 -0.12157681
0000f0 15 62 a8 3d 91 d2 d9 bd ea e5 97 bd 77 cd 2d bd
       0.08221833 -0.106358655 -0.074168995 -0.042432275
000100 93 26 20 bd e1 0b c5 3d fe 18 8b bc e3 6b db bd
       -0.039099287 0.09621406 -0.01697969 -0.10713937
000110 6b 53 cc 3d ad 26 ab 3d 89 cd 58 bd 83 99 20 bd
       0.09976848 0.08356986 -0.05293039 -0.0392089
000120 b2 4f d8 3d 1b 64 56 bd 96 a1 60 bd 25 4c 2e bc
       0.10562076 -0.05234156 -0.0548416 -0.010638271
000130 f5 c8 76 3d 4e ad e6 3d be 4b 35 bd 85 c4 cc bd
       0.06025024 0.11263524 -0.044261687 -0.099984206
000140 b8 86 b9 3d 9e 29 98 3c 0f 47 62 bd 9a 62 0b bd
       0.09058899 0.018574532 -0.055243548 -0.03402958
000150 52 8b 15 3d 92 cc fd 3c 6a 89 fa 3c 88 4b 84 bd
       0.03650982 0.030981336 0.030583102 -0.06459719
000160 74 06 0b bd 76 d6 9e 3d 5e 5b ae 3d 72 41 a8 3d
       -0.0339417 0.07755749 0.08513521 0.08215608
000170 48 f4 ea 3d fd a2 87 3d 94 ef 12 bd eb 13 a1 bd
       0.11472374 0.066228844 -0.03587301 -0.07865127
000180 b2 69 14 bd 43 0d 21 3d 7b 62 de 3d 1d dd 39 bc
       -0.03623361 0.039319288 0.108586274 -0.011344221
000190 be d4 fc 3d 8f 1a da bd 46 b4 62 bd 9b ae c2 3c
       0.12345265 -0.10649597 -0.055347703 0.023764899
0001a0 bb 4c 29 bd 81 51 90 bd 63 74 88 bd 4e b2 41 3d
       -0.04133294 -0.07046796 -0.06662824 0.047289185
0001b0 6a 40 af bd 1b 64 b9 bc 8b d3 51 3d dd c8 85 bd
       -0.08557208 -0.022630742 0.051227134 -0.06532452
0001c0 2c 8b c7 bd 40 bd b7 bc 39 c6 24 3c 91 65 d4 bb
       -0.09743342 -0.022429109 0.010057026 -0.006481834
0001d0 37 7a fc bb 85 fd 2a bc f1 53 35 3d a5 04 9c 3b
       -0.007704999 -0.01043642 0.044269506 0.004761296
0001e0 72 43 c8 3d db c3 0b bc be f7 cf 3d 55 61 e0 bd
       0.09778489 -0.008530582 0.10154675 -0.109560646
0001f0 a8 bd 64 bd bf b4 09 3d bb 10 1e 3d 42 81 d5 3d
       -0.055844933 0.03361964 0.038590174 0.104250446
000200 c2 a4 cc bd 7c a2 91 bd e4 36 c7 3d 46 81 f2 bd
       -0.099923626 -0.071110696 0.097272664 -0.11841063
000210 13 e5 9f bd d6 11 64 3d 05 d4 73 3c 7e a3 0a 39
       -0.07807364 0.055681072 0.014882092 0.00013221611
000220 00 1c cb 3d 3d 99 a6 bd 80 25 d3 3d 34 cb f7 bd
       0.0991745 -0.08134697 0.10309887 -0.12099305
000230 41 ef d9 bd a4 3b 9b bd e6 97 09 3d fc c8 97 bd
       -0.10641337 -0.07579735 0.033592127 -0.074113816
000240 ac c2 8c bd b9 a4 3f bd cb 1f 89 3d 43 e7 e0 bd
       -0.06873068 -0.04678795 0.06695517 -0.1098161
000250 76 42 fb bc 33 ff e4 bd a2 84 b1 b8 9c c6 ec bd
       -0.03067134 -0.11181488 -8.4647225e-05 -0.11561319
000260 24 4d ed 3d 10 0e 00 3e 2e b3 f9 3d f1 a6 cb bd
       0.11586979 0.12505364 0.12192379 -0.09943951
000270 29 f4 cc bd 2d 43 07 3e d8 cf f5 bb 4e fe 4d 3d
       -0.10007507 0.1320922 -0.0075015835 0.050291352
000280 56 fc 26 bc 5d ab 92 3c a6 49 bf bc 1b 08 86 3c
       -0.0101919975 0.017903978 -0.023350548 0.016361287
000290 2d 54 85 3d fd 96 a0 3d a5 87 96 ba fa 9a 3c bc
       0.06510196 0.07841299 -0.0011484517 -0.011511559
0002a0 46 41 bc bd 78 56 48 bd f1 e1 d4 3d e8 f8 e6 3c
       -0.091921374 -0.048910588 0.103946574 0.02819486
0002b0 a3 8e cf 3d 72 71 3a 3b 33 15 96 bc 50 97 fe 3c
       0.10134628 0.0028448966 -0.018320655 0.03107801
0002c0 ea f1 9f bd 5a ec c2 bc 39 de b4 bd 16 91 fb 3d
       -0.07809813 -0.023794342 -0.08831448 0.12283532
0002d0 5e dd 12 3d 12 87 e8 3d cf 55 c8 3d 04 69 a4 3d
       0.035855643 0.113538876 0.09781992 0.08027843
0002e0 10 9c 67 bb 4c 8e b8 3d f0 0c b3 bd 80 0c 9c 3d
       -0.0035340823 0.09011516 -0.08742702 0.07619572
0002f0 39 de cc 3c f1 00 9b 3b 50 7e 4f bd 0f 44 82 bd
       0.025008308 0.004730337 -0.05065757 -0.063606374
000300 eb 80 5f bb 85 79 a8 bc c0 08 d0 3d 79 f2 ca bd
       -0.003410394 -0.020565758 0.10157919 -0.09909529
000310 22 0b b5 3d 9c e6 ac bd 52 6f 6e 3d da 1f b8 bd
       0.08840014 -0.08442423 0.058211632 -0.0899045
000320 13 c4 f9 3c f3 35 40 3d 31 76 da bd da 9b ab 3c
       0.030489003 0.04692645 -0.106670745 0.02094834
000330 f7 95 d4 bd c7 96 ae 3d d8 0a a0 3d 0d aa 10 3d
       -0.10380166 0.08524852 0.07814568 0.035318423
000340 1c d6 97 bd 63 4d 98 bd 25 ec ed bd 80 9e 2f 3d
       -0.07413885 -0.07436635 -0.116173066 0.042875767
000350 38 43 b6 bc 49 0b d8 3d 7e e5 49 3d a6 63 31 3d
       -0.02224885 0.105490275 0.049291126 0.043307923
000360 b7 a0 b5 3d 5d 74 3e 3d a6 d9 17 bc 2a c9 e6 3c
       0.088685445 0.04649769 -0.0092682 0.028172094
000370 99 2c 02 3e 2c 70 4b bd d1 5e b6 3c 57 71 29 bd
       0.12712325 -0.049667522 0.022262009 -0.041367855
000380 11 9b bd 3b 03 82 75 bd 31 67 ae 3d 26 d9 bc 3d
       0.0057863076 -0.059938442 0.08515776 0.09221105
000390 39 7a 0a bd 2f 98 ac bd e0 91 e4 bd 5f 57 3a 3d
       -0.033807967 -0.08427464 -0.11160636 0.04549348
0003a0 10 c4 3a 3d 7a fc ac bc e1 7b a4 bd 0c a2 37 3d
       0.045597136 -0.021116484 -0.080314405 0.044832274
0003b0 1f fc 7f 3d e8 b6 43 bd 45 9a 51 bd 9e 33 b1 3d
       0.0624963 -0.047781855 -0.051172514 0.08652423
0003c0 d0 51 aa 3d a5 b1 83 bd 0c 96 a3 3d c4 db 9a bb
       0.08316386 -0.064303674 0.079876035 -0.004725905
0003d0 26 9d 9c bd 11 d9 20 3b 00 f5 68 3d a0 5a ff bc
       -0.07647161 0.0024543444 0.056874275 -0.031171143
0003e0 f8 d5 16 bd 02 4b 85 bc e0 00 f8 3d 93 d1 cb 3d
       -0.03682515 -0.016271118 0.12109542 0.099520825
0003f0 a8 f9 44 bd 45 3e d1 3d 3e f3 a0 3b a3 b6 00 3e
       -0.048089653 0.10216955 0.004911809 0.1256967

encoder.bias_hh_l0 f4 [256]
000000 ba 42 0d 3d 9d 78 bb bd de b3 e6 3d 8b c4 81 3d
       0.034487464 -0.091538645 0.11264776 0.06336316
000010 c1 24 e6 bd f9 82 ec 3d 8b f0 9a 3d b4 15 f8 3d
       -0.11237479 0.115484186 0.07565411 0.121135145
000020 0e d4 b9 3c 43 d6 34 3d 2b 5a 66 bd 24 f9 c0 3c
       0.022684123 0.04414965 -0.056238335 0.0235563
000030 e5 97 8c 3d 0f 73 25 3d 2c 38 db bb 7a 27 83 bc
       0.06864909 0.04039293 -0.006690046 -0.016010035
000040 78 43 ad bc 61 7e 83 bc e7 35 67 bd 79 a7 83 3d
       -0.021150336 -0.016051473 -0.05644789 0.06428427
000050 d0 52 a0 3d be ee fc 3d c2 93 a7 3c b2 41 80 3c
       0.07828295 0.12350224 0.020456199 0.015656326
000060 ca 32 6a 3d 33 2b 3e 3d 9a bd 9f bd 5b 6a a6 bd
       0.057177342 0.046427917 -0.077998355 -0.081257544
000070 ad 38 73 3d 09 72 5d bd 48 69 a2 3d d5 78 9b 3d
       0.059380222 -0.05406383 0.07930237 0.07591406
000080 49 49 b1 3d 19 af 14 bd a1 a5 7c bc 32 cf 4d 3d
       0.08656556 -0.0362998 -0.015420348 0.050246425
000090 b4 cf 2a bd ae 1f 63 3d e5 c5 b2 bd f3 73 b9 3c
       -0.041701987 0.055450134 -0.08729152 0.022638297
0000a0 59 57 f8 3d c3 9f 94 3d 30 1c 9f 3d f8 7b b1 3d
       0.12126035 0.07257035 0.07769048 0.08666223
0000b0 8e aa 2d bd 88 31 8f 39 6a cf f5 3d c1 e7 f7 3c
       -0.04239898 0.0002731199 0.12002452 0.030261876
0000c0 e4 e1 c7 bd c5 32 aa 3d 56 21 c9 bd 7f 68 86 3c
       -0.09759882 0.08310465 -0.098208115 0.01640725
0000d0 f0 40 71 bd b1 d5 24 b9 8e c2 88 bc 59 a4 8b 3d
       -0.05889982 -0.00015719865 -0.016694333 0.06818456
0000e0 fe 0f 4a bc 19 09 04 3e cf f1 b2 3d 9f 79 bd 3d
       -0.012332914 0.12894095 0.087375276 0.09251713
0000f0 71 e4 da 3d 2d 16 d6 bd 66 bf 6f 3d cc 14 b5 3d
       0.10688103 -0.104534484 0.05853214 0.08841857
000100 fb 2f c8 bd 3b 89 38 bb 2a 17 ea 3d 79 03 8b bd
       -0.097747765 -0.0028157968 0.114301994 -0.06787772
000110 5f 8b c0 3d 24 56 07 3e f0 2d e5 bc fb 8d fb 3d
       0.09401583 0.13216454 -0.027976006 0.1228294
000120 e4 a8 a8 bd 6f 48 a6 3d bd f7 81 bd c8 a2 b6 3d
       -0.08235338 0.08119284 -0.063460805 0.08917767
000130 7a 46 ea bc 02 2a 9f bd b6 70 99 3d c5 98 b8 3b
       -0.028598059 -0.07771684 0.07492201 0.005633446
000140 49 5f 00 bc 5f 17 94 bb 36 5a 22 3c 21 72 c8 3d
       -0.007835218 -0.0045193876 0.009909203 0.09787393
000150 de 22 63 bd 09 c4 34 3d 40 a7 f4 3d f9 3f a6 3c
       -0.055453174 0.044132266 0.11945963 0.020294176
000160 11 e2 71 b9 03 17 91 3c 2c 74 97 3d 74 38 e3 3b
       -0.00023067767 0.017711168 0.07395205 0.00693422
000170 9f 87 68 bd 8d ed f4 3d cd 36 b5 bd fb ca d1 3d
       -0.056769963 0.11959372 -0.08848343 0.102437936
000180 26 d4 40 3c 80 f9 c3 bd b4 6f 09 bd 44 c4 c4 bd
       0.01176933 -0.09569073 -0.033553794 -0.09607747
000190 2e 2e ca 3a 4b 68 8a bd d0 27 05 bd 5f 30 e9 3d
       0.001542514 -0.067581736 -0.03250867 0.11386179
0001a0 9d 43 8b bd 61 bb 08 3c cf c5 92 3d 61 91 98 3b
       -0.068000056 0.008345456 0.07166635 0.0046560024
0001b0 36 86 f3 3d 30 fb 2c 3d b4 ce 08 3d 86 de fd bc
       0.11890833 0.04223174 0.033400252 -0.030989897
0001c0 e0 7e 20 bc 27 36 69 bd 34 c5 96 3d 8c 44 0d bd
       -0.009795874 -0.05693641 0.07361832 -0.0344892
0001d0 d9 fa ba bd ad 58 fd 3d 39 46 5c 3d 22 d5 c3 3d
       -0.09129877 0.12370429 0.053777907 0.09562136
0001e0 b5 af 8e 3c a7 96 8a 3d 3e c2 e2 bc 73 17 92 bd
       0.017417768 0.06767016 -0.027680513 -0.07133379
0001f0 9e 17 bb 3d 55 dd a2 3d b0 c3 7f 3d b2 99 aa 3d
       0.09135364 0.07952372 0.06244248 0.08330096
000200 46 a2 41 bd 64 87 bb 3d 1a 20 a3 3d 5a cf d0 bd
       -0.047273897 0.09156683 0.07965107 -0.10195799
000210 0b 54 4e 3d a7 36 2d 3c 26 5f d5 3d 86 16 81 3d
       0.05037312 0.010572112 0.10418539 0.06303124
000220 ba bd f8 3d d0 ce e7 3c 7a 26 bd bd f0 84 cc bd
       0.121455625 0.028296858 -0.092358544 -0.09986293
000230 a3 d2 de bd f4 57 86 3d a0 51 eb bc 09 d0 75 bd
       -0.108800195 0.065597445 -0.028725445 -0.06001285
000240 c4 27 68 bc bc f4 96 3c e9 5c 53 3d 13 3b 9f 3d
       -0.014169637 0.018427245 0.051602278 0.077749394
000250 cc 9e 98 3d f3 2f 24 bd ae c0 6d 3c c9 44 01 be
       0.07452163 -0.04008479 0.01451127 -0.12623896
000260 b6 67 ae 3d 2b ad a7 bd cd 68 1d bd de 0b 8e bd
       0.08515875 -0.08187326 -0.038430024 -0.06935857
000270 29 fa 9b 3d 5c 88 1b 3d 8c 70 aa bc e1 85 b3 3d
       0.07616074 0.03797184 -0.02080562 0.0876577
000280 2e f8 26 bd b8 79 75 bb 72 16 c4 3d 69 e2 5c 3c
       -0.040764026 -0.0037456583 0.095745936 0.013481715
000290 0d f5 e0 3d 63 77 da bd 71 24 b1 3d dd fa e3 3d
       0.1098424 -0.106673025 0.08649529 0.11131833
0002a0 d9 1a 79 3d 8c fc 64 bd 6d 9f c7 bd 2e 49 56 bd
       0.06081662 -0.05590491 -0.09747205 -0.052315883
0002b0 b3 53 06 bd a9 f7 69 3d 96 77 4a 3d b6 7e af bc
       -0.032794666 0.057120953 0.049430452 -0.021422725
0002c0 54 9c a1 bc e5 6a a0 3d d3 a2 ef 3d 8a 4d 97 bc
       -0.019727863 0.078328885 0.11700978 -0.01846959
0002d0 13 90 88 bd 4b 95 79 bd a7 47 48 bc e3 05 c4 3d
       -0.06668105 -0.060933392 -0.0122241145 0.09571435
0002e0 1b f1 9f 3d 5b c6 8b bd 1b 72 b2 3c ca bd 48 bd
       0.07809659 -0.06824943 0.021782925 -0.049009122
0002f0 d6 dc 9c 3b e9 5b a3 bd dd 51 1e 3d a3 dd 8c bd
       0.004787068 -0.07976515 0.03865229 -0.06878211
000300 39 71 e5 bd dc dd b2 39 fd 83 32 bd 38 45 7a 3c
       -0.11203236 0.00034116104 -0.043582905 0.015275292
000310 8a 11 f5 3d 45 b2 12 3d c4 49 6e bc ed b6 c1 3d
       0.11966236 0.035814542 -0.014543954 0.094587184
000320 2a 40 8e 3b 91 34 93 3c 6e 2e 86 3d f0 cf b1 3d
       0.004341145 0.017969402 0.065518245 0.08682239
000330 1f 88 05 3e 13 b3 20 3c 55 be b0 3b a9 31 2b bd
       0.13040207 0.00980832 0.005393783 -0.041795406
000340 e7 89 dc 3c b4 a8 34 bc 70 ad 70 bd c4 d8 ea 3c
       0.026921226 -0.01102655 -0.058759153 0.028667815
000350 39 42 96 3d d9 9e e0 bc 3f b1 33 3d a5 0c a4 3d
       0.0733685 -0.027419494 0.043870207 0.08010224
000360 29 17 cd bc 59 17 e2 3c e0 35 61 3c eb 17 4e bd
       -0.025035458 0.027599024 0.013745755 -0.05031578
000370 7b 40 b8 bd 90 a7 b6 bc 58 8e a4 bd 57 57 fa bc
       -0.08996674 -0.022296697 -0.080349624 -0.030559225
000380 7c f3 2c bd dd 7f 53 bb a1 72 05 bd 9c d7 c6 3b
       -0.042224392 -0.0032272257 -0.03258002 0.006068183
000390 84 5b 1b 3d 01 c9 ae bd 32 95 e3 bd ad 7f cf 3d
       0.037929073 -0.08534432 -0.11112441 0.10131774
0003a0 dc 81 91 bd e5 58 59 3d 06 c4 7a bd 6d bc b0 3c
       -0.07104847 0.053063292 -0.0612221 0.021574223
0003b0 54 12 ff 3d 07 49 1a 3c 33 df d1 3d 86 fa 96 bd
       0.12454668 0.009416825 0.1024765 -0.07372002
0003c0 90 8a e1 3d 87 de 2c 3d 92 f5 fc 3d 4e 0d f0 3d
       0.11012757 0.042204406 0.12351526 0.11721288
0003d0 3c 95 93 bd 9a d4 b6 bd 86 7c 5b 3c 25 79 04 3e
       -0.072061986 -0.08927269 0.013396388 0.12936838
0003e0 09 38 da bd 6f d6 90 3d 9c fe a3 3d a9 b9 c4 bd
       -0.10655219 0.0707215 0.08007547 -0.09605724
0003f0 e7 b2 a2 3d 10 8f 79 3c de e4 69 bd 9c 66 2c 3c
       0.07944279 0.015231863 -0.05710303 0.010522511

decoder.weight_ih_l0 f4 [512, 64]
000000 2b e9 09 3c 6d 18 46 3d 39 76 9f 3b 72 50 42 3d
       0.008417408 0.048363138 0.004866388 0.04744
000010 98 fe 52 bd 42 1c 94 3c 7a e1 bf bc a5 4a 76 bd
       -0.05151233 0.01807988 -0.023422945 -0.06012978
000020 54 9f 4b bd 85 74 2f bd ce e1 25 bd 18 6b 23 3c
       -0.049712494 -0.04283573 -0.040498547 0.009974264
000030 cb 89 63 3d e6 71 8d 3d f5 66 f8 3c 10 ed 08 3c
       0.05555133 0.0690649 0.030322531 0.008357301
000040 47 04 99 3d 3f f1 7b 3c db 34 8b bd 1c a6 51 bb
       0.07471519 0.015377342 -0.06797191 -0.0031989878
000050 a3 31 cf 3c 70 7b 2d 3c 2e e8 eb bb 64 54 fb 3c
       0.025292223 0.010588512 -0.007199309 0.030679889
000060 15 3d 7f bd 8a 95 e1 bc f4 58 90 bd b6 ca 6f 3d
       -0.06231411 -0.027537126 -0.070482165 0.05854293
000070 ec 42 dd bc 3a 28 8c bd b7 01 d2 bc b4 b2 4e bd
       -0.02700945 -0.0684361 -0.025635583 -0.050463393
000080 d0 8b c7 3d ca 44 d5 bc bc 2a 96 3d 27 e8 93 bc
       0.09743464 -0.026033778 0.0733237 -0.018055035
000090 d5 c2 bf 3d ab d6 b5 3d 54 32 a3 3b 3a df 90 bc
       0.09363333 0.08878835 0.004980365 -0.017684568
0000a0 04 f3 a0 3d 63 cf be bd 6f a9 83 3d 8a cd 41 3d
       0.078588516 -0.093168996 0.06428801 0.047315158
0000b0 c5 da cd 3c 81 3b 1e bd d2 e1 2d bd d2 3e 9b bc
       0.025128732 -0.038630966 -0.042451687 -0.018950853
0000c0 09 5e 2b bd 1a 19 d3 bc 56 e3 1c 3d 7c 35 5a 3d
       -0.041837726 -0.025768805 0.038302742 0.053273663
0000d0 6a be 78 bd e3 ba 02 bd 5d 0d fc ba bb 1f 49 bd
       -0.060728468 -0.03191651 -0.0019230057 -0.049102526
0000e0 39 1f a9 3d ff 26 9f 3d fb e3 c2 3c 04 42 99 bb
       0.082579084 0.0777111 0.02379035 -0.004677059
0000f0 07 e9 00 3d 2c f6 cb 3d 10 53 4a bd e2 56 44 3d
       0.031472232 0.09959063 -0.04939562 0.04793442
000100 4c bf 75 bb 01 9b 8f bd a4 49 8f bd e0 81 2f 3b
       -0.0037498055 -0.070119865 -0.06996468 0.0026780292
000110 0a e9 5b bc b1 9c b8 3d 24 df 58 3d c5 55 b8 bd
       -0.01342226 0.090142615 0.05294718 -0.09000734
000120 61 ef 33 bb d7 34 21 3d 38 8f b6 3c b3 d4 98 3d
       -0.0027455913 0.039357033 0.022285089 0.07462444
000130 09 a3 1e bd 35 9a 9e bd da d1 ec 3b 6a 24 74 3d
       -0.0387297 -0.077442564 0.0072271647 0.05960504
000140 34 43 0c bd 03 9c 68 3d 22 30 7f 3d e5 28 c8 3d
       -0.034243777 0.05678941 0.062301762 0.09773425
000150 e4 f0 b4 bc 06 e1 16 bd 8b 71 ac bd 31 e1 aa 3d
       -0.022087522 -0.036835693 -0.08420094 0.08343733
000160 58 a0 69 3d 06 66 d0 3d cd 99 8c bc 92 91 70 3d
       0.05703768 0.101757094 -0.017163182 0.058732577
000170 13 c2 7b 3c 33 7c 5c bd 72 4e 7b 3d ed 91 15 3c
       0.015366095 -0.053829383 0.06135411 0.00912903
000180 4e 0d 27 bc 9f 09 83 bd c7 4a 51 3d 04 0b 04 bd
       -0.010196043 -0.063983195 0.051096704 -0.032237068
000190 3d 9d 64 bd 88 db 08 bc 03 fd 3c 3d 9e 57 4a 3d
       -0.055814017 -0.008353122 0.04613973 0.049399965
0001a0 df a2 13 3d af 19 46 3d f1 b6 49 3d 14 92 4e 3d
       0.036043998 0.048364338 0.049246732 0.05043228
0001b0 3c 9d 0f 3d e6 b5 74 bd 2e d9 b6 bd 07 ea 18 bd
       0.03506206 -0.059743784 -0.089281425 -0.03733256
0001c0 fb b0 24 bd 8e 56 b1 3d 41 05 84 3d 9e 3d 2f bd
       -0.040207844 0.08659087 0.064463146 -0.042783372
0001d0 8e e7 1e 3d a9 d3 a0 bd 87 1b 8f bd 1b 04 a3 3d
       0.038795047 -0.07852871 -0.06987672 0.079597674
0001e0 8e 4e 72 3d 9d c6 d4 3d 0f 2d 14 3d 8c 90 b7 bc
       0.059156947 0.10389445 0.036175784 -0.022407793
0001f0 ed 36 a0 3d 74 dd 89 bd 30 7b 31 3c ac 97 19 bc
       0.07822976 -0.06731692 0.010832593 -0.00937454
000200 61 8e 47 3d a4 12 37 3d 58 72 fc ba d2 5f 7f 3d
       0.048719767 0.04469551 -0.0019260151 0.06234724
000210 e5 d6 4d 3d c2 ea b3 3c 4c 9f 31 3c ea d5 d0 3c
       0.050253768 0.021962527 0.010841202 0.025492627
000220 c2 e3 45 bc f5 e5 af 3d 1e dc 15 3d 32 81 6a 3d
       -0.0120782275 0.08588783 0.036586873 0.057252117
000230 da 7a 33 3c da 5b 3d 3d 8a 48 7a bd 10 40 27 3c
       0.010954583 0.046230175 -0.061104335 0.010208145
000240 b0 bc e9 3b 6e c3 b5 3c e3 53 82 bd c2 b6 b1 bd
       0.007133089 0.022187915 -0.06363656 -0.086774364
000250 18 de 8c 3d 80 6a d0 3a 39 7f 2e 3d 8a a7 8e bd
       0.068782985 0.001590088 0.042601798 -0.06965549
000260 2b d7 36 bc bd 89 94 bb c2 c1 39 bc 38 21 1a bd
       -0.0111596985 -0.0045330212 -0.011337699 -0.037629336
000270 44 a0 1b 3d ce bc 21 bd aa 41 0c 3d 82 63 7b 3d
       0.037994638 -0.0394867 0.03424231 0.061374195
000280 7b 50 9b bd d8 a1 33 bd 0e 5d 50 3b cb 93 07 bd
       -0.0758371 -0.043855518 0.0031793746 -0.03309993
000290 ec dc 81 3d ce 80 45 3c 31 8b a8 3c 74 ce 5e 3d
       0.06340966 0.012054635 0.020574184 0.054396108
0002a0 43 7d 07 3d 02 de 9f bd 3f 1c b2 3d 08 27 ab 3d
       0.033078443 -0.078060165 0.08696794 0.08357054
0002b0 ad 5e 70 bd 50 2b ad 3d a0 67 87 bd 88 3e 8d 3d
       -0.05868404 0.08455527 -0.06611562 0.068966925
0002c0 84 32 b7 3d 6a 59 9f 3c 0c a7 88 bd 90 0e 7c 3c
       0.08945182 0.019451816 -0.06672487 0.015384331
0002d0 5c 93 0e 3d 5a 1a 3f bd da df 24 3c 24 c4 0d 3c
       0.0348085 -0.04665599 0.010063136 0.008652721
0002e0 66 6e fc ba 1e 74 a4 bd a3 5c f0 3c 78 e0 86 bb
       -0.0019258976 -0.0802996 0.029341048 -0.004116114
0002f0 42 50 82 3c a5 82 28 bd cf 23 ef bc ea 80 2b 3d
       0.01590741 -0.041140217 -0.02919188 0.04187099
000300 03 56 35 3d 43 60 c6 3c 2f 3c 94 bd 20 52 3f bb
       0.04427148 0.024215823 -0.072380416 -0.0029193237
000310 1d ed 60 3d 1d 64 9d bc 52 f0 99 3d 9e fd 99 3d
       0.05491363 -0.019212777 0.075165406 0.07519077
000320 bc b1 73 bd a8 e1 2a bd 96 8c 94 3d bf 22 81 3d
       -0.059495673 -0.04171911 0.07253377 0.063054554
000330 74 1b c4 bd 4e d2 44 bc f3 9c 81 3d 60 6f 98 3b
       -0.09575549 -0.012013031 0.06328764 0.004651949
000340 00 d3 98 39 58 3f 38 bd 69 8b 8f 3c 6e f0 ea bb
       0.00029148906 -0.044982284 0.01752253 -0.0071697747
000350 85 65 95 bd d4 f5 a4 3c ee 3b a3 bd 14 30 a8 3c
       -0.07294754 0.020136751 -0.07970415 0.020530738
000360 67 98 83 3d 16 47 a3 3d 4f 90 14 bd 28 07 0d 3d
       0.06425553 0.07972543 -0.036270436 0.034430653
000370 d1 75 2d 3d aa c0 9d bd 65 40 38 bd 95 0f d0 3d
       0.042348687 -0.077027634 -0.044983286 0.10159222
000380 48 97 bd bc e4 01 58 3d 9f b5 01 3d 85 0a 48 bd
       -0.023143426 0.052736178 0.031667348 -0.048838157
000390 fa fa 58 3c 2b 8f 4d bd 81 c3 30 3d 70 6b 82 bd
       0.013243431 -0.050185364 0.043155197 -0.06368148
0003a0 70 0f 7b 3c d4 3b ad bd 6e b0 81 bd 3a 6b 26 bc
       0.015323505 -0.08458677 -0.063324794 -0.010157401
0003b0 bb ca b6 3c 71 28 96 bd ed fc 68 bc 10 18 41 3d
       0.022313466 -0.07331932 -0.014220458 0.04714209
0003c0 d9 f0 5b bd 66 c7 80 bd 73 d9 78 3c 0a 1e 9e 3d
       -0.053696487 -0.06288032 0.015188563 0.07720573
0003d0 4e e2 2b 3d 33 5d a6 bd 9a 82 e5 bc 28 9c 06 bc
       0.041963868 -0.08123245 -0.028016377 -0.0082159415
0003e0 3f 84 69 3d f8 72 e5 38 08 44 98 3b 6b bd 2d bd
       0.057010885 0.000109409855 0.004646782 -0.04241697
0003f0 0b c4 ad 3d e5 d7 37 bd 5d 95 4c 3d 29 ce b8 3d
       0.08484658 -0.044883627 0.04994713 0.09023697

decoder.weight_hh_l0 f4 [512, 128]
000000 82 62 bb bc 29 4f 69 bc c3 fe cb 3d fc da 49 bd
       -0.02287412 -0.014240065 0.09960701 -0.049281105
000010 30 28 62 3d 27 36 90 3d 7f 35 94 bd b5 49 3a bd
       0.055214107 0.07041579 -0.07236766 -0.04548045
000020 0f 62 6b 3d 63 83 06 bc 7c 3b 60 3d 57 d4 94 39
       0.057466563 -0.008210036 0.05474423 0.00028386965
000030 19 fb e3 3c 7c 2b 10 bc 21 75 cb 3d bf 6e aa 3c
       0.027829694 -0.00879943 0.0993445 0.020804761
000040 4a fc 67 bd ad eb 03 bc e1 bf 95 3d d1 e5 5e 3d
       -0.056637086 -0.008051795 0.073119886 0.05441839
000050 33 89 4b 3b 2e 8e e2 bc f2 eb 18 3d 2e 03 b3 bd
       0.003105712 -0.027655687 0.03733439 -0.08740841
000060 46 9d c6 3b fc be ec bc a3 a7 89 3d e7 c2 52 3d
       0.006061229 -0.028899662 0.06721427 0.051455405
000070 28 7d 17 bd 98 d2 84 3d 50 3e 9a bd 15 9e 3c 3d
       -0.036984593 0.0648548 -0.075314164 0.046049196
000080 4a e7 0b 3c f2 64 b5 bb 3f 5a 46 bd 14 6a a8 3d
       0.00853903 -0.0055357153 -0.04842591 0.08223358
000090 cc 5d 82 3d f6 e6 5f 3d 80 d2 4e 3d 6a 60 b2 3d
       0.063655466 0.05466362 0.050493717 0.08709796
0000a0 90 df 0f bc b6 42 bd 3d b5 6c 05 3c c0 52 18 bc
       -0.008781329 0.0924124 0.008143594 -0.009297073
0000b0 26 9e 9f 3d c8 31 1d bd 38 9f 58 bc 1a c9 90 bd
       0.07793836 -0.038377553 -0.013221554 -0.07069607
0000c0 ac 49 8f 3d b5 18 89 bd b5 e0 a8 bd e7 2e f5 3c
       0.06996474 -0.066941656 -0.082459845 0.029929591
0000d0 7a 14 67 3d cd 92 5e bd c1 45 92 bc 5d 93 82 bd
       0.056416012 -0.05433922 -0.017855527 -0.063757636
0000e0 59 97 b6 3d 7c ba b1 3b 48 5f f7 3c be c4 2e bd
       0.08915586 0.005423842 0.0301968 -0.042668097
0000f0 5f 65 0a 3d 31 9f 98 3d d8 da 4d bd 62 62 0f bd
       0.03378808 0.07452238 -0.050257534 -0.035005935
000100 9a e5 27 bd 48 ac 9c b9 c4 2f 70 3d 70 20 93 3c
       -0.04099045 -0.00029882998 0.058639303 0.017959803
000110 fd 4d 65 3c f2 94 9b 3d 21 47 a7 3b 5f f1 b1 bd
       0.013995645 0.075967684 0.005104915 -0.08688616
000120 83 e1 93 3d 1f ed 41 3c 64 c8 0e bd 8e 3a 10 bd
       0.07220747 0.011836319 -0.034859076 -0.035212092
000130 b8 92 16 3d 86 35 15 bc 1d 1e 37 bd 66 11 37 3d
       0.036761016 -0.009106999 -0.044706453 0.044694327
000140 f5 3a 36 bd 21 da a6 3b ff c3 d3 ba d0 3c 4e bd
       -0.04448982 0.005091921 -0.0016156434 -0.050350964
000150 93 2f 9a 3d 45 4f c4 3d 79 c3 fc 3a 07 e8 a0 bd
       0.07528605 0.09585432 0.001928433 -0.07856756
000160 b6 50 00 3d f1 8a 8a bd 04 bf 87 3d a6 65 c8 bc
       0.031326972 -0.06764782 0.0662823 -0.024462532
000170 e4 6f f5 3c 39 0a 5a bc aa a9 c0 bd a6 6e c4 3d
       0.02996058 -0.013308101 -0.09407361 0.09591417
000180 ef a7 35 bd c8 03 00 bc 17 cb 0a bc 38 d8 dc 3c
       -0.044349607 -0.0078134015 -0.008471272 0.02695857
000190 21 04 b3 bc bd 36 b2 3c d4 8a 57 3b ac a3 4d 3d
       -0.021852555 0.021754617 0.0032889144 0.050204918
0001a0 bd 91 b1 bd 3c 9c d5 3c d7 ca 6b bd dd ae 1c 3d
       -0.086703755 0.026075475 -0.05756649 0.0382527
0001b0 04 5c 97 bd c3 5e 16 bc 15 1f ab bc ad 17 5c bd
       -0.073905975 -0.009177866 -0.020888845 -0.053733516
0001c0 c6 f8 6f bd 88 e7 a8 3d fc d5 74 3c 7f 5f 00 3d
       -0.05858686 0.08247286 0.014943596 0.031341072
0001d0 43 c3 17 3d 80 29 0f ba d5 6e 4e bd 9f ae 76 bd
       0.03705145 -0.0005461201 -0.050398666 -0.060225125
0001e0 db 4c 9b bd 63 2b 01 bc 4c ea 00 bd 7a 45 97 bc
       -0.075830184 -0.007883879 -0.031473443 -0.018465746
0001f0 04 8e b9 3d 44 d1 72 bc 68 72 9e bd 4b 20 48 3d
       0.090602905 -0.014820401 -0.07736665 0.048858922
000200 b1 c6 8d 3d 0e ba 92 bd 3e a5 e8 3c aa d2 ae bc
       0.06922663 -0.07164393 0.028399106 -0.021340687
000210 37 e6 ef bc fc cf 06 3c 20 8e 56 bd eb 7e 03 bd
       -0.02928458 0.008228298 -0.052381635 -0.03210346
000220 03 eb cc 3d 30 06 a3 3d 77 f7 1e 3d 5b 46 73 3d
       0.100057624 0.079601645 0.03881022 0.059393268
000230 00 76 ac bb b0 e8 7f bd d9 47 93 bb a3 92 a6 3d
       -0.00526309 -0.062477767 -0.004494649 0.081334375
000240 85 4d 3a bd 2b e6 4f 3c 7b 04 3d bc b6 9d 00 3c
       -0.045484085 0.012689154 -0.011536713 0.007850101
000250 e5 95 ea 3c 0b 61 81 3d 88 f0 53 38 8f a5 ec bc
       0.028635928 0.063173376 5.0530332e-05 -0.028887538
000260 f3 96 0f 3d 3b 2f 5a bd 90 45 27 3d 2f 02 bb 3c
       0.035056066 -0.0532677 0.040837824 0.02282819
000270 fe fb 99 bd 74 1b ad bd 71 71 92 bd 3c 70 a0 bd
       -0.07518767 -0.08452502 -0.071505435 -0.07833907
000280 e1 c7 69 3b fb 9c 4d 3d aa 3d 18 3c 29 3f 9e 3d
       0.0035672116 0.050198536 0.009292046 0.077268906
000290 b3 ba b9 3c b5 c3 56 3d 84 92 43 bd 13 26 74 bd
       0.022672033 0.052432735 -0.04774715 -0.059606623
0002a0 72 77 0a bc a7 04 78 bd 94 7f e8 bc ac c7 86 3d
       -0.00845133 -0.06055131 -0.028381146 0.06581053
0002b0 ab 5b 3b 3c 47 f1 39 bc 9c be 00 bc 53 0b 6f 3d
       0.01143543 -0.011349029 -0.007857945 0.05836041
0002c0 a9 df 52 bd 64 47 2b bd 63 74 f1 3c 95 55 c0 3c
       -0.05148283 -0.04181613 0.029474443 0.023478309
0002d0 64 40 78 3d 18 b2 aa bd ec 89 1b bb 38 ff 91 3c
       0.060608283 -0.0833475 -0.002373333 0.017821893
0002e0 d5 2e 07 3b 09 ac dd 3c 95 75 fc 3c d2 1c b0 3c
       0.002062728 0.027059572 0.030817786 0.021498118
0002f0 6c 48 49 bd d8 df 52 bd 78 ef 29 bd 55 65 59 bb
       -0.049141333 -0.051483005 -0.04148814 -0.003317197
000300 ea 80 7b 3d e0 c5 9d 3d 28 4c 07 3d 76 39 bb bd
       0.06140224 0.07703757 0.033031613 -0.09141819
000310 04 a5 5f b8 c8 17 41 3d e2 39 8c bc e1 6e b4 bd
       -5.3321026e-05 0.04714182 -0.017117444 -0.08810211
000320 33 91 ab bd 86 d1 bc bd 6f ff 66 bd 9a b2 9c 3d
       -0.08377304 -0.09219651 -0.056395944 0.07651253
000330 7c f9 97 bc b4 cf 59 3c 48 75 f6 bc c6 47 76 bd
       -0.01855158 0.013294149 -0.030085221 -0.060127042
000340 72 37 88 3d 00 2a 5d 3d 06 09 0f bd 90 4d 8e bd
       0.066512 0.053995132 -0.034920715 -0.069483876
000350 e5 15 a1 3d 94 89 4b bd e5 06 72 3c a0 60 97 3c
       0.07865504 -0.04969175 0.014772152 0.018478692
000360 66 46 75 bd 85 6b 8d bc 17 35 14 bc 41 74 9e 3d
       -0.05988159 -0.017263183 -0.009045861 0.077370174
000370 d4 7a b3 3c 94 83 32 bd b2 c7 9d 3d cf 6f b9 3d
       0.021909155 -0.043582514 0.077041045 0.09054529
000380 9d da d6 3c 2b 4a f3 bc a3 67 8f 3d 0f 99 81 3d
       0.02622729 -0.029698452 0.07002189 0.06328022
000390 65 fc 2e 3c 35 ac 37 bd 7e f3 f5 bb f5 8c a0 3a
       0.010680293 -0.044841964 -0.007505833 0.001224904
0003a0 ba 67 ae 3d da 4e 0d bb 74 c5 8c 3d d8 8e a9 bd
       0.08515878 -0.0021561892 0.06873599 -0.082791984
0003b0 48 08 ba 3c db 83 2d bc b9 61 87 bd 81 07 67 bd
       0.022709027 -0.010590519 -0.06610436 -0.05640364
0003c0 38 29 80 bd ac 55 98 bd 0e ad 34 bd 47 00 a6 3d
       -0.06257862 -0.074382156 -0.04411035 0.08105522
0003d0 e5 78 49 3b af 42 9e bc b2 4e 9e 3d ad 31 8b bd
       0.0030742225 -0.019318907 0.07729854 -0.06796584
0003e0 63 70 49 bd 34 28 3b 3d d5 98 f5 bc fe 88 cd 3c
       -0.049179446 0.045692638 -0.029980103 0.025089737
0003f0 36 d6 78 3d 57 3d 85 bd a3 7d b2 bc f1 5a 81 bd
       0.060751162 -0.0650584 -0.021788424 -0.06316174

decoder.bias_ih_l0 f4 [512]
000000 2f 3f 81 3d 55 f4 39 3d d9 32 24 bd 04 b1 77 3c
       0.063108794 0.04539903 -0.040087555 0.015117887
000010 63 2d 15 bd 4f 94 57 bd e3 b6 43 3d f6 07 b4 3d
       -0.036420237 -0.052631672 0.047781836 0.08790581
000020 88 a4 85 bd a7 7d ab 3c db d5 88 bd f3 0d 0e 3d
       -0.065255225 0.02093394 -0.06681415 0.03468127
000030 8a 1b 17 3d e9 d1 0f 3c 59 5e b5 3c 46 9b 73 bd
       0.036891498 0.008778074 0.022139715 -0.059474252
000040 fd d2 ae bb c5 8b 17 3d 41 14 08 bd 6b 02 94 bd
       -0.0053352104 0.03699853 -0.03322244 -0.07227024
000050 4f 4d cd 3c 42 44 9a 3d f0 37 7f 3d 14 ed 13 3c
       0.025061278 0.075325504 0.062309206 0.009028692
000060 b1 5b 8d 3c 7e e1 9e 3d 5b 22 1e 3c d3 06 37 3d
       0.017255636 0.07757853 0.009651746 0.044684242
000070 db 66 27 3d 36 25 93 3d 35 04 97 bd d4 9a 9a 3b
       0.040869575 0.07184832 -0.07373849 0.004718164
000080 d2 da 63 3d c6 84 2e 3d e5 c8 7d 3b 1e cc aa 3d
       0.055628605 0.04260709 0.0038724479 0.083397135
000090 bb 89 41 3d cd ad ab bb d0 b3 5d 3c c3 82 9e 3d
       0.04725049 -0.0052392245 0.01353164 0.077397846
0000a0 48 5a 05 bb 30 c4 48 3d 1d 73 70 3d c7 ba 05 bd
       -0.0020348001 0.049015224 0.05870353 -0.032648828
0000b0 ca e4 3c 3b 31 27 c6 3d 1b 25 bf 3d c7 87 0e bd
       0.0028822892 0.09675444 0.09333249 -0.034797456
0000c0 4d 88 84 3d 02 43 aa bd c2 96 a3 3d 10 15 fd ba
       0.0647131 -0.08313562 0.07987739 -0.0019308645
0000d0 e4 14 7e bd e4 6b 8d 3d 0d 4d a8 3c 18 cb 83 3d
       -0.06203164 0.06905344 0.020544553 0.064352214
0000e0 c8 0a 23 3d 46 cb 36 bd c4 30 5b 3d f5 93 44 bc
       0.039805204 -0.04462745 0.053513303 -0.011998166
0000f0 97 03 09 bd 76 0a a2 bc 04 18 31 bd ab de 88 3d
       -0.03345069 -0.019780379 -0.043235794 0.066830955
000100 49 7b 06 3d 28 23 52 3d fc ea 45 3d b8 75 9f bd
       0.032832418 0.05130306 0.0483198 -0.07786125
000110 e4 b7 1a bc 81 a2 5e bc 50 0d db b9 f7 c7 60 bd
       -0.009443257 -0.013588549 -0.00041780854 -0.0548782
000120 8e 58 4b 3d 85 9f 90 3d 82 94 3f bd 9a 6b 7b bd
       0.049645 0.07061676 -0.046772487 -0.061381914
000130 3b b5 4b 3d 52 b5 85 3d 34 97 ca bb 46 d8 74 bd
       0.04973338 0.06528725 -0.0061825756 -0.059776567
000140 03 09 89 bd b5 7e e4 bc 72 40 3b bd 4c 1c 4b 3d
       -0.06691172 -0.02789245 -0.045715757 0.049587533
000150 fe ca d9 3c ee b5 b7 3a 8b 52 0d 3d 97 3d 41 bd
       0.026586052 0.0014016011 0.034502547 -0.047177877
000160 54 05 16 bd 22 38 4d 3c b7 de c3 bb 11 f7 46 3d
       -0.036626175 0.01252559 -0.0059774774 0.048575465
000170 10 a3 7a bd b9 d6 06 bd 5a 6a 95 bd 98 78 94 bb
       -0.061190665 -0.03291962 -0.072956756 -0.0045309775
000180 0a b3 24 3c 31 76 16 3d 1d f3 a8 3d 67 46 ba 3d
       0.010052452 0.03673381 0.08249495 0.090954594
000190 30 c9 01 3c fe d7 92 3c d7 6e 1c bd 6f 10 82 bd
       0.007921502 0.017925259 -0.038191643 -0.06350791
0001a0 1c 83 c5 bb e4 98 00 bc de dc 4c 3d 88 87 9a bd
       -0.0060275923 -0.007848952 0.050015323 -0.07545382
0001b0 aa 81 17 bd 51 74 9f 3c 88 7b 9f bd a3 1f 08 3d
       -0.03698889 0.019464644 -0.077872336 0.033233296
0001c0 31 8f 23 3d 4c 02 c8 3c 84 72 b6 3d ee db 08 3d
       0.03993148 0.024415158 0.08908561 0.033412866
0001d0 9f 51 f3 bc 56 60 29 3d 14 54 a1 3d 5c cd 9b 3d
       -0.029702006 0.04135164 0.07877365 0.076075286
0001e0 c2 6c d6 3d 76 ef e7 3c d0 ee 0e 3d b5 72 90 3d
       0.10469963 0.028312426 0.034895718 0.07053129
0001f0 b1 e7 9a 3a 6e 50 97 bd 49 11 5a bd ba 1b f2 bc
       0.0011818317 -0.073883876 -0.05323914 -0.029554237
000200 fc 9f f3 bb 12 b1 19 3c 48 4f 87 3c 75 20 0c bc
       -0.007434843 0.009380596 0.016517296 -0.00855266
000210 25 17 43 3d 46 0a 83 3d dc 67 d4 3c a8 1a 5c bd
       0.047629494 0.06398444 0.02592843 -0.05373636
000220 53 e3 ab 3d 09 83 b1 bb 8e 80 62 bd da 38 ac 3d
       0.08392968 -0.005417232 -0.05529838 0.08409281
000230 41 20 9e 3c 2d 43 98 3d f8 8c b8 3d 1c 17 78 bd
       0.01930249 0.07434688 0.09011263 -0.060568914
000240 2e fa 85 3d e2 19 ba 3c a9 1a 81 3d d9 d7 15 3d
       0.065418586 0.02271742 0.06303913 0.0365828
000250 81 d4 97 bd 82 03 9f bd be 34 a1 3d 94 22 bb 3d
       -0.07413579 -0.07764341 0.07871388 0.09137455
000260 7e f2 2e bc f3 23 26 3d ff 74 7c bd 87 91 8e 3d
       -0.010677932 0.040561628 -0.061635014 0.06961351
000270 11 26 93 3d c9 45 d3 bc 35 b0 08 bd 20 e8 5e bc
       0.07184995 -0.025790112 -0.03337117 -0.013605148
000280 b5 68 39 3d 1c 5f 54 3d 5f a6 9f 3c 3b 7c 97 3d
       0.045265872 0.051848516 0.019488512 0.07396742
000290 38 fa 92 bd 64 30 60 3c c2 c5 9a bd 08 78 9a 3d
       -0.07176632 0.013683412 -0.075572506 0.075424254
0002a0 4b 7f 11 3d 6d 69 48 3c ab ea b5 3d 96 17 59 3c
       0.035521787 0.012232167 0.0888265 0.013250252
0002b0 56 5c 6a 3b ec 11 71 3c 38 e7 a2 3d 7f f5 1b 3d
       0.0035760603 0.014713746 0.07954258 0.03807592
0002c0 d8 66 ab bd ef 9e 90 bd 46 9b 8b bd 8d 6e c0 bc
       -0.08369225 -0.07061564 -0.068167254 -0.023490215
0002d0 1d 8e 3c 3d 37 dc 09 3d 76 8f 3a 3d 0a 28 90 3d
       0.046033967 0.03365728 0.04554697 0.07038887
0002e0 89 d9 e6 3c e8 8c 7f bc f1 16 5f 3c 04 77 ae 3d
       0.0281799 -0.0155975595 0.0136163095 0.08518794
0002f0 54 f4 7d 3c 83 ea 5c bd 1b cb 3a 3d ff 9a 35 3d
       0.015500147 -0.053934585 0.045603853 0.04433727
000300 4c f3 37 bd fe d0 02 bd 31 d8 16 bd 23 37 33 bb
       -0.04490976 -0.03193759 -0.03682727 -0.0027346096
000310 18 e1 4c bd 19 59 c0 bc a8 4a a0 bd 21 be 6d 3d
       -0.050019354 -0.023479985 -0.078267395 0.05804265
000320 d7 8b 6e bb 40 e9 9a bd 37 c6 6e bd 4f f5 d8 3c
       -0.003639927 -0.0756402 -0.0582945 0.02648416
000330 e7 22 fd 3c fd 3a 6b bd 22 72 86 ba 10 2e 8c 3d
       0.030900432 -0.057429302 -0.0010257403 0.06844723
000340 d6 97 55 3d 57 e1 0e bb 1d da 33 3d 14 60 9a 3d
       0.052146755 -0.0021801793 0.04390918 0.07537857
000350 fe f6 a3 3d ab f4 87 bd d0 32 95 bd 7e e1 79 3d
       0.080060944 -0.066384636 -0.07285082 0.06100606
000360 0e 6c cb bc 6f ff 5b 3d 74 0d cc b9 5c c3 35 3c
       -0.024831798 0.053710397 -0.00038919935 0.011093941
000370 89 77 90 bd 8a 07 f0 bc b9 2e cf 3d 30 5d 82 bd
       -0.070540495 -0.02930047 0.101163335 -0.0636543
000380 a8 f3 16 bd bd c8 93 3c 3d 14 7a bd 05 3d cd 3d
       -0.036853462 0.018040055 -0.061054457 0.10021404
000390 d1 3b f5 bc a9 d6 a8 bd de 7b 9a 3c 63 45 8f bd
       -0.02993575 -0.08244068 0.018857893 -0.06995656
0003a0 ea 15 5f bd d4 fd 47 bd 19 5d 94 bb f6 87 68 3b
       -0.05446426 -0.048826054 -0.0045276997 0.003548143
0003b0 81 8e 54 bd 46 bd 31 bd 1b 92 54 bd 89 75 96 3c
       -0.051893715 -0.043393396 -0.05189715 0.018366592
0003c0 51 6a 80 bc 67 34 de 3b 3b 0d 9b bd c0 46 04 3d
       -0.015675696 0.006781149 -0.07570883 0.032294035
0003d0 a1 96 01 3d eb 03 f6 3c 4a c4 2c bd 61 8d 17 bd
       0.03163779 0.030031165 -0.042179383 -0.037000064
0003e0 bd 11 d8 3c 03 47 9e bc 12 70 68 ba 45 2d 9b 3d
       0.026375646 -0.01932097 -0.00088667974 0.07576994
0003f0 2e ab 91 3d 29 01 43 bc 87 ca d6 bc 2b 8f a4 bd
       0.07112728 -0.011902132 -0.02621962 -0.080351196
