lstm_ts.pth (torch, 800703 bytes, 9 tensors)

lstm.weight_ih_l0 f4 [512, 1]
0.05022465 0.027178217 0.025555605 0.024800949 0.005688599 0.017275238 -0.04009458 -0.042203937
0.04354104 -0.019981168 0.074584536 -0.07330024 -0.06394878 -0.02512273 0.03466796 -0.054609604
0.090883255 0.054760255 -0.08514042 0.004620626 -0.050911605 0.060100175 -0.02938747 0.072268486
0.057705086 0.003789034 -0.053338557 -0.078426674 -0.039039724 0.07688244 0.0038824514 0.091251604
0.084867254 -0.07573105 0.061242502 -0.033541195 -0.018614205 -0.09045633 0.078467816 0.08334526
0.07064914 0.09975351 0.0056632436 -0.091080666 -0.08122932 -0.008437839 -0.04522761 -0.04932442
0.08758041 0.09467159 0.024860172 -0.07108777 -0.0075761126 0.08645455 0.09475635 -0.006230346
0.039114334 0.050833225 0.08005455 -0.055596914 -0.067973405 0.039919786 0.0671334 -0.036500104
0.04562052 0.07788011 -0.06770325 -0.009222188 -0.034779247 -0.05525183 -0.049101 0.10290692
0.03945626 0.051254872 -0.026104348 -0.08097298 -0.0038613968 0.017562382 -0.008480985 0.05971121
0.078010716 -0.047613844 -0.0043513067 -0.030564884 -0.012344132 0.093005754 -0.004838883 -0.0809559
-0.010121305 -0.069401294 -0.05868851 0.029573606 -0.08806996 -0.09942006 -0.05230963 0.013969056
0.09102895 -0.04559253 0.08288642 0.040045597 -0.07611862 -0.018873997 -0.0066290135 0.056122363
0.006378731 0.037729856 -0.09688348 0.056612723 0.0004885118 -0.0663024 0.02097161 0.04196617
-0.0677771 0.059840657 -0.00857216 -0.044028375 -0.08426612 -0.0556356 0.032682292 0.045501765
0.03703983 -0.054322813 0.017288929 0.071987696 -0.03817027 -0.07416645 0.0059012035 0.07576915
0.08818781 -0.081042126 -0.00048656572 0.055415243 0.0005626132 -0.08591732 0.08336505 0.019543746
-0.028637128 -0.031787664 0.003571411 0.044880033 -0.020371186 -0.059524987 0.023689454 0.020554353
0.05229724 0.092870355 0.048971094 0.04017487 0.02618933 0.06560899 0.025452452 0.013152622
-0.07029144 -0.009666472 0.07593392 -0.026649727 0.046421573 0.004296178 0.01502148 -0.038553994
-0.004813054 0.089794375 0.053625405 -0.062496018 -0.036004167 0.05863054 0.10284951 -0.037722766
0.017513206 -0.031464685 -0.036202896 -0.09645611 -0.0002092735 0.019402312 -0.07576225 -0.091038354
-0.037352875 -0.009010252 -0.0305487 -0.05789303 -0.022856187 0.06364782 0.052512303 -0.08435838
0.044885978 -0.07149859 -0.047990587 0.01688178 -0.050716154 -0.07321271 0.096628614 -0.06549139
0.06571685 -0.050849337 0.02468515 0.028718542 -0.08827269 -0.06382686 -0.059812687 -0.044002485
0.04672023 -0.09204893 -0.02147835 -0.017882582 -0.0824152 0.05599396 -0.05956674 -0.0377376
0.10866774 -0.06341769 0.0012836677 0.098297924 -0.09317287 0.08217098 -0.04438416 0.06835149
-0.04952098 -0.06134232 0.018699223 0.0052606077 0.022652715 0.02437761 -0.06371011 0.0003937747
0.08323871 0.0501727 0.01879654 -0.09801174 -0.055649254 0.010203908 0.056979388 0.049648963
0.061513904 -0.03736433 0.041707393 0.05351903 -0.055761278 -0.031039666 -0.022804825 0.104695946
0.08932192 0.03156288 -0.1012792 -0.03631084 0.04897927 -0.061495073 -0.059478253 0.024893193
-0.013977327 0.056564316 -0.07628159 -0.030551309 -0.040785264 -0.0825004 -0.017204877 -0.033156026
00000000: 5db8 4d3d daa4 de3c fd59 d13c 5c2b cb3c
00000010: 6d67 ba3b cd84 8d3c 373a 24bd 09de 2cbd
00000020: 1758 323d 8caf a3bc c7bf 983d 701e 96bd
00000030: 94f7 82bd 2fce cdbc feff 0d3d 52ae 5fbd
00000040: 0021 ba3d 4a4c 603d 1a5e aebd 9f68 973b
00000050: b088 50bd 9a2b 763d febd f0bc 8001 943d
00000060: 2b5c 6c3d 7151 783b 8879 5abd 2a9e a0bd
00000070: 1ee8 1fbd 8a74 9d3d ba70 7e3b 1fe2 ba3d
00000080: e2ce ad3d e118 9bbd 6bd9 7a3d 7e62 09bd
00000090: d17c 98bc 2b41 b9bd bcb3 a03d ebb0 aa3d
000000a0: 7fb0 903d 914b cc3d bb92 b93b 8088 babd
000000b0: 8f5b a6bd dd3e 0abc 9640 39bd 6708 4abd
000000c0: 5c5d b33d 2ee3 c13d 8fa7 cb3c 7796 91bd
000000d0: 0a41 f8bb 150f b13d 9e0f c23d ee27 ccbb
000000e0: 5a36 203d 8036 503d a4f3 a33d 97b9 63bd
000000f0: a435 8bbd ee82 233d 3c7d 893d 2281 15bd
00000100: 95dc 3a3d 9b7f 9f3d 00a8 8abd a918 17bc
00000110: af74 0ebd be4f 62bd 211e 49bd ddc0 d23d
00000120: e39c 213d a1f0 513d c9d8 d5bc 29d5 a5bd
00000130: 7d0f 7dbb fcde 8f3c d4f3 0abc be93 743d
00000140: 15c4 9f3d bc06 43bd 6895 8ebb 3563 fabc
00000150: 0b3f 4abc cd79 be3d 7e8f 9ebb 35cc a5bd
00000160: d4d3 25bc 4422 8ebd 5d63 70bd 5944 f23c
00000170: 065e b4bd bf9c cbbd 9f42 56bd 78de 643c
00000180: 636d ba3d 3cbf 3abd 5bc0 a93d da06 243d
00000190: 14e4 9bbd a49d 9abc 3238 d9bb 90e0 653d
000001a0: ad04 d13b 9f8a 1a3d d96a c6bd bee2 673d
000001b0: 790f 003a 8dc9 87bd a7cc ab3c b8e4 2b3d
000001c0: b8ce 8abd 7a1b 753d 3f72 0cbc 1957 34bd
000001d0: b793 acbd 28e2 63bd dedd 053d 0f60 3a3d
000001e0: 14b7 173d 9981 5ebd 83a1 8d3c 496e 933d
000001f0: 6e58 1cbd 94e4 97bd e25e c13b db2c 9b3d
00000200: cf9b b43d 6af9 a5bd bf19 ffb9 18fb 623d
00000210: 557c 133a 6bf5 afbd 4cbb aa3d 351a a03c
00000220: 6998 eabc c833 02bd 550e 6a3b 20d4 373d
00000230: 79e1 a6bc 79d0 73bd 6310 c23c 9a61 a83c
00000240: a135 563d d032 be3d ea95 483d 688e 243d
00000250: 018b d63c 025e 863d a981 d03c 187e 573c
00000260: f5f4 8fbd 1f60 1ebc 3e83 9b3d 8750 dabc
00000270: 8c24 3e3d f4c6 8c3b a71c 763c cbea 1dbd
00000280: d3b6 9dbb 1de6 b73d 50a6 5b3d d3fb 7fbd
00000290: 1b79 13bd 9426 703d c4a2 d23d 3083 1abd
000002a0: db77 8f3c 1de1 00bd 7d49 14bd c88a c5bd
000002b0: 6d70 5bb9 99f1 9e3c 3d29 9bbd 5172 babd
000002c0: 54ff 18bd bc9f 13bc 4441 fabc 3e21 6dbd
000002d0: e63c bbbc ca59 823d 2417 573d 16c4 acbd
000002e0: 5cda 373d da6d 92bd c791 44bd a94b 8a3c
000002f0: bebb 4fbd 8cf0 95bd 39e5 c53d 5a20 86bd
00000300: 8e96 863d 6547 50bd 8338 ca3c 2643 eb3c
00000310: 50c8 b4bd a8b7 82bd 26fe 74bd f33b 34bd
00000320: b65d 3f3d 2684 bcbd 5df3 afbc 7e7e 92bc
00000330: 4dc9 a8bd ec59 653d 41fc 73bd be92 1abd
00000340: 318d de3d 22e1 81bd be40 a83a 6c50 c93d
00000350: 6bd1 bebd 4249 a83d 2acc 35bd defb 8b3d
00000360: 83d6 4abd 1642 7bbd 1d2f 993c 2d61 ac3b
00000370: 3092 b93c 8eb3 c73c 727a 82bd 8c73 ce39
00000380: 0f79 aa3d e481 4d3d 34fb 993c 61ba c8bd
00000390: 79f0 63bd 4b2e 273c 3863 693d b65c 4b3d
000003a0: 01f6 7b3d 570b 19bd 5fd5 2a3d c536 5b3d
000003b0: f065 64bd e646 febc 2fd1 babc d46a d63d
000003c0: 69ee b63d 1448 013d 786b cfbd adba 14bd
000003d0: 7d9e 483d 42e2 7bbd 789f 73bd cfec cb3c
000003e0: 2901 65bc fcaf 673d 8639 9cbd bd46 fabc
000003f0: 730e 27bd f8f5 a8bd 3ef1 8cbc 9dce 07bd

lstm.weight_hh_l0 f4 [512, 128]
0.08894449 -0.07298181 -0.06523821 -0.015002116 0.016806051 -0.06345437 -0.004955763 -0.007466363
-0.048619673 0.022018202 -0.0466404 -0.09059355 0.067551926 -0.09115386 -0.029789746 0.03541268
-0.05571965 -0.038018703 0.065573 0.00797513 -0.06323198 0.06034727 0.03307538 0.064632975
0.044839345 0.07787774 0.08577755 0.0683964 -0.028985579 -0.012208513 0.063641556 0.04335938
0.06463758 0.043515652 -0.012413803 0.07149735 0.048015438 0.014433688 0.007819447 0.039080523
-0.0020447953 -0.06684204 0.0024115292 -0.02069671 0.051437724 -0.011075908 -0.017669575 -0.046904955
0.06323206 -0.039525848 -0.044763524 -0.07234591 -0.09146739 -0.08827727 0.071591675 -0.006672211
-0.011399323 -0.04473788 -0.014572214 -0.04475148 -0.009115935 0.0054420787 0.07870682 0.07419961
0.06511425 0.052384444 0.05572818 -0.07686645 0.042644862 -0.0045416076 0.021340823 -0.04653242
-0.06565934 -0.0201615 -0.0065304446 -0.057547305 -0.07344086 0.031154862 0.006204471 0.021343995
-0.025145475 -0.04505122 -0.0141940545 -0.03338145 -0.042414878 -0.068126366 -0.04686477 -0.08223874
0.025993831 0.032975655 -0.069945045 -0.0599449 -0.006916143 -0.04775538 0.05004477 0.082467005
-0.03295256 -0.004049672 -0.01870111 -0.0662035 0.08163869 0.063208476 -0.06637402 -0.041777164
0.0695364 0.080875896 -0.0485703 0.00039524786 0.04496027 -0.05714559 0.007872575 -0.032029293
0.061620124 -0.014511901 0.05810981 -0.05111437 -0.069004275 0.019448608 0.08482188 -0.013891029
-0.08291299 -0.032267883 0.07529099 0.039919198 0.005429161 -0.014793594 0.0005096295 -0.048262596
-0.030693833 -0.051681183 -0.054660823 -0.019468922 -0.060644645 0.03284198 0.013364024 0.0073259138
-0.022318859 0.008045285 -0.026728498 -0.09240773 -0.025983244 0.0462577 -0.0756727 -0.10317887
-0.009492236 -0.038943518 0.04273793 -0.010201363 -0.031729978 0.049083278 -0.053230237 0.013529429
0.08846776 0.0078477375 0.035797287 -0.06045263 -0.062441528 -0.0051551186 -0.104166314 -0.0028201174
-0.073752254 -0.031663064 -0.01911851 -0.057297952 0.013513389 0.084335834 0.011205616 -0.08255944
0.031726316 -0.07203652 0.053931843 0.006400282 -0.06720034 -0.07310173 -0.062262215 -0.06139355
0.05959954 -0.047777645 -0.0008503011 -0.03138088 0.06924247 0.065875016 -0.028814267 0.055870313
0.00081931934 -0.08598878 -0.07567557 0.05487234 0.03354095 0.031870678 -0.02965106 -0.09813581
-0.030870317 -0.08091366 0.049130782 -0.063778855 -0.03998336 0.056892656 0.010336029 -0.10739952
0.024438582 0.0083067445 0.034391616 -0.034596674 -0.058917 0.05324405 -0.07473701 -0.023256307
-0.051782034 -0.019141177 0.0010464888 0.03340592 0.03362641 -0.014858221 0.032479987 0.03724043
-0.03505363 0.038476326 0.042951148 -0.053755727 -0.003937194 -0.06991752 -0.06448461 0.032900203
-0.048400104 -0.041845564 0.08523375 0.029266065 -0.024702704 -0.030854588 -0.0318002 0.059618525
-0.06285902 -0.019749276 -0.05654206 0.09552051 0.044199508 0.021874161 -0.03532196 0.070855945
0.013155108 0.069382645 -0.07181318 -0.019865062 0.014612547 0.07845552 -0.045231428 0.07022235
-0.045032185 0.07645198 0.050591893 0.00841997 0.101635 -0.043782637 -0.018628815 0.070680276
00000000: 8728 b63d 7d77 95bd 9c9b 85bd 6fcb 75bc
00000010: d8ac 893c 5df4 81bd f463 a2bb 64a8 f4bb
00000020: 6c25 47bd 845f b43c 010a 3fbd 1c89 b9bd
00000030: aa58 8a3d e0ae babd a009 f4bc e30c 113d
00000040: 4a3a 64bd 80b9 1bbd 234b 863d 1faa 023c
00000050: c57f 81bd b32e 773d 0d7a 073d 4b5e 843d
00000060: 76a9 373d 5d7e 9f3d 24ac af3d 6913 8c3d
00000070: 2a73 edbc 3706 48bc 8156 823d 9b99 313d
00000080: b560 843d 783d 323d 4363 4bbc 346d 923d
00000090: d6ab 443d 467b 6c3c 231d 003c e612 203d
000000a0: f901 06bb 7be4 88bd bf0a 1e3b 268c a9bc
000000b0: 5db0 523d ba77 35bc c9bf 90bc 691f 40bd
000000c0: cf7f 813d dbe5 21bd f559 37bd 182a 94bd
000000d0: 4153 bbbd b7ca b4bd a89e 923d 90a2 dabb
000000e0: 3ac4 3abc 113f 37bd 4cc0 6ebc 544d 37bd
000000f0: 015b 15bc 7753 b23b 0b31 a13d f7f5 973d
00000100: 9f5a 853d 1291 563d 3b43 643d 286c 9dbd
00000110: 61ac 2e3d c4d1 94bb f3d2 ae3c c798 3ebd
00000120: 6778 86bd bb29 a5bc 57fd d5bb b9b6 6bbd
00000130: 2968 96bd 7b38 ff3c e04e cb3b 9ad9 ae3c
00000140: e2fd cdbc a187 38bd 2e8e 68bc fdba 08bd
00000150: 39bb 2dbd d685 8bbd 46f5 3fbd c96c a8bd
00000160: 04f1 d43c 7b11 073d 593f 8fbd c988 75bd
00000170: d0a0 e2bb 259b 43bd bffb 4c3d 76e4 a83d
00000180: 43f9 06bd 1cb3 84bb 1233 99bc b395 87bd
00000190: 2f32 a73d 7273 813d 1aef 87bd 881e 2bbd
000001a0: 1a69 8e3d 43a2 a53d a7f1 46bd 4539 cf39
000001b0: 4328 383d 7f11 6abd f9fb 003c 2631 03bd
000001c0: 6265 7c3d 53c3 6dbc 8d04 6e3d 4d5d 51bd
000001d0: 1d52 8dbd b052 9f3c 18b7 ad3d 3397 63bc
000001e0: 49ce a9bd 542b 04bd 2a32 9a3d 5082 233d
000001f0: 1ae7 b13b d560 72bc a898 053a 00af 45bd
00000200: a271 fbbc a6af 53bd 07e4 5fbd 4a7d 9fbc
00000210: 8566 78bd 5085 063d c8f4 5a3c 380e f03b
00000220: 0ad6 b6bc 5fd0 033c b9f5 dabc 4440 bdbd
00000230: d0da d4bc b778 3d3d 4afa 9abd 724f d3bd
00000240: 5385 1bbc 3d83 1fbd f80d 2f3d 9e23 27bc
00000250: 4bf7 01bd 8c0b 493d f307 5abd 8aaa 5d3c
00000260: 962e b53d cc93 003c 2da0 123d 2d9d 77bd
00000270: b0c2 7fbd 45ec a8bb 2655 d5bd b8d1 38bb
00000280: 6c0b 97bd 21b1 01bd 6c9e 9cbc 42b1 6abd
00000290: 4367 5d3c 44b8 ac3d c397 373c ec14 a9bd
000002a0: 74f3 013d e287 93bd a3e7 5c3d 75b9 d13b
000002b0: 55a0 89bd 5cb6 95bd aa06 7fbd ce77 7bbd
000002c0: a61e 743d 7eb2 43bd bee6 5eba 3d89 00bd
000002d0: ffce 8d3d 7be9 863d e60b ecbc 45d8 643d
000002e0: 97c7 563a e31a b0bd cbfb 9abd d2c1 603d
000002f0: 3c62 093d d48a 023d c8e6 f2bc 6dfb c8bd
00000300: bfe3 fcbc 10b6 a5bd 5c3d 493d 7d9e 82bd
00000310: 97c5 23bd 4608 693d 7358 293c 48f4 dbbd
00000320: 6c33 c83c 0319 083c 39de 0c3d 3eb5 0dbd
00000330: f452 71bd 6f16 5a3d b80f 99bd 0384 bebc
00000340: 6619 54bd f5cd 9cbc 562a 893a a5d4 083d
00000350: d9bb 093d e56f 73bc bc09 053d 6c89 183d
00000360: 6594 0fbd 5a99 1d3d 8bed 2f3d f72e 5cbd
00000370: 9403 81bb eb30 8fbd 8210 84bd 5dc2 063d
00000380: 303f 46bd 4166 2bbd 088f ae3d 63bf ef3c
00000390: 535d cabc c3c2 fcbc ed40 02bd 8e32 743d
000003a0: 3bbc 80bd 3cc9 a1bc a698 67bd 42a0 c33d
000003b0: 8b0a 353d 7131 b33c c2ad 10bd ec1c 913d
000003c0: 8688 573c 7d18 8e3d ca12 93bd 0ebc a2bc
000003d0: 7769 6f3c 4aad a03d 9744 39bd bcd0 8f3d
000003e0: ab73 38bd db92 9c3d 7239 4f3d eaf3 093c
000003f0: 0326 d03d 6c55 33bd 759b 98bc d2c0 903d

lstm.bias_ih_l0 f4 [512]
-0.0069224373 -0.030624932 -0.013734385 -0.06714765 0.053670418 -0.042536568 -0.043474928 -0.07116272
0.060421888 -0.057859484 0.029874096 0.07397462 0.08190825 0.08321624 0.008448104 0.011234075
-0.056010127 0.07030369 0.048884027 0.03980082 0.050645057 0.041622415 0.02653032 0.086813815
-0.04983705 0.039127067 -0.042130455 -0.052133042 -0.012917944 0.062413525 0.007390516 -0.041427396
-0.058388855 0.07079701 0.04565821 0.065426335 0.0234565 0.07868124 -0.035440695 0.0297392
-0.06765983 0.0658874 0.054429796 0.03436068 0.07611197 0.02005753 0.01999805 -0.039394047
0.054660995 0.00076988223 -0.04555073 0.09771659 -0.017429935 0.07057267 0.03838232 0.05047302
0.027395556 0.028802324 0.0019196323 0.046693243 -0.024798637 -0.060109016 0.01368372 -0.05324959
0.001012735 -0.02437419 -0.05887431 0.006694759 -0.0028770044 0.027546424 0.04040462 -0.046741616
0.0768876 -0.06508893 -0.008744801 0.090329446 -0.039164767 0.042757213 0.09129164 0.056945555
0.045691125 -0.029695189 0.032531977 0.025527475 0.053006124 -0.060474902 -0.07327111 -0.06936333
0.00072704314 0.051108748 0.09920699 -0.04998132 0.0011317789 -0.076138936 0.069840595 -0.004433158
0.07551574 0.014874932 0.016620269 0.07718245 0.048327457 0.04727309 -0.021761775 0.00092053006
-0.051347766 0.047859654 0.049834136 -0.030485466 0.045920935 -0.0373769 0.0532312 0.08630319
0.016320432 0.03724661 0.00991184 -0.03239104 -0.0425296 -0.04316882 0.033037096 -0.02136134
0.025735168 0.066762224 -0.026058977 -0.06129655 0.07301684 0.05227931 -0.071795784 0.08829382
0.066143766 0.07357895 0.09996009 0.051038694 -0.07467273 -0.0077299336 -0.08251148 -0.0603059
0.022397319 -0.029126164 -0.005333304 0.008974675 0.07187275 0.07284293 -0.053339127 0.09588564
-0.005298934 -0.043512642 -0.031987127 -0.042698134 0.016808296 0.053444598 -0.006240779 0.016682275
0.06438646 0.059841122 0.06541976 0.06856115 0.08583061 0.09186385 0.017037127 0.0793589
-0.015182821 -0.015104708 0.053358186 0.045057368 0.038910687 0.04350542 -0.027084691 0.021299107
0.093281776 0.00048120663 -0.04950443 -0.07299223 0.06705562 -0.021180185 -0.03156666 -0.013722292
-0.029499289 -0.008925125 0.08162302 0.078444436 0.009155419 0.049017638 0.007588494 0.08440599
-0.005901885 0.07050487 0.028664712 0.054563917 0.082901366 0.09077029 -0.06939833 0.008790444
-0.024446713 0.06673399 0.060606856 0.035278484 0.05171762 -0.07458891 0.056559306 0.004814098
0.068993084 -0.014239977 0.06628679 0.076906584 -0.00076530763 -0.0660622 0.08907479 -0.037806403
0.0052087344 0.08223288 0.090137824 0.07236923 -0.0049464707 -0.065733075 0.0010909194 0.06778126
-0.009610471 0.058133632 0.045071445 0.09470493 -0.027686331 -0.0072569405 -0.048885632 0.08856973
-0.055417072 -0.053154204 0.07717479 0.046965137 -0.07153101 0.078880064 0.002198065 0.0644738
0.012520317 -0.036591742 0.07116184 -0.008889945 0.013873064 0.012443217 0.06746616 -0.048615508
0.073635355 -0.06990481 0.004388045 0.04727552 -0.04122359 -0.07152572 -0.032308433 -0.042263925
0.07667937 0.025901828 0.05181631 0.055887308 -0.0019297785 0.05441698 -0.0027179813 0.03296678
00000000: 9dd5 e2bb 23e1 fabc 3006 61bc b584 89bd
00000010: 83d5 5b3d d33a 2ebd c412 32bd c3bd 91bd
00000020: f17c 773d 11fe 6cbd 85ba f43c 0180 973d
00000030: 83bf a73d 476d aa3d eb69 0a3c 200f 383c
00000040: e06a 65bd 62fb 8f3d 9e3a 483d 2f06 233d
00000050: 3171 4f3d 447c 2a3d 1d56 d93c 71cb b13d
00000060: ef21 4cbd b443 203d fc90 2cbd 7589 55bd
00000070: c9a5 53bc 53a5 7f3d 242c f23b c6af 29bd
00000080: 2729 6fbd 06fe 903d 1a04 3b3d 3efe 853d
00000090: d927 c03c a123 a13d 432a 11bd 9f9f f33c
000000a0: 3d91 8abd f9ef 863d c7f1 5e3d c9bd 0c3d
000000b0: 98e0 9b3d b04f a43c f3d2 a33c a75b 21bd
000000c0: 35e4 5f3d ecd1 493a 6793 3abd a31f c83d
000000d0: 39c9 8ebc 6788 903d c836 1d3d ccbc 4e3d
000000e0: a56c e03c daf2 eb3c 2c9c fb3a 6a41 3f3d
000000f0: 8326 cbbc df34 76bd ae31 603c 3e1c 5abd
00000100: bfbd 843a 62ac c7bc 3026 71bd b55f db3b
00000110: 208c 3cbb 0aa9 e13c 517f 253d 2374 3fbd
00000120: 3f77 9d3d 584d 85bd 5b46 0fbc a5fe b83d
00000130: 3c6b 20bd 3022 2f3d 1df7 ba3d be3f 693d
00000140: 9e26 3b3d 5343 f3bc 4040 053d ff1e d13c
00000150: f31c 593d 88b4 77bd 2a0f 96bd 5d0e 8ebd
00000160: 0a97 3e3a 6857 513d 092d cb3d 36b9 4cbd
00000170: 3358 943a bbee 9bbd 9608 8f3d 0644 91bb
00000180: ffa7 9a3d fdb5 733c 3b27 883c d511 9e3d
00000190: 03f3 453d 6da1 413d c045 b2bc ba4f 713a
000001a0: 0952 52bd 7c08 443d e11e 4c3d a8bc f9bc
000001b0: 9717 3c3d 8518 19bd f508 5a3d babf b03d
000001c0: 6db2 853c e78f 183d 4565 223c 78ac 04bd
000001d0: 8533 2ebd cad1 30bd e851 073d fafd aebc
000001e0: 8fd2 d23c a2ba 883d a379 d5bc 1712 7bbd
000001f0: da89 953d d422 563d ab09 93bd 64d3 b43d
00000200: 6276 873d 8fb0 963d e0b7 cc3d f30d 513d
00000210: 04ee 98bd 624b fdbb c7fb a8bd 5203 77bd
00000220: 957a b73c fe99 eebc ffc2 aebb 840a 133c
00000230: 0532 933d ad2e 953d 217a 5abd b15f c43d
00000240: aea2 adbb 503a 32bd ef04 03bd 3de4 2ebd
00000250: 8db1 893c b9e8 5a3d 737f ccbb 44a9 883c
00000260: 0cdd 833d f71b 753d ccfa 853d ca69 8c3d
00000270: f5c7 af3d 1d23 bc3d 7291 8b3c eb86 a23d
00000280: 5ec1 78bc bd79 77bc 1d8e 5a3d 138e 383d
00000290: d060 1f3d bd32 323d b7e0 ddbc 777b ae3c
000002a0: 840a bf3d 764a fc39 28c5 4abd f37c 95bd
000002b0: 7554 893d 1182 adbc 0b4c 01bd 77d3 60bc
000002c0: 7ea8 f1bc b03a 12bc f829 a73d 7aa7 a03d
000002d0: 9c00 163c b8c6 483d e7a8 f83b 0cdd ac3d
000002e0: 9a64 c1bb db64 903d 42d2 ea3c 6a7e 5f3d
000002f0: 31c8 a93d c6e5 b93d b620 8ebd cb05 103c
00000300: 7944 c8bc d5ab 883d e53e 783d 2c80 103d
00000310: dbd5 533d 12c2 98bd bbaa 673d 95bf 9d3b
00000320: 3f4c 8d3d cb4e 69bc 5ec1 873d 3381 9d3d
00000330: ed9e 48ba 9e4b 87bd d86c b63d e3da 1abd
00000340: 08ae aa3b b669 a83d 2e9a b83d 5236 943d
00000350: 0116 a2bb 109f 86bd 2efd 8e3a e7d0 8a3d
00000360: 3d75 1dbc 881d 6e3d d69c 383d a9f4 c13d
00000370: 72ce e2bc a1cb edbb 4d3c 48bd 0c64 b53d
00000380: 03fd 62bd 39b8 59bd d10d 9e3d 845e 403d
00000390: da7e 92bd df8b a13d 690d 103b d70a 843d
000003a0: 0422 4d3c 39e1 15bd 4cbd 913d 22a7 11bc
000003b0: d94b 633c a3de 4b3c b32b 8a3d 0e21 47bd
000003c0: 22ce 963d 412a 8fbd 97c9 8f3b faa3 413d
000003d0: 11da 28bd 147c 92bd d955 04bd f01c 2dbd
000003e0: 130a 9d3d 1230 d43c 573d 543d 17ea 643d
000003f0: 9ff0 fcba 57e4 5e3d 2920 32bb 2d08 073d

lstm.bias_hh_l0 f4 [512]
0.021995893 -0.03289981 0.038894307 -0.03293706 -0.019919077 0.014992932 0.02688239 0.0866043
-0.026659694 0.01954285 0.02041087 -0.045064706 0.08081559 0.10614265 0.0811902 0.05917153
0.05561403 -0.026514752 -0.03782751 -0.038888536 -0.023677263 0.042791985 -0.057380836 0.08020805
0.06778795 0.018714007 0.08562119 0.014077262 0.065765366 0.059914716 0.04200296 -0.044861287
0.0055653676 -0.018996766 -0.013379432 -0.055628974 -0.019404631 0.01300694 0.04852186 -0.04265646
-0.046481963 -0.014625803 -0.05846332 0.04939683 0.020942708 -0.064684406 0.048737053 0.011765815
-0.030992733 0.06766118 -0.028121749 -0.011374065 -0.0047716647 0.02970032 0.09520479 0.087121926
-0.019414678 -0.072813414 0.036922336 0.013462196 0.07428849 -0.018426055 0.016536085 -0.00848033
0.06526368 -0.047766082 -0.037780013 -0.035194203 0.023942245 -0.02692946 -0.0019879753 0.07908566
0.0027764014 -0.031429123 -0.020584298 -0.0022333725 0.098950766 0.024703708 -0.031650852 -0.021951513
0.003409937 -0.049981065 -0.03947911 -0.066087335 -0.05534279 0.024254333 0.041268516 0.05717736
0.043544527 0.043036193 -0.02391885 -0.03636068 0.04267531 0.053127643 -0.018181633 -0.004765141
0.07512631 0.08837313 0.07957385 0.013831838 0.00188242 0.006760762 0.06112098 -0.0027252652
-0.051908005 0.014707347 0.08493006 -0.0759879 0.018770427 -0.012731945 -0.060556836 0.0283403
-0.028167432 0.084541954 0.0001594853 -0.07418017 -0.013079612 -0.04603961 -0.06198424 0.038870797
0.060485285 -0.060078524 -0.024864273 0.0535269 0.07599906 -0.0058907634 0.02921838 0.0073330887
0.0012344879 0.051211912 0.01281767 0.015990933 -0.018536774 0.072272144 0.01897502 0.0032106414
0.039893005 -0.0383201 0.024611441 0.07198675 -0.06985933 0.04198311 -0.04925252 0.03854575
-0.00071308576 0.05396946 0.096492484 -0.023052668 -0.034267243 0.061550345 -0.07357169 -0.05940702
-0.074038304 0.0780175 0.046949025 0.06898753 0.040859822 0.0127043575 0.07525317 0.0593387
0.02535696 -0.006056423 -0.07458323 0.012922976 0.033225663 0.0117159365 -0.07265656 -0.040091626
-0.07446954 0.0061636353 0.033642936 -0.03495082 0.0689453 -0.009930348 0.09954754 -0.010555283
0.045485906 -0.03468963 0.096548505 0.0056340634 -0.020987922 -0.06940058 0.025921334 -0.035479333
0.04860614 -0.06766161 0.07102948 0.029505989 0.09435973 0.08753343 0.0139170345 0.04152911
0.07146203 -0.02003419 -0.07303931 -0.015097496 0.047094937 -0.060667407 0.039046157 0.08397924
-0.025600335 0.015492313 0.06285054 -0.05217772 -0.019233573 0.08009361 0.0034072907 -0.027120352
-0.044902056 0.08735621 0.03446236 -0.07226151 0.060108192 -0.02205572 -0.051969007 0.06341133
0.06914623 -0.033057023 0.05737339 -0.025328724 0.00020105852 -0.04152637 -0.03615585 -0.054204717
-0.019167453 0.047242675 0.057819776 -0.05681097 0.09574465 0.07602052 0.028684296 -0.04923134
-0.048027337 0.04109408 0.022676492 -0.020483863 -0.040194176 0.057645127 -0.07401328 -0.048378937
0.016095914 -0.022898836 0.08501715 -0.04622206 0.004473504 0.019053178 0.09056034 0.071935445
-0.0601062 0.002794599 0.0016717346 0.037134074 0.029834537 0.04457144 0.06217636 0.08107787
00000000: bb30 b43c f3c1 06bd a34f 1f3d 03e9 06bd
00000010: 552d a3bc eaa4 753c 7538 dc3c 985d b13d
00000020: 6e65 dabc 5418 a03c b234 a73c c595 38bd
00000030: a582 a53d 5161 d93d 0c47 a63d d95d 723d
00000040: 8acb 633d 7735 d9bc 05f1 1abd 9649 1fbd
00000050: d2f6 c1bc a646 2f3d 2b08 6bbd 1e44 a43d
00000060: 69d4 8a3d 1e4e 993c 2a5a af3d 51a4 663c
00000070: feaf 863d 2269 753d 4c0b 2c3d 78c0 37bd
00000080: b05d b63b 1b9f 9bbc 6835 5bbc 35db 63bd
00000090: 76f6 9ebc 0f1b 553c dcbe 463d 8ab8 2ebd
000000a0: df63 3ebd 10a1 6fbc 3c77 6fbd 5554 4a3d
000000b0: 0b90 ab3c 4279 84bd 81a0 473d 68c5 403c
000000c0: 79e4 fdbc f291 8a3d 955f e6bc 495a 3abc
000000d0: a05b 9cbb 164e f33c bbfa c23d fb6c b23d
000000e0: 880b 9fbc 331f 95bd e03b 173d 8b90 5c3c
000000f0: 9024 983d 3df2 96bc af76 873c 15f1 0abc
00000100: f7a8 853d 5ea6 43bd 37bf 1abd cc27 10bd
00000110: 8722 c43c 2c9b dcbc b148 02bb aaf7 a13d
00000120: 49f4 353b d3bb 00bd 67a0 a8bc c65d 12bb
00000130: b3a6 ca3d 6e5f ca3c 53a4 01bd a9d3 b3bc
00000140: 4079 5f3b f2b8 4cbd d9b4 21bd cc58 87bd
00000150: 1faf 62bd 06b1 c63c 2d09 293d cf32 6a3d
00000160: bf5b 323d b846 303d 77f1 c3bc f0ee 14bd
00000170: 4ecc 2e3d 5f9c 593d a6f1 94bc e624 9cbb
00000180: d3db 993d f9fc b43d 9df7 a23d ef9e 623c
00000190: 89bb f63a 6289 dd3b fe59 7a3d 5d9a 32bb
000001a0: 7d9d 54bd 16f7 703c d0ef ad3d 8b9f 9bbd
000001b0: 70c4 993c a699 50bc 720a 78bd eb29 e83c
000001c0: 63bf e6bc 5524 ad3d 823b 2739 c6eb 97bd
000001d0: de4b 56bc 0894 3cbd 30e3 7dbd fc36 1f3d
000001e0: 6bbf 773d e614 76bd 29b0 cbbc 063f 5b3d
000001f0: 65a5 9b3d 4e07 c1bb 625b ef3c 684a f03b
00000200: 8ace a13a 95c3 513d 3401 523c 6bff 823c
00000210: 6fda 97bc 6b03 943d 8071 9b3c a069 523b
00000220: d966 233d 8af5 1cbd ef9d c93c ca6d 933d
00000230: 6912 8fbd 7bf6 2b3d 03bd 49bd 26e2 1d3d
00000240: 60ee 3aba 150f 5d3d da9d c53d f3d8 bcbc
00000250: cf5b 0cbd 371c 7c3d c1ac 96bd c754 73bd
00000260: 65a1 97bd a4c7 9f3d 9f4d 403d 5649 8d3d
00000270: a15c 273d f025 503c 561e 9a3d 230d 733d
00000280: 66b9 cf3c f574 c6bb 18bf 98bd e4ba 533c
00000290: a217 083d 33f4 3f3c f6cc 94bd 1e37 24bd
000002a0: 7c83 98bd 52f8 c93b 2dcd 093d 9728 0fbd
000002b0: 3233 8d3d e6b2 22bc 95df cb3d 11f0 2cbc
000002c0: 6e4f 3a3d b716 0ebd 39bb c53d f39d b83b
000002d0: ddee abbc e421 8ebd fa58 d43c c752 11bd
000002e0: 3b17 473d 2c92 8abd e777 913d 8bb6 f13c
000002f0: ad3f c13d ba44 b33d 4604 643c 6e1a 2a3d
00000300: af5a 923d be1e a4bc a295 95bd 7d5b 77bc
00000310: 9fe6 403d 637e 78bd ddee 1f3d 4ffd ab3d
00000320: cbb7 d1bc 78d3 7d3c c9b7 803d 4eb8 55bd
00000330: ba8f 9dbc 1e08 a43d da4c 5f3b 802b debc
00000340: 38eb 37bd d0e7 b23d 6728 0d3d d8fd 93bd
00000350: 0234 763d 33ae b4bc 74dd 54bd cddd 813d
00000360: 8a9c 8d3d cd66 07bd 5c00 6b3d 2f7e cfbc
00000370: 3cd3 5239 8e17 2abd 2818 14bd c405 5ebd
00000380: 1005 9dbc 8981 413d 6ed4 6c3d 9fb2 68bd
00000390: c515 c43d a5b0 9b3d 54fb ea3c cda6 49bd
000003a0: 50b8 44bd 4452 283d 0dc4 b93c c6cd a7bc
000003b0: a6a2 24bd 4c1d 6c3d 4694 97bd fe28 46bd
000003c0: 94db 833c 5796 bbbc 791d ae3d 5853 3dbd
000003d0: 7996 923b 6915 9c3c b377 b93d e452 933d
000003e0: eb31 76bd 9725 373b 1b1e db3a e619 183d
000003f0: 8f67 f43c 8b90 363d a4ac 7e3d 280c a63d

lstm.weight_ih_l1 f4 [512, 128]
0.094493575 -0.05190334 0.02599494 0.081482425 0.06056366 0.04425668 -0.014088755 0.03519476
-0.045286596 0.10180812 -0.04737469 -0.05582499 0.0382382 -0.08865552 0.011981433 0.053837866
0.010542941 0.010867635 -0.014557579 0.010326641 0.101338215 -0.033481114 0.07256329 -0.046154264
-0.05745706 0.08422191 -0.0719395 -0.03494787 0.075189866 0.047928214 -0.01896349 0.11623629
-0.0505573 -0.004107232 -0.10692466 0.088158935 0.008546203 -0.11234301 0.0876897 -0.10896009
0.0724545 0.01230234 -0.05405489 -0.04800764 0.021736588 -0.04626619 0.020173427 0.09007937
-0.009365322 -0.058495678 -0.06344746 0.04572219 -0.10452734 -0.024021635 0.009142388 -0.023684014
0.104023635 0.041676406 0.025160516 0.07939175 -0.049516212 0.0039790515 0.0022178837 0.06841906
-0.013209152 0.0076757097 0.0841002 -0.062700994 0.060410075 0.011337736 -0.035250366 -0.06868749
-0.045439236 -0.08480235 -0.039403573 0.03802525 0.011095849 -0.06105098 0.05038184 0.007345467
-0.11082948 0.067100435 0.10468933 -0.10660222 -0.027733237 0.04882689 -0.038319275 -0.073807135
-0.045058172 0.018697511 -0.10530873 0.03883569 -0.04109617 0.0830303 0.013689093 -0.07501389
-0.10555763 0.01911547 -0.09952813 -0.03401579 0.014509153 0.045605525 -0.07990092 0.034943536
0.027681042 -0.055007923 0.100196004 0.07148254 0.05353781 -0.108925685 0.00093766756 0.006731769
0.027066447 0.05436704 -0.016276164 0.024905486 -0.05833944 0.0015842896 0.028668234 -0.056180682
-0.05894447 -0.026599286 -0.0770249 0.043814186 -0.008919619 -0.0034768647 0.07893573 0.018865094
-0.06851884 0.07319052 0.059619144 -0.060251024 0.056088693 -0.06412249 -0.015247545 0.005212529
-0.04509076 -0.010155709 -0.010612519 0.052566882 0.053077593 -0.0016872396 0.04129344 0.045846675
-0.0028683285 0.07894091 0.04533626 0.027978893 0.076546006 0.024993947 0.0022347607 -0.04840504
0.038380086 0.06570819 -0.054039065 0.08470231 -0.09346379 -0.07509551 -0.09737117 -0.03771237
-0.028688606 0.016733361 -0.02750517 -0.056489255 0.058130063 -0.031048283 -0.06314576 0.020921307
0.06313697 -0.054178514 0.011669894 -0.049077526 -0.0405738 0.07968608 0.07145498 -0.101261325
0.02217693 0.0042727836 0.06488278 -0.04687377 0.08406468 -0.02354628 -0.01787106 0.06062162
0.0809099 -0.046142254 -0.07304095 -0.0374755 -0.0011604927 0.022602975 0.014775878 -0.038146235
-0.07951927 -0.057009187 0.021351267 0.01914411 -0.013818237 -0.010098902 -0.011662649 0.0041296263
0.08562454 0.095932305 0.045951296 -0.01860556 -0.07108401 0.034241714 0.05514069 0.05541305
-0.011432759 -0.008179819 0.06742484 0.036619008 -0.10450989 0.08970827 0.054908488 -0.024193045
-0.008295082 -0.0102149425 -0.076102436 -0.025468055 -0.04562535 -0.056399144 0.015042655 -0.026368901
-0.08037967 0.076210044 0.061630692 -0.009887073 -0.09080318 -0.06355293 -0.0957783 -0.034080893
0.0017905593 0.04704512 -0.054665156 -0.059337504 -0.043321136 0.051341627 -0.035507213 0.03846795
0.057118285 -0.057729937 0.020175572 -0.010473488 0.04063071 -0.062190726 0.004640986 -0.057604756
-0.044981007 0.0014031905 0.03854417 -0.0006486284 0.041915193 -0.021422269 -0.04895121 0.06498186
00000000: d985 c13d 9998 54bd 57f3 d43c 42e0 a63d
00000010: 9a11 783d 7e46 353d 85d4 66bc 6128 103d
00000020: 707e 39bd c780 d03d f70b 42bd bfa8 64bd
00000030: a99f 1c3d 0691 b5bd c64d 443c 1885 5c3d
00000040: 4dbc 2c3c 2a0e 323c e982 6ebc 1231 293c
00000050: 698a cf3d 7e23 09bd 109c 943d 410c 3dbd
00000060: 1858 6bbd 897c ac3d 0455 93bd 7f25 0fbd
00000070: 25fd 993d 6050 443d 5259 9bbc 4b0d ee3d
00000080: 2c15 4fbd f695 86bb 51fb dabd ac8c b43d
00000090: 6005 0c3c 1814 e6bd a896 b33d 7826 dfbd
000000a0: 0663 943d c18f 493c a968 5dbd a9a3 44bd
000000b0: ee10 b23c 9e81 3dbd be42 a53c 887b b83d
000000c0: 0271 19bc 2a99 6fbd bef0 81bd 3147 3b3d
000000d0: 6e12 d6bd 05c9 c4bc f4c9 153c fa04 c2bc
000000e0: 580a d53d e1b4 2a3d 6d1d ce3c 2498 a23d
000000f0: 83d1 4abd b462 823b ea59 113b 4b1f 8c3d
00000100: 336b 58bc 8584 fb3b ba3c ac3d 6169 80bd
00000110: 8e70 773d e9c1 393c b062 10bd 07ac 8cbd
00000120: 7e1e 3abd dbac adbd a465 21bd 5dc0 1b3d
00000130: 5dcb 353c 9810 7abd 305d 4e3d 3eb2 f03b
00000140: 91fa e2bd f46b 893d 5c67 d63d 4452 dabd
00000150: d030 e3bc b4fe 473d acf4 1cbd 3228 97bd
00000160: eb8e 38bd 862b 993c 1aac d7bd 2c12 1f3d
00000170: 7554 28bd ca0b aa3d 3848 603c e2a0 99bd
00000180: 992e d8bd 0c98 9c3c 67d5 cbbd 2454 0bbd
00000190: ccb7 6d3c dccc 3a3d 18a3 a3bd f420 0f3d
000001a0: 5ac3 e23c fd4f 61bd 9033 cd3d 7065 923d
000001b0: 764a 5b3d 6e14 dfbd cecd 753a 2c96 dc3b
000001c0: 74ba dd3c f9af 5e3d 9755 85bc 9706 cc3c
000001d0: 56f5 6ebd f0a7 cf3a a5d9 ea3c b71d 66bd
000001e0: c26f 71bd bfe6 d9bc 3bbf 9dbd 8176 333d
000001f0: 9823 12bc 1cdc 63bb 0ea9 a13d f88a 9a3c
00000200: 9b53 8cbd e9e4 953d 3433 743d c7c9 76bd
00000210: 42bd 653d a752 83bd d7d0 79bc ddcd aa3b
00000220: 17b1 38bd 2264 26bc 22e0 2dbc 5f50 573d
00000230: e467 593d 5e26 ddba 4f23 293d b9c9 3b3d
00000240: 91fa 3bbb c6ab a13d 84b2 393d fe33 e53c
00000250: 27c4 9c3d 1bc0 cc3c 1075 123b 5d44 46bd
00000260: 7034 1d3d 0492 863d 1158 5dbd 6878 ad3d
00000270: f269 bfbd adcb 99bd 896a c7bd 4978 1abd
00000280: 5e04 ebbc 6714 893c 8652 e1bc 4761 67bd
00000290: ca19 6e3d f858 febc 9052 81bd 2963 ab3c
000002a0: f54d 813d 4aea 5dbd 1533 3f3c 8405 49bd
000002b0: b730 26bd 7532 a33d fd56 923d 1962 cfbd
000002c0: 65ac b53c b502 8c3b 43e1 843d b6fe 3fbd
000002d0: 1a2a ac3d 21e4 c0bc 5466 92bc 604e 783d
000002e0: 17b4 a53d a9ff 3cbd 7e96 95bd e97f 19bd
000002f0: ac1b 98ba e029 b93c 8616 723c 3a3f 1cbd
00000300: 00db a2bd 7782 69bd dae8 ae3c 1cd4 9c3c
00000310: e365 62bc dd75 25bc b214 3fbc d151 873b
00000320: eb5b af3d 2878 c43d 6d37 3c3d b06a 98bc
00000330: 7e94 91bd 0a41 0c3d 34db 613d cbf8 623d
00000340: 7850 3bbc a604 06bc 0916 8a3d d0fd 153d
00000350: 4809 d6bd f8b8 b73d b9e7 603d 7e30 c6bc
00000360: 18e8 07bc 935c 27bc 98db 9bbd 62a2 d0bc
00000370: a6e1 3abd ca02 67bd 7875 763c 9803 d8bc
00000380: 199e a4bd 0314 9c3d 7770 7c3d 64fd 21bc
00000390: 05f7 b9bd 0a28 82bd 6a27 c4bd 6898 0bbd
000003a0: 33b1 ea3a 62b2 403d 92e8 5fbd e20b 73bd
000003b0: 8171 31bd 994b 523d 0370 11bd 9290 1d3d
000003c0: ddf4 693d 3a76 6cbd 3e47 a53c fe98 2bbc
000003d0: 636c 263d b4bb 7ebd 6a13 983b f7f2 6bbd
000003e0: 013e 38bd 43eb b73a 7ee0 1d3d b708 2aba
000003f0: 44af 2b3d c17d afbc 1081 48bd 3615 853d

lstm.weight_hh_l1 f4 [512, 128]
-0.077247 0.03260501 -0.054609906 0.034569066 -0.008165639 0.044217728 0.026298769 -0.010469317
0.07576225 -0.03974835 0.082497746 -0.10723408 0.03975435 0.04565882 0.09321616 -0.086216
0.05153716 -0.037714474 -0.06912329 0.07482283 -0.08673664 -0.015373526 0.10857618 -0.009909809
-0.020145271 -0.021759735 0.0024687813 -0.023767598 -0.050277434 -0.043227583 -0.02109524 0.106056295
0.10276122 0.028933674 0.07302634 0.02191524 0.020720847 0.023400337 0.022836516 0.09458723
0.096351996 0.1138769 -0.071174234 -0.10712186 0.057497147 -0.04116651 -0.031400524 -0.051354088
0.032064676 -0.112633735 0.039153118 -0.02927145 -0.043550767 -0.057217576 -0.031548806 0.06383381
-0.086204685 0.069323696 0.10162196 -0.09415312 0.0316951 0.02424707 -0.04889945 -0.054956615
-0.09907001 -0.04777946 -0.053590417 0.010478833 0.041727487 0.08200433 -0.0161609 0.068320416
0.00019232172 0.011281895 0.0052420613 -0.037086014 0.008588731 -0.04936832 -0.012189933 -0.0021779062
-0.055424165 -0.093102515 0.028239187 -0.038243566 -0.03757023 0.014856701 -0.00946349 0.055654425
-0.019248465 -0.019618172 -0.04075204 0.00842877 -0.044623364 0.07412313 0.07063122 -0.047108963
0.06784046 -0.06897628 -0.040932752 -0.017330676 0.078950636 0.036401942 0.01996832 0.035044674
0.020934757 -0.081860505 -0.11427945 0.005297549 -0.04979762 0.001927016 -0.10280897 0.0422623
0.042615447 0.013780802 0.044149924 -0.039048154 0.023502221 -0.041360043 -0.024828603 -0.053826988
-0.012545584 0.075496085 0.040860057 -0.011156989 0.08855551 -0.09909527 -0.048965685 -0.04796248
0.030507611 0.084821366 -0.019888178 0.034757525 -0.09398649 0.089658596 -0.03926632 -0.016516862
-0.0662885 -0.030693956 0.02612424 0.059820876 0.03176343 -0.037405394 0.06195916 0.09321613
0.042263657 -0.066386886 -0.01399289 -0.06670618 0.03751268 0.0484236 0.06229234 -0.056338754
-0.023223685 -0.026907848 0.05201738 0.06497619 -0.08763304 0.017977895 -0.017510282 0.0010406636
0.046846617 0.058263384 -0.028750857 0.019375924 -0.06319651 0.00991579 0.0042888075 -0.083067074
-0.028590163 -0.053996574 0.028820882 -0.03155555 -0.051533025 0.08121442 0.027458647 0.051519424
-0.021643113 0.032656863 0.015825827 -0.078371696 0.05372366 -0.0072857444 0.07565897 0.01100005
0.021796545 -0.041264266 -0.03930168 -0.07174101 -0.04063523 0.010132315 -0.01135221 0.035696123
-0.0018944802 0.009974316 0.038144063 0.0041726083 0.007622225 0.021424329 -0.09703038 -0.012599419
-0.047497477 -0.078339644 0.025473246 -0.045647133 -0.007975168 -0.03214326 -0.06579337 -0.010032389
0.02842199 -0.08757859 -0.027758714 0.06788151 0.001693794 -0.06046236 0.06479376 0.03336898
-0.046089698 -0.07846737 -0.070502006 -0.09529663 0.053471107 0.044207744 -0.023682956 0.08561626
0.040084902 -0.046124477 -0.071978 0.08219016 -0.103271596 0.018903535 0.03480654 0.047814254
-0.013929742 -0.0403441 -0.006940538 -0.04218448 -0.023604447 -0.0904487 -0.04834567 -0.009314107
0.01130925 0.0078507885 -0.045430485 0.056296468 0.03686132 -0.04269226 0.07123378 -0.04217467
0.009744008 -0.0053931605 -0.055264197 0.0857057 0.055056527 -0.060522012 -0.06586614 0.003508061
00000000: ad33 9ebd d58c 053d a3ae 5fbd 4b98 0d3d
00000010: 2cc9 05bc a61d 353d 8470 d73c 8087 2bbc
00000020: 3d29 9b3d 2acf 22bd 94f4 a83d 8b9d dbbd
00000030: 75d5 223d be04 3b3d 1de8 be3d 0492 b0bd
00000040: a118 533d 7e7a 1abd 8390 8dbd b63c 993d
00000050: fba2 b1bd 3ee1 7bbc 305d de3d c05c 22bc
00000060: b207 a5bc 7941 b2bc 47cb 213b 44b4 c2bc
00000070: b6ef 4dbd 680f 31bd edcf acbc 0b34 d93d
00000080: 7974 d23d 5006 ed3c d58e 953d 9787 b33c
00000090: c4be a93c 10b2 bf3c a513 bb3c f3b6 c13d
000000a0: 3254 c53d 4b38 e93d ccc3 91bd b562 dbbd
000000b0: 2182 6b3d 379e 28bd d69d 00bd aa58 52bd
000000c0: 4056 033d 84ac e6bd 055f 203d aeca efbc
000000d0: 4a62 32bd fa5c 6abd 5239 01bd 4dbb 823d
000000e0: 158c b0bd 95f9 8d3d 2d1f d03d 5ad3 c0bd
000000f0: b9d2 013d cba1 c63c ca4a 48bd 301a 61bd
00000100: 38e5 cabd 65b4 43bd a081 5bbd 69af 2b3c
00000110: 71ea 2a3d e3f1 a73d dd63 84bc 93eb 8b3d
00000120: f8a9 4939 b3d7 383c 99c5 ab3b 81e7 17bd
00000130: c0b7 0c3c 6f36 4abd 49b8 47bc 34bb 0ebb
00000140: 7304 63bd 88ac bebd de55 e73c 49a5 1cbd
00000150: 3ee3 19bd 8569 733c c10c 1bbc e5f5 633d
00000160: f5ae 9dbc 4ab6 a0bc 9ceb 26bd d318 0a3c
00000170: fdc6 36bd decd 973d 1aa7 903d 54f5 40bd
00000180: f0ef 8a3d 7043 8dbd 1aa9 27bd 10f9 8dbc
00000190: dfb0 a13d 341a 153d 9a94 a33c 018b 0f3d
000001a0: 5e7f ab3c 7ba6 a7bd 580b eabd 1097 ad3b
000001b0: 97f8 4bbd ed93 fc3a 828d d2bd 3c1b 2d3d
000001c0: 898d 2e3d dfc8 613c 8dd6 343d f5f0 1fbd
000001d0: bb87 c03c 2669 29bd 5b65 cbbc b079 5cbd
000001e0: fe8b 4dbc b19d 9a3d e05c 273d cecb 36bc
000001f0: 975c b53d 76f2 cabd 3e90 48bd 4e74 44bd
00000200: 19eb f93c d3b6 ad3d 88ec a2bc e85d 0e3d
00000210: fd7b c0bd ed9e b73d b9d5 20bd 5f4e 87bc
00000220: 44c2 87bd e471 fbbc 8102 d63c bc06 753d
00000230: 5f1a 023d 6636 19bd e3c8 7d3d 19e8 be3d
00000240: a81c 2d3d d9f5 87bd 6f42 65bc 409d 88bd
00000250: e5a6 193d d357 463d 4126 7f3d 77c3 66bd
00000260: 993f bebc d96d dcbc 2d10 553d 3d12 853d
00000270: f478 b3bd 6146 933c b971 8fbc e066 883a
00000280: 3de2 3f3d 96a5 6e3d eb86 ebbc 42ba 9e3c
00000290: 2c6d 81bd d675 223c 2089 8c3b 121f aabd
000002a0: eb35 eabc 832b 5dbd c519 ec3c 6440 01bd
000002b0: 4b14 53bd bf53 a63d f5f0 e03c 0806 533d
000002c0: e64c b1bc 34c3 053d 2aa5 813c 5781 a0bd
000002d0: 570d 5c3d 41bd eebb 17f3 9a3d 8e39 343c
000002e0: ab8e b23c b804 29bd ccfa 20bd f3ec 92bd
000002f0: 2071 26bd 0202 263c 9ffe 39bc 1936 123d
00000300: 3550 f8ba 506b 233c f33c 1c3d 60ba 883b
00000310: dcc3 f93b 1382 af3c ddb7 c6bd cb6d 4ebc
00000320: b78c 42bd 8970 a0bd 45ad d03c 7df8 3abd
00000330: 47aa 02bc a7a8 03bd adbe 86bd e45e 24bc
00000340: 3cd5 e83c 675c b3bd 3e66 e3bc 7605 8b3d
00000350: 4c02 de3a 61a7 77bd 97b2 843d e9ad 083d
00000360: 8dc8 3cbd 80b3 a0bd 5b63 90bd e12a c3bd
00000370: 8504 5b3d 2e13 353d c202 c2bc 9457 af3d
00000380: 1130 243d 05ed 3cbd 3469 93bd 5153 a83d
00000390: 0f80 d3bd 96db 9a3c 4d91 0e3d e1d8 433d
000003a0: 9339 64bc db3f 25bd 746d e3bb a2c9 2cbd
000003b0: 1d5e c1bc 2b3d b9bd 1c06 46bd 329a 18bc
000003c0: 6f4a 393c 98a0 003c 5115 3abd 2097 663d
000003d0: e5fb 163d 14de 2ebd 04e3 913d 59bf 2cbd
000003e0: 55a5 1f3c 1cb9 b0bb b65c 62bd 7886 af3d
000003f0: f482 613d eee5 77bd d4e4 86bd 7fe7 653b

lstm.bias_ih_l1 f4 [512]
-0.020918528 0.079237506 -0.022081245 -0.0080975285 -0.05213119 0.0025465123 -0.025988383 0.009714097
-0.036848538 -0.018511325 0.04816989 0.059928175 -0.02667001 -0.070496686 0.03140534 0.022208825
-0.02896851 0.0956264 -0.07179942 0.056737013 0.032257505 0.02782001 0.07265306 0.05287084
-0.003460452 -0.047156595 0.09487441 -0.042729493 0.047906924 -0.012101856 -0.037990335 0.0377703
-0.033889778 0.042713493 0.015631333 0.096431784 0.06469305 0.08596718 0.09406803 0.06546139
0.050742906 -0.008277437 0.06432139 -0.041970246 0.057399295 -0.04644561 -0.047890816 -0.061518025
-0.026107334 -0.05262028 0.026102742 0.07807931 0.022753725 0.04107162 0.102047004 0.07345059
-0.036794536 0.08910158 -0.014712645 -0.06065004 0.03580159 0.015712174 0.07497965 0.0011531896
0.08997865 -0.04138941 0.103246085 -0.052545168 0.014243159 -0.058344588 -0.02033882 -0.0043087597
0.023324104 0.019871522 -0.03750937 -0.07019854 0.041183658 0.02554186 0.0019217288 -0.041579876
-0.061691772 0.020174399 0.08593997 0.09592733 0.08999177 0.039100498 0.061334435 0.08733727
0.0031794158 -0.058419857 -0.0045858817 -0.0014811016 0.055275824 -0.007178854 0.07974435 0.032644194
0.07613227 -0.06255476 0.0033579136 -0.01819703 -0.022573277 0.072541095 0.02715488 0.07888981
-0.05795385 -0.012017022 0.07779371 0.08936241 0.010891379 -0.06473156 0.051834106 0.0049317996
0.0804889 0.099086836 -0.0079564275 0.07318221 -0.053826284 0.102412805 0.067330055 0.04411572
-0.0037470476 -0.032065265 -0.04473893 0.06812203 0.078151114 -0.0067086522 0.04128995 0.07578745
0.097992666 0.004376462 0.074691184 0.067695916 0.054616828 0.07861523 0.0056411917 0.030608777
0.032679886 -0.011457523 0.0151506495 0.06498545 -0.010946783 -0.040770296 0.107171535 -0.05283124
0.0917348 0.023797862 -0.040980898 -0.046292692 -0.06673265 -0.055234686 -0.039655223 -0.0737073
0.047454953 0.06245472 0.020782351 0.09182922 0.08937144 -0.020861935 0.07210868 0.056796104
0.08577756 0.0043540685 0.039535046 -0.019331561 -0.032157104 -0.03599356 -0.017236318 -0.027881743
0.023542112 0.017538304 -0.009199568 0.07854657 -0.06372715 0.045411825 -0.03126383 -0.041310634
0.06302144 -0.07614176 0.08034643 -0.016881973 0.00042667778 -0.01349701 0.015391219 0.07941485
-0.023546826 0.032422017 -0.07674358 0.009058471 -0.0009881284 0.0032570679 -0.04301618 0.064840555
-0.038304362 -0.066828616 -0.04396088 0.10127943 0.010520538 0.03930256 -0.013634858 -0.04942812
0.032605913 -0.053333636 -0.025441458 -0.048996918 -0.012885743 -0.030327337 0.018589795 0.0141607905
-0.008555209 0.0760119 0.006549358 -0.02469171 0.08842023 -0.059120126 -0.043664917 0.0023652995
-0.02920382 0.014488334 -0.015237442 -0.043276545 -0.020479556 0.030283852 -0.032945275 0.052399702
-0.030999225 0.0026293993 0.019426672 -0.00532304 -0.059796818 -0.030981617 -0.011839608 0.04618707
0.0077562197 -0.039720185 0.09077586 -0.0034543113 -0.05700464 0.06575495 -0.033463433 0.08604652
0.08689633 -0.07331187 0.017860843 -0.01085964 0.037413288 0.08560635 -0.018120343 -0.01858444
0.029828353 0.04617238 0.03415025 0.032316525 0.010002668 -0.0020212177 0.02608066 0.08076012
00000000: 555d abbc 4647 a23d bae3 b4bc 7fab 04bc
00000010: 8487 55bd 63e3 263b 97e5 d4bc e027 1f3c
00000020: 7eee 16bd 10a5 97bc ca4d 453d 3f77 753d
00000030: 117b dabc 9160 90bd e3a2 003d 48ef b53c
00000040: 5e4f edbc c6d7 c33d 930b 93bd 1265 683d
00000050: 7220 043d cae6 e33c 21cb 943d 188f 583d
00000060: c0c8 62bb 4627 41bd 844d c23d 1f05 2fbd
00000070: 0d3a 443d dd46 46bc c19b 1bbd 08b5 1a3d
00000080: 02d0 0abd 58f4 2e3d 480d 803c 077e c53d
00000090: ca7d 843d 900f b03d bda6 c03d 9f10 863d
000000a0: cbd7 4f3d 169e 07bc efba 833d fee8 2bbd
000000b0: 861b 6b3d c03d 3ebd 2929 44bd 53fa 7bbd
000000c0: 0cdf d5bc 5d88 57bd 6bd5 d53c 0ce8 9f3d
000000d0: 0566 ba3c b73a 283d 05fe d03d 436d 963d
000000e0: deb5 16bd e47a b63d 4e0d 71bc 2d6c 78bd
000000f0: b0a4 123d d1b6 803c ee8e 993d 9f26 973a
00000100: ba46 b83d f187 29bd af72 d33d 9a39 57bd
00000110: 245c 693c bcfa 6ebd 999d a6bc 7f30 8dbb
00000120: 3112 bf3c 9ac9 a23c 6da3 19bd 41c4 8fbd
00000130: 32b0 283d 2a3d d13c 85e2 fb3a a94f 2abd
00000140: 83b0 7cbd c844 a53c 4c01 b03d 8c75 c43d
00000150: 9b4d b83d d827 203d d139 7b3d e2dd b23d
00000160: bf5d 503b a949 6fbd 2a45 96bb 8621 c2ba
00000170: e768 623d 983c ebbb 0151 a33d ebb5 053d
00000180: 3ceb 9b3d b61c 80bd 7110 5c3b f011 95bc
00000190: 98eb b8bc 6d90 943d e973 de3c fb90 a13d
000001a0: 0461 6dbd 0be3 44bc 4f52 9f3d a403 b73d
000001b0: c171 323c fb91 84bd 0050 543d ef9a a13b
000001c0: 5dd7 a43d 0aee ca3d ad5b 02bc 8ee0 953d
000001d0: f378 5cbd cebd d13d 57e4 893d afb2 343d
000001e0: 0791 75bb de56 03bd 2b40 37bd 9083 8b3d
000001f0: b10d a03d 41d4 dbbb a71f 293d 7336 9b3d
00000200: 61b0 c83d 6d68 8f3b b1f7 983d 28a4 8a3d
00000210: e5b5 5f3d 0601 a13d bfd9 b83b 42bf fa3c
00000220: 58db 053d 56b8 3bbc 6e3a 783c 1717 853d
00000230: 235a 33bc c1fe 26bd c07c db3d 9265 58bd
00000240: 74df bb3d bcf3 c23c 96db 27bd 689d 3dbd
00000250: 21ab 88bd c43d 62bd 846d 22bd daf3 96bd
00000260: 2060 423d 85d0 7f3d c03f aa3c f510 bc3d
00000270: 6008 b73d a6e6 aabc b7ad 933d 08a3 683d
00000280: 25ac af3d 93ac 8e3b 80ef 213d 395d 9ebc
00000290: 2bb7 03bd fc6d 13bd 2e33 8dbc 4168 e4bc
000002a0: 63db c03c 7dac 8f3c c9b9 16bc 06dd a03d
000002b0: 6183 82bd c001 3a3d 800e 00bd 5735 29bd
000002c0: 6211 813d 36f0 9bbd ab8c a43d 104c 8abc
000002d0: b9b3 df39 9022 5dbc 742b 7c3c 41a4 a23d
000002e0: 46e5 c0bc f3cc 043d bd2b 9dbd fb69 143c
000002f0: 1684 81ba 8874 553b bc31 30bd 20cb 843d
00000300: 09e5 1cbd 71dd 88bd 5310 34bd 976b cf3d
00000310: 565e 2c3c b9fb 203d bd64 5fbc 2475 4abd
00000320: c78d 053d 5f74 5abd 9b6a d0bc feb0 48bd
00000330: b91e 53bc 0971 f8bc a049 983c a902 683c
00000340: 262b 0cbc 21ac 9b3d ff9b d63b 4546 cabc
00000350: aa15 b53d f227 72bd fcd9 32bd 2403 1b3b
00000360: d93c efbc 7a60 6d3c 77a6 79bc bf42 31bd
00000370: bec4 a7bc d715 f83c a0f1 06bd 12a1 563d
00000380: 16f2 fdbc 0052 2c3b af24 9f3c e56c aebb
00000390: 82ed 74bd 29cd fdbc eafa 41bc a72e 3d3d
000003a0: e327 fe3b a2b1 22bd b2e8 b93d ba61 62bb
000003b0: b37d 69bd 88aa 863d f410 09bd 2839 b03d
000003c0: b4f6 b13d 8924 96bd e750 923c a2ec 31bc
000003d0: ad3e 193d 6252 af3d 1d71 94bc 653e 98bc
000003e0: 975a f43c 401f 3d3d 22e1 0b3d 555e 043d
000003f0: 3be2 233c 6876 04bb 1ca7 d53c 9065 a53d
