lstm_ts.pth (torch, 800703 bytes, 9 tensors)

lstm.weight_ih_l0 f4 [512, 1]
00000000: 2633 4e3d 39c5 de3c b032 cf3c ee7a cb3c
00000010: 3ead b93b b68f 8c3c 7d2b 23bd 195b 2dbd
00000020: cf59 323d d962 a4bc a6e9 983d 2935 95bd
00000030: 676e 83bd e547 dabc 2e90 0e3d a271 5ebd
00000040: fb21 ba3d 0a88 603d 6064 aebd 3818 4e3b
00000050: 6191 50bd 38ca 733d 34df f3bc 24f4 943d
00000060: a4d0 6a3d 245c 503b ad0a 53bd 76c8 a0bd
00000070: 1edf 20bd 7079 9d3d 5fed 823b fb10 bb3d
00000080: ecd7 ad3d 152b 9bbd 91e4 7b3d b18a 08bd
00000090: 2039 98bc 2a37 b9bd 09c4 a03d 298c aa3d
000000a0: f9cd 903d 0ce8 cc3d 60bb ba3b 878a bbbd
000000b0: 420e a6bd bce3 0bbc 25c4 38bd f03c 4abd
000000c0: 3aa2 b33d 2094 c13d 8963 ca3c 6a7d 91bd
000000d0: 0c21 fcbb cb71 b13d a9db c23d d7c2 ddbb
000000e0: 105f 273d 2db0 4f3d bf62 a43d c742 64bd
000000f0: aefc 8abd 54b8 223d d6fe 893d d1f7 15bd
00000100: 101e 3b3d f482 9f3d fe99 8abd 8077 1bbc
00000110: 95b4 0fbd 7839 62bd ea9e 48bd 202d d03d
00000120: e9fb 1f3d 011f 523d d207 d3bc b099 a5bd
00000130: 9495 80bb 5ad0 913c 7846 09bc 34f2 743d
00000140: cd48 a13d dc38 42bd 88f1 90bb 2fde efbc
00000150: c756 4cbc 8b49 bf3d adeb a4bb 8362 a4bd
00000160: 6427 33bc ecb9 8dbd 779d 6fbd 36e8 f13c
00000170: c6e4 b4bd c00d ccbd ba34 56bd 1e23 603c
00000180: b089 ba3d cff6 37bd 9d20 a93d 9206 243d
00000190: 7c21 9cbd 8d2d a1bc 0a97 f2bb 2169 643d
000001a0: d629 c53b 4c0d 1a3d c374 c6bd 1c6e 673d
000001b0: b477 6e39 85f0 87bd 80e9 ac3c 2da0 2d3d
000001c0: e9e6 8abd dd51 743d 7927 0cbc c9a8 32bd
000001d0: ace3 acbd d141 62bd 6d76 053d aace 3b3d
000001e0: e33b 173d 364f 5fbd 0672 8b3c 419b 933d
000001f0: 933e 1dbd f692 96bd 42b9 c93b bd2f 9b3d
00000200: 10b2 b43d 3aaf a5bd d306 42ba 681a 633d
00000210: cf38 1f3a edc2 afbd b829 ab3d 4d28 9f3c
00000220: 63b6 e9bc 07a3 02bd 54e1 673b 4fda 393d
00000230: ae1a aabc 67e5 7cbd 1d41 c33c b625 a93c
00000240: 1b19 563d 662f be3d 73bc 483d be3f 1f3d
00000250: 5e27 d73c 9937 883d 07b9 cd3c 40c2 5d3c
00000260: 0291 90bd 2e9b 25bc 23c7 a03d c92d dabc
00000270: 6ea2 3d3d 47ba 8b3b 5d19 773c 474e 1dbd
00000280: acc5 9bbb 4da7 b73d f9b5 5c3d f20e 7fbd
00000290: 324d 13bd 0c4b 703d e36d d23d 8292 1bbd
000002a0: d30d 903c 61cc fdbc 3f22 14bd 8655 c6bd
000002b0: 78fb 8fb8 a735 9e3c 4a3d 9bbd 7629 babd
000002c0: 34d4 18bd a37c 18bc f626 fbbc 3563 6cbd
000002d0: 554f bcbc 9793 823d 07d9 573d 4a3f aebd
000002e0: 0e1b 3e3d 467b 92bd 93c1 43bd 0055 893c
000002f0: 6ac9 4ebd 3d11 96bd 6159 c63d d919 86bd
00000300: 43a5 863d 1e83 50bd f169 ca3c 4c71 ea3c
00000310: 8407 b5bd 0c8b 82bd 600f 74bd 9aae 37bd
00000320: 859e 3d3d f560 bcbd b1bb acbc ca79 90bc
00000330: 2490 a8bd 28a9 663d 1759 73bd 0312 1abd
00000340: f7e2 df3d 86d9 81bd 3564 983a 8748 cc3d
00000350: 0bd9 bebd ebd6 a83d f1d2 35bd 7648 8d3d
00000360: 66bb 4cbd acf0 79bd cc3f 9b3c 34d1 ac3b
00000370: e146 b73c a65e c63c b20e 82bd 4735 2c39
00000380: 714f aa3d c82a 533d 3a20 983c 7f76 c8bd
00000390: 72c4 64bd 3fb4 173c 22a6 663d 55fc 4a3d
000003a0: 7aff 7a3d cf96 19bd 8e2d 2b3d be99 5b3d
000003b0: df29 65bd 81b4 febc 587f b9bc b8f4 d63d
000003c0: 19d9 b63d 4c0c 003d 67f5 cebd 2fab 12bd
000003d0: 3b32 483d f36e 77bd 047f 73bd 6264 d03c
000003e0: c9a9 66bc 2571 663d 6987 9dbd 5028 f9bc
000003f0: a2df 27bd 9e6e a7bd 0966 8abc 0454 07bd
0.050341748 0.027193652 0.025292724 0.02483889 0.005666404 0.01715837 -0.039836396 -0.042323206
0.04354268 -0.020066665 0.0746644 -0.0728553 -0.06417542 -0.02664561 0.03480547 -0.054307587
0.090885125 0.054817237 -0.08515239 0.003144754 -0.050919894 0.059519023 -0.029769517 0.07273129
0.05732788 0.0031793201 -0.051523853 -0.07850735 -0.03927528 0.07689178 0.003995582 0.09134098
0.084884495 -0.075765766 0.061497275 -0.03333539 -0.018581927 -0.09043725 0.07849891 0.08327515
0.07070536 0.10005197 0.0056986064 -0.09157281 -0.08108188 -0.008538183 -0.045108933 -0.04937452
0.08771177 0.09452081 0.024705665 -0.07103999 -0.007694369 0.086642824 0.09514553 -0.0067676115
0.040862143 0.050705124 0.08026647 -0.055727746 -0.06786476 0.03972657 0.06738059 -0.03661329
0.045682967 0.07788649 -0.06767653 -0.00948894 -0.035084326 -0.055230588 -0.048979677 0.10164857
0.0390586 0.0512991 -0.025760565 -0.08085954 -0.003924081 0.017799545 -0.008378617 0.059801295
0.07875214 -0.047417507 -0.004423324 -0.02928075 -0.012471861 0.09340199 -0.0050329776 -0.08026602
-0.010934684 -0.069202274 -0.05849978 0.029529672 -0.088326976 -0.0996356 -0.052296378 0.013680248
0.09108293 -0.04491311 0.082581736 0.04004533 -0.07623574 -0.01967504 -0.007403259 0.05576432
0.00601695 0.037610337 -0.09690239 0.056501493 0.00022742042 -0.06637672 0.021107435 0.042389084
-0.06782324 0.059648383 -0.008554333 -0.043617997 -0.084418625 -0.05523855 0.032583643 0.045851387
0.036922347 -0.0545189 0.017022144 0.07207347 -0.038389754 -0.07352249 0.0061561177 0.07577465
0.08823025 -0.080900624 -0.00074015296 0.055445105 0.0006073834 -0.08582101 0.083575666 0.019428397
-0.028529352 -0.031893756 0.0035382109 0.04537421 -0.020764675 -0.061742213 0.02383476 0.020647865
0.052270036 0.09286384 0.049007844 0.03887915 0.026263889 0.066512294 0.025112642 0.013535082
-0.07058908 -0.0101077985 0.07850482 -0.02663316 0.046297483 0.0042641493 0.015081731 -0.03840473
-0.004753789 0.08967457 0.05388448 -0.062270112 -0.03596229 0.05866532 0.102748655 -0.037981518
0.017584717 -0.030981245 -0.036165472 -0.09684281 -6.865611e-05 0.019312693 -0.07580049 -0.09089939
-0.037311748 -0.009307059 -0.030658226 -0.0577118 -0.022987047 0.06375807 0.052697208 -0.08508165
0.04641252 -0.07152419 -0.04779203 0.016764164 -0.050485052 -0.07327507 0.096850164 -0.06547899
0.0657449 -0.050906293 0.02470872 0.028618477 -0.08839324 -0.06374177 -0.059584975 -0.044844247
0.046293754 -0.091981806 -0.021085592 -0.017636199 -0.08230618 0.056313664 -0.059411135 -0.037614834
0.10931962 -0.063403174 0.0011626544 0.09974771 -0.093187414 0.08244117 -0.044390623 0.068985865
-0.049983405 -0.06102054 0.01895132 0.0052739624 0.022372665 0.024215054 -0.06350459 0.00016423046
0.083159335 0.05155447 0.018570054 -0.09788226 -0.055851407 0.009259283 0.05631078 0.04955705
0.061278798 -0.037497338 0.04179149 0.053613417 -0.055948135 -0.03109193 -0.02264373 0.10495895
0.08928127 0.031261727 -0.101054005 -0.035807785 0.04887603 -0.060408544 -0.059447303 0.025438491
-0.014078566 0.056260247 -0.07691843 -0.03041473 -0.040984757 -0.081753954 -0.016894357 -0.033039108

lstm.weight_hh_l0 f4 [512, 128]
00000000: ba29 b63d 6dc2 95bd b4f9 85bd f15c 74bc
00000010: e767 8a3c 4ebb 81bd 2355 9fbb 67c9 f1bb
00000020: d098 47bd b473 b53c 6c71 3fbd a4ed b9bd
00000030: 98d1 893d ba3a bbbd b8ad f2bc 7983 103d
00000040: eabb 63bd 5c27 1cbd df00 863d 969d 063c
00000050: 1b17 81bd dbe9 773d 7316 083d dba6 843d
00000060: 9647 373d 860a 9f3d c582 b03d fbbc 8b3d
00000070: 58de ecbc 22de 49bc f20b 823d 8023 323d
00000080: 64b6 843d 9eb1 323d 7f25 4ebc 33bb 923d
00000090: 2841 453d 0920 6a3c 4eec 013c f2c2 1f3d
000000a0: 25b0 f8ba 2d0b 89bd d3d4 263b 06be a8bc
000000b0: db53 523d 4b80 37bc 0353 8dbc a16a 3fbd
000000c0: a2c9 813d 2d4d 22bd 15b1 37bd 46c9 93bd
000000d0: 5587 bbbd 1bfb b4bd 7cee 923d 439f debb
000000e0: b40d 3ebc 56c2 36bd a1cd 70bc f0bf 36bd
000000f0: c8a2 12bc e9b8 b43b 5e95 a13d d211 983d
00000100: b834 853d d602 573d e7e2 643d 812d 9dbd
00000110: 828b 2f3d 6878 91bb df82 ae3c 9902 3fbd
00000120: 4f68 86bd 0dd6 a5bc cea0 d1bb 1a60 6cbd
00000130: 13af 96bd ce18 003d 69be d03b 2c16 ae3c
00000140: 87f7 ccbc f3f8 38bd f594 66bc eaba 08bd
00000150: e53f 2dbd 163a 8bbd 9011 41bd d006 a9bd
00000160: 7418 d73c c4bf 073d e790 8fbd 3e2b 76bd
00000170: 2e75 e2bb 6676 43bd bbcc 4d3d 90b3 a83d
00000180: 228c 07bd 348b 8cbb ebb7 9abc c3e1 87bd
00000190: 1f76 a73d cd72 813d ea45 87bd 1e8d 2cbd
000001a0: 7dbe 8e3d bd41 a53d 1f53 46bd d0d9 8939
000001b0: 6bec 373d 6b9d 6abd cb24 033c 8d89 02bd
000001c0: bdd5 7b3d 56a8 6cbc 7eba 6e3d aff4 51bd
000001d0: 316d 8dbd 8f3a 9d3c 4106 ae3d 0827 60bc
000001e0: ff40 aabd f037 03bd 6ed1 993d 3015 243d
000001f0: c67d af3b 2464 71bc 055d 273a ba11 45bd
00000200: 9887 f7bc 1e79 54bd 9dc0 62bd 1b35 9cbc
00000210: f3c4 78bd 2ff9 063d 3234 693c 5a21 f43b
00000220: 0c6f b7bc 2c9f 073c 72fc e1bc cbac bcbd
00000230: b8ba d8bc 2ba6 373d ed7d 9abd 739f d5bd
00000240: c83b 16bc 4cd1 22bd 6374 2e3d 0f77 28bc
00000250: e64d 01bd 0318 3b3d ea2c 5abd 0171 673c
00000260: c41b b53d 647f 013c c277 0f3d e131 78bd
00000270: 7700 80bd 8f05 b7bb 2e1e d7bd 1c94 1bbb
00000280: c754 96bd fef0 ffbc 0789 a3bc 113a 67bd
00000290: e2f3 5f3c f0d5 ac3d 675f 433c 60db aabd
000002a0: d4c6 033d 93d5 96bd 76fa 5c3d 9b81 cb3b
000002b0: f555 8abd aae3 95bd 0ad6 79bd 07c7 7bbd
000002c0: d3e8 763d 4d92 48bd 1a8e 9cba 0e6a 00bd
000002d0: bf89 8c3d 9ba3 833d fff1 e6bc e309 643d
000002e0: 446d 583b a906 b0bd 0aea 9bbd 67c7 613d
000002f0: 2c0f 083d 7337 023d 3fdc eebc 4a59 c9bd
00000300: e9fd 00bd b151 a4bd d341 4a3d 92a9 82bd
00000310: e4c6 23bd 8049 683d 703f 2c3c 288c e1bd
00000320: 0f60 c93c 4fca 043c 7b25 0f3d 5222 0ebd
00000330: 164a 71bd cf44 5c3d ea8b 98bd 122b c1bc
00000340: 3631 5fbd dff4 9bbc 9422 bf3a f01d fe3c
00000350: 1cfd 083d 7ad7 68bc cc52 043d 1d45 173d
00000360: 6f33 10bd 66eb 1d3d fc3d 2f3d c4bc 5cbd
00000370: 5f76 79bb 0c49 8fbd 713b 84bd a161 063d
00000380: 84b9 47bd 69da 28bd 3c86 ad3d a017 ef3c
00000390: 191a c6bc 6842 f3bc ddbe 02bd 2fd3 723d
000003a0: d5d2 80bd a346 a6bc d244 67bd e885 c33d
000003b0: 48fa 343d 8d59 b13c 2411 0fbd 3524 943d
000003c0: 1c25 543c 3cbb 8e3d 5829 93bd df5b aabc
000003d0: b56d 6b3c 4614 a23d 3860 38bd 6205 903d
000003e0: d7f8 39bd 26d6 9d3d 451d 4a3d 1347 093c
000003f0: d374 d03d 931a 33bd 68de 96bc a996 903d
0.088946775 -0.073124744 -0.06541768 -0.014914737 0.016895248 -0.06334554 -0.004862444 -0.0073787454
-0.048729718 0.022149898 -0.046739027 -0.090785295 0.0672943 -0.091420606 -0.029623851 0.035281632
-0.05559913 -0.038123474 0.06543135 0.008216282 -0.06303235 0.060525756 0.033224534 0.06477138
0.044746004 0.07765679 0.08618692 0.068231545 -0.028914616 -0.012321027 0.06349935 0.043490887
0.06480101 0.04362642 -0.012582182 0.07164612 0.04815784 0.014289864 0.007929875 0.039004274
-0.0018973394 -0.06691585 0.0025456443 -0.020598423 0.051349502 -0.011200021 -0.017251497 -0.04673255
0.063372865 -0.03962438 -0.044846613 -0.07216124 -0.09156672 -0.08836957 0.071743935 -0.006793888
-0.011599947 -0.044618927 -0.014697463 -0.04461664 -0.008949943 0.005515207 0.07889818 0.07425274
0.06504196 0.05249294 0.055880453 -0.07674695 0.042857654 -0.0044394024 0.021302639 -0.046633337
-0.06562864 -0.020243669 -0.0063973432 -0.057708837 -0.073576115 0.031273656 0.006370355 0.021250807
-0.025020374 -0.04515929 -0.0140736 -0.03338138 -0.042297263 -0.067981884 -0.04713589 -0.082532525
0.026256777 0.033141866 -0.0701006 -0.060099833 -0.0069109416 -0.047720335 0.050244074 0.08237374
-0.033092625 -0.0042890552 -0.018886527 -0.066348575 0.08176827 0.06320725 -0.06605132 -0.042126767
0.069699265 0.08069179 -0.048419114 0.0002629296 0.0449032 -0.05727903 0.008004378 -0.03186946
0.061483134 -0.014444431 0.05828332 -0.05125874 -0.06905592 0.019192962 0.084972866 -0.013681181
-0.08313178 -0.032035768 0.07510649 0.04005927 0.0053555695 -0.014733348 0.00063844054 -0.04811261
-0.030216023 -0.05187332 -0.05535947 -0.019068291 -0.0607347 0.032952484 0.014233636 0.007450265
-0.022391818 0.008277696 -0.027586196 -0.09212645 -0.026456222 0.044836204 -0.0754355 -0.10430803
-0.009169526 -0.039750382 0.042591464 -0.010282292 -0.03156843 0.045677196 -0.05326549 0.014126063
0.088431865 0.007903907 0.03502632 -0.060594443 -0.06250089 -0.0055853794 -0.10503803 -0.0023739403
-0.07340389 -0.031242844 -0.0199628 -0.05645186 0.013668986 0.08439243 0.011924601 -0.08342624
0.03217204 -0.07364955 0.053949796 0.0062105185 -0.06754676 -0.07318814 -0.06099514 -0.061469104
0.060280632 -0.04896765 -0.0011944205 -0.03135114 0.068622105 0.0642769 -0.028191565 0.05567349
0.0033024112 -0.0859502 -0.07612999 0.055121806 0.033217594 0.03179116 -0.029157756 -0.09831484
-0.031492148 -0.08023394 0.04937918 -0.06379999 -0.0399846 0.05671072 0.010513172 -0.11013061
0.024581937 0.008104875 0.034947854 -0.0347007 -0.058908544 0.05377656 -0.074485615 -0.023580108
-0.05449029 -0.019037662 0.0014582449 0.031020135 0.03344451 -0.01421153 0.032305524 0.036931146
-0.0352053 0.03855457 0.042783722 -0.05389096 -0.003806494 -0.069963545 -0.0645665 0.03280795
-0.048760906 -0.041223917 0.08472869 0.02918607 -0.024182366 -0.02969475 -0.031920303 0.05928343
-0.06290213 -0.020297354 -0.056462117 0.09547025 0.044184 0.021649146 -0.034928456 0.072334684
0.012948301 0.06969306 -0.0718562 -0.02079576 0.014369418 0.07914023 -0.045013636 0.07032277
-0.045403328 0.07706861 0.04934432 0.008378762 0.101785325 -0.043726515 -0.018416598 0.07059986

lstm.bias_ih_l0 f4 [512]
00000000: c04b debb 0049 f9bc 18c9 58bc e486 89bd
00000010: b5cd 603d 1578 2dbd 3669 31bd e0fe 91bd
00000020: 303d 773d 1954 6dbd 45b1 f43c 1806 993d
00000030: 0c91 a63d bc6c ac3d 1a62 113c dac9 3c3c
00000040: 1efd 64bd 5cee 8f3d d97c 483d 5bd3 253d
00000050: 7bfa 4f3d e3bf 303d 536f da3c 9f20 b23d
00000060: 0607 4cbd 006d 213d ad15 22bd 88b3 54bd
00000070: 8e95 52bc eb32 7f3d 5b5c f43b b216 29bd
00000080: 3878 6ebd ca02 913d 467b 3c3d f45a 863d
00000090: 5941 c33c cb38 a23d 7b5f 10bd 76f0 f33c
000000a0: d561 8abd 7bb5 873d 830e 633d 10e0 0d3d
000000b0: 0a93 9c3d 5310 a63c 1e83 bc3c 801f 21bd
000000c0: cc99 603d f008 383a a89a 3abd ea3c c83d
000000d0: d711 8ebc e0ff 903d 864c 1d3d 6a08 543d
000000e0: 31e0 e53c 17ea eb3c e08f 0e3b 4b69 3f3d
000000f0: 60d2 c6bc e101 75bd 8238 673c ad29 5abd
00000100: 8963 9b3a e733 c7bc 71ad 6fbd 67f4 d43b
00000110: 9443 41bb 6abd e23c e786 253d 26be 3abd
00000120: 57e1 9c3d a57a 85bd f5a9 08bc 6988 b93d
00000130: b5cd 1fbd ad4e 303d 8d95 bb3d d69a 6b3d
00000140: cb0e 3d3d 8c00 f4bc 0430 083d ed91 d83c
00000150: b427 5b3d 4f90 75bd 085b 95bd 6337 8dbd
00000160: fa01 923a 7624 533d c5e1 cb3d 18ed 4bbd
00000170: a217 273a 21f8 9bbd 371b 8f3d 3910 8cbb
00000180: b040 9b3d 56b5 7a3c 58e4 8a3c 6941 9e3d
00000190: a9c7 453d 7dbe 403d a051 b0bc 67e0 df3a
000001a0: 30b4 51bd 69be 433d a6c8 4c3d 8923 f9bc
000001b0: 9837 3d3d 0cab 18bd bfc0 5b3d db51 b13d
000001c0: 3caa 873c b748 183d 3a8f 223c 084a 03bd
000001d0: ff9c 2dbd 7e4d 2abd bbbd 083d e095 abbc
000001e0: 61c8 d43c 503b 8a3d 35b8 d7bc 8ed7 76bd
000001f0: c286 963d 903a 553d d06c 92bd 375c b53d
00000200: e44f 873d fdfc 963d 8fd5 cd3d 2360 4f3d
00000210: 15f2 96bd 1172 03bc d1ed a8bd da91 77bd
00000220: cbc9 b53c 9f81 f0bc 79d6 b2bb bb7d 1e3c
00000230: 9eac 913d 99b3 983d 4df1 59bd f220 c53d
00000240: 8ae9 b1bb 3736 33bd a742 04bd b6b8 2cbd
00000250: ba89 883c a02c 653d cbd6 cabb bb72 893c
00000260: d7b7 833d fbc9 753d 6b1e 8d3d 5ab5 8b3d
00000270: 089c af3d 2b9d bb3d d6b0 8b3c ca7d a23d
00000280: a811 7bbc 609d 7bbc baa5 5b3d 10a1 383d
00000290: c4bb 1f3d c459 333d 1d19 debc da95 ad3c
000002a0: 99d0 be3d 5d84 833a bf0c 48bd 291c 95bd
000002b0: ce7f 893d 8322 aebc b1cc e3bc bb80 62bc
000002c0: 1c09 f1bc 9ae8 15bc d78d a63d 3d43 a03d
000002d0: 8b75 153c ce0e 493d 6f33 f63b 7171 b03d
000002e0: 915e a7bb 4af6 8f3d 1599 eb3c 978b 5e3d
000002f0: 800e ab3d de04 ba3d e389 8dbd 9ea6 0e3c
00000300: 5ac0 c8bc a174 883d a7ad 783d 386f 0f3d
00000310: b42a 533d 77a0 98bd 6c4b 673d 969f e33b
00000320: 83b3 8c3d e9ed 6fbc 8a1b 883d aa2f 9d3d
00000330: 043c 61ba e52e 87bd f9ae b63d 29ac 18bd
00000340: ab51 b63b 783f a83d faf3 b83d e16a 963d
00000350: 17c1 95bb 30fb 85bd 170c 9e3a 99d4 8b3d
00000360: 6406 1bbc e117 6f3d 4e6c 393d 45cb c13d
00000370: 6b87 e7bc 6e0e f1bb 7ff5 48bd c953 b53d
00000380: 91a2 62bd 5d85 56bd b326 9e3d b499 3f3d
00000390: cf35 93bd b75e a13d 3527 193b d936 863d
000003a0: 1536 4e3c 4bd0 16bd cf90 913d f4ba 12bc
000003b0: 6421 643c 92a5 473c fc73 8a3d 4e95 46bd
000003c0: 1b99 963d c319 90bd fb6b 8a3b 4894 423d
000003d0: b720 28bd 2f29 8ebd eb57 04bd e894 2cbd
000003e0: 1e17 9d3d 5eee db3c d88f 533d 7542 673d
000003f0: 66dc cdba 5e41 5e3d 052a 32bb 7276 073d
-0.0067839324 -0.030430317 -0.013231538 -0.067151815 0.054883678 -0.042350847 -0.043313228 -0.07128692
0.060361087 -0.05794153 0.029869685 0.074718654 0.08133134 0.08419177 0.008873487 0.011522735
-0.055905454 0.07027885 0.04894719 0.040484767 0.050775986 0.043151747 0.026664412 0.08697628
-0.049811386 0.03941059 -0.039571453 -0.051929027 -0.012853039 0.06230442 0.0074572987 -0.04128141
-0.05822012 0.0708061 0.046016 0.06560317 0.023834871 0.07920989 -0.035247307 0.029777747
-0.06756941 0.066264115 0.05543376 0.03463751 0.07645233 0.020271456 0.02301174 -0.03933668
0.054834172 0.0007020375 -0.045557648 0.097772434 -0.017342491 0.07080054 0.038403057 0.051765837
0.028061004 0.028798146 0.0021753237 0.046731275 -0.024270236 -0.059816245 0.014112594 -0.0532624
0.0011855225 -0.024316741 -0.058515016 0.0064988616 -0.0029489743 0.02767821 0.040411856 -0.045591496
0.07660168 -0.06517533 -0.008341302 0.09059221 -0.039014537 0.04304378 0.09159384 0.05752071
0.046156686 -0.029785417 0.033248916 0.02643677 0.05350466 -0.059952077 -0.072927535 -0.0689533
0.0011139505 0.051548444 0.099551715 -0.049786657 0.0006374066 -0.07615686 0.06987613 -0.004274395
0.075806975 0.015302023 0.016954586 0.0772732 0.048286114 0.047056664 -0.021523297 0.0017080427
-0.05119723 0.04778901 0.04999604 -0.030412452 0.046195596 -0.037272498 0.053650614 0.08658191
0.016560666 0.03717872 0.009921843 -0.032053024 -0.04238605 -0.04157781 0.033384066 -0.02094549
0.025974454 0.06749594 -0.026332954 -0.060264163 0.07349922 0.052057803 -0.071496606 0.08855479
0.06607035 0.073724724 0.10050499 0.050628792 -0.07370392 -0.008022801 -0.08248485 -0.06044183
0.022190949 -0.029358683 -0.005457696 0.009673531 0.07113002 0.074561305 -0.053208638 0.096254244
-0.0054294514 -0.043752875 -0.032290127 -0.04216834 0.016667236 0.05595076 -0.006190156 0.01677834
0.06431549 0.060007077 0.068905674 0.068216994 0.085746825 0.09160837 0.017052095 0.079341486
-0.015324034 -0.015357345 0.053624846 0.045075476 0.038997427 0.04378678 -0.027111584 0.021189619
0.093171306 0.0010033954 -0.04884028 -0.07280762 0.0671383 -0.02125669 -0.027807565 -0.013824637
-0.029423289 -0.009149695 0.081325226 0.07825325 0.009122263 0.049086384 0.0075134556 0.08615387
-0.0051077087 0.07029398 0.028759519 0.054332342 0.08352375 0.090829596 -0.069110654 0.008706717
-0.024505783 0.0666287 0.060712483 0.035018176 0.051554397 -0.07452481 0.056468412 0.0069465144
0.06870177 -0.014644125 0.06645878 0.07675107 -0.0008592012 -0.06600741 0.08920092 -0.03727356
0.005563935 0.08215231 0.0903091 0.07344604 -0.0045701372 -0.06542051 0.0012058046 0.06827659
-0.009461973 0.058372382 0.045269303 0.09462599 -0.028262815 -0.0073564565 -0.04906225 0.088538714
-0.055330817 -0.05237328 0.07722225 0.046777442 -0.071879975 0.078793935 0.0023369316 0.0655343
0.012586136 -0.036819737 0.07107698 -0.008955706 0.013923977 0.012185471 0.067604035 -0.04848223
0.07353421 -0.07036164 0.004224298 0.047504693 -0.041046824 -0.06941449 -0.032310408 -0.042134196
0.07670425 0.02684706 0.051650852 0.056459863 -0.0015705943 0.054261558 -0.002718569 0.033071943

lstm.bias_hh_l0 f4 [512]
00000000: 3753 b53c e7f5 05bd e85e 213d 52ed 06bd
00000010: f33c 99bc e1af 783c 8f8b dd3c 7b1c b13d
00000020: f3e4 dabc 466c 9f3c 722b a73c 9a89 35bd
00000030: 2e54 a43d c660 db3d 1226 a73d 848c 733d
00000040: 4c39 643d 8a69 d9bc caae 1abd 6a7c 1cbd
00000050: 41e4 c0bc 458a 353d 8d7b 6abd 4c99 a43d
00000060: dde1 8a3d c1a0 9b3c d997 b43d fcfb 693c
00000070: 09d2 863d baf6 743d 5551 2c3d 6527 37bd
00000080: 34e5 bb3b 188c 9bbc b958 55bc c121 63bd
00000090: f6dc 9bbc 69c4 5d3c a489 473d 1c90 2ebd
000000a0: 1505 3ebd 0175 69bc 805a 6bbd 9c76 4b3d
000000b0: d059 ae3c 1709 84bd 99f8 533d 18b6 413c
000000c0: 4379 fcbc 666e 8a3d 146e e6bc 1670 39bc
000000d0: 1a7e 99bb da2b f53c 9e05 c33d c512 b53d
000000e0: fc97 99bc 6021 95bd f547 183d 1230 5d3c
000000f0: 9c39 993d 3f8c 94bc 18fa 8a3c d326 0bbc
00000100: 8f03 863d 236a 43bd 7846 19bd 34f5 10bd
00000110: 968b c33c cc86 dbbc 30cf 01bb a052 a43d
00000120: 1237 233b 6a16 01bd 3152 a5bc e325 01bb
00000130: 78f5 ca3d 75b8 cc3c 7967 00bd 751d afbc
00000140: c6fb 7d3b 8f17 4dbd 15c5 1ebd 097c 85bd
00000150: 5ea4 60bd 81f9 ca3c 8071 2a3d cde0 6b3d
00000160: 71f1 333d c613 323d 881e c1bc d222 14bd
00000170: ebc5 2c3d 8b89 593d 1ea7 94bc 1bf1 96bb
00000180: 8474 9a3d dddc b53d e0a6 a33d 761b 643c
00000190: 5b50 f13a f171 d63b 1254 7b3d 2bfc fdba
000001a0: a4ff 53bd cbce 6f3c b644 ae3d 4479 9bbd
000001b0: 5f04 9c3c e0e3 4ebc a852 76bd 5772 ea3c
000001c0: 94c7 e4bc bc00 ad3d 2bb9 3139 923a 97bd
000001d0: a6f1 53bc bc0f 36bd 5d77 7cbd 04eb 203d
000001e0: 54ba 783d 8913 73bd bbee cdbc 8f79 5f3d
000001f0: 4da2 9c3d 8b49 c8bb d2ce f13c d0d7 f83b
00000200: 382f 983a 765c 523d 95ee 5a3c 8947 7f3c
00000210: cfea 8fbc e469 933d 81a9 9b3c 4c81 493b
00000220: 7f8e 223d 60e9 1dbd 1599 c83c 2bdc 943d
00000230: d097 90bd 6300 333d 2f34 49bd a764 1f3d
00000240: 5b25 5dba 2e13 5c3d fdfe c43d d781 b8bc
00000250: b8ef 0cbd 0c30 833d 3692 96bd 0ff0 72bd
00000260: 9ac6 97bd a81e a03d e794 4e3d e694 8c3d
00000270: c304 273d 4ff6 4b3c 3226 9a3d e3fa 723d
00000280: 4391 ce3c 34bc cebb 4e33 98bd e306 543c
00000290: 9672 083d 6b90 443c 19db 94bd eba9 24bd
000002a0: 67bd 98bd bc14 db3b 9685 0c3d 1667 0ebd
000002b0: 8b5e 8d3d c8f3 23bc 7192 d33d 559d 2ebc
000002c0: 1a9f 3a3d 2b02 0fbd 181f c53d d359 b23b
000002d0: 6034 acbc d7fd 8dbd a1bb d33c f229 0abd
000002e0: fe57 4a3d bd00 8bbd 9fa9 913d edd0 ef3c
000002f0: fc85 c23d d263 b33d e2ba 683c a4c2 293d
00000300: bb3b 923d 81fb a4bc 3b5e 95bd 689f 7bbc
00000310: 783b 403d 233b 78bd 8e8f 1f3d 4d5b b03d
00000320: c11a d4bc 5a34 773c f511 813d 595b 56bd
00000330: a454 9ebc d724 a43d 5791 673b 05ce d9bc
00000340: bf76 36bd 92bd b23d 00dc 0d3d 49c9 91bd
00000350: 9dbe 773d c51e b2bc 0265 54bd 7fe1 823d
00000360: 64ea 8d3d 746c 06bd d4cf 6b3d c623 d0bc
00000370: 0dd5 c4b9 e67f 2abd 5ad1 14bd 5126 5ebd
00000380: 3950 9cbc 65b4 443d 2f06 6d3d 6f77 69bd
00000390: d05e c33d 7d83 9b3d 891e ec3c c64e 45bd
000003a0: 4a73 44bd 3263 273d 1712 b93c b057 a8bc
000003b0: 456d 24bd 080f 6b3d fd4b 97bd 3e9d 45bd
000003c0: 6d07 833c 4154 bfbc a1c7 ad3d 0a63 3cbd
000003d0: 6061 983b 0861 ad3c a176 b93d eb96 933d
000003e0: da17 76bd ff17 753b 6c6e c53a 4472 1a3d
000003f0: d058 f73c 92ed 353d 00ac 7e3d 4e43 a63d
0.022134406 -0.032705214 0.03939715 -0.03294117 -0.01870582 0.015178652 0.027044086 0.0864801
-0.0267205 0.019460808 0.020406459 -0.04432068 0.080238685 0.107118174 0.08161558 0.059460178
0.055718705 -0.026539583 -0.037764348 -0.038204588 -0.02354634 0.044321317 -0.057246733 0.080370516
0.06781361 0.018997552 0.08818025 0.014281269 0.0658303 0.05980561 0.04206975 -0.044715304
0.0057341103 -0.0189877 -0.013021641 -0.055452112 -0.01902626 0.013535597 0.04871525 -0.042617902
-0.046391565 -0.014249087 -0.057459354 0.04967366 0.02128306 -0.06447046 0.051750753 0.0118232
-0.03081954 0.06759338 -0.028128661 -0.011318227 -0.004684222 0.029928137 0.09522556 0.08841471
-0.01874923 -0.072817564 0.037178 0.01350023 0.07481691 -0.01813328 0.016964957 -0.008493143
0.065436475 -0.04770864 -0.03742072 -0.035390094 0.02387027 -0.026797675 -0.0019807331 0.08023572
0.002490465 -0.031515516 -0.020180793 -0.001970642 0.09910101 0.0249903 -0.03134868 -0.02137635
0.0038754805 -0.050071295 -0.03876217 -0.065177985 -0.054844253 0.024777176 0.04161215 0.057587434
0.04393143 0.04347589 -0.023574129 -0.03616602 0.042180937 0.053109687 -0.018146094 -0.0046063787
0.07541755 0.08880017 0.07990813 0.013922563 0.0018410789 0.0065443446 0.061359473 -0.001937752
-0.05175747 0.014636706 0.08509199 -0.07591489 0.019045053 -0.012627572 -0.06013742 0.028618975
-0.027927198 0.08447406 0.00016949016 -0.07384218 -0.012936031 -0.0444486 -0.06163727 0.03928663
0.06072457 -0.059344802 -0.02513825 0.054559287 0.07648144 -0.0061122826 0.029517565 0.007594086
0.0011610752 0.05135771 0.013362546 0.01558102 -0.01756802 0.071979314 0.019001724 0.0030747233
0.039686676 -0.038552642 0.024487058 0.07268556 -0.07060206 0.04370154 -0.04912203 0.03891435
-0.00084360474 0.05372923 0.09618948 -0.02252285 -0.0344083 0.064056486 -0.07352106 -0.05931097
-0.07410927 0.07818347 0.050434973 0.068643376 0.040776026 0.012448861 0.075268164 0.059321295
0.02521575 -0.0063090567 -0.074316606 0.012941095 0.033312403 0.011997323 -0.07268352 -0.04020111
-0.07458001 0.0066858213 0.034307085 -0.03476628 0.06902798 -0.010006852 0.10330666 -0.010657628
0.045561887 -0.034914177 0.09625071 0.005442837 -0.021021068 -0.06933182 0.025846304 -0.03373141
0.049400322 -0.0678725 0.07112431 0.029274428 0.09498212 0.087592736 0.014204713 0.04144539
0.07140299 -0.020139458 -0.07293364 -0.01535783 0.046931714 -0.060603272 0.038955264 0.08611164
-0.025891664 0.015088165 0.06302253 -0.05233321 -0.01932747 0.08014839 0.0035334432 -0.026587496
-0.04454684 0.08727564 0.034633636 -0.0711847 0.060484517 -0.021743188 -0.05185414 0.06390666
0.06929472 -0.032818273 0.057571247 -0.025407683 -0.00037542768 -0.04162588 -0.036332466 -0.05423576
-0.019081222 0.0480236 0.057867225 -0.056998666 0.095395684 0.07593439 0.028823154 -0.048170827
-0.04796151 0.040866084 0.022591634 -0.020549625 -0.04014327 0.05738738 -0.073875405 -0.04824566
0.015994752 -0.023355605 0.08485342 -0.04599289 0.00465028 0.021164432 0.0905583 0.0720652
-0.06008134 0.0037398336 0.0015062816 0.03770663 0.030193716 0.044416018 0.06217575 0.08118306

lstm.weight_ih_l1 f4 [512, 128]
00000000: 276a ba3d 7986 46bd 2fb5 043d 24de 9e3d
00000010: 3ae3 6d3d 4ee7 263d 8a45 98bc d2f6 f43c
00000020: 3412 38bd 881f c73d 2769 2fbd a68a 59bd
00000030: ba0e 343d f6b3 a5bd 2400 103c f536 753d
00000040: e525 dc3b 6813 823c 8138 3ebc 1e82 533c
00000050: 2681 c93d 756d d0bc 6ba7 953d 9a3a 4fbd
00000060: f732 66bd 0d3d a33d 4402 87bd c7d7 febc
00000070: 3947 9d3d 7517 513d 0e85 72bc 7b27 e53d
00000080: 6717 60bd 61c0 0cbc 5e8e d1bd 5e3a aa3d
00000090: cdea a63b f9e8 e4bd 11bf aa3d 8759 d5bd
000000a0: 2a02 8c3d 8ccc 983c 26c8 65bd 8b9c 36bd
000000b0: 5487 d43c 26ea 34bd f4d9 3d3c c415 bd3d
000000c0: b9ed 5cbc cdcb 5bbd 9d54 71bd e030 343d
000000d0: f7a7 cabd 6941 98bc 2b20 883b 51ae d6bc
000000e0: 6791 c13d 2658 293d a8c0 ed3c e588 993d
000000f0: f9b8 32bd abab 7b3b 8cdd e3ba c982 963d
00000100: 6347 0abc 582b 383b d552 a53d dc61 6dbd
00000110: 0c81 803d 0426 773c 2f0d 27bd 48cc 77bd
00000120: e10e 48bd c62d a7bd 1e7f 37bd 7999 283d
00000130: dd63 523c b8c7 86bd 0721 3d3d 209b 4c3c
00000140: 645d d6bd e595 793d 49c3 cc3d 47a8 cbbd
00000150: 9973 d7bc b0a0 393d 3bdb 16bd f3a9 85bd
00000160: 10a2 2fbd 43c3 773c 1bd3 d0bd 7c46 2f3d
00000170: 64b1 3ebd ceb5 af3d bbcd 763c 1bdf 98bd
00000180: 2972 d0bd b883 333c 0a13 c2bd 3094 02bd
00000190: 26ae 233c a23a 233d cc9d 9abd 63c9 263d
000001a0: 0002 f43c 3bc4 4bbd 93fb c83d ab03 943d
000001b0: 3480 5f3d a4e2 d7bd 6d3b 49bb 7c8e f13a
000001c0: 57d8 f83c f501 503d e5dd 77bc 81dc f33c
000001d0: 6d54 57bd 013d a9bb 9912 cc3c 4eeb 72bd
000001e0: 286a 5fbd 6015 03bd bd8e 91bd a528 293d
000001f0: ee75 35bc ac80 0139 662b 9a3d bbf9 a93c
00000200: 8012 8cbd ae2e 953d fb00 733d 14aa 75bd
00000210: 7283 653d efd0 82bd dfe5 76bc 85d7 b33b
00000220: 549a 39bd 153a 26bc 62b7 33bc c884 573d
00000230: 85a8 563d 3490 0cbb ff32 293d 4283 393d
00000240: 8572 31bb a690 a13d 52cf 373d e8dd e23c
00000250: 95de 9c3d 9004 cd3c 2303 163b dda1 45bd
00000260: b3f4 1c3d 2f46 863d 4f87 5fbd abbe ac3d
00000270: 2992 bfbd 6637 9abd 2eeb c7bd 6dbb 19bd
00000280: 707b e8bc c5f9 883c c799 e3bc 53bc 67bd
00000290: 5514 6e3d 7bb5 febc d869 81bd 8f9e a83c
000002a0: a151 813d e824 5ebd 2bb3 403c c249 49bd
000002b0: 3024 27bd a903 a33d 1d38 933d c317 cfbd
000002c0: 9440 b83c 96e8 8e3b 3abe 843d 9800 3fbd
000002d0: e590 ab3d 2ea3 c1bc d67c 8dbc b813 783d
000002e0: 7106 a83d 255d 3cbd 440f 96bd a0ea 18bd
000002f0: 3f0b a8ba 517e b83c 5f13 743c 0940 1cbd
00000300: 2d36 a3bd f811 69bd 2fb9 b03c 565e 9e3c
00000310: 5403 5dbc 130d 28bc 92bf 3fbc b638 7d3b
00000320: 1f99 af3d ad1a c43d 38bc 3c3d 121d 9abc
00000330: 8eb1 91bd 8ba4 0d3d cbab 613d 07e1 623d
00000340: 708f 3cbc 15e1 04bc 698c 8a3d b7da 143d
00000350: 7078 d6bd 5287 b83d 0162 603d e2d8 c8bc
00000360: ee7e 08bc 743d 28bc 9738 9cbd 0849 cfbc
00000370: 303a 3bbd 8fbb 66bd bb04 7b3c fa6b dabc
00000380: 4df1 a4bd 3776 9d3d bcf7 7b3d a437 29bc
00000390: d1e2 b8bd 1294 80bd 951c c4bd b818 0ebd
000003a0: 655d e83a 8dc3 403d 085d 5ebd 17d5 72bd
000003b0: 9ca3 31bd 51ab 513d 5d8c 10bd 35e9 1f3d
000003c0: c7c5 693d f069 6cbd 3298 a63c e786 2ebc
000003d0: 3119 253d 414c 7bbd 806b 9e3b 8ee1 6bbd
000003e0: 5c78 39bd 73f2 f03a 8358 1c3d ff66 01ba
000003f0: d722 2c3d 9336 afbc f946 47bd 4713 853d
0.09102278 -0.048468087 0.032399353 0.07757214 0.05807803 0.040747933 -0.018587846 0.02990285
-0.044939235 0.09722811 -0.04282489 -0.05311074 0.043959357 -0.080909654 0.008789096 0.059866864
0.0067183846 0.015878394 -0.011610151 0.01290944 0.09839086 -0.025442818 0.07307323 -0.050592996
-0.056200948 0.07970629 -0.06592229 -0.03110875 0.076796 0.05104776 -0.0148022305 0.11189171
-0.05470982 -0.008590789 -0.102322325 0.08311914 0.0050939084 -0.111772485 0.08337224 -0.104174666
0.0683635 0.018652223 -0.05609908 -0.044582885 0.025943436 -0.044168614 0.011587609 0.09232667
-0.013484412 -0.053661156 -0.058918584 0.043991923 -0.09895318 -0.018585877 0.0041542253 -0.026206167
0.094515614 0.04134383 0.02902253 0.07496814 -0.043633435 0.0038401883 -0.0017384752 0.07349164
-0.0084398715 0.0028102007 0.080724396 -0.057954654 0.06274614 0.015084747 -0.040784057 -0.060497552
-0.048842315 -0.081630275 -0.044798963 0.041161988 0.012841192 -0.06581062 0.046174075 0.012488157
-0.104670316 0.060933966 0.09998185 -0.09944206 -0.026300238 0.04531926 -0.03683017 -0.06526556
-0.042879164 0.015122238 -0.10196515 0.04279183 -0.04655589 0.08579598 0.015063698 -0.07464429
-0.10178024 0.010956697 -0.09476288 -0.031879604 0.009990251 0.03985084 -0.075496286 0.0407194
0.02978611 -0.049747687 0.09813609 0.07227262 0.054565623 -0.10541275 -0.0030705587 0.0018429304
0.030376596 0.050783116 -0.015128587 0.02976823 -0.05257075 -0.005164743 0.024911212 -0.059306435
-0.054544598 -0.032002807 -0.07107303 0.041298527 -0.01107548 0.00012350333 0.07527809 0.020748964
-0.06839466 0.07284294 0.059327107 -0.059976652 0.05603356 -0.06387507 -0.015069454 0.0054883384
-0.045313194 -0.010145684 -0.010969015 0.052616864 0.052406806 -0.0021448256 0.0413084 0.045291193
-0.0027076316 0.078889176 0.04487545 0.027693704 0.07659642 0.02502659 0.0022890053 -0.048250068
0.0383193 0.06556355 -0.0545724 0.084348045 -0.0935405 -0.07530098 -0.09761654 -0.03753226
-0.028379172 0.016720662 -0.027783288 -0.056576084 0.05812486 -0.031092396 -0.06319016 0.02058342
0.063143976 -0.054234415 0.011761467 -0.049142607 -0.040805995 0.079596825 0.07188437 -0.10111954
0.02249173 0.0043612225 0.06481595 -0.046631426 0.08377246 -0.02363738 -0.01727144 0.06056568
0.082043536 -0.045987267 -0.073271304 -0.03733313 -0.0012820734 0.02252117 0.014897197 -0.038147006
-0.079693176 -0.056901902 0.021572677 0.019332092 -0.013489563 -0.010257023 -0.011703389 0.0038638539
0.085741274 0.095754005 0.046077937 -0.01881269 -0.07113944 0.03458075 0.055095475 0.055390384
-0.011508808 -0.008110304 0.06765062 0.036341395 -0.104721904 0.09010185 0.054780964 -0.02451748
-0.008331044 -0.010268558 -0.07627981 -0.025303379 -0.04570979 -0.056331214 0.015320952 -0.026662815
-0.08053837 0.07688563 0.061515555 -0.010328207 -0.09027637 -0.06278242 -0.09575764 -0.034691542
0.0017728029 0.04706149 -0.05428794 -0.05928525 -0.04336892 0.05118877 -0.03529011 0.039040763
0.05707338 -0.057718217 0.020336244 -0.01065228 0.040307228 -0.06135202 0.0048345923 -0.057588153
-0.0452808 0.0018382802 0.03817035 -0.0004936307 0.042025413 -0.021388328 -0.04865167 0.064978175

lstm.weight_hh_l1 f4 [512, 128]
00000000: c16c 90bd 696d 1e3d 1a12 71bd b73a e63c
00000010: 295c 0dbb 3df4 213d d631 e43c 95ba 86bc
00000020: ddc7 923d 6a05 10bd bb86 9a3d ba68 cdbd
00000030: cbca 003d 762a 543d 5fd7 d13d 0c95 a7bd
00000040: b6b9 6a3d b3c8 19bd f6f7 82bd 5822 8c3d
00000050: 178b a8bd 22d1 94bc 765e d63d da8f 62bb
00000060: e3a4 aebc faf5 d8bc 5381 143c 6e60 f8bc
00000070: c4e5 3cbd 1250 1cbd 26ed d5bc 8f1f cc3d
00000080: e513 cc3d 48ce b83c 33a5 993d ffe4 823c
00000090: 840c e43c b093 a83c 78ce d03c f432 b33d
000000a0: 07cc bc3d 6704 e93d a1d7 87bd 988d dbbd
000000b0: 7a9e 863d 929d 2cbd efe4 18bd 5130 45bd
000000c0: 6fca 193d dd04 ddbd a814 3e3d 2a73 11bd
000000d0: cd01 4cbd 3536 81bd f04b 18bd 68c1 923d
000000e0: 594a a3bd 8553 8e3d 34a6 c53d a1f0 b7bd
000000f0: 352e f13c b977 9a3c 1086 3ebd 1ac8 4abd
00000100: 1962 c5bd 18f5 3fbd 49f7 41bd fd96 853c
00000110: 25b0 3f3d e26e 9b3d 681f cabc f6cc 803d
00000120: 8535 ef3a 512b 833c f8d6 213c 5f28 1fbd
00000130: d831 733b 9bf5 57bd 12cc 90bc 2cdd 4f3b
00000140: 8268 55bd 11a6 adbd 0c85 083d 6422 2ebd
00000150: a5b8 2abd bb3b a63c 1b1a 2dbc 7a84 7f3d
00000160: a16e 70bc 145d 5ebc 3e9e 11bd 5cc4 803b
00000170: 586d 25bd a167 a23d d788 8f3d e87a 3bbd
00000180: 01e2 923d 6fea 81bd de3a 3ebd 69c3 2dbc
00000190: f156 9a3d 0bbb 123d a0ec c73c 278b 243d
000001a0: f2d2 cd3c 79a3 a1bd 8863 dfbd e7b9 e33b
000001b0: d163 5ebd c4f3 d73b addb c6bd 07dd 3b3d
000001c0: f9c8 1a3d 68b1 963c 16ae 1f3d 7286 14bd
000001d0: e2f6 913c 97f2 21bd 749b 09bd ccf5 50bd
000001e0: 6a86 d7bb 8120 983d d90c 393d 88a8 8dbc
000001f0: b49c ba3d a078 bfbd b9c9 5dbd 090d 53bd
00000200: 2183 f43c 4953 ad3d 45ff 9fbc 6bb4 0e3d
00000210: 6f62 c1bd b904 b83d f7de 1fbd f9d9 84bc
00000220: 4e42 86bd ccd3 fcbc 1e3d da3c d293 733d
00000230: ef6f 033d 2e4b 1abd be4b 753d 780e bf3d
00000240: 3b16 2b3d 4edd 89bd 2861 69bc 774d 86bd
00000250: 9711 183d 1eee 463d 25b1 7f3d ecee 67bd
00000260: 4890 bebc f8bd dbbc b41d 513d 1a4e 853d
00000270: 112a b4bd 47d6 913c 1f0b 8dbc 87ac 963a
00000280: b528 403d d593 713d f19c ebbc 0995 9f3c
00000290: 7575 82bd 8db2 213c a1c9 823b 31f0 a8bd
000002a0: a3cf eabc e03c 5fbd fc00 eb3c d3f9 ffbc
000002b0: a901 56bd 6d9a a63d f891 e43c e59b 513d
000002c0: 72ff b3bc 5827 053d 5b6f 783c 9624 a0bd
000002d0: c7cd 5d3d 4fff dcbb e2c3 9b3d 5f34 2d3c
000002e0: a8a9 ad3c 6617 2abd 383d 1fbd 107c 92bd
000002f0: db09 26bd 65f8 2d3c c695 3dbc 22c8 0f3d
00000300: bb2b fdba c89a 213c 6c84 1a3d 4759 863b
00000310: b955 f03b dde5 b63c 0742 c4bd 3c10 49bc
00000320: 0d41 42bd c873 a0bd ce1c cf3c 18b1 3abd
00000330: a2a8 00bc 48b3 03bd 4296 85bd a11f 22bc
00000340: 3ab8 e83c 9a36 b6bd 6712 e7bc 1795 8a3d
00000350: 8389 133b f4ea 78bd a134 853d 065b 053d
00000360: 35c3 3dbd 289a a1bd 583b 91bd 0df9 c2bd
00000370: ff86 593d 066e 323d 7505 c7bc 00d1 af3d
00000380: 557f 213d 39b1 3fbd 511a 92bd f27b a73d
00000390: c532 d3bd 413f a03c 6e46 103d de44 423d
000003a0: ba0c 64bc 4aac 23bd 33f4 efbb ef37 2dbd
000003b0: 5574 c0bc 7172 b9bd 996b 47bd ce8f 1bbc
000003c0: 4dd8 403c 9d4c 023c 6aa7 38bd 7c4c 673d
000003d0: b939 173d 28a3 2ebd 6063 933d c7ca 2ebd
000003e0: b7d4 193c 5ad5 a0bb 846e 62bd 3271 b03d
000003f0: 3af0 623d 4cf1 78bd 558f 86bd b2f6 623b
-0.07051993 0.03867856 -0.058855154 0.02810417 -0.0021569824 0.039539564 0.027855795 -0.016446391
0.07167027 -0.035161413 0.07545229 -0.10029741 0.0314434 0.051798306 0.10246157 -0.08182725
0.057306014 -0.037544917 -0.06394951 0.06842488 -0.08229654 -0.018166129 0.10467236 -0.0034570605
-0.021318858 -0.026484478 0.009064036 -0.030319419 -0.04611756 -0.0381623 -0.026114058 0.09966957
0.09964732 0.0225593 0.075022124 0.015978334 0.027838 0.020578235 0.025489077 0.08749953
0.09218603 0.11377793 -0.06632925 -0.10720366 0.06573196 -0.04214246 -0.037327703 -0.04814178
0.03754657 -0.10791943 0.046406418 -0.03551022 -0.049806405 -0.06309167 -0.037181795 0.071657956
-0.07973165 0.06949524 0.09650841 -0.08981443 0.029440979 0.018855916 -0.04651457 -0.049507238
-0.09637851 -0.0468646 -0.04735497 0.016307348 0.046798844 0.075895086 -0.024673179 0.06289093
0.0018250203 0.016011866 0.009877913 -0.03885686 0.0037108567 -0.052724462 -0.017675433 0.0031717522
-0.05210162 -0.0847894 0.03333001 -0.042513266 -0.041679997 0.020292154 -0.010565306 0.0623822
-0.0146748135 -0.013571996 -0.035551302 0.003929658 -0.04038748 0.07929922 0.07008522 -0.04577151
0.07172013 -0.06343543 -0.04644286 -0.010605671 0.07536114 0.03582291 0.024404824 0.04017177
0.025125 -0.07892508 -0.10907656 0.0069496515 -0.05429441 0.0065903384 -0.097098686 0.045865085
0.03778932 0.01839514 0.03898438 -0.03626103 0.017817918 -0.039537992 -0.033595517 -0.05101566
-0.0065773027 0.07428075 0.045178268 -0.017292276 0.0911192 -0.09349179 -0.054147456 -0.051526103
0.029847683 0.08463151 -0.019530902 0.03484003 -0.09442603 0.08985276 -0.039030995 -0.016217219
-0.06555615 -0.030862711 0.026640471 0.059467144 0.03208917 -0.037669353 0.059886687 0.093289316
0.041769248 -0.06731664 -0.014244355 -0.06557744 0.03712615 0.04856693 0.062424798 -0.056624338
-0.023262158 -0.026823983 0.051053718 0.06509037 -0.08797086 0.01780237 -0.017217217 0.0011495509
0.04691382 0.058978874 -0.028761359 0.019480245 -0.063700594 0.00986923 0.003991321 -0.08248938
-0.028663462 -0.054501414 0.028686993 -0.031247055 -0.052247677 0.08134923 0.027901635 0.051174063
-0.021972392 0.032508224 0.015163268 -0.07819478 0.054151323 -0.0067443023 0.07605721 0.010571568
0.021199062 -0.04152622 -0.038876742 -0.07152569 -0.040536743 0.010618304 -0.011571353 0.03510297
-0.0019315401 0.009863563 0.037723944 0.004099998 0.0073344377 0.022326404 -0.09582906 -0.012271937
-0.04742532 -0.078345835 0.02528229 -0.045579046 -0.007852705 -0.032153398 -0.065228 -0.009895236
0.028408159 -0.08897133 -0.028207017 0.06766718 0.0022512383 -0.060770944 0.06504179 0.03255751
-0.046328742 -0.07890731 -0.07091397 -0.09520159 0.053107258 0.043561958 -0.024294594 0.085847855
0.039428074 -0.046799872 -0.07133926 0.081779376 -0.10312418 0.019561412 0.035223417 0.047428958
-0.01391905 -0.03995923 -0.007322812 -0.04228967 -0.023492971 -0.09055031 -0.048686597 -0.009494735
0.01177032 0.007952836 -0.045081533 0.056469426 0.036920283 -0.042636067 0.07196689 -0.042673852
0.009389094 -0.004908246 -0.055281177 0.0861534 0.05540488 -0.060776994 -0.06570307 0.0034631905

lstm.bias_ih_l1 f4 [512]
00000000: 3fed d0bc a0cf a23d 2749 b3bc e489 0fbc
00000010: 6d2d 58bd cad7 773b 577f d5bc 451c 253c
00000020: 5240 16bd fdd1 93bc 84cc 433d 8769 5b3d
00000030: f637 d4bc 734f 8ebd 8e06 0e3d 4ac4 b63c
00000040: c8b3 f0bc 0629 c53d 4998 92bd 65b7 5b3d
00000050: a08d 063d 9ad4 e63c f5ed 963d 0da6 5a3d
00000060: b0a9 3bbb 9fcb 41bd 9600 c03d 0fbb 2bbd
00000070: f267 453d 65f6 3abc 1bbd 1abd d53a 1a3d
00000080: 40d2 09bd 4143 2c3d 8d0c 813c 2766 c73d
00000090: dce3 743d 9b73 af3d ca41 bf3d eea5 7f3d
000000a0: acfe 503d 4a35 d0bb 5dab 843d 2448 25bd
000000b0: bcec 613d fd0d 3ebd 59d4 44bd 2421 7abd
000000c0: e127 d2bc 58b9 55bd 9071 ca3c 33fd a13d
000000d0: 3fb4 b33c 52fa 263d 4c20 cf3d baa0 983d
000000e0: f6bf 2dbd 4c5a b73d 48c4 69bc 173f 76bd
000000f0: 968f 123d e212 833c bbcb 9a3d f05e 983a
00000100: 8967 b93d 6caf 29bd 7f04 d33d 375c 56bd
00000110: da41 753c eb80 6dbd f3d0 bebc 53e9 80bb
00000120: 83e3 c13c 2b84 a93c 2f0c 18bd 205c 8fbd
00000130: c884 2a3d c94d d33c 25c1 dd3a 748f 29bd
00000140: 1d9f 79bd f6fd a53c 6248 b03d e3dd c43d
00000150: f1be b83d 3e81 163d ee06 7c3d 08cc ae3d
00000160: 9207 8f3b 1bfc 71bd ac7f 90bb 8562 65ba
00000170: f479 623d 2883 3abc 0d8b 9f3d ec81 0a3d
00000180: 2857 8f3d 2af8 7fbd be54 293b d5dc 9cbc
00000190: c529 b5bc 8bdd 963d f4aa e93c b3cd a13d
000001a0: e760 6dbd 17a2 37bc 29e1 9e3d c5be b73d
000001b0: bb7a 3c3c bce0 83bd e105 543d f48e aa3b
000001c0: 6ec7 a43d 861d cc3d d020 07bc ed87 963d
000001d0: d2eb 5abd c221 d33d 6f64 8a3d f8dc 373d
000001e0: 84b6 90bb bcfa 01bd 9e58 33bd 59cc 8b3d
000001f0: 5bd9 a03d 8211 f0bb bb02 283d 8fc0 9c3d
00000200: 9e52 be3d 4321 8b3b 1b11 993d bf29 893d
00000210: a136 5d3d 66f7 a23d 0882 b03b 401c fb3c
00000220: 7e04 093d ce95 35bc aead 813c ef7d 7e3d
00000230: 9530 17bc 4333 23bd e017 e73d b505 58bd
00000240: ac21 bb3d d4d0 cb3c f9b5 26bd b7c7 3ebd
00000250: aaae 87bd ab79 60bd f220 1fbd 6d63 96bd
00000260: df4b 443d 1a94 7e3d 7e64 a33c a863 be3d
00000270: db71 b73d 0a31 a8bc 07cb 933d b6b5 683d
00000280: 8c20 b03d d9c1 743b 07d6 213d 4020 98bc
00000290: 20b1 14bd dfe6 14bd b372 8ebc ea5d f5bc
000002a0: e554 c23c 75a2 a93c c66c 12bc d23c a43d
000002b0: d90f 87bd c0f5 393d 8655 01bd c65d 28bd
000002c0: c22b 813d dd52 9bbd 662e a43d 7cbc 80bc
000002d0: adc3 53b9 9937 62bc b21d 6c3c bda8 a53d
000002e0: c066 dcbc 5a61 063d 36b6 9cbd 7f24 1c3c
000002f0: 80de 92ba 8dfe 563b 950d 2ebd 4679 843d
00000300: f9a4 1abd 4e0b 89bd f950 36bd d943 d03d
00000310: 6d95 373c 8822 223d 755b 73bc a53d 4abd
00000320: 267a 063d 1adb 57bd b757 cebc 34e4 47bd
00000330: 95dc 4abc c22d f7bc cb02 953c 0036 683c
00000340: ab09 00bc d77b 9f3d 800c d73b 3801 c8bc
00000350: 867b b53d f4a8 7abd ed01 32bd e2aa f33a
00000360: a936 e7bc 6c3d 653c be58 77bc 21ba 2fbd
00000370: c386 a8bc 8326 d93c 0d81 0dbd 0e09 5c3d
00000380: a4e2 13bd b18f 323b 2f05 983c abf2 c1bb
00000390: 2cdf 73bd 26b9 edbc dea2 2bbc 7b95 3d3d
000003a0: 350f fa3b 3bc5 1dbd 481c b93d dfbd 4fbb
000003b0: 419a 67bd 4deb 863d a5dd 09bd 11b7 b03d
000003c0: 5cbf b13d 9c97 95bd 91dd 8d3c bbef 2ebc
000003d0: 0209 1a3d c08e b03d d148 7fbc f43f 91bc
000003e0: 7104 ef3c 9a68 3e3d 5c7c 0e3d cb35 053d
000003f0: 5459 333c 9d7f 2cbb fadb d43c 2dc4 a63d
-0.025503753 0.079497576 -0.021885468 -0.008760903 -0.052777696 0.003781783 -0.026061697 0.010077541
-0.036682434 -0.018044466 0.047802463 0.053567436 -0.02590559 -0.069487475 0.03467422 0.022310395
-0.029382601 0.09626965 -0.07157952 0.053641696 0.032849908 0.028177548 0.073696055 0.053381015
-0.0028635077 -0.04731333 0.09375112 -0.04192644 0.048194833 -0.011411284 -0.037778 0.037653763
-0.033647776 0.042056326 0.015753055 0.09736281 0.059787616 0.08566972 0.0933872 0.062414102
0.051024124 -0.006354009 0.064779975 -0.040352 0.055157408 -0.04640006 -0.048054073 -0.06106676
-0.025653781 -0.05217871 0.024712354 0.07909622 0.021936534 0.040766068 0.10113582 0.07452531
-0.042419396 0.0895277 -0.0142679885 -0.06011876 0.035781465 0.016000215 0.0755839 0.0011624973
0.09052951 -0.04142706 0.10303592 -0.052334037 0.0149693135 -0.057984274 -0.023292994 -0.0039340644
0.023668056 0.020692905 -0.037120994 -0.06999993 0.041630536 0.025793927 0.0016918523 -0.041396573
-0.060942758 0.0202627 0.08607556 0.09612634 0.09020794 0.03674435 0.061530046 0.085350096
0.004364916 -0.059078317 -0.004409751 -0.00087503373 0.055292085 -0.011383809 0.07790194 0.03381531
0.069990456 -0.062492527 0.0025837864 -0.01914827 -0.022114644 0.07366475 0.0285239 0.07900562
-0.05795374 -0.011208079 0.0775779 0.08971933 0.011503871 -0.06439349 0.05176342 0.0052050296
0.08045851 0.09966569 -0.008247569 0.073501445 -0.053447552 0.10309173 0.067574374 0.044888467
-0.004416289 -0.03173326 -0.043785684 0.068260856 0.07853957 -0.007326306 0.04101823 0.07653915
0.09293102 0.0042459085 0.07473966 0.066974156 0.054007176 0.07957344 0.0053865947 0.03065312
0.03345155 -0.0110830795 0.015829887 0.06213182 -0.009227891 -0.03984381 0.11283851 -0.052739818
0.09137282 0.02487985 -0.040700886 -0.04657718 -0.066251114 -0.05480353 -0.03884978 -0.07343183
0.04792392 0.06215296 0.01994538 0.09296352 0.08957263 -0.020531196 0.07216459 0.056813918
0.08599958 0.0037346988 0.039510753 -0.018570065 -0.036301732 -0.03635299 -0.017388677 -0.029952008
0.023722121 0.020707348 -0.008937066 0.08019413 -0.065948196 0.04540038 -0.031575702 -0.041105054
0.06307174 -0.07584164 0.08016662 -0.015714876 -0.00020195423 -0.013807201 0.014411377 0.08088825
-0.026904464 0.032807685 -0.076519415 0.009530186 -0.0011205226 0.0032805533 -0.04249342 0.064684436
-0.037754986 -0.06691609 -0.044510815 0.10169191 0.0112050595 0.039583713 -0.014853348 -0.049375195
0.032831334 -0.052699186 -0.02518831 -0.048801616 -0.012381692 -0.030173186 0.018189808 0.014173031
-0.007814805 0.077872925 0.0065627694 -0.024414644 0.08861451 -0.061196283 -0.043458868 0.0018590356
-0.028224306 0.013991695 -0.015096841 -0.042902116 -0.020572072 0.026507622 -0.0345469 0.053719573
-0.036104813 0.0027246291 0.01855716 -0.005918821 -0.059539005 -0.02901895 -0.010475842 0.046285134
0.0076312074 -0.03851817 0.09038597 -0.0031698865 -0.056543592 0.06587849 -0.033658642 0.08628667
0.08679077 -0.07304308 0.017317565 -0.010677273 0.037606247 0.086209774 -0.015581326 -0.01773069
0.029176923 0.046486475 0.034786567 0.032522004 0.01094659 -0.002632118 0.0259838 0.08142886
