lstm_ts.pth (torch, 205503 bytes, 9 tensors)

lstm.weight_ih_l0 f4 [256, 1]
00000000: 305f 4fbd 199a 623d 52c3 19bd 25ce 59bd
00000010: 9cd7 94bc d5b7 353c f6f1 e9bd 9d53 ddbd
00000020: 8bf5 c7bd a82c d2bc 34c8 cf3c 374b 183d
00000030: 4ead 95bc 41ef 4bbd 8939 063e 9886 d6bd
00000040: 741c 1d3d 8397 ae3d a816 0f3d 68e3 91bb
00000050: 2d9b f33d 4310 75bd d8ea c2bd 916c 033e
00000060: c635 8ebd 9a5f 903d 6268 d83d 226b 86bd
00000070: 39d0 a63d a230 cdbd 4aee 51bd 2096 d83d
00000080: 5413 d83d f674 99bd 0cfd 0f3c c8b8 e9bc
00000090: c012 89bc 42f7 e6bd c778 ab3c 532a 6fbd
000000a0: 8f02 773d b76a c03d db65 613d e2ce aebc
000000b0: 538b 0a3c 4fcf 713d 1889 dd3d 79ab d03d
000000c0: 2487 c63d 1467 56bd bf3a 8f3d 3d2c 03be
000000d0: 1a3e cbbd 2953 553d 8095 55bd e55c f13d
000000e0: e25d 80bd 657c d5bd e1d0 babd 4cec be3d
000000f0: 9dc4 c8bb 4c40 99bc dbca bfbd 4e79 bb3d
00000100: 8563 883d 711b f73d ab03 d4bd 999b 9bbd
00000110: 1d09 d9bc 33b1 ef3d 3d45 f63d 38d3 ffbd
00000120: cd1e 8b3c e638 a3bd 6cfd cfbd a039 6d3c
00000130: cee0 b2bd ede9 173d 0c64 40bd 53de 8a3d
00000140: eb69 933d be46 a23c 6a28 b03d 063a bd3d
00000150: c252 3ebb 6bc9 5b3a 6706 bd3d b0f7 813b
00000160: c876 bbbc 2d42 13bd f24b 2d3d e786 15bd
00000170: 7233 dfbc 8742 f43d 3c20 6bbd dd83 5fbc
00000180: 6250 d23d 9b49 c93d e3e6 be3c a3d4 dfbd
00000190: 8f8d 2c3d f4bb 96bd 70f7 a8bd e5a2 be3d
000001a0: 48ad ea3d 09fc 99bd 1179 733c 1959 47bb
000001b0: 0620 35bd 5b54 c7bd 87de 0fbd cd85 933d
000001c0: ab7f 263d 67a1 ef3d 8ad5 763c 8bb2 b93d
000001d0: cf07 57bd 76c4 9a3d ce7d 653d 7259 ae3c
000001e0: 6c9b eabd 6b7c 043e 9bf6 bf3d 8bea c43d
000001f0: f9bf 643d a2fb f8bd 984b f4bd 40e2 4e3d
00000200: 950b d1bc 6ee6 b43d 3146 ebbd 660b adbd
00000210: 7488 9c3d 30e9 0cbd a838 933d 24f3 e4bc
00000220: 4bc6 eb3c 009f c7bd b7a2 1fbc 5da6 163d
00000230: abde 21bc b27e e9bd 15ff 523d dea6 c6bd
00000240: 9e21 79bb aa55 dbbc 533a 3abd be87 21bd
00000250: 7279 cfbd 7fb1 ad3c 474e cbbd 3085 00be
00000260: 2cfd 2abd 2aaf 2b3d ecd0 8cbc 6c06 2abd
00000270: 5591 e1bc 2989 c83c f11d e2bd cb7d cd3d
00000280: 7d5a c6bd 1bdc 513d 35bc 33bd 6bf6 0abd
00000290: 4bec 9fbd adea 88bd 74bd 6c3d 79df c0bd
000002a0: d64d de3d cdca d23d c6cf 693d e7d0 cdbd
000002b0: 0837 94bd 02a7 d8bd 1be0 09bc c41f ac3d
000002c0: c9f9 d33d 53b1 8c3d 52f8 acbd 8c35 d6bd
000002d0: 8f35 dcba ae92 873d 36f1 bf3c a380 c43c
000002e0: 698f 42bd f181 363c 0253 1d3d 5cbb cf3c
000002f0: 78ad adbb bfe9 babd ba48 8e3b 5c84 e03d
00000300: 17f0 0c3c b5c7 babd 3a29 90bd d4b7 aa3b
00000310: cdf2 b63d b1fc e1bd 5ecf 90bd ea9a fabd
00000320: b13e d73d db0f b93d 65d7 723d 617d 753d
00000330: f700 34bd 7d70 5e3d a51f 6cbd dc07 b03d
00000340: fa66 9f3d c4fb 60bd 2839 15bd 9c7a 8c3d
00000350: bbf4 083c e670 d13d bd69 a5bd b4d0 63bd
00000360: 967b 5dbd a3a1 e0bc db18 8f3d b0aa 033d
00000370: c1b0 a1bd c9ff e93d e434 033d 7741 e7bd
00000380: 0678 cbbd a13c 58bd a14f 91bb b68f f43d
00000390: 8e06 ce3d fe69 183d 2e1f 3abc 7394 09bc
000003a0: f1e8 9ebd ef76 5c3d a2bd 753d 2439 6bbd
000003b0: e22c a5bd a90d 33bd c55e 9b3d d030 82bd
000003c0: fe64 aebd 2a86 cb3d 321a 3fbd d00a 2cbc
000003d0: 930e 2a3c 96e8 dc3c c3b1 b4bd 4c6d 783d
000003e0: aa01 e8bd 6c76 6fbd 92f7 af3d 39e3 34bd
000003f0: baea 7abc 9d27 96bc 6f54 8fbd 9027 08bd
-0.050627887 0.05532274 -0.037539788 -0.05317511 -0.018169217 0.011091192 -0.114231035 -0.108069636
-0.097636305 -0.02565606 0.025364019 0.037181105 -0.018271115 -0.049788717 0.13107885 -0.104748905
0.038357213 0.08524992 0.034933716 -0.0044521578 0.11894832 -0.05982996 -0.09517449 0.12834384
-0.0694385 0.070494846 0.105667844 -0.06563403 0.08145184 -0.100190416 -0.05125264 0.10575509
0.105505615 -0.07493012 0.008788358 -0.028530493 -0.016732574 -0.112776294 0.020931615 -0.058389973
0.060305174 0.09395354 0.055028778 -0.021338884 0.008456069 0.059035596 0.10817164 0.10188956
0.09693745 -0.052344397 0.06993627 -0.12809844 -0.09923954 0.05208126 -0.052144527 0.11785296
-0.06267907 -0.10424117 -0.09121872 0.09322414 -0.0061269538 -0.018707417 -0.093648635 0.091539964
0.06659607 0.12065781 -0.10352262 -0.07598037 -0.026493603 0.1170372 0.12024925 -0.12491459
0.01698246 -0.07969837 -0.10155758 0.014479071 -0.08734284 0.037088323 -0.046970412 0.06780686
0.071979366 0.019809123 0.08601458 0.09239583 -0.0029041027 0.00083842006 0.09229737 0.003966294
-0.022883788 -0.035951782 0.042308755 -0.036505606 -0.02724621 0.119267516 -0.057403788 -0.0136422785
0.10269238 0.09828492 0.023303455 -0.10929229 0.04212719 -0.07360068 -0.0825032 0.093084134
0.11458832 -0.07518775 0.014860407 -0.0030418097 -0.044219993 -0.097328864 -0.035124328 0.07203255
0.040649097 0.11700707 0.01506556 0.090672575 -0.05249768 0.07557003 0.05602818 0.021282885
-0.114554256 0.12938087 0.09373208 0.09615048 0.055847142 -0.1215737 -0.11928481 0.050508738
-0.025518218 0.088330135 -0.11487997 -0.0844944 0.07643214 -0.034402072 0.07188541 -0.02794797
0.028781077 -0.09747124 -0.009743384 0.03677975 -0.009879748 -0.11401118 0.051512796 -0.09699796
-0.0038014422 -0.026774246 -0.04546578 -0.039436094 -0.10130586 0.0212028 -0.099270396 -0.12550807
-0.04174535 0.041915096 -0.017189465 -0.04151003 -0.02753512 0.024479466 -0.11040867 0.10033759
-0.09685228 0.0512353 -0.04388066 -0.03392641 -0.07808741 -0.06685386 0.057797864 -0.09417624
0.1085469 0.102925874 0.057082914 -0.100496106 -0.07237059 -0.10578729 -0.008415247 0.08404496
0.10350377 0.068697594 -0.08445801 -0.10459432 -0.001680063 0.06619774 0.023430448 0.02398712
-0.047500048 0.011139379 0.03840924 0.025357895 -0.00530022 -0.09126615 0.004342166 0.109627455
0.008602164 -0.09120122 -0.07039113 0.0052099023 0.08933029 -0.11034525 -0.07070802 -0.12236579
0.10510004 0.09036227 0.059287447 0.059934024 -0.043946233 0.054306496 -0.057647366 0.08595249
0.07783313 -0.054927602 -0.03643146 0.068593234 0.00835913 0.10226612 -0.080768086 -0.055618957
-0.05407294 -0.027420824 0.06987163 0.032145202 -0.07895041 0.1142574 0.032032862 -0.11291783
-0.09935002 -0.052792195 -0.0044345413 0.11941473 0.10059844 0.037210457 -0.011359973 -0.008397209
-0.07759274 0.05382436 0.0599953 -0.05742754 -0.08065201 -0.0437142 0.07586435 -0.063569665
-0.085153565 0.09937699 -0.04665584 -0.010500625 0.010379451 0.026966374 -0.08822968 0.06065111
-0.113284424 -0.058462545 0.08592142 -0.04416201 -0.015314752 -0.018329436 -0.06998526 -0.033240855

lstm.weight_hh_l0 f4 [256, 64]
00000000: 133a fd3d 9aa9 eb3d 1cad 8ebd 5c16 babd
00000010: 454f 583d 0177 ca3d d89a bb3d 34d7 ea3d
00000020: 930d 033e c33d bbbd 37c5 a7bd c4c1 a6bd
00000030: c499 eb3d 746d 05bd 7481 dabd 6b2a 2cb9
00000040: 7a76 cc3d 2846 9a3d 3ab9 bc3d 29c0 97bd
00000050: 2d74 cf3c 0ffe e03d b581 aa3d 51b7 413d
00000060: e8eb 863d 50d7 75bd ec6b 873d 464b 003d
00000070: 079c e83c 1f09 eb3d aaca a0b9 533b dd3b
00000080: 001f 88bd 9938 d83c 9e40 aabd cea0 73bd
00000090: 3319 29bd 5c69 5f3d 2b07 d5bd 247e 28bd
000000a0: 1145 93bd b8db 913d 9c23 7c3d bad9 b8bd
000000b0: 05ac b2bd d363 cc3d e122 173d 8634 ec3d
000000c0: ac8b db3d 8786 a9bd 9239 86bd 0a63 deba
000000d0: 1756 0bbd 3471 cebd ffaa 5f3d 719a 2ebd
000000e0: 1018 bfbc 62cf fabc ed4e 6f3d 6d89 063d
000000f0: 6cb2 a43d 1dd8 cf3d 2c9d cdbd 23ff 63bd
00000100: 0a93 fabc 25c3 8b3d b7fa 25bc 62f8 c3bd
00000110: 944c 83bd 9245 d2bd 8b61 04bd 4a87 993d
00000120: f6d6 f43d 1274 993d 1dff d2bd d276 753c
00000130: 8c24 483d fb3d c33d 19f7 85bc 8825 8f3d
00000140: 9334 a53d 16d0 cdbd 6600 e9bd 3c27 96bd
00000150: ff5f 9f3d 82a7 b83c 20c7 a73d 0185 8dbd
00000160: f30a 35bd 7898 283d 6993 e13d 380b babd
00000170: c79e b33c 2e75 f43b 993e e9bd 5ef2 07bd
00000180: 8de6 c3bc e916 10bd 6ada a73d a8bc c5bd
00000190: 0a0c b0bd a311 92bd d5aa fb3c fe49 2e3d
000001a0: c1b4 37bd 23a7 b8bd 0b7e b2bd 3c93 56bd
000001b0: 50c8 3fbd 8a27 e83d 353e d13d 8e38 e83b
000001c0: 9479 6abd cdff ed3d e61f d43d 3211 e13d
000001d0: e233 bfbd 4746 f63d c1cd 963c 9e20 243d
000001e0: fe86 9c3d 0ae5 773c 8fbd 95bb 7729 3d3d
000001f0: b2ed f43b 3176 01bd 2738 83bd b961 9e3d
00000200: 9e45 edbd 3ccb cd3c 4752 e13d 91ce 2d39
00000210: 08c7 e4bd 5ecf 80bd 81f0 74bd 9616 f0bd
00000220: 6e6e 9fbd e56a f33d d7db 78bd 170b 9bbd
00000230: 3af1 c93d 983f 6c3d ce80 ba3d 70a7 7c3c
00000240: 732d aebd 46ee 9e3d 6ff8 dcbd 1f09 bb3d
00000250: ee51 dd3c 9557 183d 5d94 d63d a430 6f3d
00000260: 15b8 123d 8903 cabd 0d53 c63d acd6 3c3d
00000270: 9e28 a4bd d6d9 863d b8bb 3e3c 44ab 01bc
00000280: 1885 643d ad90 f5bd 4654 d93d f735 ce3a
00000290: af26 27bd 53f2 be3d bb7a 80bd 9e40 bcbd
000002a0: 13ed fa3c f759 b1bc e85b a73d 8e16 bcbc
000002b0: 1f69 373d c61c 99bd 02ba 313d a97e 203d
000002c0: d909 df3b f6db 81bd 0941 bbba edd5 22bd
000002d0: 623d 95bd a02f 57bd 57e9 b9bd 7461 613d
000002e0: 519a a2bc 4556 c9bd 2f95 4bbd f396 24bd
000002f0: cba3 d13c 11af e1bd 493e 963d 3c40 673d
00000300: e233 183c 0006 0a3d 4bff a93d 1a9e 04bd
00000310: 462e 443c e8d2 f9bd 2034 b33d 13c7 c33d
00000320: e6bb ff3d c95a 00be d953 7b3d c0ff d73d
00000330: f536 b9bd 0279 453d 5def c2bd 244c 56bd
00000340: 0745 d53c b07e cd3d 1bb4 82ba 7fd8 9bbc
00000350: 5372 c9bd 7704 2fbd 1778 a43d 953c a1bd
00000360: 6468 b93d e433 d53d 38b6 e43d 33ff f93d
00000370: 804a f83d 9d60 e43c 17f9 9f3d ed15 ddbd
00000380: 3716 de3d 8f39 083c 3336 fa3b 40bb 1abb
00000390: 5fbd d9bd 23ff c0bc 3e47 1ebd fd25 dbbd
000003a0: 9d97 8cbd f229 d7bc c780 9cbd 762d 9cbc
000003b0: af40 babd c98e 3abd 9ced b23d 5fd4 e1bd
000003c0: c00c bc3d 5cc1 be3d 5c0e a23d 3046 45bd
000003d0: 03b4 3a3d ed00 fcba 1b4a 2fbd 9428 e93c
000003e0: 91c1 4dbd 30bb bfbd 90f0 a93d 40a3 b7bd
000003f0: 8af6 b7bd 0d34 00be a346 ae3d 5400 9dbd
0.123645924 0.11506958 -0.06966612 -0.09086296 0.052809972 0.098859794 0.091603935 0.11466828
0.12798147 -0.091426395 -0.081919126 -0.081424266 0.11503938 -0.032575086 -0.106692225 -0.00016419
0.09983535 0.075329125 0.09215017 -0.074096985 0.025323952 0.10985958 0.08325521 0.047293965
0.06587964 -0.06001979 0.06612381 0.031321786 0.028394712 0.11476349 -0.00030668575 0.0067514568
-0.06646538 0.026394175 -0.08313106 -0.059479527 -0.041283797 0.054543838 -0.10401758 -0.041135922
-0.07190908 0.07121986 0.061557397 -0.09025903 -0.08724216 0.099799775 0.036898497 0.115334556
0.1072 -0.08277612 -0.065539494 -0.0016966772 -0.03401765 -0.100801855 0.054606434 -0.042627756
-0.023326904 -0.030616466 0.05842488 0.032845903 0.08041844 0.10148642 -0.10039744 -0.05566324
-0.030587692 0.0682433 -0.010130576 -0.0956886 -0.064110905 -0.10267176 -0.032319587 0.074965075
0.11955063 0.07492842 -0.10302565 0.014981942 0.04886298 0.09533306 -0.016353177 0.069895804
0.08066668 -0.10049455 -0.11377029 -0.07331702 0.07781982 0.022540811 0.08192277 -0.06910134
-0.044199895 0.04116103 0.110144444 -0.09084171 0.021926297 0.007460258 -0.11388893 -0.033190124
-0.023913646 -0.0351781 0.08195956 -0.09655124 -0.08596046 -0.0713227 0.030721107 0.042551033
-0.044850115 -0.09016254 -0.08715447 -0.052386507 -0.046821892 0.113356665 0.10216943 0.00708682
-0.057244852 0.11621056 0.10357647 0.10989608 -0.09336068 0.12025123 0.018408658 0.04007017
0.07642935 0.015130291 -0.0045697163 0.046182122 0.0074746246 -0.031606857 -0.064071946 0.07733483
-0.11585544 0.025121324 0.11002021 0.00016575518 -0.11170775 -0.06289552 -0.059799675 -0.11723058
-0.07784735 0.11885623 -0.06075653 -0.075704746 0.098604634 0.057677835 0.09106599 0.01542078
-0.085047625 0.07760291 -0.107895724 0.09132599 0.027016606 0.0371929 0.10477517 0.058395997
0.035820086 -0.098639555 0.096838094 0.046103165 -0.080155596 0.06584518 0.011641435 -0.007914368
0.05579099 -0.11990485 0.10611777 0.0015732636 -0.040808376 0.093235634 -0.06273409 -0.09192012
0.030630624 -0.021649344 0.081718266 -0.022959974 0.044777986 -0.07476191 0.04339028 0.039183293
0.006806594 -0.06340782 -0.001428635 -0.039754797 -0.072870985 -0.052535653 -0.09077709 0.05502458
-0.019848974 -0.09830908 -0.04970282 -0.04018302 0.025590798 -0.110197194 0.07336099 0.056457743
0.009289714 0.03369713 0.083006464 -0.03237734 0.011973923 -0.1219843 0.087501764 0.09559455
0.12487011 -0.12534632 0.06135926 0.10546827 -0.09043685 0.048211105 -0.09518311 -0.052318707
0.026033891 0.10033929 -0.0009971889 -0.019024132 -0.09836259 -0.042728867 0.08030718 -0.07872883
0.09053114 0.10410288 0.11167568 0.122068785 0.12123585 0.0278781 0.07811182 -0.10795198
0.10844081 0.008314504 0.0076358556 -0.0023610145 -0.10631823 -0.023559159 -0.03864216 -0.10700605
-0.068648554 -0.026265118 -0.0764175 -0.019064646 -0.09094369 -0.045546327 0.08736727 -0.11026835
0.09182119 0.09314224 0.07912895 -0.04816264 0.04558183 -0.001922635 -0.04279528 0.028461732
-0.050233427 -0.09361875 0.08297837 -0.08966684 -0.089825705 -0.12519856 0.08509567 -0.07666078

lstm.bias_ih_l0 f4 [256]
00000000: 78a6 1bbd 94c7 973d 4cb0 ddbd cf51 e4bd
00000010: 7679 763c 48b4 97bd 4818 b4bd 1566 20bc
00000020: 5c40 91bd 02d3 bcbc c793 3d3d 2ebf a23d
00000030: be98 dd3d 5f28 c03d 5cbf 423d 4e26 84bd
00000040: 6965 a8bd da12 85bc 6bd9 94bc 452d ddbd
00000050: d2d2 413d 048e 5a3c 3215 ee3d 5885 b43d
00000060: 76a2 7fbd 51b4 b83d 0e64 cebd ef1c 9ebd
00000070: bcba 153d 53c4 873b 901f bcbb cf06 a73d
00000080: d9c8 7dbd bb08 9d3c 52de a9bd f987 1d3d
00000090: eb9b c9bc 6d4c 033e b853 18bc 9d9e af3d
000000a0: 6371 8d3d a0db ad3d 7ae4 f4bd a391 3cbd
000000b0: 88bf f3bd 62b4 cfbd c97e 81bc 27e8 593d
000000c0: aa3d 543c 2904 7b3c 7a59 023d 9f2a c4bd
000000d0: 983e c7bd 7374 a13d fb46 b9bb 2585 e73d
000000e0: 7e62 f0bc 4a02 47bc 322b 6c3d a88b 003e
000000f0: c30e 13bd 3fd6 d13d ee1e d93d e60a 983d
00000100: 3dda f9bc b091 fcbc b091 f4bd 9dfc 96bd
00000110: c5fc 723d 87f6 a63c 1587 c23d 9ce6 92bc
00000120: f06d d0bb 5712 60bd 8165 f03d 7ddf a9bd
00000130: e687 73bc 3dc4 363d b0e9 7e3c 9740 cdbd
00000140: dc6d b9bd f3f8 8cbd 1a0b c83d 5258 903d
00000150: baca c9bd 1263 d2bc f1b9 533d 1909 9e3d
00000160: b74f 323d ec40 f63c 4ddb d93d 0252 27bd
00000170: 849e b7bd 5187 39bd 48f7 003e 606e 26bd
00000180: 5d31 40bd ab75 30bd 60cc 16bc ea13 e2bc
00000190: cc71 803d b5f1 a1bd 969d 8fbd 1947 803d
000001a0: a7fd e33d a061 e53d ecea d6bd 022b a9bc
000001b0: bcf4 bfba e69f 86bd 3c42 e8bd db3c d4bc
000001c0: c48a b73d 26d6 e23d 48ae b43d ff00 cb3d
000001d0: 0318 a53d 9e64 a1bd 17f8 d93c 7cce a5bd
000001e0: 7158 4dbd 7509 b73d dcb9 a53d 9912 5ebd
000001f0: ebde e93d 1d5b 8cbd 18a9 663d 91eb 39bc
00000200: deae a2bd b368 b9bc 622a eebc d0d9 c7bd
00000210: 5980 903d 65fe cfbd 7bf7 b0bd d69e f73c
00000220: a255 923b fe7e a63d 7537 1e3c 1590 c3bc
00000230: 70c3 5abd 6048 e3bd 2cd5 c43d 7fe9 683d
00000240: 9c8f 96bd d54b 933d e4eb a3bc 3452 883d
00000250: 741b 69bd cf47 953d 4459 a4bd 39cb 1c3d
00000260: d8e2 83bd 77eb ad3d ec94 163c 877e 9b3d
00000270: e2df 5a3c 546d c63d 3ef0 a6bd 0493 913c
00000280: 34e5 ef3d c6e1 debc 5359 143d 4785 67bd
00000290: ad5f b53d 0596 483d 2596 b73d c9bd 82bd
000002a0: 6436 f2bc e03d bb3d 686d bf3d 0b9f b8bd
000002b0: 1eed 903d df24 5d3d 0944 e73d ffe3 623c
000002c0: 8a00 febc 1a4a ecbd c455 c2bd 5bed 71bd
000002d0: 7119 eb3d 72e5 de3c 27df c8bd daee c7bb
000002e0: 7f3d 513d 3972 a2bd da4a 943d fe3b 04ba
000002f0: 45d6 e23d 97b0 d93d df10 b03d 15ff a13d
00000300: 77c0 9dbd 79f1 9ebd fc49 323d 452b 0cbd
00000310: 030b 13bc 1d6c d53d a153 af3d 99b5 a23d
00000320: c031 a73d 7425 083d 1e68 a0bd a305 02bd
00000330: 76ec a1bd 492c 393d 5736 88bd 3c51 f53d
00000340: 84b1 063d 4d17 3b3d 342f afbd c1a9 a8bc
00000350: 2baf 70bd 95c2 053d d435 f83d 80b8 c13d
00000360: 9d91 89bd b24c 193d ece9 efbd e6d4 0e3d
00000370: b97d 87bd 9536 abbd f26e c73d 9d20 00be
00000380: fa6f ce3c 2131 92bd cd31 243c 0148 8ebd
00000390: 9bb5 29bd 48b0 b93d 9b14 0d3d b88b e6bc
000003a0: e122 8cbc ebea dabc 9f71 693d 017a 5d3c
000003b0: d885 973d a67a 8a3d fb82 193d b982 cf3c
000003c0: f443 d4bd 3333 673d 9561 09bd 2240 d23c
000003d0: 66f6 aebd 6577 cdbd ee53 723b e24b ea3d
000003e0: 6844 46bd 199f 48bd b6a4 593d f69c 3abd
000003f0: 43dc dbbd 5272 1b3d e2af 54bd 0910 37bc
-0.038000554 0.074111134 -0.108246416 -0.11148416 0.015043607 -0.07407433 -0.08793694 -0.009789963
-0.07092354 -0.023049835 0.04628351 0.07946621 0.10820149 0.093827 0.047545776 -0.064526185
-0.082224675 -0.01624434 -0.01817008 -0.1079965 0.047320195 0.013339523 0.116251364 0.08814496
-0.062410794 0.090187676 -0.10077678 -0.077203624 0.036555037 0.0041432767 -0.005741067 0.081555955
-0.06195912 0.019169202 -0.08294357 0.03845975 -0.02461048 0.12822123 -0.009297304 0.08575175
0.069063924 0.08489156 -0.11957641 -0.046037327 -0.11901766 -0.10141827 -0.015807526 0.053199913
0.012954155 0.015320816 0.031823613 -0.09578442 -0.09728736 0.07883539 -0.0056542135 0.11304692
-0.02934384 -0.012146542 0.05765838 0.12553275 -0.03590275 0.10245942 0.106016025 0.07423954
-0.030499572 -0.030831188 -0.1194185 -0.07372401 0.05932309 0.020381225 0.09498421 -0.017932229
-0.006360762 -0.05470499 0.1173811 -0.0829458 -0.014863944 0.04462074 0.015558645 -0.10022085
-0.09054157 -0.06883421 0.097677425 0.07048096 -0.0985312 -0.025682006 0.051691 0.07716579
0.043533053 0.030060254 0.106375314 -0.040849693 -0.08965781 -0.045295063 0.1259433 -0.040632606
-0.046922076 -0.043080967 -0.009204 -0.027597386 0.06271705 -0.0790743 -0.07012479 0.06263561
0.11132365 0.11200261 -0.104940265 -0.02065039 -0.001464508 -0.06573467 -0.11340758 -0.025907924
0.08962014 0.11076002 0.08822304 0.09912299 0.080612205 -0.07880519 0.026607556 -0.080960244
-0.050133172 0.08937351 0.080920905 -0.054216955 0.11419471 -0.06853316 0.056313604 -0.011347667
-0.079435095 -0.022632932 -0.029072944 -0.09758341 0.070557304 -0.10155944 -0.08640953 0.030227106
0.0044657746 0.081296906 0.009656777 -0.023872415 -0.05340904 -0.11097789 0.09610972 0.056863304
-0.0735161 0.07192198 -0.020009942 0.06656304 -0.056910947 0.07289087 -0.080248386 0.038279746
-0.064397514 0.08492177 0.009190779 0.075924926 0.013359042 0.096888214 -0.08151291 0.017770298
0.11713639 -0.027207267 0.036218 -0.056523588 0.08856139 0.048971195 0.08964185 -0.06383855
-0.029566951 0.09142661 0.093470395 -0.0901471 0.070764765 0.05399024 0.112922736 0.013848304
-0.031006116 -0.11537571 -0.09489015 -0.05906425 0.11479462 0.027209017 -0.09808188 -0.0061014714
0.051084038 -0.079319425 0.07240839 -0.000504434 0.11076025 0.10629385 0.08596968 0.07909981
-0.077027254 -0.07760901 0.04352759 -0.034220953 -0.008974793 0.104210116 0.08560873 0.07944793
0.08163786 0.033238843 -0.07832359 -0.031743657 -0.079064295 0.04520825 -0.066509895 0.11978385
0.032884136 0.04567652 -0.08553925 -0.020588757 -0.058760803 0.03265627 0.12119642 0.09459019
-0.06717227 0.037426658 -0.11714539 0.034871005 -0.066157766 -0.0836002 0.09737958 -0.12512441
0.025199879 -0.07138277 0.010021639 -0.069473274 -0.041432958 0.09066826 0.03444348 -0.028142795
-0.017106475 -0.026723346 0.056993123 0.0135178575 0.073985755 0.067616746 0.03747843 0.025330888
-0.103645235 0.05644531 -0.033540327 0.025665347 -0.085430905 -0.10032538 0.0036976296 0.11440255
-0.04840508 -0.048979852 0.053135596 -0.045559846 -0.10735371 0.03795082 -0.051925547 -0.011173257

lstm.bias_hh_l0 f4 [256]
00000000: ccc7 783d 9478 8dbd 4ce5 a9bd 91f4 acbd
00000010: 9589 a2bd c8ad df3d 8413 653d 0cae 80bd
00000020: f680 00be 6ef8 a93d a291 883a 8e20 99bd
00000030: c292 f2bd bc51 1ebd 8a2b 45bb 0cb5 f23d
00000040: 97c5 0d3d dfb0 bd3d dcd1 b3bc 11f2 c03d
00000050: 4c49 e93d 22d0 593c 6614 acbd 275a 443d
00000060: 85b1 b63d d5c4 8a3d 7f5a 7fbc 3117 b2bc
00000070: b0e8 903d 7723 a13c 5deb da3d 3fe0 383d
00000080: aa6b c4bd 8714 ce3d 6035 603d 373a e53d
00000090: e88c 6bbd b21c 753c 1d1c b6bc 4d94 08bd
000000a0: c1cf e73d 2097 1c3d 1018 b5ba a280 8ebd
000000b0: 4ec8 86bd e983 7fbd cb78 bc3d c0c6 b9bd
000000c0: 44cc 213d 34da 053d 9e7c 6cbd 4dad 503d
000000d0: 19d1 cdbc ac17 4dbd 360b 8f3c cd8a c2bc
000000e0: bbb8 bbbc dcd4 953d 8735 d33d 46ae 1a3c
000000f0: e0ac bb3d f97a 623d 33d2 943c f0e7 a03d
00000100: bd70 edbc 62d4 82bd 7c18 dabd c34b cdbb
00000110: 96f8 373b 9169 8fbc 5901 b43c b38a c93c
00000120: f08b 973d 6a9f e03d acad 7c3d cbbc ddbd
00000130: 615e bcbd 7b47 41bd 4cc4 3f3d 428b 783d
00000140: e0a4 803d 81aa 8fbd ac15 e63d 1895 dcbd
00000150: b8a2 993d df86 a63c 9ac4 a7bd 1ff4 c9bd
00000160: d730 a4bd 7e70 17bd a303 8dbd 55b6 a2bd
00000170: c989 6abc e322 503d 8367 8abd 987c 103d
00000180: ecd7 953d 1dee f93d ce9e 543c 2a1c 923d
00000190: cfbd 3c3d 6391 15bd 442f e9bd a243 8d3d
000001a0: 07cd c83d 5901 863c c851 f73d 2090 ffbb
000001b0: de1b ee3d 3a3a d8bd 4dbe 97bb 0dc6 f0bc
000001c0: 41ad b6bd a9f1 eabc b419 c33d 6005 c83c
000001d0: 2b83 90bd c0d5 87bd 3c3c 8a3d ea6d 683c
000001e0: b7c1 eabd a968 cd3d f6fd bc3d ef36 6e3d
000001f0: c736 983d 3eb2 0dbd da00 aabd f123 06bc
00000200: 5727 62bd a772 adbd 9b28 a03d 420c de3d
00000210: 1b78 59bd 41f2 243c 209c 363d da57 0c3c
00000220: 7e7e d4bb d80e 903c ce03 6c3d 342e 183d
00000230: 58ff 79bd 48e4 08bc fa5d c03d ce7e bd3d
00000240: 761d 9c3d a50b 983d f85e 6abd 9236 dd3c
00000250: e808 bd3d 3b7e 86bd 29ec ff3c c426 d1bd
00000260: 5563 033d 6df0 203c 3ba8 64bd 02fe a83a
00000270: 68ad d73d c237 1b3c 5c19 a8bd 8044 c53d
00000280: 005b 8abd cb62 c43d 69cc c2bc ca62 92bb
00000290: 58e1 783d cee6 b0bc bdad 253d 3597 103c
000002a0: cc45 fcbc 248c 04bc ec62 1d3d 592b 57bd
000002b0: 3e6d efbd a0c5 c1bd 9738 f63d 86c8 d2bd
000002c0: a7e4 383d 5b56 4a3d 745e 793d 13f7 70bd
000002d0: 78a2 7ebd 7d93 10bc f695 14bc a41e 633d
000002e0: fb1b 353d 9b80 e6bd 46be aabd de6f e1bd
000002f0: 1f26 c63b 4bc5 95bd 5f94 f1bd f585 dc3d
00000300: 5bf4 cfbd 36a8 2e3c 616f 66bd 5cab e6bd
00000310: 3ec6 a03d 61ac d93d 66b7 4cbc 42f0 cc3b
00000320: 373e b63b 098f e13d 1566 23bc 31e9 4c3d
00000330: e052 813d 2d2c 01be 6db4 b9bc 8a0e a3bd
00000340: 73b3 44bc c9c3 383d 0db0 e13c 51bf 6abd
00000350: 4d2b b33d 78c5 e33c 42fd b53d fec6 a93d
00000360: ee4e acbc 5a96 4dbc f20a 103d 602c 01bd
00000370: 59eb 8fbd f556 95bc 866b b4bb 150b 86bd
00000380: 6341 893d 81e4 8d3d de77 e1bc 61fb f5bd
00000390: e066 873d ab42 1abd 3ee1 cfbd 1394 ce3c
000003a0: 172b ca3d d60a 04bd 87a1 f13d 1f65 b23a
000003b0: b21f af3d 89a4 adbd 223e c4bd 8990 a0bd
000003c0: 6819 8fbd 6a10 a13d 9d73 783d a6fe d3bc
000003d0: 685d 85bd 8db9 8e3d 5a41 263d 8b92 c53d
000003e0: 617c cf3d 8e62 d1bd 3aed f83d 6466 863d
000003f0: 33bd 9abb d849 053e daf1 da3d 445b 673d
0.060737416 -0.06907764 -0.08295688 -0.08445085 -0.07936398 0.10921818 0.055926815 -0.06283197
-0.12549195 0.08299337 0.0010419379 -0.074769124 -0.11844398 -0.038652167 -0.0030085766 0.11850938
0.034612264 0.09262251 -0.021950655 0.094211705 0.113909334 0.013294252 -0.08402328 0.04793754
0.08920578 0.06775824 -0.015585541 -0.021739574 0.070756316 0.019670231 0.10689423 0.045135733
-0.09590848 0.10062509 0.054738402 0.11192744 -0.057507426 0.014960455 -0.022230202 -0.033344556
0.11318923 0.03823006 -0.0013816375 -0.069581285 -0.06581174 -0.06238166 0.09202727 -0.09071112
0.039501444 0.032678798 -0.05773603 0.050946523 -0.02512412 -0.050071403 0.0174614 -0.023747826
-0.022915235 0.0731599 0.10312944 0.009440964 0.09163833 0.055293057 0.018166637 0.078567386
-0.028984422 -0.06388165 -0.10649201 -0.006265135 0.0028071753 -0.017506393 0.021973299 0.02460227
0.07399738 0.10967906 0.061689064 -0.10827025 -0.09197689 -0.04718731 0.046818063 0.06067968
0.062814474 -0.07014943 0.11234602 -0.10770625 0.07501739 0.020327983 -0.08191796 -0.098610155
-0.08017128 -0.036972515 -0.06885459 -0.07944933 -0.014315077 0.05081452 -0.067580245 0.03527507
0.073165745 0.1220362 0.012977315 0.07134278 0.046079453 -0.036515605 -0.11385968 0.068976656
0.09804731 0.016358064 0.120761454 -0.0077991635 0.11626409 -0.10557981 -0.00463084 -0.029391313
-0.08919764 -0.028679686 0.09526387 0.024416625 -0.07056268 -0.066325665 0.0674977 0.014186362
-0.114627294 0.10029728 0.09228127 0.058157858 0.07432323 -0.034593813 -0.08300944 -0.00818728
-0.0552133 -0.08469134 0.07820245 0.10842182 -0.053093057 0.010067523 0.044582486 0.008565867
-0.0064848056 0.017585203 0.057620816 0.037153438 -0.06103453 -0.008355208 0.093929246 0.09252702
0.07622807 0.07424096 -0.057219476 0.02700356 0.09230214 -0.06567045 0.03124054 -0.10212472
0.032077152 0.009822947 -0.0558245 0.0012893083 0.105311215 0.009473743 -0.08207962 0.09632206
-0.06755638 0.09589156 -0.023779111 -0.004467343 0.06076178 -0.021594431 0.040448893 0.008825113
-0.030795 -0.008090053 0.038424417 -0.052531574 -0.11690758 -0.09461522 0.120225124 -0.10292153
0.045139935 0.04939876 0.060881093 -0.05882938 -0.06216666 -0.008824226 -0.009068957 0.055449143
0.044216137 -0.11254998 -0.08337073 -0.11007665 0.006047025 -0.07313021 -0.11795878 0.10767738
-0.10154029 0.010660222 -0.056258563 -0.11263153 0.07850312 0.10628582 -0.0124948975 0.006254227
0.005561616 0.1101361 -0.009973069 0.050027076 0.06314635 -0.12614508 -0.022669042 -0.079617575
-0.012005675 0.04510859 0.027549768 -0.05731136 0.08748493 0.027804121 0.08886196 0.08289908
-0.02103373 -0.012548054 0.03516669 -0.03153646 -0.07027311 -0.01822994 -0.005505982 -0.065450825
0.06701925 0.06928349 -0.027522977 -0.12010837 0.06611419 -0.037661236 -0.101503834 0.025217092
0.098715 -0.032236896 0.11798387 0.0013610459 0.08550967 -0.08478648 -0.095821634 -0.07840068
-0.06987268 0.07864459 0.060657132 -0.025878262 -0.065119565 0.06968985 0.040589668 0.096470915
0.10131145 -0.10223876 0.121546224 0.06562498 -0.0047222613 0.1301645 0.10690661 0.056483522

lstm.weight_ih_l1 f4 [256, 64]
00000000: 8625 4d3d 544c bcbd 0f60 3f3c 27c4 ecbd
00000010: d9ad 93bd 6c1f e3bd 6c7d 3dbc e3cb cb3d
00000020: 250c f23d 77f0 97bd 63d0 7a3d 079e f1bd
00000030: fe54 b8bd 2b82 443c 88fe 20bd 00bb 64bc
00000040: 57ca 1abd 2a45 01be 430f 67bd 82e8 25bd
00000050: 7abc acbd e49d 533d 28dc e6bc 3cfb ce3d
00000060: 656c 99bc 6ebe 87bc 49d8 9d3d 4708 c3bc
00000070: d2cc c3bd 8034 e73c 664b d1bd f4dd b63d
00000080: 8a2f bdbd 545d cfbd 889a 433d ba78 b03d
00000090: 9069 383c 8e20 b5bd 025c e3bb 9677 113d
000000a0: f890 da3c 12f7 c03c 1d90 463d 7e4f ef3d
000000b0: f350 4bbd a5f8 a33d bb6f 37bd a05f c8bd
000000c0: dccd da3d 47c7 a2bd 3814 f3bd 11a2 02bd
000000d0: 4763 e0bd 961b 603d ac1b b3bd d74e e9bd
000000e0: 38b7 fdba 7550 923d 3aca c9bd 690f 0fbd
000000f0: e2ff 96bd b9e8 60bd 8c90 e93d 5617 ca3d
00000100: 3c93 d83d d4d8 603d ed7c 9a3d e13a adbd
00000110: 7efe a33d 2e94 60bd 17b1 d9bd 551c 003d
00000120: 96ec bbbc 83ff b8bb 8b99 23bd bd52 fc3d
00000130: c9f1 efbd 9db4 de3d f905 9e3d 2945 c03d
00000140: df48 a2bd 7353 a43b aa09 94bd 7fb9 5e3d
00000150: 99f5 a23d 497d e4bc d49b 323c 64d9 4b3d
00000160: 91e7 823d 25f5 57bd 5446 b73d fa9a c83d
00000170: 9f85 f5bd 3835 963c b82d e33d db1b 15bd
00000180: 59df 963c ec49 b0bc b23b 81bd bdeb a83d
00000190: 2e06 68bd 918b fcbc 376e d33d 0480 76bd
000001a0: ae1b 1c3d f0a2 603d 8728 bd3c 97a7 0b3c
000001b0: 6d90 d03d 8782 39bd 2836 9c3d 505f 86bd
000001c0: 3e1c 533d 3b69 e93d 54bb 25bd 4806 b7bd
000001d0: 4f26 9cbd 197b 833b a485 33bd e905 97bd
000001e0: d882 273d 28fc f53d 80cc 8cbd 4ecf 523d
000001f0: 4336 4cbd 02c6 b8bd aca0 aabd 939a af3d
00000200: 49db 14bb 372f 87bd b4d4 863d 44c1 b5bd
00000210: 684d 8dbd 3912 233c 7cd1 6bbd 2295 bd3d
00000220: d0c9 ee3d b451 72bc 3913 f53d 655a aa3d
00000230: 074e cf3c 5ec9 99bd 3732 6cbd cebd f93c
00000240: ca1c 02bd f913 db3d 7d48 303c 7683 1fbc
00000250: 5a40 38bd d3c2 cd3c ffa1 5db9 999d 033e
00000260: 73a2 86bd fdb9 f53d ffc5 e63d 3b0c 9cbd
00000270: 0a69 63bd fe3d eb3c c972 dfbd 3178 d13d
00000280: 899b 91bc 8ba7 c6bd 6e25 97bc e19a cbbd
00000290: 6566 5e3d a945 ac3d 1ad0 1bbd 9d0e e1bd
000002a0: 7506 b3bc 77f5 89ba 399b b93d dd90 c8bd
000002b0: 0485 bd3d 9d24 68bd 0584 c23d 6ed3 8d3d
000002c0: e4e3 5dbd e473 3cbd 9620 b4bd d4f9 24bb
000002d0: 3166 fabd 53cb 1fbb 0cc7 a7bd 7c88 f8bd
000002e0: c492 c03d 13ab abbd 6369 183d 3487 95bd
000002f0: d7af f23d 916a e8bd d6f0 e33d debe abbc
00000300: d7a6 dc3d 52fb dbbd 84d6 89bd bd45 e1bd
00000310: 9d28 963c e411 bbbd 10b3 b83d 45b0 4c3b
00000320: bbbb dabd 389b 9a3c c6b0 8d3d 2de8 ae3d
00000330: b6b7 cebd 7b47 b6bc 6fc5 ddbd 43ab 03bd
00000340: 866f 33bd c163 b7bc af72 f9bd 13aa 483d
00000350: eae4 303d a81e 24bc 07f0 e2bd 508c 2e3d
00000360: fd8b 87bd 16c4 813d 5286 bcbd 994c febd
00000370: ad11 0dbd 1124 263d 75ae e6bd aeaa cb3c
00000380: 39e0 e33d 2e51 8c3d 7d2a 7c3d 736f 983c
00000390: f042 753d de2a e73d 4215 dd3d d6aa ccbd
000003a0: 9ecd a53c 47d0 933d 0c1c dabc d4c4 cfbd
000003b0: 7aab a53c eb34 67bc 3ccc fd3d 81d1 dcbd
000003c0: 7d7a e5bc 6c96 c23c ba9d 533d ec71 f339
000003d0: 4717 8b3c 8105 573d 68b4 a23d 1ba5 9ebd
000003e0: cb9a 4fbd 3f9e 6d3d 4e63 963d 0514 52bd
000003f0: b0d0 013e 27ee 11bd 16d8 d23d 08c2 1cbd
0.050084613 -0.09194246 0.011680617 -0.115608506 -0.07210893 -0.110899776 -0.011565547 0.09950998
0.11818723 -0.07418912 0.06123389 -0.117977194 -0.09000586 0.011993925 -0.03930524 -0.0139606
-0.037790623 -0.1262404 -0.05641104 -0.04050494 -0.084343866 0.051664248 -0.02818115 0.10106513
-0.018728444 -0.016570296 0.07707269 -0.023807658 -0.09560551 0.028223276 -0.10219459 0.08929053
-0.09237583 -0.10125223 0.047754794 0.08616777 0.011255637 -0.088441 -0.0069384584 0.035514437
0.026680455 0.023555312 0.04847728 0.11685084 -0.049637746 0.080064096 -0.04478429 -0.09783864
0.10683796 -0.079481654 -0.11869091 -0.03189284 -0.10956436 0.054713808 -0.08745512 -0.11391991
-0.0019356972 0.07144252 -0.09853025 -0.034926806 -0.073730245 -0.05490944 0.11404523 0.09867732
0.10574958 0.054894283 0.07543359 -0.08458496 0.08007525 -0.054828815 -0.1062948 0.03127702
-0.022939961 -0.0056456937 -0.03994135 0.123204686 -0.11716039 0.10874293 0.07715983 0.09388191
-0.07924055 0.0050148307 -0.07228406 0.05437612 0.07957 -0.027891772 0.01090141 0.049767867
0.06391824 -0.052724022 0.08948961 0.097951844 -0.11988377 0.018335924 0.110927045 -0.03640352
0.018417047 -0.021519624 -0.06310214 0.082480885 -0.05664652 -0.03082827 0.10323756 -0.06018068
0.038112335 0.05484289 0.023090614 0.008523843 0.10183797 -0.045290496 0.07627517 -0.06561148
0.051540606 0.11397024 -0.040461853 -0.08936745 -0.07624494 0.004012477 -0.04382862 -0.07374174
0.040896267 0.120109856 -0.06874943 0.051467232 -0.049856436 -0.09022142 -0.08331427 0.085744046
-0.0022713712 -0.066008024 0.06583539 -0.08874753 -0.0689953 0.009953075 -0.057572827 0.092569605
0.116595864 -0.014789987 0.11966557 0.08318023 0.025305761 -0.07509111 -0.057665076 0.030486014
-0.031765737 0.10697169 0.01075947 -0.009735933 -0.044983245 0.025117313 -0.0002113655 0.12853087
-0.065739535 0.11998365 0.112682335 -0.0761952 -0.055520095 0.028716084 -0.109105654 0.10228003
-0.01777436 -0.09699925 -0.018450465 -0.0994165 0.05429687 0.08411724 -0.038040258 -0.109891154
-0.021853665 -0.0010525425 0.090628095 -0.097932555 0.09253886 -0.056675542 0.09497837 0.06925093
-0.05417241 -0.04600896 -0.08795278 -0.0025173323 -0.12226523 -0.0024382665 -0.08192262 -0.12135407
0.09402993 -0.08382239 0.03720988 -0.073011786 0.11849945 -0.11348451 0.1112992 -0.020965036
0.1077401 -0.10741295 -0.06730369 -0.1099963 0.018329913 -0.09134272 0.090185285 0.0031232995
-0.10680338 0.018872842 0.069184825 0.08540378 -0.10093634 -0.022250881 -0.10828673 -0.03214575
-0.04380753 -0.022386434 -0.12180077 0.04899032 0.04318706 -0.010017075 -0.11080938 0.04261428
-0.066184975 0.063362285 -0.09205307 -0.124169536 -0.034440685 0.04056174 -0.11263744 0.02486166
0.111267515 0.06851421 0.061563957 0.01860783 0.05987829 0.11287473 0.1079507 -0.09993522
0.020239647 0.0721746 -0.026624702 -0.10144964 0.020223368 -0.014111738 0.1239247 -0.10782147
-0.028012509 0.023753367 0.05166409 0.0004643345 0.016978873 0.052495483 0.07944566 -0.07746335
-0.05068473 0.058012243 0.073431596 -0.051288623 0.12677264 -0.03562751 0.10295121 -0.03827098

lstm.weight_hh_l1 f4 [256, 64]
00000000: ae8b 6fbd deb5 01be 1025 8a3d f120 c03c
00000010: 3c5c 3f3d 4bd2 cd3d c177 30bb 0f0b a3bc
00000020: 1c34 b63d 78b6 40bd 868d 87bc da7e 16bd
00000030: c34c 82bc f23a 78bd 7790 d3bd 07ad 373c
00000040: 3a96 b8bd 2619 bc3d bd65 8e3d f40e 8f3d
00000050: 3533 3abd 120a 673d e1df 8bbd 6ac1 6e3d
00000060: 715a e63d 8d8d 323d 11c2 c63d 8684 90bd
00000070: 2e11 343d 80ef 8e3d 1e24 e13d f7b8 1f3d
00000080: 4a7b cbbc 3925 f63d c898 bebd e5f5 d9bb
00000090: 7149 7a3c 8bbd 9b3c 57aa 6fbd c145 25bd
000000a0: 5388 cc3c d0a1 91bd 2fe7 e3bc 2863 31bd
000000b0: 3078 fbbd 0da0 da3d 7b0a 733d bc0d e3bc
000000c0: bb5f fbbb e56b 10bd 6cf4 343d a083 54bc
000000d0: 076c 8a3d ca68 87bd d9fd 8a3c 0f4f 95bc
000000e0: 7367 ee3b b9fb 84bd c6ba f2bd a2d3 ad3d
000000f0: 6031 d1bc 499a b93d 52b1 873d 160d aebd
00000100: 384a a1bc c6aa 2bbd 2ba5 ca3c 6872 bebd
00000110: 5e63 b03c e2d0 f7bd 7d67 f33d 1939 db3c
00000120: e5d4 82bd b707 8cbc 88be 80bc 847c 14bd
00000130: af50 993d 44c0 80bd a882 71bc 5cb2 3abd
00000140: dc62 debd 4dae 193c da1b 773d 274f 8e3d
00000150: bf93 6a3d 8901 f43d 87c9 b8bd a34c 643b
00000160: 5696 373d bae6 fa3d 6d54 aebd bb62 f6bd
00000170: c713 d03d 5704 e6bc 4414 42bd de60 813d
00000180: b8a4 cd3d 7ffc e83d d8ae 913c ca7f f83b
00000190: e0f6 62bd eb1a febd d50e bbbd 5274 603d
000001a0: 862d d2bd 4e20 883c 7032 3b3c 8e4a c63d
000001b0: 0d2c ef3d ee07 32bd 3720 c23d 40fc 4e3d
000001c0: 4597 bfbc 2b94 cf3d 7bf1 7fbd 0156 bb3d
000001d0: e2c5 0c3b 3541 bcbc 646e f0bd 0efd b53d
000001e0: e055 8dbc 0d0b 8cbd d0c0 21bd 15f1 143d
000001f0: 9028 b6bd c5e9 01be 9c56 f03d c687 fe3d
00000200: aa29 e03d 678a bebd 6bd5 d7bd 6a70 433d
00000210: 903f 91bd b3be 08bc 3b71 823d 30d5 00be
00000220: 4e96 60bd 97b9 483c 2d4c 4dbd ff10 963d
00000230: 6202 dabc fbda cebd e002 4a3d a663 c0bc
00000240: ee68 4f3d 6b66 d9b9 324f a1bd fc4b 013e
00000250: f6ea d6bc 195b 31bd ad88 83bd d58e f3bd
00000260: a962 1bbd 65ea c73d c431 eabd 1c97 93bd
00000270: 3351 84bd 2475 003e 7a7f a63d a683 cb3d
00000280: 010f e93d e24c 7d3d 9049 2f3d 3566 adbc
00000290: b692 ef3c 27af 7cbb c2bb 22bd a87a 08bd
000002a0: 72c8 a03d 5633 9ebd dc7f 0cbd fa9f 793d
000002b0: 978a 93bc 144d 003e 3ae9 2dbd 3ad2 913b
000002c0: 7a83 cf3d 8092 993d 5af8 283c 7da7 bbbd
000002d0: 9a9c 5a3b ccb6 423d 26f2 553d e029 8fbd
000002e0: 6466 743c 4853 813d 325e c43c c659 7b3c
000002f0: d309 f13c 1cf3 a5bd 135e d8bc cb87 903d
00000300: 34b8 56bd 35c7 723c 4493 f0bc 8ec2 d1bb
00000310: 6011 4bbc f277 e33d d144 f13d 1313 443c
00000320: c024 23bd 148e 87bd 20fe 8d3d 329f 7ebd
00000330: 68aa 5abc 3fb6 88bd 53d3 b5bd 49db df3d
00000340: 7b42 f13d 4832 6f3d fb54 4c3c af54 99bd
00000350: 63ca afbc 9b9b ecbd cf49 28bd 0906 f33d
00000360: 5de6 643d 1d39 533d c317 bd3d 90cb d13c
00000370: 6bf8 6abd 30a0 693d a1e9 7fbd 470b 46bd
00000380: ae45 613d b33a 61bd cbec 7dbd 33fd afbd
00000390: ff48 c6bc 5aac cd3d b735 623c e83a 8abd
000003a0: ed3a d9bd 1f29 ad3a e01e 33bd 2281 b53c
000003b0: 8ed5 d13d 4610 443d 8e8c bd3d 113f d7bd
000003c0: 9fff 913d e641 af3d a8b4 b73d ea20 db3d
000003d0: fbed fd3d ba90 06bd 9050 65bc 9d4b adbd
000003e0: bcb5 f23d 9dae e93d 6c2f ecbd 7831 873b
000003f0: 6b59 0ebd 0675 e3bd c523 e33d 4374 c7bd
-0.05848282 -0.12667033 0.0674535 0.023453208 0.04671882 0.10049876 -0.0026926848 -0.019902734
0.08896658 -0.047049016 -0.016546976 -0.03674207 -0.015905743 -0.06060309 -0.10330289 0.0112106865
-0.090130284 0.09184484 0.06952999 0.06985274 -0.04545899 0.05640609 -0.06829811 0.058289923
0.11247719 0.043592025 0.09704984 -0.07056527 0.043961696 0.06979275 0.10993217 0.038994756
-0.024839062 0.120188184 -0.093064845 -0.0066516274 0.015276299 0.01901128 -0.058512058 -0.040349726
0.024967348 -0.071109414 -0.027820198 -0.043307453 -0.12278783 0.106750585 0.059336167 -0.02771651
-0.007671324 -0.035259146 0.04417841 -0.012970835 0.06758886 -0.06611784 0.016966747 -0.018226175
0.0072755157 -0.06493325 -0.118520305 0.084876314 -0.02553624 0.09062631 0.06625618 -0.0849859
-0.01968871 -0.04191091 0.024736961 -0.09299165 0.021531757 -0.12100388 0.11884973 0.026760625
-0.06388263 -0.017093522 -0.015715852 -0.03625156 0.07486092 -0.06286672 -0.0147406235 -0.045580253
-0.108587 0.009379935 0.060329296 0.06948691 0.057269808 0.11914355 -0.09022813 0.0034835718
0.044821106 0.12251039 -0.08512197 -0.1203055 0.10160022 -0.028078241 -0.047382608 0.06317304
0.10041183 0.11376285 0.017783567 0.007583593 -0.05541122 -0.12407478 -0.09133688 0.05479843
-0.10262589 0.016616967 0.011425599 0.09682189 0.11678324 -0.043464594 0.09478801 0.050533533
-0.02338756 0.10135683 -0.062486153 0.09147263 0.0021480252 -0.022980312 -0.11739805 0.08886157
-0.017252862 -0.06838045 -0.03949052 0.036362726 -0.088944554 -0.12686832 0.117352694 0.124282405
0.10945447 -0.09303742 -0.10538753 0.04771463 -0.07092202 -0.0083462475 0.06369253 -0.12581325
-0.05483084 0.012251279 -0.050121475 0.073274605 -0.026612464 -0.10100361 0.049319148 -0.023485016
0.050637178 -0.00041465773 -0.078764334 0.12626642 -0.026235085 -0.043299768 -0.06422553 -0.118924774
-0.037935887 0.09761504 -0.11435273 -0.07206556 -0.064608 0.12544686 0.08129783 0.09937219
0.11379815 0.0618409 0.042794764 -0.0211669 0.029244762 -0.0038556547 -0.03972984 -0.0333201
0.07850732 -0.07724635 -0.034301624 0.06094358 -0.01801042 0.12529403 -0.04245875 0.00445011
0.10132499 0.07498646 0.010313118 -0.09162805 0.0033357502 0.04753761 0.052232884 -0.06990409
0.01491699 0.06314713 0.023970697 0.015341228 0.02942363 -0.0810301 -0.026412046 0.070571505
-0.052421764 0.0148180025 -0.029367097 -0.0064013666 -0.012394279 0.11106862 0.11780704 0.011967438
-0.03982997 -0.06618896 0.06933236 -0.06216354 -0.013346292 -0.06675386 -0.088781975 0.10930497
0.11780258 0.05839756 0.012471433 -0.07486855 -0.02145881 -0.11553117 -0.041086014 0.118663855
0.055883754 0.05156814 0.09233048 0.025609761 -0.057365816 0.057037532 -0.062478665 -0.0483506
0.054998092 -0.05498762 -0.0619934 -0.08593216 -0.02420473 0.10042639 0.013806752 -0.06749517
-0.10606942 0.0013211108 -0.043730617 0.022156302 0.102458104 0.047867082 0.09255324 -0.10510076
0.07128834 0.08557491 0.08970004 0.10699637 0.12398907 -0.032852866 -0.013996258 -0.08461688
0.11851069 0.11410258 -0.115324825 0.00412577 -0.034753244 -0.11106305 0.11090807 -0.09738972

lstm.bias_ih_l1 f4 [256]
00000000: e37f cdbd 4fba 90bd e780 adbd 731d e2bd
00000010: c36d 33bc ca3e 8b3c 0082 c2bc 046f dabd
00000020: d022 363d ab1e 353d 95e6 163d 0ad0 e63d
00000030: 3d82 823d 3434 0abd 609d b73d 8122 4abd
00000040: c7c8 bf3c 58a8 72bd c427 52bc e036 843d
00000050: 9998 013e 59a7 773c 9e9d 383d d6c3 abbd
00000060: d4a6 4ebd 86e9 a33d 0da4 5a3d b937 7dbd
00000070: ba51 ae3d d830 edbd 5f04 8c3d 8978 ecbb
00000080: 3525 463d 2d46 d6bd 8b51 843d e118 eb3c
00000090: bd6a 08bd 2ac5 b9bd b665 73bc a121 d3bd
000000a0: d6ee e03d c50e b73c b479 2fbd 8d63 bcbd
000000b0: 70ec e53d 031f 3b3d 2e8c f2bd 8122 9e3d
000000c0: 64c1 c5bd 39ab c4bd df2d 993a a58f fd3c
000000d0: 8925 153c 0edd af3c bf3b e63d 6489 94bd
000000e0: a185 e5bd e363 77bd eb91 c1bd 20cf f5bc
000000f0: dfc9 47bd f4a5 9cbd 7900 023d b93b d0bd
00000100: 82de c4bd 1e91 7d3d 5ae0 e5bd 7dd6 ac3c
00000110: 8957 e23d 168f a73d b5d9 023e b8ae 0fbd
00000120: 5149 623d 60ea 983d 1289 783d 5524 4fbc
00000130: 1742 e13d 9998 153d e612 aebc 7864 ebbc
00000140: fcb8 e7bb f782 ed3d 4082 d43c 14c2 28bc
00000150: f62b 283d 26c3 b03d 84b7 433c 24dd bc3d
00000160: 5583 c73b b6eb cdbd 68fd 7abc 3d96 82bd
00000170: d308 693d b52e e3bc 9afe e2bb 43cf c83d
00000180: 26e8 0ebd 1dff f6bd 3d9d 0cbc 034e ac3d
00000190: e345 9abd abb4 7e3d eb91 bbbd 4b3d 99bd
000001a0: 1a64 e6bd 796a 973d dcbe 8a3d 73a0 a93d
000001b0: 6ab5 edbd f39d 89bc 349c e9bd 7251 2ebd
000001c0: 5c45 a23d 20c1 48bd 73aa af3d 0a58 65bd
000001d0: 6ab3 fa3d 2170 0cbd e09a bfbd f0cc d33d
000001e0: 3bb1 003e a858 e5bd ecf2 e4bd 5008 f33d
000001f0: 40a6 9c3d 5161 7c3d ca97 d33c 939a 8bbc
00000200: c425 73bd cf01 bc3d 84d2 9f3d 4748 293d
00000210: 28a5 1f3d bd28 6b3d e939 78bd 03fa 4dbc
00000220: 8791 543d 505d febd 9744 093d 3b0e 9bbb
00000230: c9f8 b2bd 4a68 0abd d026 b73d d36c 8a3d
00000240: 6a3d 843d 1077 02bc 972f 8bbd 56ef 26bb
00000250: e417 0dbd 849e abbd 9c82 be3d b0ef 77bd
00000260: eb94 c9bd a135 c2bd 9f44 d9bd 564a 3b3c
00000270: 0406 9bbd b9c6 a63d 3a9e 1f3d 7bf6 efbd
00000280: ef77 58bc 9e7b 6f3d 9cff a5bd 9364 ff3c
00000290: 1552 b6bd e501 ca3d fe51 693d 10a2 0fbc
000002a0: ccd1 ff3d c59b 44bd bc92 fc3d 4aa2 9d3d
000002b0: e230 d33d 5532 673d a3d8 273d d587 7ebc
000002c0: b50a 43bc f38f 9abd eee9 ac3d 51e5 2c3d
000002d0: 80f8 e9bd f8da a13d 253c e63d c9b5 983d
000002e0: 4d52 ab3d f19d febd 1daf d83d d7e2 5e3c
000002f0: 022e f3bd 60c2 bebd 1f49 16bc fdee b9bd
00000300: 40e4 b2bd e32e 4eba a74f f8bd 73ec eebd
00000310: 3eb3 f13d b64c ba3d d833 5bbb 0c76 e43d
00000320: 8e8a 3e3d 3c61 2ebd 79bc 70bd cf2e 183d
00000330: c3e8 903d 607b e73d bf5b c6bc 7013 a0bd
00000340: 17a4 90bd 7dab cbbd 31d5 c9bd b58e d13c
00000350: b371 afbc 0e50 f23d f0f1 fe3c 8ea6 323d
00000360: 1e5e fd3c 5a23 e93d 58cf e6bd c13d e53c
00000370: 64ea 853a 9e84 b73d ec9c ec3d 58fd fd3b
00000380: 432c 1ebc 7b21 853d 94d8 ccbd 0153 45bc
00000390: fd68 863d 2cc6 b2bd 53dd 943d 6a7c 1f3c
000003a0: c468 833d 4ed9 e5bd 63b8 a1bc 1128 d53d
000003b0: 7452 f3bd 61e6 c8bd d32c 213c 785f 1cbc
000003c0: ebaf 243d 7432 1fbd efda 96bd b164 66bd
000003d0: e78e 933d 8806 e43d 9dd6 8cbc ef66 de3d
000003e0: c0e6 56bb abc3 d9bd 57e4 b4ba 55f9 e43d
000003f0: b82e ee3d 49c2 b6bd daf5 acbd 84cf 36bc
-0.10034158 -0.070667855 -0.08471852 -0.11040773 -0.010951462 0.016997714 -0.02374363 -0.10665706
0.044466794 0.0442187 0.036840994 0.11270149 0.06372497 -0.03374119 0.08965564 -0.04934931
0.023411168 -0.059242576 -0.012826864 0.06455779 0.12655868 0.015115582 0.04507219 -0.08386962
-0.05045207 0.080035254 0.053379107 -0.06182072 0.08511682 -0.11581582 0.06836771 -0.0072165173
0.048375327 -0.10462604 0.064608656 0.028698387 -0.03330492 -0.09070809 -0.014855793 -0.103091486
0.10983054 0.02234591 -0.042840675 -0.09198675 0.112267375 0.045683872 -0.118431434 0.07721425
-0.09656027 -0.09602971 0.0011686644 0.030952284 0.009103187 0.021467712 0.112418644 -0.07252768
-0.11207128 -0.060397994 -0.0945166 -0.030005991 -0.048776504 -0.076488405 0.031738732 -0.10167641
-0.096127525 0.061905973 -0.11224432 0.02109837 0.11051852 0.08181588 0.12778361 -0.035078734
0.0552457 0.074665785 0.060677595 -0.01264294 0.10998934 0.03652248 -0.021249246 -0.02873443
-0.0070716124 0.11597245 0.025941014 -0.010300178 0.04105755 0.086309716 0.011945609 0.09221867
0.006088654 -0.10054724 -0.015319206 -0.06376312 0.05689318 -0.027732233 -0.0069273235 0.09805157
-0.034889363 -0.12060378 -0.00858241 0.08413317 -0.07532861 0.062184017 -0.09158691 -0.07482394
-0.112495616 0.07393355 0.06774685 0.082825564 -0.116068676 -0.016798949 -0.114067465 -0.04255814
0.079233855 -0.049012303 0.085774325 -0.055992164 0.12241252 -0.034286622 -0.09355712 0.10341823
0.12567608 -0.111985505 -0.11179146 0.1186682 0.07648897 0.061616246 0.025829215 -0.01704148
-0.059362188 0.091800325 0.078038245 0.041328695 0.038975865 0.057411898 -0.060602102 -0.0125718145
0.0518966 -0.12420142 0.033512678 -0.004731921 -0.08738858 -0.033790864 0.0894295 0.06759038
0.06457026 -0.007962957 -0.067961864 -0.0025472245 -0.034446612 -0.08379844 0.093022555 -0.06053132
-0.09842857 -0.09482885 -0.106087916 0.011431297 -0.07569507 0.08143372 0.038969256 -0.11716934
-0.013212188 0.0584675 -0.08105394 0.031175887 -0.08902375 0.098636426 0.05696296 -0.008766666
0.124911875 -0.048000116 0.12332675 0.0769697 0.10312058 0.056444485 0.040978085 -0.015535315
-0.011904408 -0.075469874 0.08443056 0.04221088 -0.11424351 0.07903093 0.112419404 0.07456548
0.08365307 -0.12432469 0.10580275 0.0136038875 -0.1187401 -0.09314418 -0.009172707 -0.090787865
-0.087349415 -0.0007865263 -0.121245675 -0.11666193 0.11801766 0.09096663 -0.003344765 0.11155328
0.046518855 -0.0425732 -0.05877349 0.037154015 0.07075646 0.11302829 -0.02421367 -0.078162074
-0.07062548 -0.09944818 -0.09855116 0.025580743 -0.02141652 0.118316755 0.031121224 0.04361587
0.030928668 0.11383696 -0.112700164 0.027983548 0.0010216949 0.089608416 0.11553368 0.007751148
-0.0096541075 0.065005265 -0.100022465 -0.012043715 0.06562994 -0.087292045 0.07268777 0.0097342525
0.06416467 -0.11223088 -0.019741243 0.10408033 -0.11880961 -0.09809566 0.009837347 -0.009544246
0.04020683 -0.038866475 -0.07365977 -0.05624837 0.07204991 0.11134058 -0.01719218 0.10859477
-0.0032791346 -0.10633024 -0.0013800961 0.11180369 0.11630005 -0.08923776 -0.0844533 -0.011157874
