lstm_ts.pth (torch, 470015 bytes, 9 tensors)

encoder.weight_ih_l0 f4 [256, 1]
000000 0c 71 e7 bd a0 c0 0c bd dc 71 d2 bc 0a f5 cb bd
       -0.11300859 -0.03436339 -0.025689058 -0.09958847
000010 b7 ee a1 bb 63 be 82 3d 3c 8d e4 3d 6e 35 c2 bd
       -0.004941787 0.0638397 0.11159751 -0.09482847
000020 cf 17 a4 3d 57 b5 81 bd 70 4f c0 bd c9 d0 46 bd
       0.08012354 -0.06333416 -0.093901515 -0.048538957
000030 e0 27 a3 3d e1 87 a8 bd cc aa 70 bc 9c 85 30 3c
       0.0796659 -0.08229042 -0.014689159 0.010774042
000040 7e bd db bd 82 cb 93 3d 5f 6a 06 bd 96 48 6d 3d
       -0.10729502 0.072165504 -0.032816287 0.05793055
000050 09 ec ce bc 29 68 7e bc d5 d7 2b bd 21 02 c5 bd
       -0.025259035 -0.015527763 -0.04195388 -0.09619547
000060 2e 43 fc bd 8c df 32 bd 9a c4 ff 3d 52 d6 cc bd
       -0.12317501 -0.043670222 0.12488671 -0.10001816
000070 e2 69 14 3d 4b 64 bb 3c ac df 10 bc db e7 8c 3d
       0.03623379 0.022874972 -0.00884239 0.068801604
000080 c3 68 e3 3d 0a a3 81 bd 8d 80 a9 3d 03 96 df 3c
       0.11103966 -0.06329925 0.08276472 0.02729321
000090 5b 32 b9 3d 09 71 03 3e f8 be bc bd 5a 8e eb bd
       0.09042808 0.12836088 -0.09216112 -0.11501761
0000a0 95 f4 d8 bd 41 b6 13 3d 28 d9 f7 bc 34 53 06 3d
       -0.10593525 0.036062483 -0.030254915 0.032794192
0000b0 72 52 ef bd 7e e6 96 bd d0 68 81 3d 77 50 b1 bd
       -0.11685647 -0.07368182 0.063188195 -0.086579256
0000c0 1d 5b 81 bd ce 9c 7a bd 4f 07 b1 bd a5 f6 2f bd
       -0.063162066 -0.061184697 -0.08643972 -0.042959828
0000d0 07 cb 95 3d 99 74 66 3d 5f aa 86 3d 5b 1a 78 3d
       0.07314115 0.05626354 0.065754645 0.06057201
0000e0 ca 27 90 bd 00 c6 82 bd 6e 0d bf bd 40 c9 b8 3d
       -0.07038839 -0.06385422 -0.093287334 0.090227604
0000f0 da 80 bc bd 62 35 82 bd 0e 01 c0 3d a6 7c d7 3c
       -0.09204264 -0.06357838 0.09375201 0.026304554
000100 0d 70 07 3d b3 2d 0a 3c f9 f5 cb 3d 0f 50 d1 3d
       0.033065844 0.008433747 0.09959025 0.10220348
000110 b6 54 89 3d c9 d1 a1 bd 66 f2 37 bd 6a cc 9f 3d
       0.067056105 -0.079013415 -0.044908904 0.07802661
000120 fb 1f 08 3e 74 fe da bd 6c 79 f4 3d f4 6b bd 3d
       0.1329345 -0.10693064 0.11937222 0.09249106
000130 68 fb 9d 3d aa 5e 31 bd 43 f7 de bd 09 a0 17 bd
       0.077139676 -0.04330317 -0.10887005 -0.037017856
000140 15 62 b3 bd b7 78 01 3e aa d6 9d 3c 20 2d dd 3d
       -0.08758942 0.12643705 0.019267399 0.107996225
000150 9c 01 87 bd d0 ea b7 bd 02 08 84 3d 7b 20 b1 3d
       -0.06592104 -0.08980334 0.0644684 0.08648773
000160 8c 06 97 bc 6d 0f d9 3c 07 15 f9 3d ab 37 ea bd
       -0.018435739 0.026496613 0.12162214 -0.11436399
000170 2c de c1 3d c0 5b 77 3d 71 79 6b 3d 44 94 ef 3d
       0.09466204 0.060390234 0.057488862 0.11698201
000180 80 9c 9b 3d 80 23 cb bd 73 84 23 3d 2f ec af 3d
       0.075982094 -0.099188805 0.039921235 0.0858997
000190 78 51 80 bd 1b 20 8c 3d cf 91 e7 bd 7a 7c 95 bb
       -0.06265539 0.06842061 -0.11307108 -0.004561958
0001a0 6c 68 d9 bd b8 5c e2 3d 71 4b 9a 3c 6e cd c0 bd
       -0.1061562 0.11052841 0.018834801 -0.094141826
0001b0 84 68 8c bd 97 e5 18 bd 0f b1 a1 bd 93 fb ea 3d
       -0.06855872 -0.03732833 -0.07895099 0.11473765
0001c0 69 84 4d 3d ae 34 86 3d b1 69 f7 3d a1 48 a4 3d
       0.050175104 0.065530166 0.12080706 0.08021665
0001d0 71 27 51 3d a7 d7 9c bd 1e 8e 67 3d 7c 14 e9 3d
       0.051063005 -0.0765832 0.056532018 0.1138086
0001e0 ec 28 ba bd a7 03 09 3e 40 e5 d5 3d 63 86 b9 3d
       -0.090898365 0.133803 0.104441166 0.09058835
0001f0 f9 d8 39 bd 40 fb f1 bb 9d 15 ce bd 04 e5 64 bc
       -0.045372937 -0.0073846877 -0.10062716 -0.013970617
000200 7f b3 0f be 43 03 b7 3d 81 0c d2 3d d6 9a 76 bd
       -0.14033316 0.08936169 0.10256291 -0.060206257
000210 a9 7c d4 bd 6d 5d f0 3c 75 7a 0d 3e 89 3a 0f be
       -0.103753395 0.029341424 0.13816245 -0.13987173
000220 6f 0d 10 3e 94 d7 f8 3d 2e 4d b7 3d d7 6c e1 3d
       0.14067625 0.12150493 0.08950268 0.11007088
000230 68 57 e9 bd 28 23 14 be e7 39 be bd 5c c7 a6 3b
       -0.113936245 -0.14466536 -0.09288388 0.0050896835
000240 6c d4 f9 bc b0 40 06 3e 00 fa 72 3d b2 d6 e8 3d
       -0.030496798 0.13110614 0.05932045 0.11369075
000250 d4 0c 87 3d d2 d6 9a bd 4b dd 1d 3d 99 5e 99 3d
       0.06594244 -0.07560505 0.03854112 0.07488746
000260 fd ad 12 bd 03 de a7 3d 83 1a 96 3c 2b b9 d2 3c
       -0.03581046 0.08196642 0.018323189 0.02572306
000270 5c ab 96 3c d1 40 cb bc 02 e8 b4 bd a7 fc c5 3d
       0.018392257 -0.02481118 -0.088333145 0.0966733
000280 8e d5 f5 3d 54 c3 cf bd f6 f8 c0 3d b1 5c c1 3c
       0.12003623 -0.10144678 0.094224855 0.023603769
000290 50 61 a7 3d 2a cc b6 3d 6e 1a 46 3d c3 5e c7 3c
       0.08172858 0.0892566 0.04836505 0.024337178
0002a0 af 90 02 3e 38 19 d6 bd 2e 94 21 bd 60 4f 0b 3e
       0.12750505 -0.10454029 -0.039447956 0.13604498
0002b0 e0 e7 f8 bd 05 c6 bf bd 7c 77 ee bd b1 e4 f4 3d
       -0.12153602 -0.09363941 -0.116438836 0.11957682
0002c0 ed d0 81 bd aa ab 88 3d 7b 65 b8 3d 5e 9f 16 be
       -0.063386776 0.06673367 0.09003731 -0.14709231
0002d0 82 97 b9 bb 27 ef f8 bd 58 80 43 3d fb dc ff 3d
       -0.005663813 -0.1215499 0.04772982 0.124933206
0002e0 9f 5f 36 3d 89 cb ba 3d e4 40 0b 3e df b6 78 3d
       0.044524785 0.091208525 0.13598973 0.060721274
0002f0 4a 34 f5 bc 8a 17 a1 3d d8 96 29 3d 68 55 c7 3d
       -0.02993216 0.07865818 0.04140362 0.09733087
000300 a9 42 be 3d 7b f2 ad bc 62 36 e6 3c 89 3f f1 3d
       0.09290058 -0.021233788 0.028102104 0.117796965
000310 78 61 32 bd b8 78 07 3e 78 a8 cf bc b0 a1 76 3c
       -0.043549985 0.13229644 -0.025348887 0.015053198
000320 14 7b 99 3d 25 99 ee bc 85 80 6b bd bb 93 c0 3d
       0.074941784 -0.02912576 -0.057495613 0.09403177
000330 4c a2 26 3c 23 c3 d4 3d c5 dd 0a be b1 9c 86 3d
       0.0101705305 0.10388782 -0.13561161 0.06572855
000340 f5 bc 1d 3d 0b f0 52 bc d0 3f 0c 3e 00 29 a1 bc
       0.03851028 -0.0128746135 0.13696218 -0.01967287
000350 3f 23 8c 3d ac 67 ef 3d 6f d8 b9 bd 3a 2a 36 3d
       0.0684266 0.11689696 -0.090744846 0.044473864
000360 d4 e8 4d bc 9d 21 4c bb 1a 38 a2 3d b9 f9 2e bd
       -0.012567718 -0.0031147965 0.07920857 -0.042718623
000370 65 07 94 bc cb d5 97 3d 90 86 e4 bb d3 b1 34 3d
       -0.018069932 0.07413825 -0.006974049 0.0441149
000380 ab a0 b3 bd fa 1a a3 3d d0 a5 04 3e 3b 49 bf bd
       -0.08770879 0.0796413 0.12953877 -0.093401395
000390 fe e8 5d 3d c1 15 36 bd 48 c6 56 bd 43 42 98 3d
       0.054177277 -0.04445434 -0.05243519 0.074345134
0003a0 3d 72 a8 3d c4 3f 86 3b c8 2e 9d bd 76 bf a2 bd
       0.08224914 0.004096957 -0.076749384 -0.079466745
0003b0 d6 f0 fe bd f7 3c bc 3c a5 9e e4 b9 85 26 bc 3d
       -0.124482796 0.022978289 -0.00043605748 0.091870345
0003c0 8e 09 12 3e 51 d9 c8 bd c6 a6 4f bd 14 ee bf 3d
       0.14261457 -0.09807075 -0.050696157 0.09371582
0003d0 5f 58 f4 3b b8 7f 76 bd f3 7c b9 bd 63 a5 b3 bb
       0.0074568237 -0.060180396 -0.09057035 -0.005482362
0003e0 8e 53 74 bd ae be 4b bd 67 fa 0f 3e b1 d3 aa 3d
       -0.059649996 -0.049742393 0.14060365 0.08341158
0003f0 33 f1 e3 bc 22 cf 77 bc 91 4b 15 3c 58 2d af 3d
       -0.027824974 -0.015125068 0.009112255 0.085535705

encoder.weight_hh_l0 f4 [256, 64]
000000 e7 27 11 bc e7 03 f0 3d a4 a2 a8 bc aa 57 ac 3d
       -0.008859611 0.11719494 -0.020585366 0.08415158
000010 61 f2 ff 3c 61 7b 15 bd d9 5b 1c 3d 73 f7 a7 3b
       0.031243505 -0.036494616 0.03817353 0.005125934
000020 c2 19 cf bd 82 3f 38 bd d9 b3 cf bd eb 6d fd bd
       -0.10112335 -0.04498244 -0.10141725 -0.12374481
000030 8e 21 cb 3d c1 db fb 3c bf 85 ab 3d fd 55 ab bc
       0.099185094 0.030744435 0.083751194 -0.020915026
000040 fc aa db 39 8a d5 34 3d c0 57 dd bc d5 87 6f 3d
       0.00041898328 0.04414896 -0.027019382 0.05847915
000050 f6 65 69 3d 65 3f 2b 3c 56 cd b4 3d 7e 35 a7 bd
       0.056982003 0.010452126 0.08828227 -0.081645
000060 67 fb 84 bc d7 03 38 3a e6 5d 13 3d 6d 10 e3 bd
       -0.01623316 0.0007019615 0.03597822 -0.11087117
000070 73 af 71 3d 2b 33 9a bc 77 41 98 bd 36 d0 95 bd
       0.059005212 -0.018823227 -0.074343614 -0.07315104
000080 8c 62 24 3d c4 bf 8b bc 41 41 49 3c f7 f1 88 bd
       0.040133044 -0.017059214 0.012283624 -0.06686776
000090 35 f6 87 3d ff 83 e9 bc 0f 37 7e bd b7 8c d8 bd
       0.06638757 -0.028505323 -0.062064227 -0.10573714
0000a0 c3 b3 2d bd 0d 75 bb 3d 0a 88 19 3d 20 84 b0 bc
       -0.042407762 0.09153185 0.037483253 -0.021547377
0000b0 41 5a f2 3c 3b c8 43 bc 60 44 14 3c 0d 3b 00 3e
       0.029584052 -0.011949594 0.009049505 0.12522526
0000c0 79 ab 7f bc 02 d1 b0 3d 45 cb ae 3d 1a 23 af 3d
       -0.015604847 0.08633615 0.08534864 0.08551617
0000d0 32 54 f6 bd 07 12 bf 3d 1c 4d 85 bd c1 4d db 3d
       -0.12027778 0.0932961 -0.06508848 0.1070819
0000e0 f1 d5 80 3d cd 77 c0 bd 29 33 4a 3d ae 8b 17 3d
       0.06290806 -0.0939785 0.049365196 0.036998443
0000f0 29 d4 e4 3d 0d 3c f3 3d ef 78 eb 3d 77 53 a6 bc
       0.11173279 0.11876688 0.114976756 -0.020303471
000100 4b 7e 8e bd 89 a9 c7 bc 4a 10 b6 bd 86 bb a2 3d
       -0.06957682 -0.024372833 -0.08889826 0.079459235
000110 41 2c c6 bd a0 05 0a 3e 1a 85 ea 3d 50 4b ab bd
       -0.096764095 0.13478708 0.11451168 -0.08363974
000120 6e a8 a0 3d c1 0c 75 bd c6 6e 45 3d b7 7b be 3d
       0.078446254 -0.059826616 0.048201345 0.093009405
000130 6c 71 d5 3d 98 dd 91 bd be 3f f0 3d 11 af d9 3d
       0.10422024 -0.07122344 0.11730908 0.106290944
000140 e3 4d 0a 3d dc 11 62 3c cc 2f 0c 3e 41 e6 31 3d
       0.033765685 0.013798203 0.13690108 0.043432478
000150 77 9b f9 3c 21 09 3a 3d 52 a2 a0 bd a7 13 18 bd
       0.03046964 0.045418862 -0.0784346 -0.037128117
000160 24 e2 c3 bd d1 0e 3d 3d cd f0 89 3d 99 17 03 be
       -0.09564617 0.04615671 0.06735382 -0.1280197
000170 f9 7e 65 3d 1f f7 9c 3b 8a aa ef 3c 7e e0 03 3e
       0.056029294 0.0047902013 0.029256124 0.12878606
000180 e5 40 f7 3c c4 29 3b 3d dc 80 c8 bd 49 b0 e3 3b
       0.030182311 0.045694128 -0.09790203 0.006948505
000190 b5 08 3a bd b9 09 c3 bd 51 26 f9 3d 85 76 8a bc
       -0.04541846 -0.09523339 0.121655114 -0.016902218
0001a0 fa 21 85 3b 55 aa c0 3d e6 af 57 bd 06 5d 7f bd
       0.004062888 0.09407488 -0.052657984 -0.062344573
0001b0 cc 06 5d 3d 83 6c 99 bd 80 14 8c bc 7c 44 4d 3d
       0.05396156 -0.074914 -0.017099619 0.05011414
0001c0 ba 0c b2 ba 42 a5 4f 3d 8d be df bd a2 47 17 3d
       -0.0013584115 0.05069471 -0.109250166 0.03693355
0001d0 ad 9f 3d bc d5 31 20 3c 73 ed 03 3e 00 c6 67 3a
       -0.011573714 0.009777506 0.12883548 0.0008841455
0001e0 94 4d 13 bd 26 e0 8b 3c 28 59 11 bc 8e 6a b7 bd
       -0.035962656 0.017074656 -0.008871354 -0.089558706
0001f0 9c 9f c2 bd a2 ac c4 bd 81 22 7a bd ed 32 05 be
       -0.09503099 -0.096032396 -0.06106806 -0.13007708
000200 e4 43 8d bd 51 f6 92 3d 97 da 83 bc c4 f8 39 bc
       -0.06897715 0.071758874 -0.016095443 -0.011350814
000210 ed c5 22 3d 32 08 0d 3e 9a b0 f9 bc 30 42 17 3d
       0.039739538 0.13772658 -0.030479718 0.036928356
000220 f6 d4 11 bd a7 d6 bb 3d ef 06 bf 3d 80 35 45 bc
       -0.035603486 0.09171801 0.09327494 -0.012036681
000230 47 c6 99 bd ee 66 b0 3b 96 43 0b be 21 d4 c0 3b
       -0.075085215 0.005383364 -0.136 0.0058846627
000240 2b 3d 12 be d0 7f d9 3d 87 a2 86 3d e3 d8 dd 3a
       -0.14281146 0.106200814 0.065739684 0.0016925599
000250 e5 a7 fb 3d ee 9b ae bd d4 53 db b9 a4 01 bc bd
       0.12287883 -0.08525835 -0.00041833392 -0.091800004
000260 f3 a3 d9 3c 05 96 b0 bd f6 60 dd 3d e6 7e a7 3c
       0.026567435 -0.08622364 0.108095095 0.020446252
000270 4c 58 60 3c 52 8f 63 3a 86 ea a4 bd 12 e0 85 bd
       0.013692927 0.0008680719 -0.08052544 -0.06536879
000280 1c 9d 6c bb cf dd a5 3c bf ec 08 bd 42 c5 a7 bc
       -0.0036104387 0.020247368 -0.033428904 -0.020479802
000290 e1 f2 b2 bd b1 5f b6 3d 9f 1f 8c 3c 35 58 04 3d
       -0.08737732 0.089049704 0.017104922 0.032310683
0002a0 41 2d f9 3d d6 d7 8e 3d 90 9e f4 bd 6c 10 ca 3d
       0.121668346 0.06974761 -0.11944306 0.098664135
0002b0 52 a2 26 3d 65 bb 76 bd 32 83 c9 bd 69 c9 d7 3d
       0.040682144 -0.060237307 -0.09839477 0.10536463
0002c0 f8 08 dc bd 83 75 c9 bd 0d 18 c9 3c 7a 9a a6 bd
       -0.10743898 -0.09836867 0.024547601 -0.08134933
0002d0 6b d5 98 3d 01 b8 36 3d 0b f5 28 3d e0 40 3b bd
       0.07462581 0.044609074 0.041249316 -0.045716166
0002e0 7c 8a a1 3d e9 53 ce bd 80 4a 93 3d 66 dd 45 3c
       0.07887742 -0.10074598 0.07191944 0.012076711
0002f0 26 17 37 bd 19 81 82 3d 5f 96 ad bd f1 3b 91 3d
       -0.04469981 0.0637228 -0.08475947 0.07091511
000300 a4 c0 c3 bc 74 ca cb 3d 99 d1 fa bc 2a ce 06 be
       -0.02389557 0.09950724 -0.030617522 -0.13164583
000310 94 67 38 bc 1e ae e9 3d f6 d0 8b bd 99 54 f4 bd
       -0.011255164 0.11410163 -0.068269655 -0.11930198
000320 ba bc 12 3d e6 06 88 bd 76 76 55 bd cf 52 ca bc
       0.035824515 -0.06641941 -0.052114926 -0.02469769
000330 d6 ef 0d be 42 a5 8d 3d c6 df cb bb 21 59 0b bd
       -0.13861021 0.06916286 -0.006221744 -0.034020547
000340 3a 5d 98 3d f9 8e 56 3d f2 35 a4 3d ae a3 a9 3d
       0.074396566 0.052382443 0.08018102 0.082831725
000350 bc 31 67 bd 2e 43 77 bd f6 10 92 3c 9f 19 86 bd
       -0.056443915 -0.060366802 0.017830353 -0.065478556
000360 13 fe 5f 3d 84 a2 71 bd 15 3c 47 3d e0 b3 d7 bd
       0.054685663 -0.058992878 0.048641283 -0.10532355
000370 c2 6a 00 3e 5c c2 83 bc 33 c2 ab bd 3e 09 e7 3d
       0.12540725 -0.016083889 -0.0838665 0.1128106
000380 a5 85 7e 3d e1 32 a3 bd b4 16 ac 3d 4c 42 bc bb
       0.062139172 -0.07968689 0.08402768 -0.005745208
000390 9f d1 4b bd 4f 7b e8 3d 18 15 b1 bd 7a a3 b4 3d
       -0.049760457 0.11351644 -0.086466014 0.08820243
0003a0 36 6d 07 3e ec d9 f0 bc 42 e4 52 3d 5c b2 90 3d
       0.13225254 -0.029400788 0.051487215 0.07065269
0003b0 73 3b b3 bd a5 b7 8c bc 1f dd 69 bd 44 3a d8 3d
       -0.087515734 -0.017177412 -0.057095643 0.10557988
0003c0 26 0a ab bd 88 a9 90 3b ec 7d 3a bd 3e 24 54 bd
       -0.08351545 0.004414741 -0.045530245 -0.051792376
0003d0 82 12 d6 bd b3 ca 03 bd ec eb a6 bd 00 e9 ad bd
       -0.10452749 -0.03217573 -0.08150467 -0.08491707
0003e0 e7 9d 4b bd af c6 4f 3d c2 42 42 bd a6 04 9c 3d
       -0.049711134 0.05072659 -0.047426946 0.07618074
0003f0 3a 5c 3c 3d b2 15 71 3d a9 95 a9 39 e2 97 f8 bd
       0.04598639 0.05885858 0.00032345697 -0.12138344

encoder.bias_ih_l0 f4 [256]
000000 1d 4b db 3d 18 ab 51 3c 7b f6 fc 3c df de b1 3d
       0.10707686 0.01279714 0.03087925 0.086850874
000010 8b eb 25 3d 0d 80 06 3e ae 95 0d 3e 89 cf ef 3a
       0.040507834 0.13134785 0.1382663 0.0018296103
000020 57 6d aa 3c d7 81 9e bd 94 93 09 3e 80 b0 c4 3d
       0.02080409 -0.07739609 0.13435203 0.09603977
000030 91 48 8b bd 13 ab f0 3b ae 92 ac 3d 1a cd b6 3d
       -0.0680095 0.0073446124 0.084264144 0.08925839
000040 cf 64 96 bd c5 ef 1d 3e 0b ee b4 bd 41 96 eb bc
       -0.073434465 0.15423496 -0.088344656 -0.02875817
000050 31 0e f1 3d 73 c2 41 bb b5 a9 bf bc 0c b8 2e 3d
       0.11770285 -0.0029565364 -0.023396352 0.04265599
000060 9c cc b4 bd e1 30 18 3d 8a 3c 8a bc c8 2b f8 3c
       -0.08828089 0.03715599 -0.01687457 0.030294314
000070 44 47 56 3d 66 ea 19 3c ff cc 62 3d 95 32 3a bd
       0.052314058 0.009394264 0.05537128 -0.045458395
000080 20 05 6d 3d 2a 5f 1a 3e 22 49 02 3d 68 dc 5c 3d
       0.057866216 0.15075365 0.031808026 0.053921133
000090 46 19 c1 bd c6 12 c2 bd e3 6e e4 3d 1c 9a fd 3a
       -0.09428649 -0.09476237 0.111539625 0.0019348296
0000a0 71 4b c4 bd 24 b0 97 3c a3 6e 39 bd 58 3b b2 bd
       -0.09584702 0.018516608 -0.045271527 -0.08702725
0000b0 21 af dc 3d 53 4b bf bd 78 d3 9d 3c a2 15 0e 3e
       0.10775591 -0.09340539 0.019265875 0.1387544
0000c0 1f 84 b1 3d ce 67 45 bd 27 b3 5c bc 4f a1 d3 3d
       0.08667778 -0.0481947 -0.013470448 0.103335015
0000d0 db 76 ac 3d 31 5f b1 bd bc ed 73 3c f8 df ab 3d
       0.084211074 -0.086607344 0.014888223 0.08392328
0000e0 8e c1 0a 3e 68 05 b4 3d af 40 c7 bd ac d5 e9 bd
       0.13550398 0.08790094 -0.09729134 -0.11417708
0000f0 8f 12 b1 3d 65 2b d4 bd 81 6a 91 bd d9 4d 00 bd
       0.08646118 -0.10359839 -0.07100392 -0.03132424
000100 50 de f9 bc 31 bb c9 3d 01 e1 65 bc 40 b7 d9 bd
       -0.030501515 0.09850157 -0.014030696 -0.10630655
000110 c6 08 dc 3d f9 aa ae 3d 7b 7d 51 bd 58 08 0a bd
       0.10743861 0.08528704 -0.051145058 -0.033699363
000120 50 4f db 3d 2e 70 35 bd 80 36 58 bd 09 53 40 bb
       0.10708487 -0.044296436 -0.05278635 -0.0029346368
000130 cb 72 78 3d 6b cc f6 3d 7e cb 05 bd 31 af c7 bd
       0.06065635 0.120507084 -0.03266477 -0.09750212
000140 6f f7 ca 3d 1f da bf 3c 53 79 4d bd ba eb b9 bc
       0.099104755 0.023419438 -0.050164532 -0.022695411
000150 44 87 20 3d bf af 1d 3d 35 81 20 3d 61 57 6a bd
       0.0391915 0.038497683 0.03918572 -0.057212237
000160 8c fc c7 bc 28 d4 a2 3d 79 11 b5 3d b5 3a b2 3d
       -0.024412416 0.07950622 0.08841223 0.08702604
000170 0d 3f f0 3d 90 4f 98 3d f3 79 c6 bc aa f1 9d bd
       0.11730776 0.0743705 -0.024228072 -0.077121094
000180 c6 b1 05 bd e1 82 3f 3d 4f 79 eb 3d 63 36 04 bc
       -0.03264024 0.046755675 0.11497747 -0.008069607
000190 fc c3 01 3e 62 f1 dd bd 6a db 61 bd 3f 8b 06 3d
       0.12672418 -0.10837056 -0.05514089 0.03284764
0001a0 a4 49 1c bd 9f 79 8c bd b1 b6 71 bd f2 95 48 3d
       -0.038156167 -0.06859135 -0.05901212 0.048971124
0001b0 6f ac 9f bd ce f4 84 bc 88 41 77 3d 72 11 80 bd
       -0.07796561 -0.016230013 0.06036523 -0.062533274
0001c0 51 76 c4 bd dc 64 89 bc 77 98 66 3c 7b 5a 85 ba
       -0.095928796 -0.016771726 0.014074436 -0.001017406
0001d0 8c 7d 54 bb 0c 9c 53 bb 5e dd 3e 3d b4 02 d5 3b
       -0.0032423465 -0.0032289056 0.04659783 0.0065005664
0001e0 93 21 cd 3d 39 ef ce bb 1b c0 d7 3d 48 7e d2 bd
       0.100161694 -0.0063151387 0.10534688 -0.102779925
0001f0 29 fb 59 bd 73 60 09 3d e7 ca 1d 3d 16 cf ec 3d
       -0.05321804 0.033539247 0.03852358 0.11562936
000200 58 25 bb bd a5 dd 8f bd 72 48 cb 3d c8 53 f6 bd
       -0.09137982 -0.07024697 0.09925927 -0.12027699
000210 db 02 98 bd 93 4a 78 3d 41 45 87 3c 27 68 4c 3b
       -0.0742242 0.060617995 0.016512515 0.003119001
000220 5f 95 ce 3d 50 0a a6 bd 39 0d d8 3d a4 76 03 be
       0.10087084 -0.08107436 0.10549397 -0.12838227
000230 f8 b0 d3 bd 3c 53 94 bd 1f 64 24 3d 7c 80 a3 bd
       -0.103364885 -0.07242438 0.040134545 -0.07983491
000240 7e ed 9c bd 41 21 3b bd 00 13 93 3d 2f c2 db bd
       -0.076624855 -0.04568601 0.07181358 -0.10730397
000250 4b 1c f4 bc 19 db f4 bd cb 40 e5 bb 5d c8 fb bd
       -0.029798647 -0.11955852 -0.0069962493 -0.12294076
000260 3f 8c fc 3d d0 5c 01 3e c6 93 00 3e 24 1f d2 bd
       0.12331437 0.12633061 0.12556371 -0.10259846
000270 b0 3b c6 bd a7 d2 0e 3e 0b 94 f9 ba c1 53 5b 3d
       -0.09679353 0.13947545 -0.0019041313 0.05354667
000280 4a d4 02 bc f6 f6 b3 3c d5 fc 9f bc 5d bb ad 3c
       -0.007985184 0.021968346 -0.01952974 0.021207506
000290 6f 8b 90 3d 25 73 9c 3d 7e a6 ec ba 98 b5 48 bb
       0.07057845 0.076391496 -0.001805499 -0.0030625816
0002a0 b3 08 b8 bd 3c 4c 4d bd a8 d3 de 3d 36 a8 f2 3c
       -0.08986034 -0.05012153 0.10880214 0.029621225
0002b0 32 30 d9 3d ff 71 bf 3b 48 e1 45 bc 8e 8f 08 3d
       0.10604896 0.005842447 -0.012077637 0.03334003
0002c0 1b 6c 9d bd 3f b9 9a bc d6 e1 ad bd f4 e7 fe 3d
       -0.07686635 -0.01888716 -0.084903404 0.12446585
0002d0 bc 2a ef 3c 9e 01 f4 3d c5 d9 ce 3d d3 30 a8 3d
       0.029195182 0.11914371 0.1010013 0.082124375
0002e0 62 86 00 bb a3 02 bc 3d f6 bd b1 bd 67 02 a5 3d
       -0.0019611348 0.091801904 -0.0867881 0.08057099
0002f0 12 d9 b1 3c 88 3a d5 3b 9c d9 4e bd d6 4d 93 bd
       0.021709953 0.0065072216 -0.050500497 -0.071925804
000300 0c be 0b 3c 3e b7 77 bc 77 f6 d8 3d e3 07 c8 bd
       0.008529197 -0.015119372 0.105938844 -0.09767129
000310 b2 b3 ca 3d 25 76 a7 bd 73 7c 7c 3d be 36 a7 bd
       0.098975554 -0.08176831 0.06164212 -0.08164738
000320 18 73 0b 3d 7a 5b 71 3d 49 10 d2 bd cf a8 ef 3c
       0.03404531 0.05892513 -0.102570124 0.029255299
000330 43 ef ce bd 28 98 c4 3d d9 11 b9 3d 0f 87 1c 3d
       -0.10104229 0.09599334 0.09036607 0.03821474
000340 4e 32 86 bd 02 ad 86 bd ff 4f e3 bd f9 96 6b 3d
       -0.065525636 -0.06575967 -0.110992424 0.057517026
000350 a5 e8 99 bc 72 20 e8 3d 17 8e 6f 3d d0 c7 52 3d
       -0.018787691 0.113343135 0.058485117 0.051460087
000360 06 94 c8 3d e9 8a 4f 3d 74 70 ae bb 0a 36 0b 3d
       0.09793858 0.050669584 -0.005323464 0.033987083
000370 c4 e5 06 3e 6e 63 28 bd 7d 56 10 3d f9 e9 1a bd
       0.13173586 -0.04111045 0.03523873 -0.03782079
000380 7b d8 45 3c 59 08 4e bd af 8d bc 3d 00 3c c7 3d
       0.012075539 -0.05030093 0.092067115 0.09728241
000390 e2 ba f2 bc 8e 0a ad bd a0 4d e4 bd 08 06 61 3d
       -0.029630128 -0.08449279 -0.11147618 0.054937392
0003a0 95 f8 4f 3d 67 71 93 bc 9f e8 91 bd bf 1f 4a 3d
       0.050774176 -0.01799841 -0.07124447 0.04934668
0003b0 d5 84 91 3d cf c8 26 bd d1 8d 29 bd 92 4b ba 3d
       0.07105414 -0.04071885 -0.041395012 0.09096445
0003c0 a7 ad b1 3d f8 01 68 bd e9 df ae 3d 28 7c 6c 3b
       0.086757 -0.056642503 0.08538801 0.0036084745
0003d0 25 23 92 bd 12 b0 2b 3c f0 f6 79 3d 90 a8 e0 bc
       -0.071356095 0.01047899 0.061026514 -0.027424127
0003e0 7a cb 01 bd 64 9e 3b bc 2b 0d 04 3e cd 71 db 3d
       -0.03168819 -0.0114513375 0.12895648 0.10715065
0003f0 ed 82 34 bd 0e 3c d7 3d 97 93 10 3c 2c c7 0c 3e
       -0.044070173 0.105095014 0.008824251 0.13747853

encoder.bias_hh_l0 f4 [256]
000000 4d 5b 39 3d 1a c1 b0 bd a1 4f ef 3d 28 5e 85 3d
       0.045253087 -0.08630581 0.1168511 0.065120995
000010 65 fa d0 bd cd eb f1 3d 22 9a a0 3d e6 b8 03 3e
       -0.10204009 0.118125536 0.078418985 0.12863502
000020 ba 90 ce 3c 6d d9 63 3d 97 22 57 bd f5 20 00 3d
       0.025215495 0.055627275 -0.05252322 0.03128143
000030 38 de 91 3d a2 a0 4d 3d a2 5d b5 3b fe 4d 53 bc
       0.07122463 0.05020202 0.0055348435 -0.012897013
000040 e9 3e 56 bc 36 64 01 bc 1d 0c 50 bd ff 99 a1 3d
       -0.013076522 -0.007897427 -0.050792802 0.078907005
000050 d6 fc a7 3d 42 18 06 3e c2 ad f4 3c aa a6 be 3c
       0.082025215 0.13095191 0.02986801 0.023272831
000060 b5 a0 86 3d c9 c3 4e 3d 78 cc 97 bd 5e 3e 9b bd
       0.06573621 0.050479684 -0.07412046 -0.07580255
000070 ea 02 81 3d a5 34 3b bd f5 12 bc 3d 16 a8 a0 3d
       0.06299384 -0.045704503 0.09183303 0.0784456
000080 0a 66 bc 3d 03 0a e5 bc 47 1f 0b bc 1c 61 5d 3d
       0.0919915 -0.027958876 -0.008491344 0.05404769
000090 06 69 1b bd 93 b3 5f 3d 0c 30 b2 bd a5 90 00 3d
       -0.037941955 0.054614615 -0.087005705 0.031387944
0000a0 cd 5c 01 3e fe 6f 9a 3d 3f 10 b1 3d bc 84 b9 3d
       0.12633057 0.07540892 0.08645677 0.0905852
0000b0 83 c5 0b bd d0 2a e4 3b 20 79 04 3e e6 25 0c 3d
       -0.03412391 0.0069631115 0.1293683 0.03421583
0000c0 79 9a c0 bd 84 5a b9 3d 17 1f be bd d4 6b c6 3c
       -0.09404463 0.090504676 -0.09283274 0.024221338
0000d0 8e f3 5c bd eb a6 02 3c 34 6a 57 bc b9 4c 91 3d
       -0.05394321 0.007974367 -0.013147879 0.07094712
0000e0 fe 83 f6 bb c9 97 08 3e bb a5 c1 3d 36 a1 cc 3d
       -0.007523059 0.13339151 0.09455439 0.09991686
0000f0 eb 94 e3 3d 01 6f d0 bd 45 b6 7c 3d 95 d4 cb 3d
       0.11112388 -0.10177422 0.061697263 0.09952656
000100 47 94 b6 bd d8 7d 0a ba 48 21 f0 3d d5 4e 89 bd
       -0.089150004 -0.00052830344 0.11725098 -0.06704489
000110 b9 40 d0 3d 4c 18 09 3e da 8d d6 bc 4a 6b 03 3e
       0.10168595 0.13388175 -0.026190687 0.12833896
000120 46 a9 a5 bd 66 c2 b6 3d 64 84 7b bd b6 69 c6 3d
       -0.08088927 0.08923797 -0.061405554 0.096881315
000130 da f2 e6 bc e5 0a 8f bd d4 30 b1 3d 17 f7 04 3c
       -0.028191973 -0.069845 0.08651891 0.008115551
000140 32 65 32 3a 3b aa aa 39 20 91 75 3c 84 a8 df 3d
       0.00068052404 0.00032551758 0.014988214 0.10920814
000150 ec 26 58 bd 7f 8d 53 3d c2 22 03 3e 5a bf e2 3c
       -0.052771494 0.051648613 0.12806228 0.027679134
000160 39 59 18 3c c6 0d a1 3c 47 2a 9e 3d 62 66 41 3c
       0.009298616 0.019659888 0.077229075 0.011804195
000170 16 f2 5d bd 0d cd 02 3e 7d 5d 9d bd 3c ed d4 3d
       -0.05418595 0.12773533 -0.07683847 0.10396811
000180 d9 b3 7b 3c b5 be b4 bd 08 84 de bc 6f 0f be bd
       0.015362703 -0.08825437 -0.027162567 -0.092802875
000190 b0 bf 9d 3b 1e 3f 8e bd f4 4e 04 bd 5b ca fb 3d
       0.0048141107 -0.069456324 -0.032301858 0.122944556
0001a0 13 c2 84 bd 63 7a 27 3c d7 5e a2 3d 9a ae cf 3b
       -0.06482329 0.01022205 0.079282455 0.006337953
0001b0 1a 8d 01 3e d8 32 47 3d b2 3c 2e 3d c4 00 e7 bc
       0.12651482 0.048632473 0.042538352 -0.028198607
0001c0 eb d7 07 bc f1 09 52 bd 79 ff 9e 3d 5c c5 ed bc
       -0.008291225 -0.051279012 0.07763571 -0.029024772
0001d0 21 d7 b1 bd bb 0d 06 3e a6 cf 65 3d 09 65 c7 3d
       -0.08683611 0.13091175 0.056106232 0.09736068
0001e0 39 28 a2 3c 29 20 8f 3d c6 a0 c3 bc 66 34 84 bd
       0.01979457 0.06988556 -0.023880374 -0.06455307
0001f0 db 78 c0 3d 30 b3 a2 3d e1 7d 7f 3d 86 e7 c1 3d
       0.09398051 0.079443336 0.062375907 0.09467988
000200 82 a3 1e bd 3b 4c bd 3d a8 31 a7 3d dc a1 d4 bd
       -0.038730152 0.092430554 0.08163768 -0.10382435
000210 71 18 5e 3d ad 19 7e 3c fa b5 d8 3d 77 34 87 3d
       0.054222528 0.015509051 0.10581584 0.06601804
000220 19 37 fc 3d 86 0a ea 3c c1 3e b8 bd 07 a7 db bd
       0.123151965 0.028569471 -0.08996344 -0.10725217
000230 5a 94 d8 bd 5c 40 8d 3d 32 b9 b5 bc 85 9f 86 bd
       -0.10575171 0.06897041 -0.022183035 -0.06573395
000240 23 bf b4 bc b2 fb 9f 3c 53 43 67 3d 27 60 a4 3d
       -0.022063797 0.019529197 0.05646069 0.08026152
000250 58 68 9a 3d c6 e7 43 bd ab 06 f9 3b b2 c5 08 be
       0.07539433 -0.04782846 0.007599672 -0.13356665
000260 d1 a6 bd 3d b5 0f a5 bd 12 80 0e bd 11 84 94 bd
       0.09260333 -0.080596365 -0.034790106 -0.07251752
000270 a2 b2 a2 3d 41 c6 39 3d b0 2b 79 bc 9a 30 ba 3d
       0.07944228 0.045355085 -0.01520817 0.09091301
000280 28 ee 1d bd 00 18 a7 39 a1 e9 cb 3d 76 24 96 3c
       -0.0385572 0.00031870604 0.099566706 0.018327933
000290 4f 2c ec 3d 3b 9b de bd ed cb af 3d 90 48 f5 3d
       0.11531889 -0.108694516 0.08583818 0.11976731
0002a0 04 c6 80 3d 50 f2 69 bd b6 ad bd bd 88 71 50 bd
       0.062877685 -0.057115853 -0.09261648 -0.05088952
0002b0 20 21 e6 bc d2 3e 76 3d df 09 64 3d f4 f6 9c bc
       -0.028091967 0.060118504 0.055673476 -0.019160725
0002c0 0c 85 97 bc b0 77 aa 3d 36 9f f6 3d 0f f2 89 bc
       -0.018496059 0.0832361 0.12042086 -0.016839055
0002d0 13 34 96 bd 3b a0 62 bd c7 27 14 bc b2 cd c7 3d
       -0.07334151 -0.05532859 -0.009042687 0.0975603
0002e0 d0 29 a3 3d 04 52 88 bd 03 ae b7 3c 01 d2 36 bd
       0.079669595 -0.06656268 0.022421842 -0.04463387
0002f0 a4 20 c3 3a 51 b8 9f bd 91 f6 1e 3d 6a e7 9d bd
       0.0014887047 -0.077988274 0.038809363 -0.07710154
000300 6e fd cc bd 75 a5 bd 3b 89 a8 20 bd ec cc 88 3c
       -0.100092754 0.0057875463 -0.039223228 0.016699277
000310 11 5d 05 3e 35 93 1d 3d 4e 15 36 bc 09 a0 d2 3d
       0.13023783 0.038470466 -0.011113478 0.102844305
000320 45 64 01 3c a1 7f f5 3c 56 94 8e 3d 2c d3 c2 3d
       0.007897441 0.029968085 0.069618866 0.09512934
000330 77 5b 08 3e fa 5e a8 3c 91 4b 90 3c a7 54 1f bd
       0.13316141 0.0205531 0.017614158 -0.03889909
000340 92 8c 11 3d b1 96 1e bb 1f 75 5b bd de 64 31 3d
       0.03553445 -0.0024198706 -0.053578492 0.043309085
000350 de 58 9d 3d 31 4a a0 bc d8 59 59 3d b7 be b4 3d
       0.07682966 -0.019566627 0.053064197 0.088254385
000360 f3 49 81 bc 36 22 02 3d a5 eb 90 3c 77 46 36 bd
       -0.015782332 0.031770907 0.017690489 -0.044500794
000370 32 ce ae bd 24 1c 61 bc d2 fa 89 bd 97 48 dd bc
       -0.085354224 -0.013739619 -0.06737293 -0.027012153
000380 c2 30 13 bd 6b 0d d2 3b 55 4b d2 bc a2 82 36 3c
       -0.03593517 0.006410291 -0.025670687 0.011139544
000390 4b 78 2c 3d 60 3b af bd f2 50 e3 bd 01 d7 e2 3d
       0.042106908 -0.08556247 -0.110994235 0.11076165
0003a0 97 e7 86 bd 6f 1e 66 3d 7b 9d 55 bd cb b7 d5 3c
       -0.06587141 0.056181367 -0.05215214 0.026088616
0003b0 89 4c 08 3e b5 00 87 3c 70 e5 e5 3d 93 e2 8d bd
       0.13310446 0.01647983 0.11225402 -0.06927981
0003c0 67 e6 e8 3d d8 3f 4c 3d b9 1f 04 3e 78 8f 00 3e
       0.11372071 0.049865574 0.12902726 0.12554729
0003d0 3b 1b 89 bd 5f 65 a6 bd 22 c2 8f 3c 63 4f 08 3e
       -0.06694647 -0.08124804 0.017548624 0.13311534
0003e0 cd b2 cf bd 61 b5 9a 3d 1b 18 b4 3d 6f 19 b5 bd
       -0.101415254 0.075541265 0.0879366 -0.08842742
0003f0 46 ee aa 3d bc be 94 3c 61 de 59 bd 92 b7 b6 3c
       0.08346228 0.018157355 -0.053190593 0.02230433

decoder.weight_ih_l0 f4 [512, 64]
000000 4f 04 79 bb 26 93 5d 3d 6c 26 14 3c af 2b 11 3d
       -0.0037996953 0.05409541 0.009042364 0.03544205
000010 de 03 6c bd 8f a0 af 3c b3 e5 a8 bc 84 f7 81 bd
       -0.057620876 0.021438865 -0.020617342 -0.06346038
000020 5a a6 40 bd c5 1d 0a bd 41 15 1a bd 18 6b 23 3c
       -0.047033645 -0.033719797 -0.037617926 0.009974264
000030 77 06 3f 3d d3 5d 84 3d bf 07 9c 3c 10 ed 08 3c
       0.046637025 0.06463208 0.019046662 0.008357301
000040 47 04 99 3d a3 f4 af 3c e5 6d 83 bd 8c 75 ea 3b
       0.07471519 0.021478957 -0.06417445 0.007155126
000050 20 15 eb 3c 70 7b 2d 3c 58 29 b4 3b 64 54 fb 3c
       0.028696597 0.010588512 0.0054980926 0.030679889
000060 61 29 82 bd ff ab c6 bc 2f b2 87 bd 1b c6 9d 3d
       -0.06355549 -0.024251936 -0.06625783 0.07703801
000070 64 08 c8 bc 45 1c 8d bd df f5 fc bc 8b eb 41 bd
       -0.024418063 -0.068901576 -0.03087896 -0.047343772
000080 1f fc cf 3d 17 98 f5 bc 4b 55 a1 3d 57 88 72 bc
       0.1015551 -0.029979749 0.078775965 -0.014803014
000090 fe f7 c5 3d 01 29 a4 3d c6 5f ee 3b 15 4a 88 bc
       0.096664414 0.080156334 0.0072746007 -0.016636888
0000a0 63 7f a9 3d 03 2f c5 bd ef f6 76 3d 32 7b 51 3d
       0.0827625 -0.096281074 0.060294088 0.05114288
0000b0 51 cd 8f 3c 9d 25 2c bd 57 2e 48 bd e1 74 76 bc
       0.017553957 -0.04202806 -0.048872318 -0.015042515
0000c0 d9 c6 4a bd 5d 6e b2 bc 6c c1 27 3d d9 14 4b 3d
       -0.049506042 -0.021781141 0.040955946 0.04958043
0000d0 6a be 78 bd b2 98 17 bd 92 12 c2 3a 26 29 3f bd
       -0.060728468 -0.037010856 0.001480656 -0.0466701
0000e0 27 a4 b0 3d d9 ce a8 3d a4 44 eb 3c 43 23 9d b9
       0.086250596 0.08242578 0.028719254 -0.00029971646
0000f0 da aa ea 3c 6e cc d5 3d c5 c6 3a bd fb 56 44 3d
       0.028645921 0.104393825 -0.045599718 0.047934514
000100 9b bf 67 bc 00 7d 84 bd a7 65 87 bd d9 af 2d bb
       -0.014144803 -0.06469154 -0.066111855 -0.0026502518
000110 e9 6a 9d bc 81 1d be 3d 5d 0c 61 3d b5 e4 bf bd
       -0.019216018 0.09282971 0.05494343 -0.09369794
000120 17 8f 64 ba 28 7e 46 3d a6 17 ca 3c b3 d4 98 3d
       -0.0008718832 0.048460156 0.02466948 0.07462444
000130 2f 3e 3e bd 73 e8 a7 bd 8e d5 c4 bb 6a 24 74 3d
       -0.04644602 -0.08198633 -0.006006903 0.05960504
000140 34 43 0c bd d7 dc 80 3d 21 cb 85 3d 66 49 de 3d
       -0.034243777 0.06292122 0.065328844 0.108538434
000150 07 45 9e bc 06 e1 16 bd 97 4e 92 bd 31 e1 aa 3d
       -0.019320024 -0.036835693 -0.07143896 0.08343733
000160 5a 5e 61 3d aa 59 d5 3d 86 13 5a bc 56 63 9d 3d
       0.05502162 0.10417493 -0.013310319 0.076849625
000170 6c 41 8d 3c 5e ad 61 bd cf 83 63 3d 42 f6 41 3c
       0.01724311 -0.055096976 0.055545624 0.011838498
000180 dd 3b d5 bb 14 de 8d bd 54 b0 66 3d 0f 9e f0 bc
       -0.0065073804 -0.06927124 0.056320503 -0.029372243
000190 7e 95 5a bd 00 1b 90 bc 70 91 44 3d fe 4f 4b 3d
       -0.053365223 -0.017591 0.047990263 0.049636833
0001a0 bc ee 22 3d 6d 6c 44 3d 6d 60 32 3d 55 cb 5a 3d
       0.039778456 0.047954965 0.04354899 0.05341657
0001b0 c7 ef e0 3c d1 69 81 bd d3 dc c7 bd fd 91 0b bd
       0.027458085 -0.06319011 -0.09758916 -0.034074772
0001c0 c7 c9 40 bd e4 8e b7 3d 49 8d 88 3d 94 1c 3d bd
       -0.04706743 0.08962801 0.06667573 -0.046169832
0001d0 8e e7 1e 3d 4e 7e ab bd 3f 1e 89 bd 43 26 a7 3d
       0.038795047 -0.083737 -0.06695222 0.08161595
0001e0 0e 11 7e 3d 7b f1 dd 3d 1d dd 25 3d b6 10 97 bc
       0.062027983 0.10837074 0.040494073 -0.018440586
0001f0 15 f5 9f 3d c2 f0 80 bd ff da 64 3c 50 97 19 bc
       0.078104176 -0.06295921 0.013968228 -0.009374455
000200 60 67 85 3d 09 cd 5a 3d e4 a9 98 3b 14 4b 9a 3d
       0.06513858 0.053418193 0.0046589244 0.07533851
000210 3b b1 72 3d f4 37 e6 3c 15 07 81 3c 2e 2b 09 3d
       0.05925105 0.028102852 0.015750447 0.033488445
000220 b2 0d e0 bb ca 43 c8 3d aa ac 2d 3d 32 81 6a 3d
       -0.00683757 0.09778555 0.042400993 0.057252117
000230 14 63 d3 3c d0 8b 64 3d 18 a6 57 bd 10 40 27 3c
       0.02580408 0.055797398 -0.052648634 0.010208145
000240 b0 bc e9 3b 79 ba 00 3d ac 1a 67 bd af dd 96 bd
       0.007133089 0.031427834 -0.05642192 -0.073665015
000250 55 dc 99 3d 80 6a d0 3a a8 7f 68 3d 8a a7 8e bd
       0.07512728 0.001590088 0.056762367 -0.06965549
000260 f1 0a 5d bb b2 13 a2 3a ce 64 55 bb 36 0e 95 bc
       -0.0033728445 0.0012365489 -0.0032561305 -0.018195253
000270 e1 64 34 3d 1b 36 02 bd fa ad 36 3d ff b7 89 3d
       0.044041518 -0.03178988 0.04459951 0.067245476
000280 77 97 8c bd 2e 0d 10 bd 9b 72 33 3c 8d af d9 bc
       -0.06864827 -0.03516882 0.010952617 -0.026572967
000290 f7 7e 8d 3d 03 42 c2 3c 8e 22 d4 3c cd 78 7b 3d
       0.06908982 0.023713117 0.025895383 0.0613945
0002a0 50 41 25 3d 67 4e 86 bd 12 16 c4 3d 94 dd b8 3d
       0.04034549 -0.06557923 0.09574522 0.09026638
0002b0 7e d4 54 bd 1a 81 bc 3d dc e5 72 bd f2 1b 9b 3d
       -0.05196046 0.09204312 -0.059301242 0.075736895
0002c0 8d 1b d3 3d fe dd d7 3c 62 1d 7a bd 22 07 be 3c
       0.10307989 0.026350971 -0.061063178 0.02319676
0002d0 5c 93 0e 3d 16 86 1d bd 77 90 86 3c f8 7e 5c 3c
       0.0348085 -0.038457952 0.016426308 0.013458006
0002e0 4a a3 a1 3b 88 14 94 bd 93 ce 19 3d 40 ea 69 3b
       0.0049327957 -0.072304785 0.03755052 0.0035692602
0002f0 4d b0 af 3c d9 7f 07 bd c4 3c b4 bc d6 80 2b 3d
       0.021446371 -0.03308091 -0.022001632 0.041870914
000300 9c cd ed 3c a4 0d f5 3c a4 fd 8a bd 24 dc 79 bc
       0.029028706 0.02991373 -0.06786659 -0.0152502395
000310 23 00 4a 3d fd 7f 80 bc 95 5a a0 3d c1 aa 98 3d
       0.049316537 -0.01568603 0.07829777 0.07454444
000320 2b 3c 67 bd 6f dc 05 bd 6c 4d 9a 3d bf 22 81 3d
       -0.056453865 -0.032680925 0.07534298 0.063054554
000330 52 76 df bd 19 e6 7a bc 34 6e 4e 3d 60 6f 98 3b
       -0.1091124 -0.015313649 0.050398067 0.004651949
000340 00 d3 98 39 34 af 1e bd 01 5d b4 3c d0 cc 4f 3b
       0.00029148906 -0.038741305 0.022017004 0.003170777
000350 26 c5 8d bd d4 f5 a4 3c 1b ae 88 bd 14 30 a8 3c
       -0.06922369 0.020136751 -0.06673833 0.020530738
000360 14 b2 85 3d 40 40 aa 3d e9 f0 01 bd 2b 13 58 3d
       0.06528106 0.08313036 -0.03172389 0.052752655
000370 a3 e0 37 3d aa 12 9b bd ff 2f 3d bd 9c 8d d6 3d
       0.044891965 -0.07571919 -0.04618835 0.104762286
000380 53 5f 9b bc 50 0a 55 3d 3b 6f 19 3d ce 1c 3b bd
       -0.018966353 0.052011788 0.037459593 -0.045681767
000390 b5 69 88 3c 7f bf 5b bd fc 8b 3c 3d 47 6b 7a bd
       0.016651968 -0.05364942 0.046031937 -0.061137464
0003a0 df b2 a0 3c 61 11 b1 bd 8c a8 83 bd d6 cb d2 bb
       0.019616542 -0.08645893 -0.06428632 -0.0064329905
0003b0 d9 96 5c 3c 54 a4 99 bd 54 17 a7 bc da 8b 51 3d
       0.013463699 -0.07502046 -0.020396866 0.051158763
0003c0 2c a5 84 bd bc 5a 70 bd 74 4c 92 3c 1e d0 9a 3d
       -0.064768165 -0.05868028 0.017858721 0.075592265
0003d0 4e e2 2b 3d 7b 72 ae bd 52 08 c9 bc 27 6e bc bb
       0.041963868 -0.08517929 -0.0245401 -0.005750436
0003e0 e4 c3 78 3d 7a 61 a3 3b 25 68 1c 3c d0 4f 1a bd
       0.06073369 0.0049859853 0.009546314 -0.03767377
0003f0 19 3f ab 3d f7 69 24 bd 74 09 5c 3d 35 ce b8 3d
       0.08361644 -0.04014012 0.053719953 0.09023706

decoder.weight_hh_l0 f4 [512, 128]
000000 12 bb c5 bc 8c 41 8e bc 8d cf c9 3d 81 d8 44 bd
       -0.024137054 -0.01736524 0.0985404 -0.048058037
000010 ea 1d 5f 3d 22 05 9e 3d 4d ec 89 bd 94 e4 34 bd
       0.054471888 0.07715823 -0.06734524 -0.0441633
000020 ac e5 64 3d 28 05 da bb f9 3b 5b 3d 33 f4 59 3a
       0.055883095 -0.0066534467 0.05352399 0.00083142816
000030 52 af e4 3c 6d 69 1d bc a2 40 c9 3d 48 6c 98 3c
       0.02791563 -0.009607655 0.09826781 0.01860632
000040 a4 bb 60 bd 4c d9 c6 bb 45 26 92 3d 9d 8d 60 3d
       -0.054866448 -0.0060683843 0.071362056 0.054822553
000050 3f ed 81 3b d2 32 f5 bc af b3 13 3d 00 4f b0 bd
       0.0039650495 -0.02993146 0.03606003 -0.08608818
000060 37 04 ec 3b 93 d4 e8 bc 04 06 8b 3d 55 1d 57 3d
       0.007202651 -0.028421676 0.06788257 0.052518208
000070 ea f8 11 bd eb fa 80 3d 4e c3 9c bd 0d e5 26 3d
       -0.035637774 0.06297859 -0.07654439 0.040745784
000080 8f 2e 04 3c 0f 72 d8 ba ad f8 3e bd 35 60 a5 3d
       0.008067741 -0.0016513484 -0.046623874 0.08074991
000090 4b 5b 87 3d fa 84 6b 3d 8c 75 4d 3d b6 8e af 3d
       0.066092096 0.057499863 0.05016093 0.08572142
0000a0 12 f3 e4 bb 76 97 c0 3d d6 01 25 3c 71 cb de bb
       -0.006986984 0.09403889 0.0100712385 -0.0067991544
0000b0 89 15 9c 3d 34 b1 23 bd b3 f7 6b bc 95 30 94 bd
       0.07621295 -0.039963916 -0.014402318 -0.07235829
0000c0 3f 5a 91 3d 05 6e 89 bd c1 6e ae bd 6e 34 f9 3c
       0.07097291 -0.06710438 -0.085172184 0.030420508
0000d0 f9 23 69 3d d7 c1 5a bd 77 43 9b bc 97 ed 7e bd
       0.05691907 -0.053407516 -0.018953068 -0.062238302
0000e0 06 1c b3 3d 2c bf 88 3b 70 4b 02 3d 4b b5 43 bd
       0.087455794 0.00417318 0.031810224 -0.047780316
0000f0 82 ae 06 3d 76 97 98 3d ad 89 49 bd 5f 62 13 bd
       0.032881267 0.07450764 -0.049203563 -0.035982486
000100 06 0c 2c bd 7e f0 0b bb 60 a4 75 3d 76 01 a8 3c
       -0.042003654 -0.0021353061 0.059971213 0.02050851
000110 2e 8c 7d 3c f6 6b 99 3d 65 6a f0 3b 4f 46 b3 bd
       0.015475316 0.07491295 0.007336902 -0.08753645
000120 ad 4e 95 3d 8e 65 4b 3c 7b 9e 0d bd 05 f0 17 bd
       0.07290397 0.012414349 -0.034574967 -0.037094135
000130 58 f2 12 3d c7 2f 13 bc 8c 6a 3c bd de 5e 36 3d
       0.03587565 -0.008983559 -0.04600005 0.044524066
000140 eb ee 35 bd 32 6b 0c 3c 5f 58 5a bb 11 97 53 bd
       -0.044417303 0.008570479 -0.0033316833 -0.05165774
000150 a7 fa 96 3d 01 bc c1 3d 5d 6c 66 3b 7c 04 9e bd
       0.07372027 0.09459687 0.0035159804 -0.07715699
000160 8b e4 01 3d 6e ac 87 bd 5b 21 86 3d e2 ea c3 bc
       0.031712096 -0.06624685 0.06549331 -0.023915712
000170 9c 7c fc 3c c7 0e 6e bc a2 2c be bd ff 62 c5 3d
       0.030821137 -0.01452989 -0.09285857 0.09638023
000180 a5 5f 30 bd c6 c2 ee bb e5 77 1c bc d7 9e d5 3c
       -0.043059964 -0.0072864024 -0.009550069 0.026076717
000190 43 4a a5 bc 50 61 b0 3c 1c bb 1e 3b b3 39 50 3d
       -0.020177012 0.021530777 0.0024220413 0.050836276
0001a0 aa ae b6 bd 9b cf ce 3c 08 50 75 bd 09 c3 22 3d
       -0.08920033 0.025245478 -0.059890777 0.03973678
0001b0 ce 51 94 bd b2 b1 26 bc 96 d3 a4 bc 70 26 59 bd
       -0.072421655 -0.010174202 -0.020120423 -0.053015172
0001c0 22 80 68 bd a5 40 a7 3d a1 82 88 3c 28 b1 fa 3c
       -0.056762822 0.08166627 0.016663851 0.030602053
0001d0 53 d7 11 3d ab fe 91 bb 45 dc 53 bd 3e 33 71 bd
       0.03560574 -0.0044554076 -0.051723737 -0.05888676
0001e0 65 82 97 bd 85 8d dc bb 0e 45 08 bd 73 44 7a bc
       -0.07397918 -0.0067307376 -0.03326898 -0.015275109
0001f0 fd 30 b7 3d ca cb 6c bc 35 f9 a0 bd 1c ee 56 3d
       0.08944891 -0.014452884 -0.078600325 0.052473173
000200 75 1c 8b 3d ca 72 98 bd 4d 74 e3 3c 03 93 a2 bc
       0.06792537 -0.07443769 0.027765417 -0.019845491
000210 cb c6 f7 bc e5 67 50 3c 70 3c 3d bd 19 99 f0 bc
       -0.030246159 0.012720083 -0.046200216 -0.029369878
000220 d8 39 c9 3d 73 a4 a6 3d 39 6b 1a 3d 87 4f 73 3d
       0.09825486 0.08136835 0.03769991 0.059402015
000230 22 55 e6 bb 0a f7 80 bd 0f f8 b4 bb 54 69 a1 3d
       -0.0070291916 -0.06297119 -0.005522735 0.07881418
000240 de 84 37 bd 5e 3c 69 3c a8 bf 89 bc 0a 7c 0e 3c
       -0.044804446 0.014235584 -0.016815022 0.008696565
000250 ff 17 f5 3c 14 bd 79 3d 3d 51 bd ba bf 63 e0 bc
       0.029918669 0.060971335 -0.0014443767 -0.027391313
000260 51 49 14 3d 97 82 57 bd 7a 2b 26 3d c7 a4 c4 3c
       0.036202732 -0.052614775 0.040568806 0.024004353
000270 cf 42 93 bd 0d 40 b4 bd f7 37 95 bd 7d 5b b2 bd
       -0.07190477 -0.08801279 -0.07286065 -0.08708856
000280 46 bf 0b 3b 8d b1 54 3d a1 53 3b 3c a5 52 9a 3d
       0.0021323725 0.051927138 0.011433513 0.075352944
000290 36 b4 b9 3c 73 17 67 3d c2 5f 46 bd 8f af 79 bd
       0.02266894 0.056418847 -0.048431166 -0.06095844
0002a0 91 d0 e9 bb e4 53 62 bd 38 30 b1 bc 12 a2 8a 3d
       -0.0071354588 -0.055255786 -0.021629438 0.06769194
0002b0 af dc 21 3c db 35 64 bc ff 08 12 bc b3 ea 67 3d
       0.009879275 -0.013928856 -0.008913278 0.05662031
0002c0 e6 4d 4f bd c5 0c 2d bd a7 b0 c6 3c b6 e5 c3 3c
       -0.0506114 -0.042248506 0.024254156 0.023913246
0002d0 56 22 7a 3d d0 77 a1 bd 4b ae 6f bb e6 8a a7 3c
       0.0610679 -0.078841805 -0.0036572393 0.020451974
0002e0 b4 12 d3 39 da 90 cb 3c ab 36 07 3d 37 1c 93 3c
       0.0004025899 0.024849344 0.03301112 0.01795779
0002f0 41 e0 4d bd 1e d7 59 bd 7c 98 24 bd b6 b1 93 bb
       -0.050262693 -0.053183667 -0.040184483 -0.004507269
000300 89 eb 76 3d 9d e2 9d 3d 46 5a 0d 3d a1 ce b8 bd
       0.060283218 0.07709239 0.03450992 -0.09023786
000310 6b 0f 98 3a 96 d8 3d 3d dd 76 46 bc 57 7d b7 bd
       0.0011601275 0.04634913 -0.0121133 -0.089594536
000320 81 f4 a9 bd aa 18 c0 bd b9 78 62 bd 07 cc 98 3d
       -0.082985885 -0.09379704 -0.05529091 0.0746079
000330 c8 29 ab bc 2c 6d 4c 3c 63 c7 ff bc c0 49 78 bd
       -0.020893946 0.0124772005 -0.031223005 -0.06061721
000340 a4 a9 86 3d 50 cb 72 3d b6 70 0f bd ff 13 91 bd
       0.06575325 0.059275925 -0.0350196 -0.07083892
000350 9a ff 9d 3d ca f9 50 bd d3 1e 73 3c ea 8a a4 3c
       0.07714768 -0.051019467 0.014838892 0.02008577
000360 2f 5c 6f bd d5 28 82 bc c5 4a 24 bc 61 07 a0 3d
       -0.058437523 -0.01588861 -0.010027592 0.078139074
000370 e0 2c ca 3c 0a 97 37 bd a9 0c a0 3d 83 b3 ba 3d
       0.024679601 -0.044821776 0.07814915 0.091162704
000380 89 3b e2 3c 4f a4 ed bc 66 42 8d 3d 3a 24 7c 3d
       0.02761628 -0.029009013 0.0689743 0.061557986
000390 b5 7e 46 3c d4 e7 38 bd 09 dc 0a bc 0e 51 f6 3a
       0.01211517 -0.045142964 -0.008475312 0.0018792467
0003a0 c8 af aa 3d 7d b9 4a bb 86 3d 86 3d b4 23 a5 bd
       0.08334309 -0.0030933314 0.065547034 -0.080634505
0003b0 be 7e c5 3c df 5b 44 bc af 56 86 bd 2d 12 6b bd
       0.024108287 -0.011984794 -0.06559502 -0.05739038
0003c0 63 b5 77 bd 1e 71 9a bd 51 20 31 bd a5 6c a4 3d
       -0.06047572 -0.07541107 -0.04324371 0.08028535
0003d0 33 e7 2b 3b 82 c2 ac bc 28 1b 9b 3d 2e 97 88 bd
       0.0026230335 -0.021088842 0.07573539 -0.0666946
0003e0 00 5f 41 bd 0c 20 43 3d 1e 8e 02 bd 50 a4 fe 3c
       -0.04720974 0.047637984 -0.031873815 0.03108421
0003f0 d6 c3 73 3d 7b 95 85 bd 79 74 cc bc 14 ca 67 bd
       0.059512936 -0.06522652 -0.024957882 -0.0565892

decoder.bias_ih_l0 f4 [512]
000000 b5 ca 82 3d a6 28 3b 3d 7e 9e 07 bd 41 13 8e 3c
       0.063863195 0.045693062 -0.033110134 0.017343165
000010 1b 4f 0b bd 53 39 36 bd c1 12 54 3d b2 02 c1 3d
       -0.034010988 -0.044488262 0.051775698 0.09424342
000020 1c f7 7b bd fa 11 ae 3c 9a 5e 80 bd 2f 65 2d 3d
       -0.06151496 0.021248806 -0.06268044 0.042332824
000030 d7 32 32 3d 50 59 83 3c c7 dd d4 3c 27 0b 69 bd
       0.043505516 0.016033798 0.025984658 -0.0568954
000040 bb 79 94 3a 76 ad 34 3d 22 94 cc bc b4 70 93 bd
       0.0011327782 0.044110738 -0.024972979 -0.07199231
000050 70 e7 e0 3c bb a8 a0 3d 5e 34 85 3d f8 e5 2f 3c
       0.027454108 0.07844683 0.06504129 0.010735981
000060 9b b7 a9 3c 25 e1 a4 3d 2e ad 90 3c 8d 53 58 3d
       0.020717433 0.080507554 0.017660704 0.052814055
000070 33 e9 42 3d 51 18 a0 3d df 71 8e bd 43 84 39 3c
       0.047585677 0.07817138 -0.06955313 0.011323038
000080 c5 3f 81 3d ce e6 43 3d 8a be 20 3c 16 80 b6 3d
       0.06310991 0.047827534 0.009811053 0.08911149
000090 62 8f 59 3d f0 7a 04 3b 25 32 83 3c 39 2b a5 3d
       0.053115256 0.0020214878 0.016015122 0.08064885
0000a0 aa 1e a4 3b 4c 49 60 3d ee b0 83 3d f2 b8 a9 bc
       0.0050085383 0.0547574 0.06430231 -0.020718072
0000b0 15 bb 02 3c 39 01 d6 3d 27 e2 c7 3d 55 19 04 bd
       0.007979174 0.10449452 0.09759932 -0.03225072
0000c0 7a 71 88 3d 36 b2 a4 bd c1 b5 b1 3d 4a c7 29 3b
       0.06662269 -0.080418035 0.08677245 0.002590614
0000d0 49 d5 71 bd b6 cb 98 3d a4 7d b9 3c 9e 05 88 3d
       -0.059041295 0.0746073 0.022642918 0.066416964
0000e0 e0 8e 31 3d be 9e 1a bd d8 ce 71 3d f9 af f5 bb
       0.043349147 -0.037749045 0.059035152 -0.007497784
0000f0 28 a1 f6 bc 13 22 6c bc d4 52 2a bd 87 87 93 3d
       -0.030106142 -0.014412421 -0.041582897 0.07203584
000100 93 05 18 3d a3 18 6f 3d 13 d9 41 3d 75 28 93 bd
       0.03711469 0.058373105 0.04732616 -0.07185451
000110 5c 89 c5 ba 5d 63 f4 bb e2 0b 95 3b c9 33 3f bd
       -0.0015070844 -0.007458134 0.0045485357 -0.046680246
000120 8b 6d 56 3d 52 c0 9d 3d f9 7a 25 bd a3 04 70 bd
       0.052350562 0.07702698 -0.04040048 -0.058598172
000130 78 11 6d 3d 61 36 95 3d 45 27 60 ba 7f c0 59 bd
       0.057877988 0.072857626 -0.00085507735 -0.053162094
000140 87 14 74 bd 0f 13 b5 bc bf ee 1d bd 91 1e 5c 3d
       -0.05958989 -0.022103814 -0.038557764 0.053740088
000150 7b 05 fc 3c 10 3e b3 3b 0d 73 27 3d c3 d1 3c bd
       0.030764332 0.005470045 0.040881205 -0.046098482
000160 81 35 f0 bc 19 7a 96 3c a7 b0 9a bb 5f f7 5d 3d
       -0.029322388 0.018368768 -0.0047207656 0.05419099
000170 b7 46 60 bd 30 27 ea bc 33 f1 8c bd 6c f8 24 3b
       -0.05475494 -0.02858314 -0.068819426 0.0025172485
000180 92 00 75 3c e6 d9 18 3d dd 23 af 3d b6 ef c9 3d
       0.014953749 0.03731718 0.08551762 0.09860174
000190 fc 9f 63 3c 13 c3 a7 3c b8 88 11 bd c6 83 68 bd
       0.013893124 0.02047876 -0.035530776 -0.056766294
0001a0 cf f4 d6 ba 98 c8 c3 bb 07 26 6a 3d a4 7e 8c bd
       -0.0016399863 -0.0059748404 0.057165172 -0.06860092
0001b0 81 47 fd bc 4f 70 b1 3c f2 9a 90 bd 71 e8 23 3d
       -0.030917885 0.021659998 -0.070608035 0.040016595
0001c0 6d 84 23 3d 74 3c 03 3d 32 27 c5 3d e6 d1 1c 3d
       0.039921213 0.032040074 0.096266165 0.038286112
0001d0 0c f7 c7 bc 5a f1 43 3d c7 99 a4 3d c0 15 a4 3d
       -0.024409793 0.047837593 0.08037143 0.08011961
0001e0 5f 4f db 3d 11 4a 06 3d 29 e9 13 3d d9 32 9c 3d
       0.10708498 0.03278548 0.03611103 0.07626886
0001f0 ae c4 b4 3b c4 b2 87 bd 26 61 3d bd 75 0f c7 bc
       0.00551661 -0.06625894 -0.046235226 -0.024299363
000200 ba c5 09 bc d5 16 00 3c c6 79 a4 3c fc ba 0c bc
       -0.008408958 0.007817944 0.020077597 -0.008589502
000210 27 82 43 3d 93 1b 8f 3d a8 76 e9 3c bb f0 49 bd
       0.047731545 0.06987681 0.028498963 -0.049301844
000220 46 24 ae 3d 98 27 e4 bb d3 79 5a bd cc a7 b7 3d
       0.08503012 -0.0069627278 -0.053338837 0.089675516
000230 b7 16 c7 3c 78 b0 a0 3d 1b 6a bb 3d be 5b 78 bd
       0.024302823 0.07846159 0.091510974 -0.060634367
000240 00 0e 90 3d 7f 00 dd 3c 78 c6 8d 3d af 67 11 3d
       0.0703392 0.026977776 0.069226205 0.03549927
000250 53 21 98 bd 6c bd 9e bd b8 1b a2 3d a6 c0 ba 3d
       -0.07428231 -0.07750973 0.07915443 0.09118776
000260 c9 76 1c bc c9 16 24 3d 43 a4 63 bd eb 5b 95 3d
       -0.009549805 0.040060792 -0.055576574 0.072929226
000270 7c d6 9c 3d a1 8d ab bc bd af 01 bd 2e 3f 13 bc
       0.07658097 -0.020941557 -0.031661738 -0.008987231
000280 09 b7 50 3d c5 83 64 3d 0e a6 b7 3c 96 60 9c 3d
       0.050955806 0.055789728 0.022418048 0.0763561
000290 92 04 8a bd 5b 1a 91 3c 7c 55 99 bd 48 e0 9c 3d
       -0.06739153 0.017712763 -0.07487008 0.07659966
0002a0 fd 8d 25 3d 52 a1 85 3c 51 43 bd 3d 3a a2 af 3c
       0.040418614 0.016312275 0.09241355 0.02143966
0002b0 76 fa bf 3b 54 56 a7 3c 89 b0 a5 3d c0 c4 1c 3d
       0.0058587147 0.020426907 0.08090312 0.038273573
0002c0 b6 2a ab bd 6a 1c 8e bd 79 6d 80 bd 88 5f b1 bc
       -0.08357756 -0.06939013 -0.0627088 -0.021651998
0002d0 68 21 3b 3d bf f7 19 3d 9a 40 3c 3d 77 aa 92 3d
       0.045686156 0.037589785 0.045960046 0.0716142
0002e0 25 85 f1 3c e9 87 2d bc 53 06 87 3c 32 f5 af 3d
       0.029482434 -0.010591486 0.016482508 0.08591689
0002f0 c2 e2 81 3c 3c 6f 4c bd 34 67 3a 3d b9 ff 3d 3d
       0.015855197 -0.04991077 0.04550858 0.046386454
000300 fa e1 30 bd ea 52 df bc af 82 1f bd e1 ac d4 3a
       -0.043184258 -0.027261216 -0.03894299 0.0016225838
000310 1e 82 37 bd 23 e7 ab bc e4 e0 98 bd f4 82 83 3d
       -0.044801824 -0.020984238 -0.074647695 0.06421462
000320 54 41 55 bb 6b ba 90 bd 07 5d 5c bd 51 02 e2 3c
       -0.003254016 -0.070668064 -0.053799655 0.027588995
000330 35 5d 18 3d 35 7c 55 bd 6f ca a4 3a 5a 8c 95 3d
       0.037198264 -0.052120406 0.0012572537 0.073021606
000340 da fe 6b 3d 26 48 7a 3a 41 5b 47 3d 04 4c 9d 3d
       0.057616092 0.0009547494 0.04867101 0.076805145
000350 0c 7c a6 3d c6 18 85 bd 40 08 8b bd 67 74 75 3d
       0.08129129 -0.06498866 -0.06788683 0.059925463
000360 7e c2 a7 bc b8 98 62 3d 7a 9a d2 b9 0c 18 53 3c
       -0.020478483 0.055321425 -0.00040169415 0.012884151
000370 fa 18 87 bd 56 1f e0 bc 05 6c d1 3d 4f 75 78 bd
       -0.06596561 -0.027358692 0.10225681 -0.06065875
000380 a0 12 16 bd 1e bb 8d 3c bd 30 75 bd 1a f4 d7 3d
       -0.036638856 0.017301138 -0.059860934 0.105446056
000390 81 3c e4 bc b9 ff a6 bd 38 c5 a0 3c 4c c3 8a bd
       -0.027860882 -0.08154244 0.019625291 -0.06775531
0003a0 87 cf 52 bd 83 14 47 bd fe 2a 48 3a 41 41 fd 3b
       -0.051467445 -0.048603546 0.0007635801 0.007728726
0003b0 f9 a0 4c bd df 38 30 bd 14 71 41 bd 44 4d bc 3c
       -0.049958203 -0.043022987 -0.04722698 0.022986062
0003c0 20 0e 90 bc 83 80 28 3c 7e d7 8f bd 84 20 0c 3d
       -0.01758486 0.010284546 -0.07023524 0.034210697
0003d0 49 d9 10 3d 57 15 0e 3d 3d a9 2d bd f1 e3 12 bd
       0.03536347 0.03468832 -0.042397726 -0.035861913
0003e0 f2 e7 d4 3c 6d a3 84 bc 49 01 d2 ba 1e 9d a3 3d
       0.025989506 -0.016191209 -0.0016022112 0.07988952
0003f0 29 26 95 3d 69 af dc bb e1 a7 a9 bc 80 67 9d bd
       0.07282669 -0.0067347777 -0.020709934 -0.07685757
