lstm_ts.pth (torch, 827839 bytes, 10 tensors)

lstm.weight_ih_l0 f4 [512, 12]
0	0x3d70839a	0.058719255
1	0xbceb3a58	-0.028714344
2	0x3d75d032	0.060013004
3	0xbd05eae5	-0.032694716
4	0x3cf3be40	0.029753804
5	0x3d5cccfd	0.05390643
6	0xbb043066	-0.002017045
7	0xbda5c376	-0.08093922
8	0x3d9636a0	0.07334638
9	0xbd221607	-0.03957179
10	0xbb5a6453	-0.0033323958
11	0x3cfa49f9	0.030552851
12	0xbd94dec5	-0.072690524
13	0xbd376138	-0.04477045
14	0x3d5f3014	0.05448921
15	0xbc3715f5	-0.011174669
16	0x3d396e9a	0.045271493
17	0xbc2fe1f8	-0.0107350275
18	0x3d5fc028	0.054626614
19	0xbdb378ff	-0.087633125
20	0x3daf78ec	0.08567986
21	0x3cd55ded	0.026045764
22	0x3c9a12ee	0.018807855
23	0xbbfa12ce	-0.007631636
24	0x3c9ce629	0.019152718
25	0xbc6ebff0	-0.014572129
26	0x3db2120f	0.08694851
27	0x3c6c74a0	0.014432102
28	0xbd9894a4	-0.07450226
29	0xbc3cea85	-0.011530523
30	0xbd87d902	-0.06633188
31	0xbd9275da	-0.07151385
32	0xbcf3be50	-0.029753834
33	0x3c9c8b2a	0.019109327
34	0x3d82ce02	0.06386949
35	0xbbf3600f	-0.0074272226
36	0x3d86678a	0.06562717
37	0x3c746064	0.014915559
38	0x3daf413d	0.08557365
39	0x3c89429f	0.0167554
40	0x3ba69c7f	0.0050845738
41	0xbd492467	-0.04910698
42	0x3d371e69	0.044706736
43	0xbc786132	-0.015159892
44	0xbc9e70f9	-0.019340979
45	0x3c90e67b	0.017688027
46	0x3d87541d	0.0660784
47	0xbd11b2cf	-0.035570916
48	0x3c92d9ef	0.017926184
49	0x3d77beeb	0.060484808
50	0x3c71e70c	0.0147645585
51	0x3d972898	0.073807895
52	0xbcc198c1	-0.023632409
53	0xbd664f10	-0.056227744
54	0x3c8f4797	0.017490191
55	0x3da7453e	0.08167504
56	0xbc9340e9	-0.017975288
57	0x3d755ade	0.05990111
58	0x3c1252e5	0.008930896
59	0xbd97f19d	-0.07419131
60	0x3d1add50	0.037808716
61	0xbd9a9612	-0.07548155
62	0x3bb957d5	0.0056562223
63	0xbd4be94c	-0.049783036
64	0x3d9d8202	0.07690813
65	0x3c9b8e74	0.018988825
66	0xbd726211	-0.059175555
67	0x3da22b61	0.0791843
68	0xbd965646	-0.07340674
69	0xbd7df29f	-0.06199896
70	0x3d468777	0.048469033
71	0xbd846b65	-0.064657964
72	0x3d87b6bf	0.06626653
73	0x3c9b71d7	0.018975182
74	0xbd77036f	-0.06030601
75	0xbb8c1969	-0.00427549
76	0x3d836fc1	0.064178
77	0xbc7bd62a	-0.015370885
78	0x3d8ef0a1	0.0697949
79	0x3bcee354	0.0063137207
80	0xbc86f128	-0.016472414
81	0xbd5eaf54	-0.054366425
82	0x3d769a3a	0.060205676
83	0x3d14ea13	0.036356043
84	0xbc50d298	-0.012745522
85	0xbd9d1eec	-0.076719135
86	0x3c695b44	0.014242951
87	0xbd7a9032	-0.06117267
88	0xbd334eb1	-0.043776218
89	0x3a0fa5a5	0.00054797
90	0x3c2b713d	0.01046401
91	0x3d7a0928	0.06104389
92	0xbbd16d65	-0.0063912147
93	0xbcbcc595	-0.023043433
94	0x3d196548	0.037450105
95	0x3da9c6f5	0.08289901
96	0xbd3d2f02	-0.04618741
97	0x3cd81f58	0.026382133
98	0xbcfc7e44	-0.030821927
99	0x3d95fd11	0.07323659
100	0xbda732d4	-0.081639916
101	0xbd8108b8	-0.06300491
102	0xbd0df07c	-0.034653172
103	0xbd885852	-0.06657471
104	0x3d86b964	0.06578329
105	0xbd7964c6	-0.06088712
106	0x3d103f67	0.035216715
107	0x3d9beb01	0.07613183
108	0x3d354c11	0.044261996
109	0x3b04a0b8	0.0020237397
110	0xbda24030	-0.07922399
111	0x3d9948d5	0.07484595
112	0xbce0c457	-0.027437372
113	0x3d18c79c	0.037299737
114	0x3bdf1895	0.0068083503
115	0x3c4542e8	0.0120398775
116	0x3d5dbb05	0.054133434
117	0x3da7e480	0.0819788
118	0xbd94af71	-0.07260025
119	0xbd8c803e	-0.06860398
120	0xbbe9d04a	-0.0071354257
121	0x3b41d7fc	0.00295782
122	0xbc122161	-0.008919091
123	0xbd9f64f6	-0.07782929
124	0xb97e12ae	-0.00024230286
125	0xbcb2b999	-0.021817015
126	0x3d99f4da	0.07517405
127	0xbd3acfeb	-0.045608442
128	0xbd0729e2	-0.032998927
129	0x3c0dd0d0	0.008655742
130	0xbd326c50	-0.043560326
131	0xbd4cce7a	-0.0500016
132	0xbdb0991e	-0.08622955
133	0x3ce83c02	0.028348926
134	0xbc5be84f	-0.013422086
135	0xbd6dce96	-0.058058344
136	0x3cfe0b8d	0.031011367
137	0x3d087738	0.03331682
138	0xbcfc86e3	-0.030826038
139	0x3cfa7da2	0.030577485
140	0x3d53b582	0.05168677
141	0xbd540157	-0.05175909
142	0x3d40f86c	0.047111914
143	0x3d1683d4	0.036746815
144	0xbd938ce8	-0.0720461
145	0x3d202222	0.03909505
146	0xbd6373e1	-0.055530433
147	0x3d656135	0.056000907
148	0x3b2a7dc1	0.0026014897
149	0xbca57bf9	-0.020200716
150	0x3d6bfca8	0.057614
151	0x3d20dc0a	0.039272346
152	0x3da6c850	0.08143675
153	0xbdae1c1b	-0.085014544
154	0xbdaf2109	-0.08551223
155	0xbd7eabe7	-0.062175658
156	0xbd9fd978	-0.07805151
157	0x3cc11b89	0.0235727
158	0x3d5f6c26	0.054546498
159	0xbd672c2a	-0.056438603
160	0x3d1edd9f	0.038785573
161	0x3d477414	0.048694685
162	0x3d982158	0.07428235
163	0x3ce91b3b	0.028455367
164	0xbc8627fe	-0.016376492
165	0xbdab887e	-0.08375643
166	0x3d23c1f5	0.039979894
167	0x3da70ab5	0.08156339
168	0xbd127ea9	-0.035765324
169	0xbd5cc45a	-0.053898193
170	0x3b9163cc	0.0044369455
171	0x3d87e6a8	0.06635791
172	0x3db48a47	0.08815437
173	0xbd0aeb24	-0.033915654
174	0xbc203eb7	-0.009780577
175	0xbd75d70c	-0.060019538
176	0x3c6e8fd4	0.0145606585
177	0xbd80500b	-0.06265267
178	0xbcbcd03a	-0.023048509
179	0xbd9e6b8b	-0.07735356
180	0xbd6f6239	-0.05844328
181	0xbc11c7e2	-0.008897753
182	0x3da8190d	0.08207903
183	0x3c0374ba	0.008023435
184	0x3d6162ff	0.05502605
185	0xbce5ca7d	-0.028050655
186	0xbd016b74	-0.031596616
187	0x3da5f370	0.08103073
188	0x3dadf280	0.08493519
189	0xbb1d77f9	-0.0024027808
190	0xbd43da85	-0.04781582
191	0x3d855273	0.065098666
192	0x3c9581d2	0.01825038
193	0x3d42ab29	0.047526512
194	0xbda52c95	-0.08065144
195	0xbd896069	-0.06707842
196	0xbd703073	-0.058639955
197	0x3db3e3c4	0.08783677
198	0x3d6ab4ef	0.057301458
199	0x3d15a54b	0.03653459
200	0x3d9f4605	0.07777027
201	0xbbb5a6ad	-0.005543551
202	0x3da75e2a	0.08172257
203	0xbd669dd3	-0.056302857
204	0x3cca9d67	0.024733258
205	0xbc9499e4	-0.018139787
206	0x3bd0e9ba	0.0063755186
207	0x3986e0b6	0.00025725894
208	0xbdaf7e28	-0.08568984
209	0xbd940261	-0.07227016
210	0x3db57307	0.0885983
211	0x3d21516f	0.0393843
212	0xbd479bec	-0.048732683
213	0x3d9c6e72	0.07638253
214	0x3d73bd64	0.05950679
215	0x3b85e20f	0.004085786
216	0x3d08dce5	0.033413786
217	0xbcab4664	-0.020907588
218	0xbcb86342	-0.022508267
219	0x3d653301	0.055956844
220	0x3d888968	0.06666833
221	0xbd593d88	-0.053037196
222	0xbcc6548a	-0.024210233
223	0x3cd496cc	0.025950812
224	0x3c8d8c26	0.017278742
225	0x3d4be3b8	0.049777716
226	0x3d720c8a	0.05909399
227	0x3da70e5e	0.08157037
228	0xbc56c8bd	-0.013109383
229	0xbd7ca562	-0.06168116
230	0x3c771de5	0.015082811
231	0xbd78b057	-0.060715046
232	0xbd13b05c	-0.03605686
233	0xbdb25f76	-0.08709614
234	0x3d434147	0.047669675
235	0x3d0c2741	0.034217123
236	0x3b21c6f3	0.0024685233
237	0x3d22f959	0.039788578
238	0xbd701181	-0.058610443
239	0xbda53346	-0.0806642
240	0x3cd3115c	0.025765114
241	0xbd6acf9e	-0.057326905
242	0xbce80ef4	-0.028327443
243	0xbd4f29b9	-0.0505769
244	0x3b6faa42	0.0036569987
245	0xbce84b48	-0.02835621
246	0x3b37e6ae	0.002806108
247	0xbca0c83a	-0.019626725
248	0x3cc51ecd	0.024062539
249	0x3cdfec66	0.027334403
250	0xbbc72640	-0.006077558
251	0x3d828092	0.06372179
252	0x3d7056ef	0.058676656
253	0xbc58697e	-0.013208745
254	0xbd977c07	-0.07396703
255	0xbda8ac74	-0.08236018

lstm.weight_hh_l0 f4 [512, 128]
0	0xbd2f9de8	-0.0428752
1	0xbd112d2f	-0.03544348
2	0x3d6c009c	0.05761777
3	0xbd992db8	-0.07479423
4	0xb95b954a	-0.00020941082
5	0x3cc39d11	0.023878606
6	0xbc4712c5	-0.012150471
7	0xba0f0d0f	-0.0005456963
8	0xbc10084e	-0.0087910425
9	0xbd2bc6e9	-0.041937742
10	0x3ca72cb9	0.020407068
11	0xbda0361f	-0.07822823
12	0x3d3fca0d	0.04682355
13	0xbcf29787	-0.02961327
14	0x3d195db5	0.03744288
15	0x3d6a6e1f	0.057233926
16	0x3d8c7326	0.068579
17	0xbd59af45	-0.053145666
18	0xbd847216	-0.06467073
19	0xbdaf810c	-0.085695356
20	0xbd87f6f2	-0.06638898
21	0x3d8e1c29	0.06938965
22	0xbda50116	-0.08056848
23	0x3d404bb0	0.04694718
24	0x3cd4fbbb	0.02599894
25	0x3d40edca	0.047101773
26	0xbd75f127	-0.060044434
27	0x3cad917d	0.021187538
28	0xbd3e6d5e	-0.04649102
29	0x3cf5b51b	0.029993584
30	0xbd60148d	-0.0547071
31	0x3cc37bdb	0.02386277
32	0x3d692d62	0.056928046
33	0x3d10356b	0.035207193
34	0x3d941f50	0.07232535
35	0x3c97ffff	0.018554686
36	0x3d697c7d	0.057003487
37	0xbda6f188	-0.08151537
38	0x3c3c42a4	0.011490498
39	0xbd643289	-0.055712257
40	0x3c6ab734	0.014325906
41	0x3d8216c0	0.063519955
42	0x3d880bf0	0.06642902
43	0x3cafc89c	0.021457963
44	0xbd2fc151	-0.04290897
45	0x3d28c9a9	0.041207943
46	0x3b098a37	0.0020986923
47	0xbd6cae47	-0.05778339
48	0x3d15234e	0.036410622
49	0x3d3406b9	0.043951724
50	0xbd439b58	-0.04775557
51	0xbc7c3772	-0.015394079
52	0xbb4a5bc7	-0.0030877457
53	0x3db5fe8e	0.08886443
54	0xbd024f63	-0.03181399
55	0x3d9dcfe4	0.077056676
56	0x3be0dbd1	0.0068621417
57	0x3d82a61e	0.063793406
58	0xbc55f74b	-0.0130594475
59	0xbcc99dbd	-0.024611348
60	0xb974788c	-0.0002331456
61	0x3da58642	0.08082248
62	0x3c013581	0.0078862915
63	0xbdb9fdb7	-0.090815954
64	0xbccfaae7	-0.025350047
65	0x3d84ed62	0.0649059
66	0xbda564d2	-0.080758706
67	0xbccf25fb	-0.025286665
68	0x3d46a641	0.048498396
69	0x3ca80099	0.020508097
70	0x3d5bc7b8	0.053657264
71	0x3d6ed62b	0.058309715
72	0x3bbd6359	0.0057796654
73	0xbd008256	-0.031374298
74	0x3d27a3fd	0.040927876
75	0x3d4dbf10	0.05023104
76	0xbca5bfb4	-0.020233013
77	0xbcbca33d	-0.023027057
78	0x3cf01b7f	0.029309986
79	0xbd1a965a	-0.037741043
80	0x3d9745a8	0.07386333
81	0x3d683d6a	0.056699194
82	0x3c9a3d34	0.018828012
83	0xbd44f820	-0.048088193
84	0x3d9a876e	0.075453624
85	0x3d55fad8	0.052241176
86	0xbcc205e3	-0.023684448
87	0x3a9ceba6	0.0011972084
88	0xbdafbcc9	-0.0858093
89	0xbd936f75	-0.07198993
90	0xbd2d1cc6	-0.04226377
91	0xbd05817d	-0.032594193
92	0x3c46a5ca	0.012124488
93	0x3c01429f	0.007889419
94	0xbd5cafc8	-0.053878576
95	0xba1d8198	-0.00060083857
96	0xbd6821af	-0.05667275
97	0x3d5fc34d	0.054629613
98	0x3d04af8b	0.032393973
99	0xbcbc70d2	-0.023003016
100	0xbca88520	-0.020571291
101	0xbc1ba12c	-0.009498876
102	0xbccde6cd	-0.025134468
103	0xbd815fed	-0.063171245
104	0xbd3a923a	-0.04554961
105	0x3cb75b1b	0.02238231
106	0xbc2014e1	-0.009770603
107	0xbd01c9bc	-0.03168653
108	0x3d007e48	0.03137043
109	0x3cdf3ce5	0.027250716
110	0xbbecb40a	-0.0072236108
111	0xbd9c6e62	-0.07638241
112	0x3db08416	0.086189434
113	0x3d844922	0.064592615
114	0x3d05a3f1	0.03262705
115	0x3bfb5e38	0.007671144
116	0x3d6ed3de	0.05830752
117	0x3d629c4b	0.055324834
118	0x3bd5776e	0.0065144813
119	0xbd93303f	-0.071869366
120	0x3d9f2724	0.07771137
121	0xbcc12b18	-0.023580119
122	0xbd324e5e	-0.043531768
123	0x3d78e704	0.06076719
124	0x3d2809af	0.04102486
125	0xbd96eee2	-0.07369782
126	0xbcb17c76	-0.021665793
127	0xbd37e1fe	-0.044893257
128	0xbd63ea2a	-0.055643238
129	0x3cfcc515	0.030855695
130	0x3d766ef8	0.06016442
131	0xbcd4ee1e	-0.02599245
132	0x3bff11b2	0.007784092
133	0xbd9b2a36	-0.075764105
134	0x3d9b4ff7	0.075836115
135	0x3db3424c	0.087528795
136	0x3c4b3d5d	0.012404767
137	0x3da27c5b	0.07933875
138	0xbd6cfa78	-0.057856053
139	0xbd84d72d	-0.06486354
140	0x3db04035	0.086059965
141	0xbd8d5d75	-0.06902591
142	0x3da62f18	0.08114451
143	0xbd021be0	-0.031764865
144	0xbcc5327e	-0.024071928
145	0x3d1bf1a1	0.038072232
146	0x3d878213	0.066166066
147	0xbd7f0221	-0.06225789
148	0x3d108986	0.035287403
149	0x3d142bee	0.036174707
150	0xbd5ee7de	-0.054420345
151	0x3da40565	0.080088414
152	0xbccba995	-0.024861136
153	0xbc6b50e4	-0.014362548
154	0xbc5a1422	-0.013310464
155	0xbd796d45	-0.060895223
156	0xbc5d8f7c	-0.013522979
157	0x3d49450f	0.049138125
158	0x3da6ef0f	0.081510656
159	0x3a9fab77	0.0012181838
160	0x3c57123a	0.013126904
161	0x3d550e3f	0.05201554
162	0x3d94fcb1	0.072747596
163	0x3d3ba886	0.045815013
164	0xbd2486bb	-0.04016755
165	0x3da870be	0.08224629
166	0x3c9badb3	0.019003725
167	0x3d0390f8	0.032120675
168	0xbd4d2217	-0.05008134
169	0x3c48193a	0.012213046
170	0x3d7f6385	0.06235077
171	0xbd307ac8	-0.043085843
172	0x3c270739	0.010194593
173	0x3da39929	0.07988197
174	0x3b41df5d	0.0029582598
175	0x3d883609	0.066509314
176	0x3bed548a	0.007242744
177	0x3d11b460	0.03557241
178	0x3d255c88	0.040371448
179	0x3d1b9766	0.03798618
180	0xbb9d0c24	-0.004792707
181	0xbc9fe4d5	-0.019518295
182	0x3d2f70fc	0.04283236
183	0xbd929f06	-0.071592376
184	0xbd3575cf	-0.044301804
185	0x3d1f94eb	0.03896038
186	0xbb8e27e8	-0.0043382533
187	0x3a5b2d70	0.0008360958
188	0xbd0ee64b	-0.034887593
189	0x3da9080c	0.08253488
190	0xbd1a849a	-0.037724115
191	0xbd5d37f5	-0.054008443
192	0x3d244dd8	0.0401133
193	0xbdb28502	-0.087167755
194	0x3d1d439f	0.038394567
195	0x3da6a6f9	0.08137316
196	0xbd54d535	-0.051961143
197	0x3d2f9a95	0.04287203
198	0xbdad706a	-0.08468707
199	0xbcf2320c	-0.02956488
200	0x3d5c6434	0.0538065
201	0x3d95760e	0.07297908
202	0x3c45df97	0.012077234
203	0xbc1f0fd1	-0.009708361
204	0xbd2db433	-0.04240818
205	0xbd7262ce	-0.05917626
206	0x3db0127b	0.08597275
207	0x3ce96555	0.028490702
208	0xbd3da91e	-0.04630386
209	0xbca22d3b	-0.019796958
210	0x3d907904	0.07054332
211	0xbd370b3e	-0.044688456
212	0x3d3d25f7	0.046178784
213	0xbdb18d0b	-0.0866948
214	0xbda30fb0	-0.079619765
215	0x3da58288	0.080815375
216	0x3d69eff9	0.05711362
217	0x3d373ced	0.044735838
218	0x3d59d942	0.05318571
219	0x3d32bf6d	0.04363959
220	0x3a8eaa84	0.0010884558
221	0xbdb71ce6	-0.08941059
222	0x3d80a354	0.06281152
223	0xbd501787	-0.050803687
224	0x3cdc1a8d	0.02686813
225	0xbd9b5d14	-0.075861126
226	0x3bcc5739	0.0062359837
227	0xbd6f872c	-0.05847852
228	0x3d9d47c8	0.07679707
229	0x3d976ac0	0.07393408
230	0xbcd748db	-0.026279857
231	0x3ce06be6	0.0273952
232	0xbdadbf3a	-0.08483739
233	0xbbcea759	-0.0063065705
234	0x3d7da136	0.06192132
235	0x3da99453	0.08280244
236	0x3cec5798	0.028850362
237	0x3af436e6	0.0018632084
238	0x3da2b934	0.07945481
239	0x3c8543c3	0.016267663
240	0x3d66c2f4	0.056338266
241	0xbc806840	-0.01567471
242	0xbd32eb3e	-0.043681376
243	0x3c9534c0	0.01821363
244	0x3c0b7fec	0.008514386
245	0xbda85e7b	-0.08221146
246	0x3d837c20	0.06420159
247	0x3d971166	0.07376365
248	0xbd7b2c14	-0.061321333
249	0x3d5f1f2a	0.05447308
250	0xbcef04cc	-0.029177092
251	0x3cb29f6d	0.021804536
252	0x3dafa24c	0.085758775
253	0xbd874359	-0.066046424
254	0x3d9d2793	0.07673564
255	0xbcc872de	-0.024468835

lstm.bias_ih_l0 f4 [512]
0	0x3bb68e50	0.005571164
1	0xbd99d596	-0.075114414
2	0xbd51f728	-0.051261097
3	0x3c95df61	0.018294992
4	0xbcc6fdde	-0.024290975
5	0x3d152697	0.036413755
6	0x3d4ebf41	0.050475363
7	0xbd9eea24	-0.077595025
8	0xbc19817f	-0.009369253
9	0x3cbfdeb1	0.023421617
10	0xbd4dfe7a	-0.050291516
11	0x3c58feb8	0.013244323
12	0x3c9d5023	0.019203251
13	0x3d176d0b	0.036969226
14	0x3c55c86f	0.013048275
15	0xbd75ee13	-0.0600415
16	0x3ce55e12	0.027998958
17	0x3c5cef01	0.013484717
18	0xbcda9ae3	-0.026685184
19	0xbc641f65	-0.013923501
20	0xbd352352	-0.044223137
21	0x3d2b5a05	0.041833896
22	0xbc59a346	-0.013283556
23	0xbd290161	-0.04126108
24	0x3d05c115	0.03265484
25	0x3d854176	0.06506626
26	0x3c065db4	0.0082010515
27	0xbd1a65e1	-0.037694816
28	0x3db43d68	0.08800775
29	0xbcf6afff	-0.030113218
30	0x3d5eca76	0.0543923
31	0x3c5c93ba	0.013462955
32	0xbc1223bd	-0.0089196535
33	0x3dabf068	0.08395463
34	0x3d6997cb	0.057029527
35	0xbd5b5f8c	-0.053557917
36	0xbcb97af5	-0.022641638
37	0x3d7473d2	0.059680767
38	0x3d9ad869	0.07560808
39	0xbb3747a8	-0.0027966294
40	0x3db57310	0.08859837
41	0x3d3473ce	0.044055752
42	0xbd148469	-0.03625909
43	0x3d87e0b6	0.06634657
44	0xbd479b2d	-0.04873197
45	0x3d83d457	0.06436985
46	0xbd94555f	-0.07242846
47	0xbd8dba19	-0.06920261
48	0xbdb08611	-0.08619321
49	0xbd738ef3	-0.0594625
50	0xbd5e009e	-0.054199807
51	0xbc371acb	-0.011175822
52	0x3d0c2987	0.03421929
53	0x3d409c63	0.047024142
54	0xbd97ad14	-0.07406059
55	0xbcdb0670	-0.026736468
56	0x3d6b8b34	0.0575058
57	0xbad65aaa	-0.0016353924
58	0x3d72d7e6	0.059287928
59	0xbc876a89	-0.016530292
60	0x3d002618	0.03128633
61	0x3d814451	0.063118584
62	0x3d1f1fac	0.038848564
63	0x3cfd9709	0.030955808
64	0x3d0aca35	0.033884246
65	0x3c928185	0.017884025
66	0x3d341b85	0.043971557
67	0xbc92996c	-0.017895423
68	0xbbc23e45	-0.0059278333
69	0x3caa4042	0.020782594
70	0xbd9ba4a2	-0.075997606
71	0xbd690bb6	-0.056895934
72	0xbcc6595c	-0.024212532
73	0xbc182c37	-0.009287885
74	0xbd84e164	-0.06488302
75	0xbc6bb2f9	-0.014385932
76	0x3cd14e76	0.025550108
77	0xbd11fd4f	-0.035641965
78	0xbcb5aabb	-0.022176137
79	0x3d0aab2b	0.033854645
80	0xbd8684e5	-0.06568316
81	0x3d442110	0.047883093
82	0x3d99b9c1	0.07506133
83	0xbd045865	-0.032310862
84	0x3d1d9a3e	0.038477175
85	0xbd7b8590	-0.061406672
86	0xbdaa1f0c	-0.08306703
87	0x3d6443ec	0.055728838
88	0xbcfd17be	-0.03089511
89	0xbcab09f6	-0.020878773
90	0x3d8fd533	0.070230864
91	0x3bc5d9b5	0.0060379156
92	0xbc2fa7cc	-0.010721158
93	0x3d951e8a	0.072812155
94	0xbd9a18e4	-0.07524279
95	0xbad742ae	-0.001642307
96	0x3cdf8503	0.027285105
97	0xbda339a8	-0.079699814
98	0x3d6eff7f	0.05834913
99	0xbd60022b	-0.054689568
100	0x3d4b55d8	0.049642414
101	0xbd912201	-0.07086564
102	0xbc7a83ba	-0.015290195
103	0x3c07e82e	0.008295102
104	0xbd3791d8	-0.04481682
105	0x3d1ab4b9	0.037770007
106	0x3da2c804	0.07948306
107	0x3c8be2d8	0.017075941
108	0x3cfc5cfd	0.030806059
109	0x3da18e9f	0.07888531
110	0x3d63d287	0.055620696
111	0x3c76308f	0.015026226
112	0x3bff6fcc	0.0077953096
113	0x3caead07	0.02132274
114	0x3ca41df0	0.020033807
115	0x3cdb6e08	0.026785865
116	0xbd526cb1	-0.051373187
117	0x3cb5864f	0.02215877
118	0x3d513c26	0.051082753
119	0x3d46cb75	0.048533875
120	0x3da46d09	0.08028609
121	0x3bc9e951	0.0061618467
122	0x3daf44ee	0.08558069
123	0xbcf20ee7	-0.029548122
124	0x3d2ac283	0.041689407
125	0x3da7538c	0.08170232
126	0x3d9f5a64	0.077809125
127	0xbd3d0f21	-0.046157006
128	0xbc8a8364	-0.016908355
129	0x3d08b199	0.033372495
130	0xbd6c4891	-0.057686392
131	0xbb514643	-0.0031932748
132	0xbd398210	-0.045290053
133	0xbd846d49	-0.06466157
134	0xbc6e92a6	-0.014561331
135	0x3d36b160	0.04460275
136	0x3d8671ef	0.065647
137	0x3b4a25c5	0.0030845266
138	0x3da1c8c0	0.07899618
139	0x3c9d9694	0.01923684
140	0xbd1a10cd	-0.03761368
141	0x3ca441e8	0.020050958
142	0x3d0f117d	0.034928787
143	0xbc627396	-0.013821503
144	0xbc54f9b9	-0.012998992
145	0x3d0a2fbc	0.03373693
146	0xbb23bfc6	-0.0024986132
147	0x3d24f95f	0.04027688
148	0xbd311556	-0.04323324
149	0x3d933aa7	0.071889214
150	0xbc05608f	-0.008140697
151	0x3b3d68bd	0.002890154
152	0x3b221227	0.0024730058
153	0x3cd94ec0	0.026526809
154	0xbd9bce23	-0.07607677
155	0x3b24381b	0.0025057856
156	0x3d9f1d6e	0.07769285
157	0x3db6fce8	0.08934957
158	0x3cfecd0d	0.031103635
159	0xbd084a85	-0.033274192
160	0xbc460b4c	-0.012087654
161	0x3da2a930	0.07942426
162	0xbda5992d	-0.080858566
163	0xbce8adc4	-0.02840317
164	0xbd69aac3	-0.057047617
165	0xbcb30589	-0.021853225
166	0x3b9e218a	0.0048257755
167	0x3dad2d11	0.08455861
168	0xbd92352e	-0.071390495
169	0xbb92e10e	-0.004482395
170	0x3d39acfe	0.045330994
171	0xbc979ace	-0.018506434
172	0xbd7c14f4	-0.06154342
173	0xbdae0eeb	-0.08498939
174	0x3a173d51	0.000576933
175	0xbd97786c	-0.073960155
176	0xbb0638ba	-0.002048059
177	0xbd39bb81	-0.045344833
178	0xbc397787	-0.011320001
179	0x3d524e9f	0.05134451
180	0x3d697109	0.056992564
181	0x3ce994a3	0.028513258
182	0x3c8157d9	0.01578896
183	0x3ba5dfca	0.005062078
184	0xbd51369d	-0.051077474
185	0xbd919d65	-0.07110099
186	0x3d89dfcd	0.0673214
187	0xbc228ae9	-0.009920814
188	0xbd1439ad	-0.036187816
189	0xbd85c0e2	-0.0653093
190	0xbbb57e26	-0.0055387197
191	0xbc645546	-0.013936346
192	0xbcb46c46	-0.022024285
193	0xbd53f5c6	-0.05174806
194	0x3d3b029b	0.04565678
195	0xbd313cd0	-0.043270886
196	0xbcef4263	-0.02920646
197	0x3d50ea4d	0.051004697
198	0x3daa595e	0.08317827
199	0x3d9aca4b	0.075581156
200	0xb81c2ffa	-3.723798e-05
201	0x3d97b058	0.07406682
202	0xbd76b9a8	-0.06023565
203	0xbb309510	-0.0026944317
204	0xbce965c1	-0.028490903
205	0x3dae2647	0.085033946
206	0xbda04f75	-0.07827655
207	0x3d10a812	0.035316534
208	0x3d36e15e	0.04464852
209	0x3cb68216	0.022278827
210	0x3d4c6058	0.049896568
211	0xbd4b74a0	-0.04967177
212	0xbda2f4dd	-0.0795686
213	0xbcbb8178	-0.022888884
214	0x3d7c2212	0.06155593
215	0x3d95f6bf	0.07322454
216	0x3c851696	0.016246121
217	0x3db6369c	0.08897135
218	0xbd0ad7ba	-0.03389714
219	0x3d7e3d12	0.06206996
220	0x3d7079c8	0.05870989
221	0xbc640ef2	-0.013919579
222	0xbd228b04	-0.039683357
223	0x3da6950a	0.08133896
224	0xbd712f98	-0.05888328
225	0xbc6d210d	-0.014473212
226	0x3d8636a1	0.065533884
227	0xbcc3e927	-0.023914887
228	0xbd2b7712	-0.0418616
229	0xbd78292c	-0.06058614
230	0xbd6d3b70	-0.057918012
231	0x3b7bcbc3	0.0038421012
232	0xbd6404e8	-0.05566874
233	0xbd86aaf6	-0.06575577
234	0xbcd52b23	-0.026021546
235	0x3d417e6e	0.047239713
236	0x3d83065e	0.06397699
237	0x3d5998e8	0.05312434
238	0x3da356cb	0.07975539
239	0xbd35efae	-0.04441803
240	0xbcd67877	-0.026180489
241	0xbcb47267	-0.022027208
242	0xbbc8937f	-0.0061210985
243	0x3d12b5ad	0.03581779
244	0x3b2eaf79	0.0026654883
245	0xbd400a43	-0.046884786
246	0x3dae3d68	0.08507806
247	0x3d6028a4	0.054726258
248	0x3d9f3146	0.0777307
249	0x3c65eb47	0.014033145
250	0x3d4a85a5	0.04944386
251	0xbcba73bb	-0.022760263
252	0x3da344fa	0.079721406
253	0x3bc576dd	0.0060261325
254	0x3db25e20	0.08709359
255	0xbd9383e0	-0.072028875

lstm.bias_hh_l0 f4 [512]
0	0xbcbc4e69	-0.022986608
1	0x3c9d76c7	0.019221677
2	0xbd30ff6b	-0.043212336
3	0xbdaf67e5	-0.08564738
4	0x39f86a09	0.00047381248
5	0x3c4c70e8	0.012478091
6	0x3a77c0df	0.0009451042
7	0x3d851ba3	0.06499412
8	0xbd59768d	-0.053091574
9	0x3d84f62a	0.064922646
10	0x3d61e9cd	0.05515461
11	0xbcbe2e01	-0.023215296
12	0x3d67dc88	0.0566068
13	0x3cb8a8f0	0.022541493
14	0x3c8f66b7	0.017505033
15	0x3daec189	0.08533008
16	0x3da4a184	0.08038619
17	0x3c43a7aa	0.01194183
18	0xbd8dbf4b	-0.06921252
19	0xbbdaef57	-0.0066813636
20	0x3c3c0f92	0.011478322
21	0x3c893757	0.01675002
22	0x3d776f45	0.06040885
23	0x3db1738a	0.086646155
24	0x3d78d5ef	0.060750898
25	0xbda5d67a	-0.08097549
26	0x3d5ff81d	0.05467998
27	0xbd38900f	-0.04505926
28	0xbc221c7d	-0.009894487
29	0xbd7ed0e4	-0.062210932
30	0xbd89fe54	-0.06737962
31	0x3d51d8f3	0.05123229
32	0xbd86937d	-0.065711
33	0x3ac652e2	0.0015130902
34	0x3d4972db	0.0491818
35	0x3d0baf09	0.034102473
36	0xbcbb8013	-0.022888219
37	0xbdaf5648	-0.08561379
38	0x3d90fa33	0.07078972
39	0xbd9d579a	-0.07682724
40	0x3b4696db	0.003030232
41	0xbd52c1da	-0.051454403
42	0xba8084f1	-0.0009805245
43	0x3d89fd96	0.06737821
44	0x3ca19627	0.019724919
45	0xbcbfa088	-0.023391977
46	0x3d4614c9	0.048359666
47	0xbcb5a9f3	-0.022175765
48	0xbd70da6f	-0.058802065
49	0xbd0487bb	-0.032356005
50	0xbd6be924	-0.057595387
51	0x3d947e6e	0.07250677
52	0xba032d4d	-0.0005004004
53	0xbd008c2b	-0.031383675
54	0xbce8a625	-0.028399536
55	0xbb416b08	-0.0029513258
56	0x392f217a	0.00016701772
57	0x3db9de6d	0.090756275
58	0x3d96db67	0.073660664
59	0x3d85337d	0.06503961
60	0x3d4b4f4e	0.049636178
61	0x3bc51c4d	0.0060153366
62	0x3cb2c184	0.021820791
63	0xbd6c9b26	-0.05776515
64	0xbd5a8547	-0.05334976
65	0x3aef70a1	0.0018267819
66	0x3d26fe3d	0.040769804
67	0x3d0d9dcd	0.03457432
68	0xbce9342c	-0.02846726
69	0x3d6dd386	0.058063053
70	0xbd47d40b	-0.048786204
71	0x3d96ced9	0.07363672
72	0x3c572ec2	0.0131337065
73	0x3d191c14	0.037380293
74	0x3d82da2f	0.063892715
75	0x3da1b15d	0.078951575
76	0x3d9c589f	0.07634091
77	0xbc463593	-0.012097734
78	0x3cb1ef91	0.02172068
79	0xbd2aa02c	-0.041656658
80	0x3d010ee1	0.03150833
81	0xbd9a1fcf	-0.07525598
82	0xbd53a3d1	-0.0516699
83	0x3cbe9736	0.023265462
84	0xbdac9c4f	-0.08428251
85	0xbd22f9c2	-0.03978897
86	0xbd0f7faa	-0.03503386
87	0xbb11b90d	-0.0022235543
88	0xbc205db3	-0.009787965
89	0xbbc6d53b	-0.0060678995
90	0x3d4a366c	0.049368307
91	0x3c534d70	0.0128968805
92	0xbd71f02c	-0.059066936
93	0x3d812cd2	0.06307377
94	0x3d937b0f	0.07201206
95	0xbd63b56f	-0.05559295
96	0xbd9f5b4b	-0.077810846
97	0xbd78226f	-0.060579713
98	0x3bf98bdf	0.007615551
99	0x3d920fdd	0.07131932
100	0xbc082a28	-0.008310832
101	0x3d1ddac0	0.038538694
102	0xbd2f4c17	-0.042797174
103	0xbda02327	-0.07819205
104	0xbd48a6bf	-0.048987146
105	0xbd9e5d7f	-0.07732677
106	0x3d940dfc	0.0722923
107	0x3d6bce31	0.057569686
108	0xbd903eee	-0.07043253
109	0xbd8d5a7a	-0.06902023
110	0x3d0bb1b7	0.03410503
111	0xbd7f4f47	-0.062331464
112	0xbda3e314	-0.08002296
113	0xbd20d754	-0.039267853
114	0xbc85f280	-0.016350985
115	0xbd9b4079	-0.075806566
116	0x3d315f89	0.043304
117	0x3c6dbd8a	0.014510522
118	0xbd276e9c	-0.04087697
119	0xbd301f5f	-0.042998668
120	0x3ca677c5	0.020320782
121	0x3d3df2b3	0.046374034
122	0xbd60dddd	-0.054899085
123	0x3bfb0610	0.007660635
124	0x3d9cb188	0.07651049
125	0x3d968700	0.07349968
126	0x3da04ba2	0.07826926
127	0xbcc95600	-0.02457714
128	0x3cc246e0	0.023715436
129	0x3cc05f1b	0.02348285
130	0xbcc158a8	-0.023601845
131	0xbd9cf567	-0.07663994
132	0x3cc2ffa1	0.023803534
133	0xbcc67ecb	-0.024230381
134	0xbda240ea	-0.079225376
135	0xbac9078e	-0.0015337334
136	0x3d28f640	0.041250467
137	0x3d92627b	0.0714769
138	0xbba3fd43	-0.0050045564
139	0xbd275230	-0.040849864
140	0x3d71f3a3	0.05907024
141	0x3ca719a4	0.020397969
142	0x3c940f54	0.018073715
143	0x3d866658	0.06562489
144	0xbd24a840	-0.04019952
145	0xbd9e5fe9	-0.07733137
146	0x3d531443	0.051532995
147	0xbd9ac4db	-0.075570785
148	0x3d7fcbd9	0.062450264
149	0xbd95d639	-0.0731625
150	0xbdaf6391	-0.08563913
151	0xbc8c9010	-0.017158538
152	0x3b979ca1	0.004626826
153	0x3c8bdeac	0.017073952
154	0xbcfd5ddd	-0.030928547
155	0x3d278004	0.04089357
156	0x3ce3edd6	0.02782337
157	0x3b8cf457	0.0043015885
158	0x3d068e20	0.032850385
159	0xbd8cab9a	-0.06868668
160	0xbd2f6327	-0.04281917
161	0xbc9ebe8d	-0.019377971
162	0x3cd3a909	0.025837438
163	0x3d6d1a49	0.057886396
164	0xbd499f7f	-0.049224373
165	0x3c7171bf	0.014736592
166	0xbca9e47b	-0.02073883
167	0xbd2b5768	-0.041831404
168	0xbd83901d	-0.06423972
169	0xbce01934	-0.027355768
170	0xbd9cf3ef	-0.07663714
171	0xbbfd058c	-0.0077216085
172	0x3d89f9f2	0.067371264
173	0xbd5a4cb3	-0.053295802
174	0xbcf07a30	-0.029355139
175	0xbd07fd58	-0.03320059
176	0xbc08721e	-0.008327989
177	0xbbda1dfa	-0.0066564055
178	0xbc3a1ed7	-0.011359892
179	0xbcb461ef	-0.022019355
180	0x3d9d5dbd	0.07683895
181	0x3d3ed928	0.046593815
182	0x3d9db095	0.07699696
183	0xbd97f2fd	-0.07419393
184	0x3cfb2d77	0.030661328
185	0xbd4cfcdb	-0.05004583
186	0xbd052e64	-0.032514945
187	0x3d7b6ef1	0.0613851
188	0x3db9cb27	0.09071951
189	0xbc019d28	-0.007911004
190	0x3d2eca0e	0.042673163
191	0xbdafd983	-0.08586409
192	0xbc33daad	-0.010977429
193	0x3d6b2492	0.057407923
194	0xbd2a3e76	-0.041563474
195	0xbd0a7540	-0.033803225
196	0xbcf5b509	-0.02999355
197	0xbd61dedc	-0.055144176
198	0xbd29fadf	-0.041499015
199	0xbca918be	-0.02064168
200	0x3d8bf365	0.06833533
201	0x3dae99e2	0.085254446
202	0x3d338089	0.043823753
203	0x3d5efbf9	0.05443952
204	0xbd18d944	-0.037316576
205	0xbcbe7dc8	-0.023253337
206	0x3d7a75b3	0.061147403
207	0x3d688f24	0.056777135
208	0x3da32fce	0.079681024
209	0x3c85ba73	0.016324257
210	0xbd8e329e	-0.06943248
211	0x3d6aa048	0.057281762
212	0xbd544456	-0.051822983
213	0x3d503daa	0.050840057
214	0x3d149a2e	0.03627985
215	0xbd702398	-0.058627695
216	0xbc3c6821	-0.011499436
217	0xbd1b175a	-0.037864067
218	0xbd98e73c	-0.074659795
219	0x3da808aa	0.082047775
220	0xbd697237	-0.05699369
221	0xbda07d8d	-0.07836447
222	0xbd924687	-0.07142358
223	0xbd41c1b4	-0.04730387
224	0xbd381729	-0.044943962
225	0xbda504fb	-0.080575906
226	0x3d439ff3	0.04775996
227	0xbd882d66	-0.06649284
228	0xbd410aae	-0.047129326
229	0x3dacf01d	0.084442355
230	0x3bb37c14	0.0054774377
231	0x3b384826	0.0028119176
232	0x3d686848	0.056740075
233	0xbcb44ba7	-0.02200873
234	0xbcc6f485	-0.024286518
235	0x3b9323e2	0.0044903615
236	0xbda994db	-0.08280345
237	0x3d591d04	0.053006187
238	0x3d6befd7	0.057601776
239	0x3d8bd758	0.06828183
240	0x3ca145cf	0.019686608
241	0x3d990c77	0.074730806
242	0xbd42072c	-0.04737012
243	0xba92e2a4	-0.001120646
244	0x3d9d959d	0.07694552
245	0x3c401411	0.011723534
246	0x3ce988be	0.028507587
247	0x3ca72135	0.020401577
248	0x3c64f47f	0.013974308
249	0xbda4d5d8	-0.080486
250	0xbd0f78ee	-0.035027437
251	0xbd63dc48	-0.05563
252	0xbd85b859	-0.06529302
253	0x3daafbb6	0.08348791
254	0xbda9bcee	-0.082879886
255	0xbc8d80f6	-0.017273407

lstm.weight_ih_l1 f4 [512, 128]
0	0xbda333c0	-0.07968855
1	0x3da6fe3e	0.081539616
2	0xbd1a582f	-0.037681755
3	0x3d9611d2	0.07327618
4	0xbc764ce8	-0.015032984
5	0x3d30d180	0.043168545
6	0xbd944815	-0.07240311
7	0x3d83826b	0.0642136
8	0x3d7c33dc	0.061572894
9	0xbd45b1a3	-0.04826511
10	0xbd881100	-0.066438675
11	0x3d925984	0.0714598
12	0xbdb58fb7	-0.08865302
13	0xbc642dcc	-0.013926934
14	0xbd7d0f95	-0.06178244
15	0xbd4d260d	-0.050085116
16	0xbd56d846	-0.05245235
17	0x3abe9041	0.0014538841
18	0x3d2a7162	0.041612037
19	0xbd89ff85	-0.067381896
20	0x3d2e09f4	0.04248996
21	0xbcc44234	-0.02395735
22	0x3dae26c3	0.08503487
23	0x3caac8e9	0.020847755
24	0x3cff84d2	0.031191263
25	0xbd803502	-0.062601104
26	0x3d73365f	0.059378024
27	0x3c97e0f9	0.018539893
28	0x3d45b3f9	0.04826734
29	0xbbfb6856	-0.00767235
30	0xbd499ca8	-0.049221665
31	0x3d567fff	0.05236816
32	0xbce0746e	-0.027399268
33	0x3c8f97ef	0.017528502
34	0xbc9906f5	-0.018680075
35	0x3d757192	0.059922762
36	0xbcc6e485	-0.024278888
37	0x3da18b05	0.07887844
38	0x3dabb74d	0.08384571
39	0xbd1a58dd	-0.037682403
40	0xbdac0da2	-0.08401038
41	0xbb5986df	-0.0033191962
42	0x3bf3f21d	0.0074446336
43	0xbd4aa939	-0.04947779
44	0xbd7e4e93	-0.062086653
45	0xbd65052f	-0.055913147
46	0xbca0c4a5	-0.019625017
47	0xbd508d65	-0.050916094
48	0x3d13da41	0.036096815
49	0xbd1c5d2d	-0.038174797
50	0xbdaa53a8	-0.083167374
51	0xbc472d78	-0.012156837
52	0xbd450c13	-0.048107218
53	0x3d9f6c54	0.07784334
54	0x3d94f258	0.07272786
55	0x3d7a78a0	0.061150193
56	0xbd612846	-0.05497005
57	0xbd294939	-0.041329596
58	0xbd5bdf20	-0.053679585
59	0x3d80c26c	0.06287083
60	0xbd6bfb57	-0.057612743
61	0xbd47e4e1	-0.04880226
62	0xbd9fa7a6	-0.07795648
63	0xbd109733	-0.035300445
64	0x3ccd590c	0.025066875
65	0xbd086541	-0.03329969
66	0x3ce2074e	0.027591374
67	0x3d545b59	0.05184493
68	0x3d91f6b6	0.071271345
69	0x3ce898f9	0.028393256
70	0x3d36a743	0.044593107
71	0xbd40377b	-0.04692791
72	0xbd804630	-0.06263387
73	0x3d89feee	0.06738077
74	0x3da92533	0.08259048
75	0x3d222b87	0.039592292
76	0x3d028ad4	0.031870678
77	0xbd32656b	-0.04355375
78	0xbc7c1f83	-0.015388372
79	0xbcab8c0a	-0.0209408
80	0x3cd1551f	0.025553284
81	0xbd0f1a19	-0.034936998
82	0x3b42c7d6	0.0029721162
83	0xbc6e0c4b	-0.014529298
84	0x3d567a57	0.052362766
85	0x3d531100	0.051529884
86	0xbd2e8f7f	-0.042617317
87	0x3c90802d	0.017639244
88	0xbd06f5f8	-0.032949418
89	0xbda86b99	-0.082236476
90	0x392d1a68	0.00016508403
91	0x3d06360a	0.03276638
92	0xbcf7fe34	-0.03027258
93	0x3d312fff	0.043258663
94	0x3ce508ed	0.027958358
95	0x3953e1b5	0.0002020661
96	0xbc7c7cd3	-0.01541062
97	0xbd368f57	-0.044570293
98	0x3d85b3a6	0.06528406
99	0x3d5ed277	0.054399934
100	0x3da23c48	0.07921654
101	0x3cebe2b4	0.028794624
102	0x3da7af18	0.08187693
103	0xbd692f0d	-0.056929637
104	0x3d44ce4c	0.048048303
105	0x3d5d7c73	0.054073762
106	0x3b93037f	0.0044865008
107	0x3d607fae	0.054809265
108	0xbd63983c	-0.055565104
109	0x3d87edca	0.066371515
110	0xbd930f76	-0.07180683
111	0xbcd584c3	-0.026064282
112	0xbb537b45	-0.003226952
113	0x3d123486	0.03569462
114	0x3db508d2	0.08839573
115	0x3c5f6058	0.01363381
116	0x3bedc609	0.0072562736
117	0x3bda72eb	0.0066665313
118	0x3d40a9ec	0.04703705
119	0xbc6c552d	-0.014424604
120	0x3d8d834d	0.06909809
121	0x3db0c161	0.08630634
122	0x3d4f1220	0.050554395
123	0xbd43f335	-0.047839362
124	0x3d1722a2	0.036898263
125	0x3d027359	0.031848285
126	0xbd93c7f3	-0.07215872
127	0x3d20b5d9	0.039235923
128	0xbd843160	-0.0645473
129	0xbd02fe66	-0.031980895
130	0x3cce99ef	0.025219886
131	0xbd78bdd2	-0.0607279
132	0x3c416ace	0.011805249
133	0x3d6e1e08	0.05813411
134	0xbd95539d	-0.072913386
135	0xbd9bcf35	-0.07607881
136	0x3d98abf9	0.07454676
137	0xbd7b00a5	-0.06127991
138	0x3d6aab59	0.057292316
139	0xbd6b2930	-0.057412326
140	0xbdae5bb8	-0.08513588
141	0xbb53a5a6	-0.003229478
142	0x3dae4240	0.0850873
143	0xbdaabf2c	-0.083372444
144	0xbca0466f	-0.019564835
145	0xbd7039e3	-0.058648955
146	0x3d55aa31	0.05216426
147	0xbca9208b	-0.0206454
148	0x3d99af31	0.07504118
149	0xbccb78d7	-0.024837894
150	0xbccc322d	-0.02492627
151	0xbcdef88a	-0.027218122
152	0x3d2f3800	0.042778015
153	0xbd2223f0	-0.039585054
154	0x3c01b126	0.007915771
155	0x3d5a96e5	0.05336656
156	0xbd5e0dbf	-0.054212328
157	0xbcbdf731	-0.02318916
158	0x3d9413fc	0.07230374
159	0xbd968005	-0.073486365
160	0xbcfd6eeb	-0.030936679
161	0x3c8daae1	0.017293395
162	0xbd39532a	-0.045245327
163	0xbcb77ec8	-0.022399321
164	0x3cda6748	0.026660576
165	0xbda8b87d	-0.08238313
166	0x3d947e76	0.07250683
167	0xbb31094c	-0.0027013598
168	0x3d04843d	0.032352675
169	0x3d3c6ba4	0.04600109
170	0xbd1201ac	-0.035646126
171	0xbd1eee3c	-0.038801417
172	0xbd224d38	-0.039624423
173	0x3da48a28	0.08034164
174	0xbd015d38	-0.03158304
175	0x3db06131	0.08612288
176	0xbd55be4a	-0.052183427
177	0xbd82a0c4	-0.0637832
178	0xbdaf8a0c	-0.08571252
179	0x3d7b9134	0.061417773
180	0x3d9e4cf4	0.077295214
181	0x3d80c2f4	0.06287184
182	0xbdaa3715	-0.08311287
183	0x3dad1dbe	0.084529385
184	0xbd891557	-0.066935234
185	0xbd408af8	-0.04700753
186	0xbc8762cd	-0.016526604
187	0xbd4dd9f8	-0.0502567
188	0x3d6d01aa	0.057862915
189	0x3c650c96	0.0139800515
190	0x3d2b2517	0.04178342
191	0x3d5a319a	0.05326996
192	0x3cfd001f	0.030883847
193	0xbda51ce3	-0.0806215
194	0xbd0889d9	-0.033334587
195	0x3d4db202	0.05021859
196	0xbd773759	-0.060355518
197	0x3c9095f0	0.01764962
198	0xbd986ef1	-0.074430354
199	0xbd6d8986	-0.05799248
200	0x3d625a50	0.05526191
201	0x3cdcaa2c	0.026936613
202	0xbc8659f7	-0.01640032
203	0xbd8dfab5	-0.06932584
204	0xbcd79f92	-0.026321206
205	0xbd9dbf76	-0.07702534
206	0x3c384ac3	0.011248293
207	0x3d779a32	0.060449786
208	0x3b336c2e	0.0027377713
209	0xbd90b698	-0.07066077
210	0x3caaf52b	0.020868858
211	0xbaf9bcc3	-0.0019053448
212	0x3aaf706b	0.0013384944
213	0x3d00fae6	0.031489275
214	0xbd901291	-0.07034791
215	0x3c5cbad8	0.013472281
216	0xbc952cd5	-0.018209854
217	0xbda95a19	-0.08269138
218	0x3daa835e	0.083258376
219	0xbb9e18d2	-0.004824736
220	0xbd3a8578	-0.045537442
221	0xbdaae06b	-0.083435856
222	0x3d017d48	0.031613618
223	0x3db6c158	0.08923596
224	0xbd88f22f	-0.06686818
225	0x3d21a9cd	0.039468575
226	0x3cd20ee2	0.025641862
227	0x3d594306	0.053042434
228	0x3cece4b5	0.02891765
229	0x3c37453e	0.011185942
230	0xbd2d4c4a	-0.042309083
231	0xbd39b565	-0.045339007
232	0x3c339f5a	0.010963285
233	0x3d38d14a	0.04512147
234	0x3cd3303b	0.025779834
235	0x3c9af735	0.018916706
236	0x3da85137	0.082186155
237	0x3db116d7	0.086469345
238	0xbbed967f	-0.0072506065
239	0xbd62f129	-0.05540577
240	0x3c4b7324	0.012417588
241	0x3d5f150e	0.05446344
242	0x3c5fa416	0.013649961
243	0x3d9c8c9d	0.07644007
244	0xbdb98926	-0.09059362
245	0x3da1f9a1	0.07908941
246	0xbd788155	-0.060670216
247	0x3d47b2bc	0.04875444
248	0xbda8d4d3	-0.08243718
249	0x3cf85b83	0.030317074
250	0x3d4f48e0	0.05060661
251	0xbabc6297	-0.0014372644
252	0xbd2d5f82	-0.04232741
253	0xbd47d861	-0.04879034
254	0x3cadb2d2	0.021203432
255	0xba373328	-0.0006988519

lstm.weight_hh_l1 f4 [512, 128]
0	0x3d398b8a	0.04529909
1	0xbd1dc716	-0.03851994
2	0xbc32adac	-0.010905664
3	0x3da5f4d2	0.081033364
4	0xbd8ba767	-0.06819039
5	0xbd266180	-0.040620327
6	0xbda902b5	-0.082524695
7	0xbdb51f0f	-0.088438146
8	0xbcb862bd	-0.02250802
9	0xbc24de93	-0.010062831
10	0xbcad044f	-0.021120219
11	0x3c4ec5b8	0.012620382
12	0x3da30a69	0.0796097
13	0xbd1e118d	-0.038590956
14	0x3d8774fd	0.066141106
15	0xbc626f54	-0.013820488
16	0x3d836246	0.064152285
17	0x3dac173b	0.08402868
18	0xbd9d38a9	-0.07676823
19	0xbd324b86	-0.043529056
20	0x3d0b3830	0.03398913
21	0xbd9a5ebb	-0.075376
22	0xbd81ec74	-0.06343928
23	0x3cc4700a	0.023979206
24	0xbc8fde89	-0.017562168
25	0x3cda2911	0.02663091
26	0x3daa6085	0.08319191
27	0x3c867564	0.016413398
28	0x3cec6596	0.028857034
29	0x3d13a182	0.036042698
30	0xbda597ef	-0.0808562
31	0xbda12657	-0.07868641
32	0x3d116d01	0.035504345
33	0x3d0eef96	0.034896456
34	0xbd1aa20b	-0.037752192
35	0x3d91f875	0.071274675
36	0xbc0249b1	-0.00795214
37	0x3bf76a2e	0.0075504994
38	0xbc06fbc0	-0.008238733
39	0x3c50f3e8	0.012753464
40	0xbd86a436	-0.065742895
41	0x3cd0dba5	0.02549536
42	0x3cc16a39	0.023610221
43	0x3d18f8ec	0.037346765
44	0xbc953cb3	-0.01821742
45	0xbd5c5bfd	-0.053798664
46	0x3d4a51ac	0.049394295
47	0x3d240b80	0.04005003
48	0x3d83760c	0.06419
49	0x3d5326f4	0.05155082
50	0x3d3572a0	0.044298768
51	0x3d6c658f	0.05771404
52	0x3b2f8dc9	0.0026787391
53	0xbd191a6a	-0.037378706
54	0x3da2a5cd	0.0794178
55	0xbd615498	-0.055012316
56	0x3d68f354	0.05687268
57	0xbdac2fa4	-0.08407524
58	0x3c8c891f	0.017155228
59	0xbda60446	-0.08106284
60	0x3c96c5fe	0.018404957
61	0x3d5ad022	0.053421147
62	0x3cc5e68a	0.024157781
63	0xbcf121f2	-0.029435132
64	0x3cb6f0db	0.022331646
65	0xbd5bde42	-0.05367876
66	0x3d78a931	0.06070823
67	0xbdb4d98d	-0.08830557
68	0x3cf75508	0.030191913
69	0x3d04b1ad	0.032396007
70	0x3d063d51	0.03277332
71	0x3d0a67dd	0.033790458
72	0xbd905f83	-0.070494674
73	0xbca3c0e1	-0.019989433
74	0xbc9d4868	-0.019199565
75	0x3cb3905a	0.021919418
76	0x3c4c80f5	0.012481918
77	0x3da88624	0.0822871
78	0xbd6fec47	-0.05857494
79	0xbd8cc59a	-0.06873627
80	0x3d56f461	0.05247915
81	0x3c49827a	0.012299174
82	0x3d9f1f90	0.07769692
83	0x3db3f61c	0.08787176
84	0x3d9e3fc4	0.07727006
85	0x3d86f489	0.0658961
86	0xbcc989da	-0.024601866
87	0xbbcb834f	-0.0062107216
88	0x3d930456	0.071785614
89	0xbdb48175	-0.088137545
90	0xbda35721	-0.07975603
91	0xbcd2d01f	-0.025734005
92	0x3dab4bb4	0.083640486
93	0xbd090bb5	-0.03345843
94	0x3d7f9be7	0.06240454
95	0x3db18b0f	0.086691014
96	0x3d168694	0.036749437
97	0xbd9322c5	-0.07184366
98	0x3d9a82af	0.07544457
99	0x3c2c5fe8	0.010520913
100	0x3d13014f	0.03588992
101	0x3d157409	0.036487613
102	0xbdae7472	-0.08518304
103	0x3bcdf694	0.006285498
104	0xbd93f49d	-0.07224391
105	0x3d708433	0.058719825
106	0xbd37bffd	-0.04486083
107	0x3d45b6bb	0.04826997
108	0x3d00a78f	0.031409796
109	0x3d6e67d1	0.058204476
110	0xbc478a83	-0.01217902
111	0x3d6e674f	0.05820399
112	0xbd7f5b51	-0.062342945
113	0x3d3e4157	0.04644903
114	0xbd5e46fe	-0.054266922
115	0xbda81b9d	-0.08208392
116	0x3d5d2b2e	0.053996257
117	0x3cebf61a	0.028803874
118	0x3da13daf	0.07873093
119	0x3d8b946f	0.06815421
120	0x3d903292	0.070408955
121	0xbbd70b19	-0.0065626022
122	0x3d927328	0.071508706
123	0x3da5ec2f	0.08101689
124	0x3d398673	0.045294236
125	0x3d755450	0.05989486
126	0x3d7fa23b	0.062410574
127	0x3d70aaa8	0.0587565
128	0xbbc2fee1	-0.005950794
129	0x3be88f15	0.007097135
130	0xbda3642a	-0.07978089
131	0x3d30ae2c	0.043134853
132	0xbbd94b6e	-0.0066313064
133	0x3d253fb5	0.04034396
134	0xbd14f6f1	-0.036368314
135	0x3d7134e5	0.058888335
136	0x3daab2e9	0.08334906
137	0xbd91f0f3	-0.071260355
138	0xbd6d6280	-0.057955265
139	0xbbcc8881	-0.0062418585
140	0x3c6775c4	0.014127199
141	0x3bdc09d2	0.006715038
142	0x3ca9ea62	0.020741645
143	0xbd681fdd	-0.056671012
144	0x3d3b4804	0.045722976
145	0x3cada46f	0.021196572
146	0x3d0c3c1b	0.03423701
147	0xbc880511	-0.016603978
148	0x3d12ef4f	0.035872754
149	0x3c80d65c	0.015727215
150	0x3c0d5271	0.008625613
151	0xbcfc2a20	-0.030781806
152	0x3d08d547	0.033406522
153	0x3d2fd4b2	0.04292745
154	0xbd299893	-0.04140527
155	0x3d85a955	0.06526438
156	0x3cbbe7fe	0.022937771
157	0x3ce2fdcb	0.027708909
158	0xbdae1e00	-0.08501816
159	0x3d425571	0.047444765
160	0xbd9d11fd	-0.076694466
161	0x3d8a0480	0.067391396
162	0xbbfa5cfe	-0.00764048
163	0xbd17d5cd	-0.03706913
164	0x3cd5fa20	0.026120245
165	0xbdad0c79	-0.084496446
166	0x3d6230d1	0.055222336
167	0xbdb7f9b8	-0.08983177
168	0xbbf1510b	-0.0073643974
169	0x3d40a5c7	0.047033098
170	0x3da9ef26	0.08297567
171	0xbda32050	-0.079651475
172	0x3d006c30	0.031353176
173	0x3c85f7d4	0.016353525
174	0xbd035f12	-0.032073088
175	0xbcee1c85	-0.029066334
176	0xbca72ad1	-0.020406159
177	0x3d32c160	0.043641448
178	0x3d56f617	0.052480783
179	0x3d2b4a07	0.041818645
180	0x3daf09cd	0.08546791
181	0x3c12eef8	0.008968107
182	0xbb2aeb2e	-0.002608012
183	0xb88737fa	-6.447728e-05
184	0xbcb3a6b6	-0.02193008
185	0x3b0f35be	0.0021852101
186	0x3d3bec00	0.045879364
187	0x3da0c52d	0.07850108
188	0xbd5c4289	-0.05377439
189	0x3c612a0c	0.013742935
190	0x3a3e6809	0.0007263427
191	0xbcf137b6	-0.02944551
192	0x3d810c3f	0.06301164
193	0xbc048e9a	-0.0080906395
194	0xbc097445	-0.008389537
195	0xbd7f9862	-0.062401183
196	0x3d906035	0.070496
197	0x3da6c5ac	0.08143172
198	0xbd53063d	-0.05151962
199	0xbdb15f5b	-0.08660766
200	0xbd2f2904	-0.042763725
201	0xbc2466cd	-0.010034275
202	0x3d2cb5ff	0.042165753
203	0xbd809231	-0.06277884
204	0x3cc77a6c	0.024350367
205	0x3bf96b0a	0.007611637
206	0x3c39dd93	0.011344331
207	0x3dad459c	0.084605426
208	0x3ca3f47b	0.020014038
209	0x3d6c5091	0.05769402
210	0x3c958841	0.018253447
211	0xbd7f30ea	-0.062302507
212	0xbda06cae	-0.07833229
213	0xbcc564d0	-0.024095923
214	0xbd711e20	-0.05886662
215	0x3c0a926e	0.008457763
216	0xbd91c59f	-0.07117771
217	0xbceb09f7	-0.028691275
218	0x3d14afee	0.036300592
219	0x3d635cc7	0.0555084
220	0xbc51024e	-0.012756897
221	0x3cb474ae	0.022028293
222	0xbd60f379	-0.054919694
223	0xbcb996cf	-0.022654919
224	0xbd15ec33	-0.03660221
225	0x3c5a9df0	0.013343319
226	0x3d06a960	0.032876372
227	0x3d474598	0.048650354
228	0xbd83810d	-0.06421099
229	0xbc9c4c3e	-0.019079324
230	0xbdaa34d0	-0.083108544
231	0x3d1db65e	0.038503997
232	0x3d727cd1	0.059201065
233	0xbd5d16aa	-0.053976692
234	0x3d02b3ab	0.031909626
235	0xbda9e3e8	-0.08295423
236	0xbc80ae05	-0.015707979
237	0xbd4f09d2	-0.050546475
238	0x3da39c48	0.07988793
239	0x3b82bc22	0.0039897123
240	0xbcdfc6f7	-0.027316554
241	0x3d6ea697	0.05826434
242	0x3b921ed5	0.004459242
243	0xbc6850eb	-0.014179449
244	0x3d2aec20	0.041729093
245	0x3cf0e1e2	0.029404584
246	0xbd86f250	-0.06589186
247	0x3cb1bff7	0.021697981
248	0xbd580493	-0.052738737
249	0xbcad53a1	-0.021158041
250	0xbd04dfb2	-0.032439895
251	0x3ce72bee	0.02821919
252	0x3d31dd36	0.043423854
253	0x3d7e4997	0.0620819
254	0xbc03bb1e	-0.008040218
255	0xbd414656	-0.04718622

lstm.bias_ih_l1 f4 [512]
0	0x3ca5a6fc	0.020221226
1	0xbcb9251f	-0.022600709
2	0x3da696ab	0.081342064
3	0xbcc0e9e5	-0.02354903
4	0x3d3a17b8	0.045432776
5	0xbd090000	-0.033447266
6	0x3d5cb6d9	0.053885315
7	0x3d9eccbc	0.07753894
8	0xbd080d49	-0.033215795
9	0xbc8c9bb6	-0.017164093
10	0xbd755462	-0.059894927
11	0x3d9b06a4	0.07569626
12	0x3d7b7035	0.061386306
13	0x3d0ba67d	0.034094322
14	0xbd68c40d	-0.056827594
15	0x3d0bb3e1	0.034107093
16	0xbd6927ee	-0.056922846
17	0x3d789647	0.06069019
18	0x3ce132ad	0.027489984
19	0xbd8393aa	-0.06424649
20	0x3d886ea8	0.06661731
21	0xbd31133e	-0.04323124
22	0x3daad18d	0.0834075
23	0xbd4da2ec	-0.050204203
24	0x3d96cea8	0.07363635
25	0xbd6608ba	-0.056160666
26	0xbcfd652c	-0.030932032
27	0xbd1b8b8e	-0.037974887
28	0x3c695748	0.014242001
29	0xbc083d65	-0.008315419
30	0x3d8efe09	0.06982047
31	0xbd9acb86	-0.0755835
32	0xbd9be6be	-0.0761237
33	0x3b86a23c	0.0041086953
34	0x3ca84db6	0.020544868
35	0x3dac2daa	0.08407147
36	0xbd0d9001	-0.03456116
37	0x39459f92	0.00018846829
38	0xbdac75a1	-0.084208734
39	0x3daeccdb	0.08535167
40	0x3d2e7b06	0.042597793
41	0x3d8c60c7	0.06854396
42	0x3d81e396	0.06342237
43	0xbdb13bb7	-0.08653968
44	0xbd28bf78	-0.041198224
45	0x3cfed1bf	0.031105874
46	0xbdabf6fb	-0.08396717
47	0xbd904d92	-0.07046045
48	0xbda69ecb	-0.08135756
49	0x3ce4f10e	0.027946975
50	0x3d88a53c	0.06672141
51	0xbd7785ae	-0.06043022
52	0xbc828ba1	-0.01593572
53	0xbc2cd021	-0.010547669
54	0xbdb937c0	-0.090438366
55	0xbd662556	-0.05618795
56	0x3da1ba31	0.07896841
57	0xbd13098d	-0.03589778
58	0x3d1814ba	0.03712914
59	0xbd4b9219	-0.049699876
60	0x3bce7bb5	0.006301368
61	0xbda15d5f	-0.07879137
62	0x3c1f3bf2	0.009718882
63	0x3db5857e	0.08863352
64	0xbd11422b	-0.035463493
65	0xbd428d54	-0.047498062
66	0xbbce6704	-0.0062989015
67	0xbdb8331c	-0.08994123
68	0x3cf978fd	0.0304532
69	0xbd1cb344	-0.0382569
70	0x3d888aa5	0.06667069
71	0x3c84107a	0.016121138
72	0x3d2ceb38	0.04221651
73	0xbda907b0	-0.082534194
74	0xbcd0ee54	-0.025504269
75	0x3db059e2	0.08610894
76	0xbd614640	-0.054998636
77	0x3b46b459	0.0030319898
78	0x3d950402	0.07276155
79	0x3db52865	0.08845595
80	0x3d5b8ead	0.053602863
81	0xbc5af952	-0.013365107
82	0x3c742eec	0.014903765
83	0xbd9274d5	-0.0715119
84	0x3d01b2d6	0.031664692
85	0x3da46f9f	0.080291025
86	0x3d7ce5ce	0.061742596
87	0x3b7e744f	0.003882665
88	0xbae05083	-0.0017113838
89	0xbd44033b	-0.047854643
90	0xbda803de	-0.082038626
91	0xbc99a962	-0.018757526
92	0x3d70ba44	0.058771387
93	0xbd841a95	-0.064503826
94	0x3b014d2f	0.0019729843
95	0x3d6a676f	0.05722755
96	0xbd8de89b	-0.069291316
97	0x3d47d535	0.048787314
98	0xbd10e7ce	-0.035377316
99	0xbcc6c2c1	-0.024262788
100	0xbd934c44	-0.07192281
101	0x3d7a765b	0.06114803
102	0x3dac21f2	0.08404912
103	0xbbc0572d	-0.005869767
104	0x3d7d9654	0.061910942
105	0x3d7fa7d0	0.062415898
106	0xbd967f50	-0.07348502
107	0x3ba19396	0.0049309237
108	0x3da491cd	0.08035622
109	0xbc8e624c	-0.017380856
110	0x3d61398b	0.054986518
111	0xbd7b40f4	-0.06134124
112	0xbd7ac742	-0.061225183
113	0x3ca07103	0.019585138
114	0xbb240450	-0.0025026985
115	0xbcd7f67f	-0.026362656
116	0x3d9cc41e	0.07654594
117	0x3cc626f9	0.024188505
118	0x3da88b3e	0.08229683
119	0xbc2abbde	-0.010420768
120	0x3dad8f97	0.08474653
121	0x3d2509a2	0.04029239
122	0xbc1983c5	-0.009369795
123	0xbd840d03	-0.06447794
124	0xbc96ed72	-0.01842377
125	0xbd4a555d	-0.049397815
126	0xbd7ec344	-0.06219794
127	0x3d2cd769	0.04219762
128	0x3d96cbb4	0.07363072
129	0xbc7b234c	-0.01532824
130	0x3c14763c	0.009061392
131	0x3d0fbe19	0.0350934
132	0x3d69b4f2	0.05705733
133	0xbc85eaa4	-0.016347237
134	0xbd5ec89d	-0.05439054
135	0xbd954deb	-0.07290252
136	0xbc38abb8	-0.01127141
137	0xbdb6ecda	-0.089318946
138	0x3d095a3d	0.033533324
139	0xbda108e9	-0.078630276
140	0xbc6a2649	-0.014291354
141	0x3b9ba406	0.0047497777
142	0x3d7e4a88	0.062082797
143	0xbcffae44	-0.031211026
144	0x3cf1f255	0.029534498
145	0x3d39fd3b	0.045407515
146	0x3b6d5d09	0.0036218783
147	0x3d9d0f57	0.076689415
148	0x3ce7816f	0.028259961
149	0xbd71870a	-0.058966674
150	0xbc2744fc	-0.010209318
151	0xbbe30c6b	-0.0069289706
152	0xbda604c8	-0.08106381
153	0x3d18f689	0.03734449
154	0x3da0eee9	0.078580685
155	0xbc22037c	-0.009888526
156	0x38ff0db5	0.00012161901
157	0xbd369781	-0.04457808
158	0x3d639789	0.055564437
159	0x3cf76c0d	0.03020289
160	0x3d5c761d	0.05382358
161	0x3d02579f	0.031821843
162	0x3d9f34ec	0.07773766
163	0xbd63b760	-0.055594802
164	0xbd9a98aa	-0.075486496
165	0x3cbc8397	0.023011966
166	0x3d7c2f6b	0.06156866
167	0xbd9deab1	-0.077107795
168	0xbd4f15f5	-0.05055805
169	0x3cae2a65	0.02126045
170	0x3d48d2cb	0.049029153
171	0x3da32df0	0.07967746
172	0x3cd7763a	0.026301492
173	0x3d1edb1a	0.03878317
174	0xbd8deab7	-0.06929534
175	0xbd1c3470	-0.038135946
176	0xbd92d766	-0.0716999
177	0x3dad5bdb	0.08464786
178	0x3d5f044c	0.054447457
179	0x3c92f680	0.017939806
180	0xbcfef515	-0.031122724
181	0xbd6df21b	-0.058092218
182	0x3d2957e2	0.041343577
183	0x3da2bc0e	0.07946025
184	0x3da51509	0.08060653
185	0xbd76e340	-0.060275316
186	0xbcba8135	-0.022766689
187	0x3cb9427e	0.022614714
188	0x3b534e11	0.0032242576
189	0xbd9820fe	-0.07428168
190	0x3c940d60	0.018072784
191	0xbbe307a9	-0.0069284034
192	0xbd5c661b	-0.053808313
193	0x3da16fe1	0.07882667
194	0x3da55f6a	0.080748394
195	0x3c4881ee	0.012238009
196	0x3d95732e	0.072973594
197	0x3bf0e4cd	0.007351494
198	0x3d3c837b	0.046023827
199	0xbca3bbb8	-0.019986972
200	0xbd69d42f	-0.05708712
201	0xbc0c9ef0	-0.0085828155
202	0x3d84a47f	0.06476688
203	0xbd45bf4e	-0.048278145
204	0x3d547c9c	0.05187665
205	0x3d20236e	0.03909629
206	0xbcb36560	-0.021898925
207	0xbdb11e68	-0.08648378
208	0xbd0da341	-0.03457952
209	0xbd41e8d4	-0.047341183
210	0xbd4f075b	-0.050544124
211	0xbd99ab2c	-0.075033516
212	0x3ca21260	0.019784153
213	0x3da76804	0.08174136
214	0xbd36e4ea	-0.044651903
215	0x3d89b16f	0.06723296
216	0xbd9a855f	-0.0754497
217	0xbaff5019	-0.0019478827
218	0xbc87bb97	-0.016568942
219	0x3d9ddadc	0.0770776
220	0xbd10863f	-0.035284277
221	0x3d995179	0.07486243
222	0xbdb0dd8b	-0.08636006
223	0xbc23128f	-0.009953155
224	0x3d016223	0.03158773
225	0xbc1adb30	-0.009451672
226	0x3d80d268	0.06290132
227	0x3d84acb3	0.06478252
228	0x3d9523c3	0.07282212
229	0xbd8e7b29	-0.06957085
230	0x3d83e249	0.06439645
231	0xbbfbd3a0	-0.00768514
232	0xbdab62a0	-0.083684206
233	0xbc80a9b8	-0.015705928
234	0x3c392796	0.011300942
235	0xbd4920f7	-0.049103703
236	0x3d637134	0.05552788
237	0xbd97dedd	-0.07415555
238	0x3db8bc24	0.0902026
239	0xbd10137a	-0.035174824
240	0x3d75e497	0.060032453
241	0x3d98b91d	0.074571826
242	0x3d84e385	0.064887084
243	0xbdafc9c0	-0.08583403
244	0xbd9bb270	-0.076023936
245	0xbda5e62b	-0.08100542
246	0x3da69a94	0.08134952
247	0xbd2f5ac2	-0.042811163
248	0x3d88e062	0.066834226
249	0xbbbd3a67	-0.0057747844
250	0xbd1b00a4	-0.037842408
251	0xb9d157e9	-0.00039929085
252	0xbd607154	-0.054795578
253	0x3d414b64	0.04719104
254	0x3d71fc6e	0.059078626
255	0x3c01cd21	0.007922442
